examples/research_projects/stack_llama/scripts/gpt2_peft_stack-exchange-paired_rmts__100000_2e-05/checkpoint-500/adapter_model.safetensors (safetensors, 594496 bytes, 25 tensors)

base_model.model.score.weight bf16 [1, 768]
00000000: f03c bf3b 9e3c 013d 223c f9bc afbb 3c3c
00000010: d33b 3abc 323c 38bc 453c 433d 093d 89bc
00000020: 25bc 27bc 0fbc e03c 5cbc 25bb 933c dbbc
00000030: 7b3c bc3c 3cbc 9e3c 273d 383c 823b 65bc
00000040: 1abc e4bc e33c 49bc 723d 563c debc f3bc
00000050: a23c c33c 25bd 03bd 9ebc 383c 60bc 76bc
00000060: 973c f13b 233c e8bc 23bb 033d c53b 20bc
00000070: 903c e7bc 11ba 91bc 63bb 43ba babc 823b
00000080: 9a3c 033c 293c b13c 0bbc e9bc 3ebc 4d3c
00000090: d13c b0bb 15bb 1d3c b53c 37bb 003c aa3c
000000a0: ac3c 05bc b5bc 5e3a cfbb 98bc 95bc 69bc
000000b0: c83c c93b bb3b e5ba 64bc 203d be3c 7339
000000c0: bcba a03c ca39 273c babc e93c 92bc 253c
000000d0: d03c 433b 5fbc bc3c c23a 07bc b5b9 0bbd
000000e0: 8a3c 3e3c 29bd 87bc 52bc 243c 753c 8dbb
000000f0: 2e3c edbc 5abc 993b b63c c83c 1f3d 033d
00000100: 1fbc 953c b8bc f13b b7bc 9cbc 4439 363c
00000110: e4bc b53c c8bc 923c d53c 11bb 283a 983c
00000120: 0bbd 2d3c d3bb d9bc f33c 88bb 103b c9bc
00000130: 473c 993c 2ebd 70ba 9a3c bfbc 053b 933b
00000140: 713c 59bc 3b3c 5e3c 95bc 033d 1a3c 913b
00000150: 55bc e8bb d6bc 1a3d 65bc 3c3c 733c f53c
00000160: 2d3c 8bbb 823b 93bb 47bc 453c b13b 99ba
00000170: 023d 283c 823b 90bc 6f3a 863c 403b 80bb
00000180: 43bc b33c 023d b5bc 023d 71bc 1b3c 07bc
00000190: d93a 613b 163b c53c f3bc 083c 5f3b 5e3b
000001a0: 2bbb f8ba df3b 2c3b 7b3c 9ebc 0a3d 853b
000001b0: 36bc 853c 80bb 9d3c bc3b 9d3c 483b 57bd
000001c0: 07bc be3c 44bd 60bc 00bd a8bc 8d3c cb3b
000001d0: 38bd 1d3c 05bd 43bc 91bc 1e3c 473c 7ebc
000001e0: bfbc 903c b53c b33c 05bd 18bb 5f3c 713c
000001f0: bcbc 6dbc 80bb 76bb ae3b 903c cabc 673c
0.029296875 0.0058288574 0.01928711 0.03149414 0.009887695 -0.030395508 -0.005340576 0.011474609
0.006439209 -0.011352539 0.010864258 -0.011230469 0.012023926 0.047607422 0.033447266 -0.016723633
-0.010070801 -0.010192871 -0.008728027 0.02734375 -0.013427734 -0.0025177002 0.017944336 -0.026733398
0.015319824 0.022949219 -0.011474609 0.01928711 0.040771484 0.011230469 0.003967285 -0.013977051
-0.009399414 -0.027832031 0.027709961 -0.012268066 0.05908203 0.013061523 -0.02709961 -0.029663086
0.01977539 0.023803711 -0.040283203 -0.031982422 -0.01928711 0.011230469 -0.013671875 -0.015014648
0.018432617 0.0073547363 0.0099487305 -0.028320312 -0.0024871826 0.031982422 0.006011963 -0.009765625
0.017578125 -0.028198242 -0.0005531311 -0.017700195 -0.0034637451 -0.00074386597 -0.022705078 0.003967285
0.018798828 0.0079956055 0.010314941 0.021606445 -0.008483887 -0.028442383 -0.01159668 0.012512207
0.025512695 -0.0053710938 -0.0022735596 0.0095825195 0.022094727 -0.0027923584 0.0078125 0.020751953
0.020996094 -0.008117676 -0.022094727 0.0008468628 -0.0063171387 -0.018554688 -0.018188477 -0.014221191
0.024414062 0.006134033 0.005706787 -0.0017471313 -0.013916016 0.0390625 0.02319336 0.00023174286
-0.0014343262 0.01953125 0.00038528442 0.010192871 -0.022705078 0.028442383 -0.017822266 0.010070801
0.025390625 0.0029754639 -0.01361084 0.022949219 0.0014801025 -0.008239746 -0.0003452301 -0.033935547
0.016845703 0.01159668 -0.041259766 -0.016479492 -0.012817383 0.010009766 0.014953613 -0.0043029785
0.010620117 -0.028930664 -0.013305664 0.0046691895 0.022216797 0.024414062 0.03881836 0.031982422
-0.00970459 0.018188477 -0.022460938 0.0073547363 -0.022338867 -0.019042969 0.00018692017 0.011108398
-0.027832031 0.022094727 -0.024414062 0.017822266 0.026000977 -0.0022125244 0.00064086914 0.018554688
-0.033935547 0.010559082 -0.006439209 -0.026489258 0.029663086 -0.0041503906 0.0021972656 -0.024536133
0.012145996 0.018676758 -0.04248047 -0.00091552734 0.018798828 -0.02331543 0.002029419 0.004486084
0.014709473 -0.013244629 0.011413574 0.013549805 -0.018188477 0.031982422 0.009399414 0.004425049
-0.013000488 -0.007080078 -0.026123047 0.037597656 -0.013977051 0.011474609 0.014831543 0.029907227
0.010559082 -0.0042419434 0.003967285 -0.004486084 -0.012145996 0.012023926 0.0054016113 -0.0011672974
0.03173828 0.010253906 0.003967285 -0.017578125 0.00091171265 0.016357422 0.0029296875 -0.00390625
-0.0119018555 0.021850586 0.03173828 -0.022094727 0.03173828 -0.014709473 0.009460449 -0.008239746
0.0016555786 0.0034332275 0.0022888184 0.024047852 -0.029663086 0.008300781 0.00340271 0.0033874512
-0.002609253 -0.0018920898 0.00680542 0.0026245117 0.015319824 -0.01928711 0.033691406 0.004058838
-0.011108398 0.016235352 -0.00390625 0.019165039 0.0057373047 0.019165039 0.0030517578 -0.052490234
-0.008239746 0.02319336 -0.047851562 -0.013671875 -0.03125 -0.020507812 0.017211914 0.0061950684
-0.044921875 0.0095825195 -0.032470703 -0.0119018555 -0.017700195 0.009643555 0.012145996 -0.01550293
-0.02331543 0.017578125 0.022094727 0.021850586 -0.032470703 -0.002319336 0.01361084 0.014709473
-0.022949219 -0.014465332 -0.00390625 -0.003753662 0.0053100586 0.017578125 -0.024658203 0.014099121

base_model.model.transformer.h.0.attn.c_attn.lora_A.weight bf16 [8, 768]
00000000: d6bc e53c e7bc 1bba 0a3d 903c b2bb 833c
00000010: 103c 36bc 1abc 32bc 08bd c0bc 8c3a 9d3c
00000020: edbc d53c 043d a5bc 7f3c c63c 94bc 923c
00000030: 063d df3c 0abd e0ba 76bb 873c 883b b2bc
00000040: 08bd 1abc 093a c4bc 603c 3cbc 39bc 9abc
00000050: c5bc bf3c e33c cbb9 99bc 2f3a edbb 863c
00000060: 04bc a0bc bc3c 2fbc db3c 603b ac3c 0abb
00000070: 07bc 2bba 9fbb 833b 8a3b 863c 473a 80bb
00000080: 763b a33b 093d 203c 023d 733c cc3c ccbc
00000090: d13c a0bc 5a3b 023d 96b9 9d3c 82bb ccbc
000000a0: e73c a5bc 103d a3bb 78bc f6bc af3c f0bc
000000b0: 99bb 10bb 6b3c 79bc 123c d7bc 703c 28bc
000000c0: a63c 043d 043d d2bc 03bd 523c bfbc b5bb
000000d0: 873c a23c e0bb bb3c 84bc e7bb a33c d73b
000000e0: 043d 9e3c db3c 203c b6b9 03bc e83c 573a
000000f0: 823b bdbc e5ba 543b 1b3c 973c 6b3c 0dbd
00000100: f4bc ca3c 0ebd 9a3c ef3a 533c dcbc 423c
00000110: 94bc 123d 6abc ecbb 983a 1c3c 7cbc 043d
00000120: a8bc 63bb 3a3c 10bd f1bc b63c 113d 923c
00000130: a5bc 093c 0ebd 1e3b d3bc 32bc b63c 053d
00000140: 4bbc c83c 07bd 8b3b 713c afbc ad3c e63c
00000150: c83b a73c f33c 093c 913c 91bb 4fb9 3b3c
00000160: 0c3d f2bc e23c 153c a9bc 7c3c 3d3a 36bc
00000170: 073d fd3b e9bc fb3c 7fbc b93c b03c dfbb
00000180: 083d eb39 cf3c aa3c b0bc d33c 14bc b4bb
00000190: a83c 273c 113d c73c 803b 103d 4cbc dcbc
000001a0: 66bc adbc fcba 62bc eabc 3c3b 88bc 59b9
000001b0: 4abc 91bc 113d a63b 99bb dbbb f43c e2bc
000001c0: d93c 133d 4ebc 9ebc 813c 033d 67bb f93c
000001d0: 14bc 11bd 933c 0d3d 19bc f7bb 033c 053d
000001e0: 043d adbc d73c 88bc 26bc f03b d93c a8bc
000001f0: 9f3b bbbc 02bd 94bc 28bc c7bc debc fbbb
-0.026123047 0.027954102 -0.028198242 -0.0005912781 0.033691406 0.017578125 -0.005432129 0.015991211
0.0087890625 -0.011108398 -0.009399414 -0.010864258 -0.033203125 -0.0234375 0.0010681152 0.019165039
-0.028930664 0.026000977 0.032226562 -0.020141602 0.015563965 0.024169922 -0.018066406 0.017822266
0.032714844 0.02722168 -0.033691406 -0.0017089844 -0.003753662 0.016479492 0.0041503906 -0.021728516
-0.033203125 -0.009399414 0.0005226135 -0.023925781 0.013671875 -0.011474609 -0.011291504 -0.018798828
-0.024047852 0.02331543 0.027709961 -0.00038719177 -0.018676758 0.000667572 -0.007232666 0.016357422
-0.008056641 -0.01953125 0.022949219 -0.010681152 0.026733398 0.0034179688 0.020996094 -0.002105713
-0.008239746 -0.00065231323 -0.004852295 0.0039978027 0.004211426 0.016357422 0.00075912476 -0.00390625
0.003753662 0.0049743652 0.033447266 0.009765625 0.03173828 0.014831543 0.024902344 -0.024902344
0.025512695 -0.01953125 0.003326416 0.03173828 -0.0002861023 0.019165039 -0.003967285 -0.024902344
0.028198242 -0.020141602 0.03515625 -0.0049743652 -0.015136719 -0.030029297 0.021362305 -0.029296875
-0.0046691895 -0.0021972656 0.014343262 -0.015197754 0.008911133 -0.026245117 0.0146484375 -0.010253906
0.020263672 0.032226562 0.032226562 -0.025634766 -0.031982422 0.012817383 -0.02331543 -0.0055236816
0.016479492 0.01977539 -0.0068359375 0.022827148 -0.016113281 -0.0070495605 0.019897461 0.0065612793
0.032226562 0.01928711 0.026733398 0.009765625 -0.00034713745 -0.0079956055 0.028320312 0.0008201599
0.003967285 -0.023071289 -0.0017471313 0.0032348633 0.009460449 0.018432617 0.014343262 -0.034423828
-0.029785156 0.024658203 -0.03466797 0.018798828 0.0018234253 0.012878418 -0.026855469 0.01184082
-0.018066406 0.03564453 -0.014282227 -0.0072021484 0.001159668 0.009521484 -0.015380859 0.032226562
-0.020507812 -0.0034637451 0.011352539 -0.03515625 -0.029418945 0.022216797 0.03540039 0.017822266
-0.020141602 0.008361816 -0.03466797 0.0024108887 -0.025756836 -0.010864258 0.022216797 0.032470703
-0.012390137 0.024414062 -0.032958984 0.0042419434 0.014709473 -0.021362305 0.021118164 0.028076172
0.0061035156 0.020385742 0.029663086 0.008361816 0.017700195 -0.004425049 -0.00019741058 0.011413574
0.034179688 -0.029541016 0.02758789 0.009094238 -0.020629883 0.015380859 0.0007209778 -0.011108398
0.032958984 0.0077209473 -0.028442383 0.030639648 -0.015563965 0.022583008 0.021484375 -0.00680542
0.033203125 0.00044822693 0.025268555 0.020751953 -0.021484375 0.025756836 -0.009033203 -0.005493164
0.020507812 0.010192871 0.03540039 0.024291992 0.00390625 0.03515625 -0.012451172 -0.026855469
-0.014038086 -0.021118164 -0.0019226074 -0.013793945 -0.028564453 0.0028686523 -0.016601562 -0.00020694733
-0.012329102 -0.017700195 0.03540039 0.005065918 -0.0046691895 -0.0066833496 0.029785156 -0.02758789
0.026489258 0.035888672 -0.012573242 -0.01928711 0.01574707 0.031982422 -0.0035247803 0.030395508
-0.009033203 -0.03540039 0.017944336 0.034423828 -0.009338379 -0.007537842 0.0079956055 0.032470703
0.032226562 -0.021118164 0.026245117 -0.016601562 -0.010131836 0.0073242188 0.026489258 -0.020507812
0.004852295 -0.022827148 -0.03173828 -0.018066406 -0.010253906 -0.024291992 -0.02709961 -0.007659912

base_model.model.transformer.h.0.attn.c_attn.lora_B.weight bf16 [2304, 8]
00000000: 7ab9 21b8 fe39 10ba efb9 2336 60b9 deb6
00000010: 1cba 913a 3fb9 213a 043a deb9 14ba 6fba
00000020: 6339 e4b9 79b9 9739 8e39 0db9 ffb9 02b9
00000030: cf39 143a 48ba 233a 973a b6b9 4fba 60ba
00000040: 0eba 79ba 09b9 30b9 09b9 6438 4f39 0438
00000050: 78b9 033a 8f38 84ba 12ba cdb8 8639 a5b9
00000060: 0b39 643a 64b9 d1b9 5d39 1fb9 a2b9 60ba
00000070: f139 153a 0bba c238 1b3a 21b9 59b9 ccb9
00000080: f8b8 7db9 7837 b9b8 5237 ae39 0039 d839
00000090: 053a eab9 0e3a 28ba 8bba efb9 1d3a bc3a
000000a0: 1cb6 f039 f3b6 b436 803a 9ab9 49ba 42ba
000000b0: 5d39 603a fe39 8bba 42b9 cab7 8bb9 11ba
000000c0: f239 acb8 0e3a d5b9 3436 b5b8 dbb8 cf38
000000d0: 143a 2f39 5cba b339 813a 473a 4db9 5db9
000000e0: c439 d739 5b3a 31ba 77ba f1b8 f339 103a
000000f0: 1839 7e3a 0e39 bfb9 2836 9cb7 58ba 51ba
00000100: 44b9 0bb9 2fba ea39 2d3a bc39 3cba 81b9
00000110: acb8 ffb9 03b9 95b9 ac38 88b8 81b9 5e3a
00000120: 4bb9 173a 3039 47b9 8e39 9fb9 88b5 68ba
00000130: 93b7 4239 3139 9fb8 f7b9 d3b7 c838 21ba
00000140: a5b9 c6b9 d639 173a c1b9 7b39 a839 433a
00000150: f7b6 823a 193a b3b9 24ba bdb8 4039 2cba
00000160: 44b8 a837 313a 14b7 0aba 8739 9fb9 50ba
00000170: 98b9 89b9 8439 2e38 1eb9 deb8 2bba 97b9
00000180: 1839 1fba b4ba 143a 973a 683a d537 2a37
00000190: ea38 30ba 2eba 9eb9 303a f7b9 beb9 6739
000001a0: 89b9 0bba 9f3a 7dba 18ba 84b9 e639 213a
000001b0: c038 f139 683a 9aba 5dba bab9 d038 1dba
000001c0: 063a 473a 103a 31ba 57b8 92b9 1a38 e139
000001d0: 1dba ef38 81b9 663a 693a 13b9 53ba 2339
000001e0: d9b9 05ba 26b9 5e3a 2ab9 8f39 f939 663a
000001f0: ee39 5a3a 023a 6c39 86b9 5c3a 3cb9 41b9
-0.00023841858 -3.838539e-05 0.00048446655 -0.0005493164 -0.00045585632 2.4288893e-06 -0.00021362305 -6.6161156e-06
-0.0005950928 0.0011062622 -0.0001821518 0.00061416626 0.00050354004 -0.0004234314 -0.0005645752 -0.00091171265
0.00021648407 -0.0004348755 -0.0002374649 0.00028800964 0.0002708435 -0.00013446808 -0.0004863739 -0.00012397766
0.00039482117 0.0005645752 -0.00076293945 0.00062179565 0.0011520386 -0.00034713745 -0.00078964233 -0.0008544922
-0.000541687 -0.0009498596 -0.00013065338 -0.00016784668 -0.00013065338 5.4359436e-05 0.00019741058 3.1471252e-05
-0.00023651123 0.00049972534 6.818771e-05 -0.0010070801 -0.0005569458 -9.775162e-05 0.00025558472 -0.00031471252
0.00013256073 0.000869751 -0.00021743774 -0.00039863586 0.00021076202 -0.00015163422 -0.00030899048 -0.0008544922
0.00045967102 0.0005683899 -0.0005302429 9.250641e-05 0.0005912781 -0.00015354156 -0.00020694733 -0.00038909912
-0.000118255615 -0.0002412796 1.4781952e-05 -8.8214874e-05 1.2516975e-05 0.00033187866 0.00012207031 0.0004119873
0.00050735474 -0.00044631958 0.000541687 -0.00064086914 -0.0010604858 -0.00045585632 0.00059890747 0.0014343262
-2.3245811e-06 0.00045776367 -7.2419643e-06 5.364418e-06 0.0009765625 -0.0002937317 -0.00076675415 -0.00074005127
0.00021076202 0.0008544922 0.00048446655 -0.0010604858 -0.00018501282 -2.4080276e-05 -0.00026512146 -0.0005531311
0.00046157837 -8.201599e-05 0.000541687 -0.00040626526 2.682209e-06 -8.6307526e-05 -0.00010442734 9.870529e-05
0.0005645752 0.000166893 -0.0008392334 0.0003414154 0.0009841919 0.00075912476 -0.00019550323 -0.00021076202
0.00037384033 0.00041007996 0.0008354187 -0.0006752014 -0.0009422302 -0.000114917755 0.00046348572 0.0005493164
0.0001449585 0.0009689331 0.00013542175 -0.0003643036 2.503395e-06 -1.859665e-05 -0.0008239746 -0.0007972717
-0.00018692017 -0.00013256073 -0.000667572 0.00044631958 0.0006599426 0.00035858154 -0.0007171631 -0.00024604797
-8.201599e-05 -0.0004863739 -0.00012493134 -0.00028419495 8.201599e-05 -6.484985e-05 -0.00024604797 0.0008468628
-0.00019359589 0.0005760193 0.00016784668 -0.00018978119 0.0002708435 -0.00030326843 -1.013279e-06 -0.00088500977
-1.7523766e-05 0.00018501282 0.00016880035 -7.581711e-05 -0.0004711151 -2.515316e-05 9.536743e-05 -0.00061416626
-0.00031471252 -0.00037765503 0.0004081726 0.0005760193 -0.0003681183 0.00023937225 0.00032043457 0.00074386597
-7.3611736e-06 0.0009918213 0.0005836487 -0.0003414154 -0.00062561035 -9.012222e-05 0.00018310547 -0.00065612793
-4.673004e-05 2.002716e-05 0.0006752014 -8.821487e-06 -0.0005264282 0.00025749207 -0.00030326843 -0.00079345703
-0.000289917 -0.00026130676 0.00025177002 4.1484833e-05 -0.00015068054 -0.00010585785 -0.00065231323 -0.00028800964
0.0001449585 -0.00060653687 -0.001373291 0.0005645752 0.0011520386 0.00088500977 2.5391579e-05 1.013279e-05
0.000111579895 -0.0006713867 -0.0006637573 -0.00030136108 0.0006713867 -0.0004711151 -0.00036239624 0.00022029877
-0.00026130676 -0.0005302429 0.0012130737 -0.0009651184 -0.000579834 -0.00025177002 0.0004386902 0.00061416626
9.1552734e-05 0.00045967102 0.00088500977 -0.0011749268 -0.0008430481 -0.00035476685 9.918213e-05 -0.00059890747
0.00051116943 0.00075912476 0.0005493164 -0.0006752014 -5.1259995e-05 -0.0002784729 3.671646e-05 0.00042915344
-0.00059890747 0.00011396408 -0.00024604797 0.0008773804 0.00088882446 -0.00014019012 -0.0008049011 0.00015544891
-0.00041389465 -0.00050735474 -0.00015830994 0.0008468628 -0.00016212463 0.00027275085 0.0004749298 0.0008773804
0.00045394897 0.000831604 0.00049591064 0.00022506714 -0.00025558472 0.0008392334 -0.00017929077 -0.00018405914

base_model.model.transformer.h.1.attn.c_attn.lora_A.weight bf16 [8, 768]
00000000: be3c a93c d7bc 053c 0abd b13c a0bc 2dbc
00000010: eebc 043d 123d 163c 983a 1639 a83c b33c
00000020: 2ebc a23b 00bc cd3c 363c adbc a2bc 843c
00000030: 5c3c 31bc e5bb 25bc 9ebc 1c3c d23c 71bc
00000040: 3a3c aabc 6c3c b63b 163c 05bc 0b3d cabc
00000050: 063c 09bd ed3c 353c 9cbb 133d a6bc f23c
00000060: a93b 853c 6c3c 83bc c23b b4bc 87bc b33c
00000070: 8d3c 13bd 6b3c d03c 143b 09bc 983b dc3a
00000080: 4abc 763c d03c fe3c c5bc 0bbc 113d 823c
00000090: afbc 7c3a 933c 79bc 02bd 643c c2bc 9cbc
000000a0: 813c 81bb 00bc e83b b2bc a6bc 9abb f63c
000000b0: c33c 223c 1fbb fcbb 863a c53b d63b 0dbd
000000c0: a33c 7fba 983c 0e3d fe3c 8e3c 19bb efbc
000000d0: 123d 003c a33c 393c c53c cabc c5bc 94ba
000000e0: 0dbd b4b9 fabc 4abc f8bc 2bbc c33c b6bb
000000f0: 1a3c 2dbb f7bb f7bc cfbc cebc 8c3c 773b
00000100: 0d3d 883b c6bc aa3c a2bc edbc 7abc 003d
00000110: 463c 113d f7bc 403c 05bd 9f3c d63c 5bbc
00000120: bb3c 793c 3d3c b4bc 7e3c 62bc 5b3c 6dbc
00000130: bd3c 593c c1bc 103d 5e3b c73b 14bd 8c3c
00000140: de3c bebc a7bc f9bb 90bc 3bbc da3b 043d
00000150: d8bb 02bd 363c be3c 07bd 873c 043d 9ebb
00000160: b4bc 8ebb 09bd 42bc 5bbc b4bc 09bd edbc
00000170: db3b 84ba bc3b c13c 8fbc 73bc 673c d33a
00000180: 0a3d f0bc 80bb 7c3c c43b 343c 413c 06bd
00000190: 073d c03c c1bc cc3c 4c3c 4abc e83b c4ba
000001a0: 4fbb 413c d23c ff3c 9039 3a3c 9e3c 9e3c
000001b0: b8bc a33b 0f3d 013d 943c 133c b23c 093d
000001c0: 45b9 e93c fd3c 81bc c63a 703c 32bc da3c
000001d0: e5bc b0bc 103d c2bc e83c 043d 763c 083c
000001e0: d9bb 60bb 6d3b 0abc 323b 343c 863c e53c
000001f0: 753c e33c 093c 103c c03c 893b c6bc a3bc
0.02319336 0.020629883 -0.026245117 0.008117676 -0.033691406 0.021606445 -0.01953125 -0.010559082
-0.029052734 0.032226562 0.03564453 0.009155273 0.001159668 0.00014305115 0.020507812 0.021850586
-0.010620117 0.0049438477 -0.0078125 0.025024414 0.011108398 -0.021118164 -0.01977539 0.016113281
0.013427734 -0.010803223 -0.0069885254 -0.010070801 -0.01928711 0.009521484 0.025634766 -0.014709473
0.011352539 -0.020751953 0.014404297 0.005554199 0.009155273 -0.008117676 0.033935547 -0.024658203
0.008178711 -0.033447266 0.028930664 0.011047363 -0.004760742 0.035888672 -0.020263672 0.029541016
0.0051574707 0.016235352 0.014404297 -0.015991211 0.00592041 -0.021972656 -0.016479492 0.021850586
0.017211914 -0.035888672 0.014343262 0.025390625 0.0022583008 -0.008361816 0.004638672 0.0016784668
-0.012329102 0.015014648 0.025390625 0.03100586 -0.024047852 -0.008483887 0.03540039 0.01586914
-0.021362305 0.0009613037 0.017944336 -0.015197754 -0.03173828 0.013916016 -0.02368164 -0.019042969
0.01574707 -0.0039367676 -0.0078125 0.007080078 -0.021728516 -0.020263672 -0.004699707 0.030029297
0.023803711 0.009887695 -0.0024261475 -0.0076904297 0.0010223389 0.006011963 0.0065307617 -0.034423828
0.019897461 -0.0009727478 0.018554688 0.03466797 0.03100586 0.017333984 -0.0023345947 -0.029174805
0.03564453 0.0078125 0.019897461 0.011291504 0.024047852 -0.024658203 -0.024047852 -0.0011291504
-0.034423828 -0.00034332275 -0.030517578 -0.012329102 -0.030273438 -0.010437012 0.023803711 -0.005554199
0.009399414 -0.0026397705 -0.007537842 -0.030151367 -0.025268555 -0.025146484 0.017089844 0.003768921
0.034423828 0.0041503906 -0.024169922 0.020751953 -0.01977539 -0.028930664 -0.015258789 0.03125
0.012084961 0.03540039 -0.030151367 0.01171875 -0.032470703 0.01940918 0.026123047 -0.013366699
0.022827148 0.015197754 0.0115356445 -0.021972656 0.01550293 -0.013793945 0.013366699 -0.014465332
0.023071289 0.013244629 -0.02355957 0.03515625 0.0033874512 0.006072998 -0.036132812 0.017089844
0.02709961 -0.02319336 -0.020385742 -0.007598877 -0.017578125 -0.011413574 0.006652832 0.032226562
-0.006591797 -0.03173828 0.011108398 0.02319336 -0.032958984 0.016479492 0.032226562 -0.0048217773
-0.021972656 -0.004333496 -0.033447266 -0.01184082 -0.013366699 -0.021972656 -0.033447266 -0.028930664
0.0066833496 -0.0010070801 0.0057373047 0.02355957 -0.017456055 -0.014831543 0.014099121 0.0016098022
0.033691406 -0.029296875 -0.00390625 0.015380859 0.0059814453 0.010986328 0.011779785 -0.032714844
0.032958984 0.0234375 -0.02355957 0.024902344 0.012451172 -0.012329102 0.007080078 -0.0014953613
-0.0031585693 0.011779785 0.025634766 0.03112793 0.0002746582 0.011352539 0.01928711 0.01928711
-0.022460938 0.0049743652 0.03491211 0.03149414 0.018066406 0.008972168 0.021728516 0.033447266
-0.00018787384 0.028442383 0.030883789 -0.01574707 0.0015106201 0.0146484375 -0.010864258 0.026611328
-0.027954102 -0.021484375 0.03515625 -0.02368164 0.028320312 0.032226562 0.015014648 0.008300781
-0.0066223145 -0.0034179688 0.003616333 -0.008422852 0.0027160645 0.010986328 0.016357422 0.027954102
0.014953613 0.027709961 0.008361816 0.0087890625 0.0234375 0.004180908 -0.024169922 -0.019897461

base_model.model.transformer.h.1.attn.c_attn.lora_B.weight bf16 [2304, 8]
00000000: 34b9 7bba 31ba beb9 d1b9 80ba 0eb9 47b9
00000010: bb39 913a 5b3a 403a 4f3a 2f3a 2e3a 893a
00000020: 1fba 06ba b13a 253a 373a c2b9 173a 3239
00000030: 93b9 a3b8 3f3a fd38 183a a2b6 273a 3e3a
00000040: e439 c139 32ba 38b9 c9b9 6bb9 81ba ea39
00000050: 84ba 10ba d939 0bb9 20ba 16ba f0b9 23b6
00000060: dab9 27ba 8eb9 bdb9 34ba 34ba dcb9 5db9
00000070: 34b9 51ba fab9 09ba dbb9 85b9 a6b9 66ba
00000080: e439 5739 f5b8 a439 10b9 9db7 d6b9 d3b9
00000090: 453a 3f3a 97b9 eb39 0e3a 2e3a c3b9 1f3a
000000a0: f3b8 213a 743a ab39 643a 723a 883a fc39
000000b0: 503a 153a 4fba dfb9 0eba 30b9 49ba deb9
000000c0: 243a f639 98ba 95b9 58ba bab9 44ba a7b9
000000d0: 7bb9 f4b9 9a38 75b9 be38 90b9 103a 0bb9
000000e0: 70b9 d3b9 e539 e839 7239 9ab9 8439 6439
000000f0: 62b9 ce39 f339 133a 0e3a 5a39 a439 363a
00000100: 6439 0a39 0bba 2d39 2d3a c638 34b9 feb8
00000110: 003a d039 a5ba 1bba 79ba 15ba 75ba 14ba
00000120: 2cb9 443a 803a 193a 823a 983a 5b3a 523a
00000130: 67b9 1aba 1139 f3b9 6439 fb38 7839 4139
00000140: 7cba 88ba 2e3a 3cb9 64ba 28ba 343a 09ba
00000150: afb9 21b9 19ba 8dba 22ba 3bba d3b9 afb9
00000160: 96ba 90ba de38 20ba 29ba 1fba ddb9 14ba
00000170: d239 2b39 4cba fdb9 6bba 5a38 b038 e3b9
00000180: 15b9 4d3a f539 3939 d939 9ab6 a8b9 8a3a
00000190: 3937 dab9 69b9 43ba 6bb9 d5b9 2e37 dfb9
000001a0: 4a37 e639 203a fd39 9d3a 413a 133a e139
000001b0: beb9 5838 5d3a 1ab9 fdb9 8ab9 0c3a f338
000001c0: 83b9 413a fc39 463a a63a 933a fc39 853a
000001d0: 1a3a ab39 7c39 4a39 053a 333a d139 c639
000001e0: e5b9 bcb9 533a 0e3a 0cb9 c139 333a c6b8
000001f0: 7ab9 ddb9 073a aeb8 a139 af37 2f3a d038
-0.00017166138 -0.000957489 -0.0006752014 -0.00036239624 -0.00039863586 -0.0009765625 -0.00013542175 -0.00018978119
0.0003566742 0.0011062622 0.0008354187 0.0007324219 0.00078964233 0.000667572 0.0006637573 0.001045227
-0.00060653687 -0.00051116943 0.0013504028 0.00062942505 0.0006980896 -0.00037002563 0.0005760193 0.00016975403
-0.00028038025 -7.772446e-05 0.0007286072 0.0001206398 0.000579834 -4.827976e-06 0.00063705444 0.0007247925
0.0004348755 0.0003681183 -0.0006790161 -0.00017547607 -0.00038337708 -0.00022411346 -0.0009841919 0.00044631958
-0.0010070801 -0.0005493164 0.00041389465 -0.00013256073 -0.00061035156 -0.0005722046 -0.00045776367 -2.4288893e-06
-0.000415802 -0.00063705444 -0.0002708435 -0.0003604889 -0.0006866455 -0.0006866455 -0.0004196167 -0.00021076202
-0.00017166138 -0.0007972717 -0.00047683716 -0.0005226135 -0.00041770935 -0.00025367737 -0.00031661987 -0.0008773804
0.0004348755 0.00020503998 -0.000116825104 0.00031280518 -0.0001373291 -1.8715858e-05 -0.0004081726 -0.00040245056
0.00075149536 0.0007286072 -0.00028800964 0.00044822693 0.000541687 0.0006637573 -0.00037193298 0.00060653687
-0.00011587143 0.00061416626 0.00093078613 0.00032615662 0.000869751 0.00092315674 0.0010375977 0.00048065186
0.00079345703 0.0005683899 -0.00078964233 -0.00042533875 -0.000541687 -0.00016784668 -0.00076675415 -0.0004234314
0.00062561035 0.00046920776 -0.001159668 -0.00028419495 -0.0008239746 -0.00035476685 -0.00074768066 -0.00031852722
-0.00023937225 -0.00046539307 7.343292e-05 -0.00023365021 9.059906e-05 -0.0002746582 0.0005493164 -0.00013256073
-0.00022888184 -0.00040245056 0.00043678284 0.00044250488 0.00023078918 -0.0002937317 0.00025177002 0.00021743774
-0.0002155304 0.00039291382 0.00046348572 0.0005607605 0.000541687 0.000207901 0.00031280518 0.0006942749
0.00021743774 0.00013160706 -0.0005302429 0.00016498566 0.0006599426 9.441376e-05 -0.00017166138 -0.00012111664
0.00048828125 0.00039672852 -0.0012588501 -0.0005912781 -0.0009498596 -0.0005683899 -0.00093460083 -0.0005645752
-0.00016403198 0.00074768066 0.0009765625 0.0005836487 0.0009918213 0.001159668 0.0008354187 0.0008010864
-0.00022029877 -0.0005874634 0.00013828278 -0.00046348572 0.00021743774 0.00011968613 0.00023651123 0.00018405914
-0.0009613037 -0.0010375977 0.0006637573 -0.00017929077 -0.000869751 -0.00064086914 0.0006866455 -0.0005226135
-0.000333786 -0.00015354156 -0.0005836487 -0.0010757446 -0.00061798096 -0.0007133484 -0.00040245056 -0.000333786
-0.0011444092 -0.0010986328 0.00010585785 -0.00061035156 -0.00064468384 -0.00060653687 -0.00042152405 -0.0005645752
0.0004005432 0.00016307831 -0.00077819824 -0.0004825592 -0.00089645386 5.197525e-05 8.392334e-05 -0.00043296814
-0.00014209747 0.00078201294 0.00046730042 0.00017642975 0.00041389465 -4.5895576e-06 -0.00032043457 0.0010528564
1.1026859e-05 -0.000415802 -0.00022220612 -0.00074386597 -0.00022411346 -0.00040626526 1.0371208e-05 -0.00042533875
1.2040138e-05 0.0004386902 0.00061035156 0.0004825592 0.0011978149 0.0007362366 0.0005607605 0.00042915344
-0.00036239624 5.1498413e-05 0.0008430481 -0.00014686584 -0.0004825592 -0.0002632141 0.0005340576 0.00011587143
-0.00024986267 0.0007362366 0.00048065186 0.00075531006 0.0012664795 0.001121521 0.00048065186 0.0010147095
0.0005874634 0.00032615662 0.00024032593 0.00019264221 0.00050735474 0.0006828308 0.00039863586 0.00037765503
-0.00043678284 -0.00035858154 0.0008049011 0.000541687 -0.0001335144 0.0003681183 0.0006828308 -9.441376e-05
-0.00023841858 -0.00042152405 0.00051498413 -8.2969666e-05 0.00030708313 2.0861626e-05 0.000667572 9.918213e-05

base_model.model.transformer.h.10.attn.c_attn.lora_A.weight bf16 [8, 768]
00000000: 72bc f8bc 903c 503c d53b e4bb 12bd a8bc
00000010: 38bc a93c 33ba e9bb 9dbb a73a 4db9 b6bc
00000020: 06bd b43c eabc e63a 233a 00bc da3c d4bc
00000030: 0cbd 86bb c43c 9a3c 6f3c 2e3c 643c ca3b
00000040: 003d 95bc d43b 0b3d ddbc 6bbc 99bc 063d
00000050: 0abd a8bc 05bd 91bb 143b a43c c53c 3bbc
00000060: 913c b73c 90bc ecbc df3c 643c f23c b6bc
00000070: bdbc 06bc 5dbc e23c fcbb b1bc 85bc 0e3d
00000080: 693c 11bd dd3b fcbc 90bc d5bc b6bc a13c
00000090: d03b a8bc 0e3d eabb 243b 843c 823c 9fbc
000000a0: 66bb 4abc 003c c13c 62bc ddbc 9b3c a93b
000000b0: e03c a13c 0b3d 193c a4bc cdbc 5038 653c
000000c0: 053d bd3c 0abd 63bc a03c d93c a63c 843a
000000d0: 3f38 b0bc f9bc 56bc fa3c 97bb b0bc 003c
000000e0: bd3b 94bc 873c 56bc a6bc bcb8 083d 9f3b
000000f0: ed3c febc 05bd a03b f73b d8bc d2bc cdbc
00000100: 933c 5abc 0bbd b8bb 10bd 283b 0f3d 5abc
00000110: 20bc 053d bcbc 29bc c13c 813c 133d ab3b
00000120: b8bc b43c 033d c7bb abbc 95bc 06bd a8bb
00000130: 94bc dd3c c83c e9bc e23c ed3c f63c ed3b
00000140: 343c a63a 38bc fe3b 8abc cbbc 513c dc3c
00000150: 523c 56bb 813b b43c 10bd cd3c f13b 0fbc
00000160: 9b3b 0f3d 563c f73c 643a a43c 1bbc bdbc
00000170: 0db9 1b3c 1b3c d33b fb3b 8b3b 363c 1d3c
00000180: 083d 14bd 113d 653c 493c 9f3c 6cbc 0f3c
00000190: 943c 1a3c 893a f4bc 7a3c 0bbd b8bc eebc
000001a0: 7bbb febc 2ebb 8c3a fe3c b13c 253c ba38
000001b0: a1bb e93c 46bc c2bc 9abc eabc c0bb 003c
000001c0: 0ebd a5bc 8d3c f83c 3e3c debc e93c ef3c
000001d0: e6bc 00bc 6f3c 00bc 87bc 0fbd a7bc e6bc
000001e0: 61bc d1bc 5cbc 00bc 703a 2bbc 873c c03c
000001f0: e8bc aabc a83c afbc 01bd 7a3c d9bc b7bb
-0.014770508 -0.030273438 0.017578125 0.0126953125 0.006500244 -0.006958008 -0.03564453 -0.020507812
-0.011230469 0.020629883 -0.0006828308 -0.0071105957 -0.0047912598 0.0012741089 -0.00019550323 -0.022216797
-0.032714844 0.021972656 -0.028564453 0.0017547607 0.00062179565 -0.0078125 0.026611328 -0.025878906
-0.034179688 -0.0040893555 0.023925781 0.018798828 0.014587402 0.010620117 0.013916016 0.006164551
0.03125 -0.018188477 0.0064697266 0.033935547 -0.026977539 -0.014343262 -0.018676758 0.032714844
-0.033691406 -0.020507812 -0.032470703 -0.004425049 0.0022583008 0.020019531 0.024047852 -0.011413574
0.017700195 0.022338867 -0.017578125 -0.028808594 0.02722168 0.013916016 0.029541016 -0.022216797
-0.023071289 -0.008178711 -0.0134887695 0.02758789 -0.0076904297 -0.021606445 -0.016235352 0.03466797
0.014221191 -0.03540039 0.0067443848 -0.030761719 -0.017578125 -0.026000977 -0.022216797 0.01965332
0.0063476562 -0.020507812 0.03466797 -0.0071411133 0.0025024414 0.016113281 0.01586914 -0.01940918
-0.0035095215 -0.012329102 0.0078125 0.02355957 -0.013793945 -0.026977539 0.018920898 0.0051574707
0.02734375 0.01965332 0.033935547 0.009338379 -0.020019531 -0.025024414 4.9591064e-05 0.013977051
0.032470703 0.023071289 -0.033691406 -0.0138549805 0.01953125 0.026489258 0.020263672 0.0010070801
4.553795e-05 -0.021484375 -0.030395508 -0.013061523 0.030517578 -0.0046081543 -0.021484375 0.0078125
0.0057678223 -0.018066406 0.016479492 -0.013061523 -0.020263672 -8.9645386e-05 0.033203125 0.004852295
0.028930664 -0.03100586 -0.032470703 0.0048828125 0.007537842 -0.026367188 -0.025634766 -0.025024414
0.017944336 -0.013305664 -0.033935547 -0.0056152344 -0.03515625 0.0025634766 0.03491211 -0.013305664
-0.009765625 0.032470703 -0.022949219 -0.010314941 0.02355957 0.01574707 0.035888672 0.005218506
-0.022460938 0.021972656 0.031982422 -0.006072998 -0.020874023 -0.018188477 -0.032714844 -0.005126953
-0.018066406 0.026977539 0.024414062 -0.028442383 0.02758789 0.028930664 0.030029297 0.007232666
0.010986328 0.0012664795 -0.011230469 0.007751465 -0.016845703 -0.024780273 0.012756348 0.026855469
0.012817383 -0.0032653809 0.0039367676 0.021972656 -0.03515625 0.025024414 0.0073547363 -0.008728027
0.0047302246 0.03491211 0.013061523 0.030151367 0.000869751 0.020019531 -0.009460449 -0.023071289
-0.00013446808 0.009460449 0.009460449 0.006439209 0.007659912 0.0042419434 0.011108398 0.0095825195
0.033203125 -0.036132812 0.03540039 0.013977051 0.012268066 0.01940918 -0.014404297 0.008728027
0.018066406 0.009399414 0.001045227 -0.029785156 0.015258789 -0.033935547 -0.022460938 -0.029052734
-0.003829956 -0.03100586 -0.0026550293 0.0010681152 0.03100586 0.021606445 0.010070801 8.869171e-05
-0.00491333 0.028442383 -0.012084961 -0.02368164 -0.018798828 -0.028564453 -0.005859375 0.0078125
-0.03466797 -0.020141602 0.017211914 0.030273438 0.01159668 -0.02709961 0.028442383 0.029174805
-0.028076172 -0.0078125 0.014587402 -0.0078125 -0.016479492 -0.03491211 -0.020385742 -0.028076172
-0.01373291 -0.025512695 -0.013427734 -0.0078125 0.00091552734 -0.010437012 0.016479492 0.0234375
-0.028320312 -0.020751953 0.020507812 -0.021362305 -0.03149414 0.015258789 -0.026489258 -0.005584717

base_model.model.transformer.h.10.attn.c_attn.lora_B.weight bf16 [2304, 8]
00000000: 903a fcba 033a 0d3b ef3a 02bb 143b 95ba
00000010: 81b9 92ba a139 8b39 fa39 9bba 9839 08ba
00000020: 4dba b53a 73b9 f7ba adba e03a 98ba 373a
00000030: 79b9 ba3a 9fba 67ba c4ba 223a b3ba 3d3a
00000040: 1939 27ba e7b8 a3b9 2239 23ba b9b8 31b9
00000050: 53ba 053b d4ba 2ebb 04bb 363b 27bb 083b
00000060: 46ba ba3a c5ba 0cba 61ba 06ba 9eba 5339
00000070: 1a3a a3ba 1b3a c93a 733a 19bb dc3a c0b9
00000080: 803a a3ba a53a 133b de3a dfba 023b 94ba
00000090: 143a 1ebb c23a 123b 313b 12bb 333b efba
000000a0: 9aba f93a 53ba 2fbb 19bb 133b 19bb cb3a
000000b0: ec39 00bb cf3a 113b 233b f3ba 173b bbba
000000c0: 4b3a b3ba b239 ef3a bf3a c6ba 083b 38ba
000000d0: fcb9 2c3a c1b9 ecba 99ba 923a 03bb b23a
000000e0: 75ba fc3a ffba 21bb 20bb 1f3b 32bb f93a
000000f0: 6e3a 19bb f43a 503b 3d3b 0abb 693b 20bb
00000100: 1239 a8ba bf3a f23a e63a c0ba 003b 8aba
00000110: 43ba ff3a d1ba 00bb 00bb d53a 0ebb d83a
00000120: e139 7dba 423a 9538 013a 84b9 2b3a 14ba
00000130: d439 8bb8 97b9 763a 9038 28b9 3f3a 2439
00000140: 4f3a 10bb 0d3b 323b 243b 04bb 443b 0bbb
00000150: 0a3a b5ba 673a d83a 003b 4eba e23a 81ba
00000160: a739 a0ba 3d38 fe39 813a 9db9 2c3a e1b9
00000170: 113a b2ba 8a3a 623a b83a 41ba 823a 19ba
00000180: 6cba 7c3a 8139 d0ba a4ba 853a deba 6938
00000190: aa38 99ba 6d3a 9e3a d23a 5cba b73a 98ba
000001a0: 223a 2739 03ba dc38 36ba 8ab9 f1b8 d539
000001b0: 59ba 0a3b a0ba 22bb 05bb d23a 38bb c43a
000001c0: c539 353a a5ba cc39 77b8 4fba 37b8 2eb9
000001d0: db39 6338 7aba 88b8 92b8 3d39 91b9 22b8
000001e0: 123a 06bb d63a 2f3b 293b 05bb 2d3b eeba
000001f0: 4cba 013b a1ba ffba 0fbb be3a 25bb d13a
0.0010986328 -0.0019226074 0.00049972534 0.0021514893 0.0018234253 -0.0019836426 0.0022583008 -0.0011367798
-0.00024604797 -0.0011138916 0.00030708313 0.00026512146 0.00047683716 -0.0011825562 0.000289917 -0.0005187988
-0.00078201294 0.0013809204 -0.00023174286 -0.0018844604 -0.0013198853 0.0017089844 -0.001159668 0.0006980896
-0.0002374649 0.0014190674 -0.0012130737 -0.00088119507 -0.0014953613 0.00061798096 -0.0013656616 0.0007209778
0.00014591217 -0.00063705444 -0.00011014938 -0.00031089783 0.00015449524 -0.00062179565 -8.8214874e-05 -0.00016880035
-0.0008049011 0.002029419 -0.0016174316 -0.0026550293 -0.0020141602 0.0027770996 -0.0025482178 0.0020751953
-0.00075531006 0.0014190674 -0.0015029907 -0.0005340576 -0.0008583069 -0.00051116943 -0.0012054443 0.00020122528
0.0005874634 -0.0012435913 0.0005912781 0.0015335083 0.00092697144 -0.0023345947 0.0016784668 -0.00036621094
0.0009765625 -0.0012435913 0.0012588501 0.002243042 0.0016937256 -0.001701355 0.0019836426 -0.0011291504
0.0005645752 -0.0024108887 0.0014801025 0.0022277832 0.0027008057 -0.0022277832 0.0027313232 -0.0018234253
-0.0011749268 0.0018997192 -0.0008049011 -0.002670288 -0.0023345947 0.002243042 -0.0023345947 0.0015487671
0.00045013428 -0.001953125 0.0015792847 0.0022125244 0.0024871826 -0.0018539429 0.0023040771 -0.0014266968
0.00077438354 -0.0013656616 0.00033950806 0.0018234253 0.0014572144 -0.0015106201 0.0020751953 -0.0007019043
-0.00048065186 0.00065612793 -0.0003681183 -0.0018005371 -0.0011672974 0.0011138916 -0.0019989014 0.0013580322
-0.00093460083 0.0019226074 -0.0019454956 -0.002456665 -0.0024414062 0.0024261475 -0.0027160645 0.0018997192
0.00090789795 -0.0023345947 0.0018615723 0.0031738281 0.0028839111 -0.002105713 0.0035552979 -0.0024414062
0.00013923645 -0.0012817383 0.0014572144 0.0018463135 0.0017547607 -0.0014648438 0.001953125 -0.0010528564
-0.00074386597 0.0019454956 -0.0015945435 -0.001953125 -0.001953125 0.001625061 -0.002166748 0.0016479492
0.00042915344 -0.0009651184 0.00074005127 7.104874e-05 0.00049209595 -0.00025177002 0.00065231323 -0.0005645752
0.0004043579 -6.6280365e-05 -0.00028800964 0.0009384155 6.866455e-05 -0.00016021729 0.0007286072 0.00015640259
0.00078964233 -0.0021972656 0.0021514893 0.0027160645 0.0025024414 -0.0020141602 0.0029907227 -0.0021209717
0.0005264282 -0.0013809204 0.00088119507 0.0016479492 0.001953125 -0.00078582764 0.0017242432 -0.0009841919
0.00031852722 -0.0012207031 4.506111e-05 0.00048446655 0.0009841919 -0.00029945374 0.00065612793 -0.00042915344
0.0005531311 -0.0013580322 0.0010528564 0.0008621216 0.0014038086 -0.0007362366 0.0009918213 -0.0005836487
-0.00090026855 0.0009613037 0.00024604797 -0.0015869141 -0.0012512207 0.0010147095 -0.0016937256 5.555153e-05
8.106232e-05 -0.0011672974 0.00090408325 0.0012054443 0.0016021729 -0.0008392334 0.0013961792 -0.001159668
0.00061798096 0.00015926361 -0.00049972534 0.000104904175 -0.0006942749 -0.0002632141 -0.000114917755 0.00040626526
-0.0008277893 0.002105713 -0.0012207031 -0.0024719238 -0.002029419 0.0016021729 -0.0028076172 0.0014953613
0.00037574768 0.0006904602 -0.0012588501 0.00038909912 -5.888939e-05 -0.00078964233 -4.36306e-05 -0.00016593933
0.00041770935 5.4121017e-05 -0.0009536743 -6.484985e-05 -6.9618225e-05 0.00018024445 -0.00027656555 -3.862381e-05
0.0005569458 -0.0020446777 0.0016326904 0.002670288 0.0025787354 -0.002029419 0.0026397705 -0.0018157959
-0.00077819824 0.0019683838 -0.0012283325 -0.0019454956 -0.0021820068 0.001449585 -0.0025177002 0.0015945435

base_model.model.transformer.h.11.attn.c_attn.lora_A.weight bf16 [8, 768]
00000000: 123d 0e3c 0d3c 7abc 67bc d5bc 8c3b 003c
00000010: 8ebc f03b 993c 25bc d63b a5bc eebb a63c
00000020: c0bc a4bc 4cbb 09bd 983c 003c 4d3b 06bc
00000030: 04bd 003c debc f53c c1ba a9bc 7cbc 603c
00000040: 083d 02bd 6ebb cc3c da3c b63c ce3a e1bc
00000050: 08ba c5bc 06bd eabc 9bbc e33c cebc bfbb
00000060: b63c 10bd 913c a6bc 00bc 3c3a 58bc 6a3c
00000070: 863b 063d 24bc e53c d93c 7d3c 72bc d73c
00000080: 643c bcbc 043d 123c c23c af3c 9f3c a93b
00000090: c63b a13c 40bc 0a3d c6bb e1bc 6dbb f93c
000000a0: 12bd 493b aebc df3c 753c 8c3c e73b 09bc
000000b0: da3c e23c bfba fd3b 0d3d da3b f6bc d5ba
000000c0: ffbc c53c f23c 05bc 87bb 0ebd e1bc af3c
000000d0: c6bc 90bc 77bc 9bbb 8c3c 073d f5bc 813c
000000e0: 6abc 9ebb 833c a1bc e9bc 17bc 013c a3bc
000000f0: 123c 04bd de3b 9e3c 473c d6bc 3dbc b3bc
00000100: 9bbc 6cbc febb 203c 00bc 833c 2f3c 143c
00000110: 9b3c b33c 2e3c f83c bfbc 2cbc 693c a3bc
00000120: 003c 36bc df3c a23b 27bc ed3b 10bd d83c
00000130: 543c f0bc f23c 133d c03c 23bc 8ebc 12bd
00000140: a4bc e13c 13bd a53c 12bd 993c 3f3b e23c
00000150: 003c 103d 993b 6ebc b83c 80bb cfbc 3abc
00000160: 33bb d6bc c8bc 713c c13c 6a3c bb3c 94bc
00000170: 243c 00bc ab3b a0bc edbc cc3c 8d3a 2cbc
00000180: edbc debc 103d 0ebd ac3c fa3c 1b3b 22bc
00000190: 103c 123c 803c bebc 83bc d4bc 9dbb 04bc
000001a0: 19bb 953c c8bc 043d dabc 943c 0fbd afbb
000001b0: 123d fc3c a53c 7ebb a03c 493c cbbc 8f3c
000001c0: 843c a33c bc3a 3a3c ac3c ec3c 05bd a13c
000001d0: f0bc febc 553c 88bc 25bb 0e3b 4ebc bf3c
000001e0: 4c3c a9bc 903c 7bbc b5bb fe3c 92bc ca3c
000001f0: 00bc 0dbd f1bc 22bc bf3c 57bb c9bb 4839
0.03564453 0.008666992 0.008605957 -0.015258789 -0.014099121 -0.026000977 0.004272461 0.0078125
-0.017333984 0.0073242188 0.018676758 -0.010070801 0.0065307617 -0.020141602 -0.0072631836 0.020263672
-0.0234375 -0.020019531 -0.003112793 -0.033447266 0.018554688 0.0078125 0.0031280518 -0.008178711
-0.032226562 0.0078125 -0.02709961 0.029907227 -0.0014724731 -0.020629883 -0.015380859 0.013671875
0.033203125 -0.03173828 -0.0036315918 0.024902344 0.026611328 0.022216797 0.0015716553 -0.02746582
-0.0005187988 -0.024047852 -0.032714844 -0.028564453 -0.018920898 0.027709961 -0.025146484 -0.0058288574
0.022216797 -0.03515625 0.017700195 -0.020263672 -0.0078125 0.0007171631 -0.013183594 0.014282227
0.0040893555 0.032714844 -0.010009766 0.027954102 0.026489258 0.0154418945 -0.014770508 0.026245117
0.013916016 -0.022949219 0.032226562 0.008911133 0.02368164 0.021362305 0.01940918 0.0051574707
0.0060424805 0.01965332 -0.01171875 0.033691406 -0.0060424805 -0.02746582 -0.003616333 0.030395508
-0.03564453 0.0030670166 -0.021240234 0.02722168 0.014953613 0.017089844 0.0070495605 -0.008361816
0.026611328 0.02758789 -0.0014572144 0.0077209473 0.034423828 0.006652832 -0.030029297 -0.001625061
-0.03112793 0.024047852 0.029541016 -0.008117676 -0.004119873 -0.03466797 -0.02746582 0.021362305
-0.024169922 -0.017578125 -0.015075684 -0.0047302246 0.017089844 0.032958984 -0.029907227 0.01574707
-0.014282227 -0.0048217773 0.015991211 -0.01965332 -0.028442383 -0.009216309 0.007873535 -0.019897461
0.008911133 -0.032226562 0.0067749023 0.01928711 0.012145996 -0.026123047 -0.0115356445 -0.021850586
-0.018920898 -0.014404297 -0.007751465 0.009765625 -0.0078125 0.015991211 0.010681152 0.009033203
0.018920898 0.021850586 0.010620117 0.030273438 -0.02331543 -0.010498047 0.014221191 -0.019897461
0.0078125 -0.011108398 0.02722168 0.0049438477 -0.010192871 0.007232666 -0.03515625 0.026367188
0.012939453 -0.029296875 0.029541016 0.035888672 0.0234375 -0.0099487305 -0.017333984 -0.03564453
-0.020019531 0.02746582 -0.035888672 0.020141602 -0.03564453 0.018676758 0.0029144287 0.02758789
0.0078125 0.03515625 0.0046691895 -0.014526367 0.022460938 -0.00390625 -0.025268555 -0.011352539
-0.0027313232 -0.026123047 -0.024414062 0.014709473 0.02355957 0.014282227 0.022827148 -0.018066406
0.010009766 -0.0078125 0.005218506 -0.01953125 -0.028930664 0.024902344 0.0010757446 -0.010498047
-0.028930664 -0.02709961 0.03515625 -0.03466797 0.020996094 0.030517578 0.0023651123 -0.009887695
0.0087890625 0.008911133 0.015625 -0.02319336 -0.015991211 -0.025878906 -0.0047912598 -0.008056641
-0.0023345947 0.018188477 -0.024414062 0.032226562 -0.026611328 0.018066406 -0.03491211 -0.005340576
0.03564453 0.030761719 0.020141602 -0.0038757324 0.01953125 0.012268066 -0.024780273 0.017456055
0.016113281 0.019897461 0.0014343262 0.011352539 0.020996094 0.028808594 -0.032470703 0.01965332
-0.029296875 -0.03100586 0.013000488 -0.016601562 -0.0025177002 0.002166748 -0.012573242 0.02331543
0.012451172 -0.020629883 0.017578125 -0.015319824 -0.0055236816 0.03100586 -0.017822266 0.024658203
-0.0078125 -0.034423828 -0.029418945 -0.009887695 0.02331543 -0.0032806396 -0.006134033 0.00019073486

base_model.model.transformer.h.11.attn.c_attn.lora_B.weight bf16 [2304, 8]
00000000: 5eba 4aba 963a f5b9 e638 0a38 92ba af3a
00000010: 7eba a5ba dc3a 9139 b339 89ba c0ba c43a
00000020: 62b9 fab9 453a 88ba ab39 033a 60ba 063a
00000030: 6b3a 55b9 06bb 33ba 1bba 733a a43a feba
00000040: f739 0cb9 9bb9 03b9 0bba 68ba 163a abb9
00000050: 2eba c33a 1dba 2ab9 283a 0c3a 373a 42ba
00000060: 29bb 9039 573b 12ba df3a cdb9 07bb 053b
00000070: 2aba c238 5539 a4b9 8239 84b9 2eba 153a
00000080: 84ba a5b9 763a 05ba f239 7839 95ba 8a3a
00000090: b0ba 4b3a 863a fdb9 993a 34b5 a8b9 203a
000000a0: f538 3e38 c439 663a cfb6 3a38 c438 de39
000000b0: d33a c23a 4bbb 12ba a0ba b23a fb3a 1fbb
000000c0: d63a 5eba d6ba 353a f2ba adb7 423a 1eba
000000d0: 233a 3eba 9f39 863a a1b9 f8b9 9ab7 f439
000000e0: 0f3b 58b9 38bb 363a 91ba 0f39 2a3b efba
000000f0: 31ba 223a 2839 deb9 8db8 8639 c439 3cb9
00000100: 3e3a 9cba f8b9 7b39 35ba a239 8e39 19b7
00000110: 84ba 09ba e139 1739 8839 4539 5eba 213a
00000120: 8d39 d6ba 12b8 f439 78b9 57ba 9738 e939
00000130: f9ba 053a 223b 8bb8 773a 16ba d7ba f13a
00000140: c13a 503a 1ebb b538 09ba b739 123b edba
00000150: 0a3a dbba ba39 503a 94ba 56ba 90b9 4b3a
00000160: 75ba fdb7 953a 86b9 833a 36ba 3eba 0a3a
00000170: 3abb bb38 473b 01ba d73a 46ba 1abb 133b
00000180: eeba 423a b23a bdb9 d13a c2b8 23ba 1d3a
00000190: 8f38 893a 9239 04ba 833a 8c39 9db8 9eb8
000001a0: d539 fbb9 8dba 5d39 e439 04ba 073a 24ba
000001b0: f5ba 073a 2f3b 91b9 803a 08ba ddba e03a
000001c0: e1ba cf39 2c3b 86b9 963a c8b9 01bb f73a
000001d0: 253a bf39 80ba d838 32ba f039 3c3a dbb9
000001e0: 013b adb9 2bbb 85b8 a6ba d539 003b f7ba
000001f0: 0dbb 59b9 293b 02ba b63a 04ba 01bb ff3a
-0.0008468628 -0.00077056885 0.0011444092 -0.00046730042 0.00010967255 3.2901764e-05 -0.0011138916 0.001335144
-0.0009689331 -0.0012588501 0.0016784668 0.00027656555 0.0003414154 -0.001045227 -0.0014648438 0.0014953613
-0.0002155304 -0.00047683716 0.00075149536 -0.0010375977 0.00032615662 0.00049972534 -0.0008544922 0.00051116943
0.00089645386 -0.00020313263 -0.0020446777 -0.0006828308 -0.0005912781 0.00092697144 0.0012512207 -0.0019378662
0.0004711151 -0.0001335144 -0.00029563904 -0.00012493134 -0.0005302429 -0.00088500977 0.0005722046 -0.00032615662
-0.0006637573 0.0014877319 -0.00059890747 -0.00016212463 0.00064086914 0.0005340576 0.0006980896 -0.00074005127
-0.0025787354 0.0002746582 0.0032806396 -0.0005569458 0.001701355 -0.00039100647 -0.0020599365 0.002029419
-0.00064849854 9.250641e-05 0.00020313263 -0.00031280518 0.00024795532 -0.00025177002 -0.0006637573 0.0005683899
-0.0010070801 -0.00031471252 0.0009384155 -0.00050735474 0.00046157837 0.00023651123 -0.0011367798 0.0010528564
-0.0013427734 0.00077438354 0.0010223389 -0.0004825592 0.0011672974 -6.7055225e-07 -0.00032043457 0.00061035156
0.000116825104 4.529953e-05 0.00037384033 0.0008773804 -6.1690807e-06 4.4345856e-05 9.346008e-05 0.0004234314
0.0016098022 0.0014801025 -0.0030975342 -0.0005569458 -0.0012207031 0.0013580322 0.001914978 -0.0024261475
0.0016326904 -0.0008468628 -0.0016326904 0.0006904602 -0.0018463135 -2.0623207e-05 0.00074005127 -0.00060272217
0.00062179565 -0.0007247925 0.00030326843 0.0010223389 -0.00030708313 -0.00047302246 -1.835823e-05 0.00046539307
0.0021820068 -0.00020599365 -0.0028076172 0.0006942749 -0.0011062622 0.00013637543 0.0025939941 -0.0018234253
-0.0006752014 0.00061798096 0.00016021729 -0.0004234314 -6.723404e-05 0.00025558472 0.00037384033 -0.00017929077
0.0007247925 -0.0011901855 -0.00047302246 0.00023937225 -0.0006904602 0.00030899048 0.0002708435 -9.119511e-06
-0.0010070801 -0.0005226135 0.00042915344 0.00014400482 0.0002593994 0.00018787384 -0.0008468628 0.00061416626
0.00026893616 -0.0016326904 -3.4809113e-05 0.00046539307 -0.00023651123 -0.0008201599 7.200241e-05 0.00044441223
-0.0018997192 0.00050735474 0.0024719238 -6.6280365e-05 0.0009422302 -0.0005722046 -0.0016403198 0.0018386841
0.0014724731 0.00079345703 -0.0024108887 8.6307526e-05 -0.0005226135 0.0003490448 0.0022277832 -0.0018081665
0.0005264282 -0.0016708374 0.00035476685 0.00079345703 -0.0011291504 -0.0008163452 -0.0002746582 0.00077438354
-0.00093460083 -3.015995e-05 0.0011367798 -0.00025558472 0.0009994507 -0.0006942749 -0.0007247925 0.0005264282
-0.0028381348 8.916855e-05 0.003036499 -0.00049209595 0.0016403198 -0.00075531006 -0.0023498535 0.002243042
-0.0018157959 0.00074005127 0.0013580322 -0.0003604889 0.0015945435 -9.250641e-05 -0.00062179565 0.00059890747
6.818771e-05 0.001045227 0.0002784729 -0.00050354004 0.0009994507 0.0002670288 -7.4863434e-05 -7.534027e-05
0.00040626526 -0.0004787445 -0.0010757446 0.00021076202 0.0004348755 -0.00050354004 0.00051498413 -0.00062561035
-0.0018692017 0.00051498413 0.002670288 -0.00027656555 0.0009765625 -0.0005187988 -0.0016860962 0.0017089844
-0.0017166138 0.00039482117 0.0026245117 -0.00025558472 0.0011444092 -0.00038146973 -0.0019683838 0.0018844604
0.00062942505 0.0003643036 -0.0009765625 0.000102996826 -0.0006790161 0.00045776367 0.0007171631 -0.00041770935
0.0019683838 -0.0003299713 -0.002609253 -6.341934e-05 -0.0012664795 0.00040626526 0.001953125 -0.0018844604
-0.0021514893 -0.00020694733 0.0025787354 -0.00049591064 0.0013885498 -0.00050354004 -0.0019683838 0.0019454956

base_model.model.transformer.h.2.attn.c_attn.lora_A.weight bf16 [8, 768]
00000000: c7bc 8dbc 843c c1bc 063d c43b 82bc 86bc
00000010: 423c e83b c1bc 903c 53bc b13c 4ebc 8d3c
00000020: cbbc de3c 553c 09bb 843c 673c af3c 23ba
00000030: c03c a13c 67bc c6bc 043d 39bc 073d b7bc
00000040: 5f3c 833b 083d fa39 033d 5b3c 19bb df3c
00000050: 80bc ba3c 873c 07bd fd39 cebb 8cbb 01bd
00000060: eebc 77bc ca3c d13c febc 013d a2ba b63c
00000070: 90bc 98ba 88bc aa3b 01bc fa3c c9bc 1cbc
00000080: 003c 593c dd3c b3bc b03c 85b9 acbc e63c
00000090: 01bc 723c 0a3d 8e3b fabc 4c3c a038 93bc
000000a0: da3c 5f3c 81bc 60bc e4bc c63c ed3c a9bb
000000b0: 5c3c 40bc a6bc d0bc cebc 643c 0ebd 073d
000000c0: 6bba 08bd 13bd 05bd f7bc c0bc 963c abbc
000000d0: b2bc 00bc 753c 0a3d be3c 12bd eebb f3bb
000000e0: bc3c 9d3c 47bc 853c b5bc a6ba f6bc 02bd
000000f0: 973c 0b3d 43ba ccbc 953b 843c 03bc 083d
00000100: 2cbc f6bc 0bbc 59bc a83b f3bc 1a3c d33c
00000110: 0abd 00bc aabc 87bc 85bc f2bc 5a3c a3bb
00000120: 8cbc d4bb 8a3c eb3c 213c 853b 743c a9bc
00000130: 2ebc 803b b03c c43c e9bc 9fbc 9d3c 92ba
00000140: 06bd 8bbc cb3c 0bbd 14bc aabc 24bc 0bbd
00000150: dc3c d13b 0b3d 03bd e0bc 12bd f4bc c7bc
00000160: 24bc 233c a03c bd3c 9abc eb3c 80bb 06bd
00000170: 06bc 3a3c ad3c 363c 33bb ccbc 9b3b 0c3d
00000180: c0bc 65bc b7bc 01bd fe3c bebc b73b 78bb
00000190: 8839 d2bc bd3a 78bc 06bc f73c 91bc 19bc
000001a0: c7ba 063d 12bd e83b 063d d63c 72ba cfbc
000001b0: 123d 52bc a63c 1a3c 02bd ab3c 41bc 33bb
000001c0: 8e3b 073d de3c f43c d13c fc3b 05bd edbc
000001d0: 803b 0ebd 043a 8dba d83c efbc 11bd acbc
000001e0: 013d 6a3c 86bc 083d bbbc af3c f0bb a9bc
000001f0: 56bc 22bc 69bc fb3c c43c e0bc 00bc 74ba
-0.024291992 -0.017211914 0.016113281 -0.02355957 0.032714844 0.0059814453 -0.01586914 -0.016357422
0.01184082 0.007080078 -0.02355957 0.017578125 -0.012878418 0.021606445 -0.012573242 0.017211914
-0.024780273 0.02709961 0.013000488 -0.002090454 0.016113281 0.014099121 0.021362305 -0.00062179565
0.0234375 0.01965332 -0.014099121 -0.024169922 0.032226562 -0.011291504 0.032958984 -0.022338867
0.01361084 0.0039978027 0.033203125 0.00047683716 0.031982422 0.013366699 -0.0023345947 0.02722168
-0.015625 0.022705078 0.016479492 -0.032958984 0.0004825592 -0.006286621 -0.004272461 -0.03149414
-0.029052734 -0.015075684 0.024658203 0.025512695 -0.03100586 0.03149414 -0.0012359619 0.022216797
-0.017578125 -0.001159668 -0.016601562 0.0051879883 -0.007873535 0.030517578 -0.024536133 -0.009521484
0.0078125 0.013244629 0.026977539 -0.021850586 0.021484375 -0.00025367737 -0.020996094 0.028076172
-0.007873535 0.014770508 0.033691406 0.004333496 -0.030517578 0.012451172 7.6293945e-05 -0.017944336
0.026611328 0.01361084 -0.01574707 -0.013671875 -0.027832031 0.024169922 0.028930664 -0.0051574707
0.013427734 -0.01171875 -0.020263672 -0.025390625 -0.025146484 0.013916016 -0.03466797 0.032958984
-0.00089645386 -0.033203125 -0.035888672 -0.032470703 -0.030151367 -0.0234375 0.018310547 -0.020874023
-0.021728516 -0.0078125 0.014953613 0.033691406 0.02319336 -0.03564453 -0.0072631836 -0.0074157715
0.022949219 0.019165039 -0.012145996 0.016235352 -0.022094727 -0.0012664795 -0.030029297 -0.03173828
0.018432617 0.033935547 -0.00074386597 -0.024902344 0.004547119 0.016113281 -0.0079956055 0.033203125
-0.010498047 -0.030029297 -0.008483887 -0.013244629 0.005126953 -0.029663086 0.009399414 0.025756836
-0.033691406 -0.0078125 -0.020751953 -0.016479492 -0.016235352 -0.029541016 0.013305664 -0.0049743652
-0.017089844 -0.0064697266 0.016845703 0.028686523 0.00982666 0.004058838 0.014892578 -0.020629883
-0.010620117 0.00390625 0.021484375 0.023925781 -0.028442383 -0.01940918 0.019165039 -0.0011138916
-0.032714844 -0.016967773 0.024780273 -0.033935547 -0.009033203 -0.020751953 -0.010009766 -0.033935547
0.026855469 0.006378174 0.033935547 -0.031982422 -0.02734375 -0.03564453 -0.029785156 -0.024291992
-0.010009766 0.0099487305 0.01953125 0.023071289 -0.018798828 0.028686523 -0.00390625 -0.032714844
-0.008178711 0.011352539 0.021118164 0.011108398 -0.0027313232 -0.024902344 0.0047302246 0.034179688
-0.0234375 -0.013977051 -0.022338867 -0.03149414 0.03100586 -0.02319336 0.005584717 -0.0037841797
0.0002593994 -0.025634766 0.0014419556 -0.015136719 -0.008178711 0.030151367 -0.017700195 -0.009338379
-0.0015182495 0.032714844 -0.03564453 0.007080078 0.032714844 0.026123047 -0.00092315674 -0.025268555
0.03564453 -0.012817383 0.020263672 0.009399414 -0.03173828 0.020874023 -0.011779785 -0.0027313232
0.004333496 0.032958984 0.02709961 0.029785156 0.025512695 0.0076904297 -0.032470703 -0.028930664
0.00390625 -0.03466797 0.00050354004 -0.0010757446 0.026367188 -0.029174805 -0.03540039 -0.020996094
0.03149414 0.014282227 -0.016357422 0.033203125 -0.022827148 0.021362305 -0.0073242188 -0.020629883
-0.013061523 -0.009887695 -0.014221191 0.030639648 0.023925781 -0.02734375 -0.0078125 -0.00093078613
