examples/research_projects/stack_llama/scripts/gpt2_peft_stack-exchange-paired_rmts__100000_2e-05/checkpoint-500/adapter_model.safetensors (safetensors, 594496 bytes, 25 tensors)

base_model.model.score.weight bf16 [1, 768]
0.029296875 0.0058288574 0.01928711 0.03149414 0.009887695 -0.030395508 -0.0049438477 0.011474609
0.006011963 -0.011352539 0.010864258 -0.011230469 0.012023926 0.047607422 0.033447266 -0.016723633
-0.010070801 -0.010192871 -0.008728027 0.02734375 -0.013427734 -0.0023040771 0.017944336 -0.026733398
0.015319824 0.022949219 -0.011474609 0.01928711 0.040771484 0.011230469 0.0027923584 -0.013977051
-0.009399414 -0.027832031 0.027709961 -0.012268066 0.05908203 0.013061523 -0.02709961 -0.029663086
0.01977539 0.023803711 -0.040283203 -0.031982422 -0.01928711 0.011230469 -0.013671875 -0.015014648
0.018432617 0.0074157715 0.0099487305 -0.028320312 -0.0024414062 0.031982422 0.00592041 -0.009765625
0.017578125 -0.028198242 0.0003452301 -0.017700195 -0.0020751953 0.0005455017 -0.022705078 0.004119873
0.018798828 0.0079956055 0.010314941 0.021606445 -0.008483887 -0.028442383 -0.01159668 0.012512207
0.025512695 -0.005004883 -0.0023651123 0.0095825195 0.022094727 -0.0030212402 0.0078125 0.020751953
0.020996094 -0.008117676 -0.022094727 7.343292e-05 -0.006500244 -0.018554688 -0.018188477 -0.014221191
0.024414062 0.006072998 0.0060424805 -0.0021820068 -0.013916016 0.0390625 0.02319336 0.0005264282
0.0006828308 0.01953125 0.0015182495 0.010192871 -0.022705078 0.028442383 -0.017822266 0.010070801
0.025390625 0.0024871826 -0.01361084 0.022949219 0.001411438 -0.008239746 -0.0004081726 -0.033935547
0.016845703 0.01159668 -0.041259766 -0.016479492 -0.012817383 0.010009766 0.014953613 -0.0040893555
0.010620117 -0.028930664 -0.013305664 0.004852295 0.022216797 0.024414062 0.03881836 0.031982422
-0.00970459 0.018188477 -0.022460938 0.0073547363 -0.022338867 -0.019042969 0.0005340576 0.011108398
-0.027832031 0.022094727 -0.024414062 0.017822266 0.026000977 -0.0016403198 0.0016708374 0.018554688
-0.033935547 0.010559082 -0.006134033 -0.026489258 0.029663086 -0.00390625 0.001953125 -0.024536133
0.012145996 0.018676758 -0.04248047 -0.0015335083 0.018798828 -0.02331543 0.0036773682 0.0043640137
0.014709473 -0.013244629 0.011413574 0.013549805 -0.018188477 0.031982422 0.009399414 0.0047302246
-0.013000488 -0.0073547363 -0.026123047 0.037597656 -0.013977051 0.011474609 0.014831543 0.029907227
0.010559082 -0.0042419434 0.0040893555 -0.0043945312 -0.012145996 0.012023926 0.0054626465 -0.000667572
0.03173828 0.010253906 0.004272461 -0.017578125 0.0015029907 0.016357422 0.00390625 -0.003967285
-0.0119018555 0.021850586 0.03173828 -0.022094727 0.03173828 -0.014709473 0.009460449 -0.008239746
0.0014266968 0.003616333 0.0026245117 0.024047852 -0.029663086 0.008300781 0.0037078857 0.0033569336
-0.0021972656 -0.0012664795 0.0068359375 0.0030975342 0.015319824 -0.01928711 0.033691406 0.0037994385
-0.011108398 0.016235352 -0.0037841797 0.019165039 0.006164551 0.019165039 0.0036468506 -0.052490234
-0.008239746 0.02319336 -0.047851562 -0.013671875 -0.03125 -0.020507812 0.017211914 0.006011963
-0.044921875 0.0095825195 -0.032470703 -0.0119018555 -0.017700195 0.009643555 0.012145996 -0.01550293
-0.02331543 0.017578125 0.022094727 0.021850586 -0.032470703 -0.0017471313 0.01361084 0.014709473
-0.022949219 -0.014465332 -0.0041503906 -0.003967285 0.005554199 0.017578125 -0.024658203 0.014099121
00000000: f03c bf3b 9e3c 013d 223c f9bc a2bb 3c3c
00000010: c53b 3abc 323c 38bc 453c 433d 093d 89bc
00000020: 25bc 27bc 0fbc e03c 5cbc 17bb 933c dbbc
00000030: 7b3c bc3c 3cbc 9e3c 273d 383c 373b 65bc
00000040: 1abc e4bc e33c 49bc 723d 563c debc f3bc
00000050: a23c c33c 25bd 03bd 9ebc 383c 60bc 76bc
00000060: 973c f33b 233c e8bc 20bb 033d c23b 20bc
00000070: 903c e7bc b539 91bc 08bb 0f3a babc 873b
00000080: 9a3c 033c 293c b13c 0bbc e9bc 3ebc 4d3c
00000090: d13c a4bb 1bbb 1d3c b53c 46bb 003c aa3c
000000a0: ac3c 05bc b5bc 9a38 d5bb 98bc 95bc 69bc
000000b0: c83c c73b c63b 0fbb 64bc 203d be3c 0a3a
000000c0: 333a a03c c73a 273c babc e93c 92bc 253c
000000d0: d03c 233b 5fbc bc3c b93a 07bc d6b9 0bbd
000000e0: 8a3c 3e3c 29bd 87bc 52bc 243c 753c 86bb
000000f0: 2e3c edbc 5abc 9f3b b63c c83c 1f3d 033d
00000100: 1fbc 953c b8bc f13b b7bc 9cbc 0c3a 363c
00000110: e4bc b53c c8bc 923c d53c d7ba db3a 983c
00000120: 0bbd 2d3c c9bb d9bc f33c 80bb 003b c9bc
00000130: 473c 993c 2ebd c9ba 9a3c bfbc 713b 8f3b
00000140: 713c 59bc 3b3c 5e3c 95bc 033d 1a3c 9b3b
00000150: 55bc f1bb d6bc 1a3d 65bc 3c3c 733c f53c
00000160: 2d3c 8bbb 863b 90bb 47bc 453c b33b 2fba
00000170: 023d 283c 8c3b 90bc c53a 863c 803b 82bb
00000180: 43bc b33c 023d b5bc 023d 71bc 1b3c 07bc
00000190: bb3a 6d3b 2c3b c53c f3bc 083c 733b 5c3b
000001a0: 10bb a6ba e03b 4b3b 7b3c 9ebc 0a3d 793b
000001b0: 36bc 853c 78bb 9d3c ca3b 9d3c 6f3b 57bd
000001c0: 07bc be3c 44bd 60bc 00bd a8bc 8d3c c53b
000001d0: 38bd 1d3c 05bd 43bc 91bc 1e3c 473c 7ebc
000001e0: bfbc 903c b53c b33c 05bd e5ba 5f3c 713c
000001f0: bcbc 6dbc 88bb 82bb b63b 903c cabc 673c

base_model.model.transformer.h.0.attn.c_attn.lora_A.weight bf16 [8, 768]
-0.026123047 0.027954102 -0.028198242 -0.0022277832 0.033691406 0.017578125 -0.0043640137 0.015991211
0.0087890625 -0.011108398 -0.009399414 -0.010864258 -0.033203125 -0.0234375 0.0023498535 0.019165039
-0.028930664 0.026000977 0.032226562 -0.020141602 0.015563965 0.024169922 -0.018066406 0.017822266
0.032714844 0.02722168 -0.033691406 0.0008544922 -0.005065918 0.016479492 0.0044555664 -0.021728516
-0.033203125 -0.009399414 0.0013580322 -0.023925781 0.013671875 -0.011474609 -0.011291504 -0.018798828
-0.024047852 0.02331543 0.027709961 0.0017929077 -0.018676758 0.00022602081 -0.0078125 0.016357422
-0.008056641 -0.01953125 0.022949219 -0.010681152 0.026733398 0.004211426 0.020996094 -6.9618225e-05
-0.008239746 -0.0021972656 -0.001121521 0.00491333 0.0008201599 0.016357422 0.0015335083 -0.0051574707
0.00390625 0.004486084 0.033447266 0.009765625 0.03173828 0.014831543 0.024902344 -0.024902344
0.025512695 -0.01953125 0.0040893555 0.03173828 0.0015411377 0.019165039 -0.0055236816 -0.024902344
0.028198242 -0.020141602 0.03515625 -0.005554199 -0.015136719 -0.030029297 0.021362305 -0.029296875
-0.0050964355 -0.00076293945 0.014343262 -0.015197754 0.008911133 -0.026245117 0.0146484375 -0.010253906
0.020263672 0.032226562 0.032226562 -0.025634766 -0.031982422 0.012817383 -0.02331543 -0.006378174
0.016479492 0.01977539 -0.0078125 0.022827148 -0.016113281 -0.004058838 0.019897461 0.0065307617
0.032226562 0.01928711 0.026733398 0.009765625 0.00033569336 -0.0079956055 0.028320312 -0.00026130676
0.0040283203 -0.023071289 0.00077819824 0.0011444092 0.009460449 0.018432617 0.014343262 -0.034423828
-0.029785156 0.024658203 -0.03466797 0.018798828 0.0019302368 0.012878418 -0.026855469 0.01184082
-0.018066406 0.03564453 -0.014282227 -0.0078125 -5.6028366e-05 0.009521484 -0.015380859 0.032226562
-0.020507812 -0.0002155304 0.011352539 -0.03515625 -0.029418945 0.022216797 0.03540039 0.017822266
-0.020141602 0.008361816 -0.03466797 0.004486084 -0.025756836 -0.010864258 0.022216797 0.032470703
-0.012390137 0.024414062 -0.032958984 0.004211426 0.014709473 -0.021362305 0.021118164 0.028076172
0.0062561035 0.020385742 0.029663086 0.008361816 0.017700195 -0.0063171387 -0.003326416 0.011413574
0.034179688 -0.029541016 0.02758789 0.009094238 -0.020629883 0.015380859 -0.0008010864 -0.011108398
0.032958984 0.007507324 -0.028442383 0.030639648 -0.015563965 0.022583008 0.021484375 -0.0066833496
0.033203125 0.0019454956 0.025268555 0.020751953 -0.021484375 0.025756836 -0.009033203 -0.005706787
0.020507812 0.010192871 0.03540039 0.024291992 0.004211426 0.03515625 -0.012451172 -0.026855469
-0.014038086 -0.021118164 -0.00078964233 -0.013793945 -0.028564453 0.004058838 -0.016601562 -0.0018157959
-0.012329102 -0.017700195 0.03540039 0.0054626465 -0.0038604736 -0.007232666 0.029785156 -0.02758789
0.026489258 0.035888672 -0.012573242 -0.01928711 0.01574707 0.031982422 -0.0041503906 0.030395508
-0.009033203 -0.03540039 0.017944336 0.034423828 -0.009338379 -0.007446289 0.0079956055 0.032470703
0.032226562 -0.021118164 0.026245117 -0.016601562 -0.010131836 0.0074768066 0.026489258 -0.020507812
0.0034637451 -0.022827148 -0.03173828 -0.018066406 -0.010253906 -0.024291992 -0.02709961 -0.0078125
00000000: d6bc e53c e7bc 12bb 0a3d 903c 8fbb 833c
00000010: 103c 36bc 1abc 32bc 08bd c0bc 1a3b 9d3c
00000020: edbc d53c 043d a5bc 7f3c c63c 94bc 923c
00000030: 063d df3c 0abd 603a a6bb 873c 923b b2bc
00000040: 08bd 1abc b23a c4bc 603c 3cbc 39bc 9abc
00000050: c5bc bf3c e33c eb3a 99bc 6d39 00bc 863c
00000060: 04bc a0bc bc3c 2fbc db3c 8a3b ac3c 92b8
00000070: 07bc 10bb 93ba a13b 573a 863c c93a a9bb
00000080: 803b 933b 093d 203c 023d 733c cc3c ccbc
00000090: d13c a0bc 863b 023d ca3a 9d3c b5bb ccbc
000000a0: e73c a5bc 103d b6bb 78bc f6bc af3c f0bc
000000b0: a7bb 48ba 6b3c 79bc 123c d7bc 703c 28bc
000000c0: a63c 043d 043d d2bc 03bd 523c bfbc d1bb
000000d0: 873c a23c 00bc bb3c 84bc 85bb a33c d63b
000000e0: 043d 9e3c db3c 203c b039 03bc e83c 89b9
000000f0: 843b bdbc 4c3a 963a 1b3c 973c 6b3c 0dbd
00000100: f4bc ca3c 0ebd 9a3c fd3a 533c dcbc 423c
00000110: 94bc 123d 6abc 00bc 6bb8 1c3c 7cbc 043d
00000120: a8bc 62b9 3a3c 10bd f1bc b63c 113d 923c
00000130: a5bc 093c 0ebd 933b d3bc 32bc b63c 053d
00000140: 4bbc c83c 07bd 8a3b 713c afbc ad3c e63c
00000150: cd3b a73c f33c 093c 913c cfbb 5abb 3b3c
00000160: 0c3d f2bc e23c 153c a9bc 7c3c 52ba 36bc
00000170: 073d f63b e9bc fb3c 7fbc b93c b03c dbbb
00000180: 083d ff3a cf3c aa3c b0bc d33c 14bc bbbb
00000190: a83c 273c 113d c73c 8a3b 103d 4cbc dcbc
000001a0: 66bc adbc 4fba 62bc eabc 853b 88bc eeba
000001b0: 4abc 91bc 113d b33b 7dbb edbb f43c e2bc
000001c0: d93c 133d 4ebc 9ebc 813c 033d 88bb f93c
000001d0: 14bc 11bd 933c 0d3d 19bc f4bb 033c 053d
000001e0: 043d adbc d73c 88bc 26bc f53b d93c a8bc
000001f0: 633b bbbc 02bd 94bc 28bc c7bc debc 00bc

base_model.model.transformer.h.0.attn.c_attn.lora_B.weight bf16 [2304, 8]
-8.392334e-05 -0.000102996826 -3.170967e-05 -0.0004386902 9.8228455e-05 0.0001296997 -1.2874603e-05 0.00044631958
-0.00026893616 0.0009651184 9.536743e-05 0.0006752014 4.386902e-05 0.00021839142 -0.00039100647 -7.915497e-05
-0.0008125305 0.000579834 2.8252602e-05 0.000333786 -0.00013828278 -0.00011920929 -0.00075149536 -0.00049972534
-0.00048065186 0.0011062622 0.00039100647 0.0006713867 -3.0755997e-05 0.00018501282 -0.00033950806 -0.0016708374
-0.0004711151 -5.1498413e-05 2.7269125e-06 -7.1525574e-05 0.00021266937 -0.00025749207 0.0002822876 0.00033950806
-0.00059890747 0.00021076202 0.00088882446 -0.00042152405 -0.0014801025 -0.00039863586 0.00022983551 -1.3291836e-05
-5.7458878e-05 0.0005455017 -2.5391579e-05 0.00059890747 7.772446e-05 0.00025749207 -0.00075531006 -0.0014266968
0.00046730042 0.0006790161 -0.00019836426 0.0005493164 0.000289917 0.001159668 -0.00022888184 -0.00045967102
0.0008354187 0.00016784668 -0.00038146973 -0.00060653687 0.0006942749 -0.00019741058 0.0001001358 0.00062942505
-0.00026130676 -0.0003528595 0.00062179565 -0.000831604 -0.000667572 8.010864e-05 0.0005264282 0.001045227
0.0002708435 0.00026512146 -0.00012302399 0.0006942749 9.918213e-05 0.00021648407 4.9591064e-05 -0.00078201294
-4.5776367e-05 0.000541687 0.000333786 6.2942505e-05 -0.00012493134 -0.00024795532 -0.00019264221 -0.0005187988
0.00020217896 0.0015106201 0.00044631958 -0.00025367737 -0.0005187988 0.0004081726 0.00023651123 -0.0009384155
0.0009689331 -1.2516975e-05 -0.0007324219 0.0002374649 0.0008201599 0.0002593994 -0.00013542175 0.001121521
6.341934e-05 -0.00017929077 -0.00016117096 -0.00048065186 -0.00063705444 -0.00014305115 0.00079345703 0.0008125305
-0.00026893616 0.0010528564 0.00039291382 -0.00013923645 -0.000289917 -0.00042152405 -0.00044441223 -0.0009613037
0.0008583069 -0.00076293945 -0.0008468628 0.00032806396 0.0011138916 -0.00034713745 -0.0008735657 -2.8848648e-05
-0.0005493164 -0.00022888184 9.4890594e-05 -0.0002632141 -0.00015258789 0.0003414154 -0.00045013428 -0.00050354004
-0.0007247925 0.00039672852 0.00018119812 0.00078582764 -0.00015830994 -0.00047683716 -0.00044822693 -0.0006599426
-8.4877014e-05 -0.00018882751 6.771088e-05 0.0004081726 0.0004310608 0.00011444092 -0.0010604858 -0.0010757446
0.00092315674 -0.0009994507 -0.00024604797 -0.00074768066 0.00016117096 -0.00037002563 0.0009918213 0.0013122559
-0.00032043457 9.393692e-05 0.0005569458 -9.679794e-05 -0.0005340576 9.8228455e-05 -0.00013637543 -0.0012130737
-0.00024604797 0.00090408325 -5.7458878e-05 0.0010910034 0.00035476685 0.0007171631 -0.0002822876 -0.0013046265
0.0005569458 0.00018978119 -0.0006828308 -5.4597855e-05 0.00091552734 -0.00023841858 -0.00024318695 -0.00044822693
-0.0001487732 7.1525574e-05 -0.0005187988 -6.818771e-05 0.00044631958 -7.3611736e-06 -0.0005645752 -1.0192394e-05
-0.00064849854 2.6583672e-05 0.00032234192 -0.00031089783 -0.0005493164 -0.00051116943 0.000667572 4.2438507e-05
0.00021839142 0.00031089783 0.000121593475 -0.0005912781 -0.00049591064 0.00032043457 0.0002861023 0.0005569458
-0.0007286072 0.00075912476 0.001083374 -0.00044631958 -0.0012283325 -0.0005531311 -0.00018310547 -0.001083374
-0.00014019012 0.000579834 -9.918213e-05 0.00019454956 7.915497e-05 -0.00028419495 -0.00045967102 7.8201294e-05
0.00046539307 -0.00011920929 -0.00032234192 0.00089263916 0.00074386597 0.00063705444 0.00032424927 0.0001335144
0.00021076202 -0.0014419556 -0.0005722046 -9.870529e-05 0.0003452301 -0.00019931793 0.00063705444 0.0011062622
9.679794e-05 0.0003528595 0.00022983551 0.00031661987 0.00015354156 0.0002002716 -0.0005607605 -0.0006713867
00000000: b0b8 d8b8 05b8 e6b9 ce38 0839 58b7 ea39
00000010: 8db9 7d3a c838 313a 3838 6539 cdb9 a6b8
00000020: 55ba 183a ed37 af39 11b9 fab8 45ba 03ba
00000030: fcb9 913a cd39 303a 01b8 4239 b2b9 dbba
00000040: f7b9 58b8 3736 96b8 5f39 87b9 9439 b239
00000050: 1dba 5d39 693a ddb9 c2ba d1b9 7139 5fb7
00000060: 71b8 0f3a d5b7 1d3a a338 8739 46ba bbba
00000070: f539 323a 50b9 103a 9839 983a 70b9 f1b9
00000080: 5b3a 3039 c8b9 1fba 363a 4fb9 d238 253a
00000090: 89b9 b9b9 233a 5aba 2fba a838 0a3a 893a
000000a0: 8e39 8b39 01b9 363a d038 6339 5038 4dba
000000b0: 40b8 0e3a af39 8438 03b9 82b9 4ab9 08ba
000000c0: 5439 c63a ea39 85b9 08ba d639 7839 76ba
000000d0: 7e3a 52b7 40ba 7939 573a 8839 0eb9 933a
000000e0: 8538 3cb9 29b9 fcb9 27ba 16b9 503a 553a
000000f0: 8db9 8a3a ce39 12b9 98b9 ddb9 e9b9 7cba
00000100: 613a 48ba 5eba ac39 923a b6b9 65ba f2b7
00000110: 10ba 70b9 c738 8ab9 20b9 b339 ecb9 04ba
00000120: 3eba d039 3e39 4e3a 26b9 fab9 ebb9 2dba
00000130: b2b8 46b9 8e38 d639 e239 f038 8bba 8dba
00000140: 723a 83ba 81b9 44ba 2939 c2b9 823a ac3a
00000150: a8b9 c538 123a cbb8 0cba ce38 0fb9 9fba
00000160: 81b9 6d3a 71b8 8f3a ba39 3c3a 94b9 abba
00000170: 123a 4739 33ba 65b8 703a 7ab9 7fb9 ebb9
00000180: 1cb9 9638 08ba 8fb8 ea39 f7b6 14ba 2bb7
00000190: 2aba df37 a939 a3b9 10ba 06ba 2f3a 3238
000001a0: 6539 a339 ff38 1bba 02ba a839 9639 123a
000001b0: 3fba 473a 8e3a eab9 a1ba 11ba 40b9 8eba
000001c0: 13b9 183a d0b8 4c39 a638 95b9 f1b9 a438
000001d0: f439 fab8 a9b9 6a3a 433a 273a aa39 0c39
000001e0: 5d39 bdba 16ba cfb8 b539 51b9 273a 913a
000001f0: cb38 b939 7139 a639 2139 5239 13ba 30ba

base_model.model.transformer.h.1.attn.c_attn.lora_A.weight bf16 [8, 768]
0.02319336 0.020629883 -0.026245117 0.008117676 -0.033691406 0.021606445 -0.01953125 -0.010559082
-0.029052734 0.032226562 0.03564453 0.009155273 -0.0019454956 -0.001449585 0.020507812 0.021850586
-0.010620117 0.002166748 -0.0078125 0.025024414 0.011108398 -0.021118164 -0.01977539 0.016113281
0.0134887695 -0.010803223 -0.007659912 -0.010070801 -0.01928711 0.009521484 0.025634766 -0.014709473
0.011352539 -0.020751953 0.014404297 0.0020751953 0.009155273 -0.008117676 0.033935547 -0.024658203
0.008178711 -0.033447266 0.028930664 0.011047363 -0.004425049 0.035888672 -0.020263672 0.029541016
0.0056762695 0.016235352 0.014404297 -0.015991211 0.0056762695 -0.021972656 -0.016479492 0.021850586
0.017211914 -0.035888672 0.014343262 0.025390625 0.0017929077 -0.008361816 0.004211426 0.0020141602
-0.012329102 0.015014648 0.025390625 0.03100586 -0.024047852 -0.008483887 0.03540039 0.01586914
-0.021362305 0.00028038025 0.017944336 -0.015197754 -0.03173828 0.013977051 -0.02368164 -0.019042969
0.01574707 -0.0040893555 -0.0078125 0.006500244 -0.021728516 -0.020263672 -0.0039367676 0.030029297
0.023803711 0.009887695 -0.0027160645 -0.0076293945 0.0018386841 0.0061035156 0.006072998 -0.034423828
0.019897461 -0.0018920898 0.018554688 0.03466797 0.03100586 0.017333984 -0.0033721924 -0.029174805
0.03564453 0.0078125 0.019897461 0.011291504 0.024047852 -0.024658203 -0.024047852 -0.00090026855
-0.034423828 -0.0015258789 -0.030517578 -0.012329102 -0.030273438 -0.010437012 0.023803711 -0.0042419434
0.009399414 -0.0029907227 -0.0077209473 -0.030151367 -0.025268555 -0.025146484 0.017089844 0.0035705566
0.034423828 0.004425049 -0.024169922 0.020751953 -0.01977539 -0.028930664 -0.015258789 0.03125
0.012084961 0.03540039 -0.030151367 0.01171875 -0.032470703 0.01940918 0.026123047 -0.013366699
0.022827148 0.015197754 0.011413574 -0.021972656 0.01550293 -0.013793945 0.013366699 -0.014465332
0.023071289 0.013244629 -0.02355957 0.03515625 0.00390625 0.00592041 -0.036132812 0.017089844
0.02709961 -0.02319336 -0.020385742 -0.0078125 -0.017578125 -0.011413574 0.0059814453 0.032226562
-0.0064086914 -0.03173828 0.011108398 0.02319336 -0.032958984 0.016479492 0.032226562 -0.006439209
-0.021972656 -0.0039978027 -0.033447266 -0.01184082 -0.013366699 -0.021972656 -0.033447266 -0.028930664
0.006378174 0.0003414154 0.00579834 0.02355957 -0.017456055 -0.014831543 0.014099121 -0.00038719177
0.033691406 -0.029296875 -0.0040283203 0.015380859 0.006286621 0.010986328 0.011779785 -0.032714844
0.032958984 0.0234375 -0.02355957 0.024902344 0.012451172 -0.012329102 0.0078125 -0.000289917
-0.003250122 0.011779785 0.025634766 0.03112793 0.0005340576 0.011352539 0.01928711 0.01928711
-0.022460938 0.004852295 0.03491211 0.03149414 0.018066406 0.008850098 0.021728516 0.033447266
0.0006828308 0.028442383 0.030883789 -0.01574707 -0.00038909912 0.0146484375 -0.010864258 0.026611328
-0.027954102 -0.021484375 0.03515625 -0.02368164 0.028320312 0.032226562 0.015014648 0.008300781
-0.0078125 -0.0039367676 0.0038146973 -0.008422852 0.0039367676 0.010986328 0.016357422 0.027954102
0.014953613 0.027709961 0.008361816 0.0087890625 0.0234375 0.005554199 -0.024169922 -0.019897461
00000000: be3c a93c d7bc 053c 0abd b13c a0bc 2dbc
00000010: eebc 043d 123d 163c ffba beba a83c b33c
00000020: 2ebc 0e3b 00bc cd3c 363c adbc a2bc 843c
00000030: 5d3c 31bc fbbb 25bc 9ebc 1c3c d23c 71bc
00000040: 3a3c aabc 6c3c 083b 163c 05bc 0b3d cabc
00000050: 063c 09bd ed3c 353c 91bb 133d a6bc f23c
00000060: ba3b 853c 6c3c 83bc ba3b b4bc 87bc b33c
00000070: 8d3c 13bd 6b3c d03c eb3a 09bc 8a3b 043b
00000080: 4abc 763c d03c fe3c c5bc 0bbc 113d 823c
00000090: afbc 9339 933c 79bc 02bd 653c c2bc 9cbc
000000a0: 813c 86bb 00bc d53b b2bc a6bc 81bb f63c
000000b0: c33c 223c 32bb fabb f13a c83b c73b 0dbd
000000c0: a33c f8ba 983c 0e3d fe3c 8e3c 5dbb efbc
000000d0: 123d 003c a33c 393c c53c cabc c5bc 6cba
000000e0: 0dbd c8ba fabc 4abc f8bc 2bbc c33c 8bbb
000000f0: 1a3c 44bb fdbb f7bc cfbc cebc 8c3c 6a3b
00000100: 0d3d 913b c6bc aa3c a2bc edbc 7abc 003d
00000110: 463c 113d f7bc 403c 05bd 9f3c d63c 5bbc
00000120: bb3c 793c 3b3c b4bc 7e3c 62bc 5b3c 6dbc
00000130: bd3c 593c c1bc 103d 803b c23b 14bd 8c3c
00000140: de3c bebc a7bc 00bc 90bc 3bbc c43b 043d
00000150: d2bb 02bd 363c be3c 07bd 873c 043d d3bb
00000160: b4bc 83bb 09bd 42bc 5bbc b4bc 09bd edbc
00000170: d13b b339 be3b c13c 8fbc 73bc 673c cbb9
00000180: 0a3d f0bc 84bb 7c3c ce3b 343c 413c 06bd
00000190: 073d c03c c1bc cc3c 4c3c 4abc 003c 98b9
000001a0: 55bb 413c d23c ff3c 0c3a 3a3c 9e3c 9e3c
000001b0: b8bc 9f3b 0f3d 013d 943c 113c b23c 093d
000001c0: 333a e93c fd3c 81bc ccb9 703c 32bc da3c
000001d0: e5bc b0bc 103d c2bc e83c 043d 763c 083c
000001e0: 00bc 81bb 7a3b 0abc 813b 343c 863c e53c
000001f0: 753c e33c 093c 103c c03c b63b c6bc a3bc

base_model.model.transformer.h.1.attn.c_attn.lora_B.weight bf16 [2304, 8]
-0.0007286072 -0.0009841919 8.9645386e-05 -0.00022792816 -0.00076293945 -0.0010375977 0.00018787384 -0.0008659363
0.00011730194 0.0010070801 3.027916e-05 0.00026893616 0.00075912476 0.0008659363 -0.0005531311 0.0010986328
-0.0010681152 -0.001159668 0.00042533875 -0.00038528442 0.0004119873 -6.246567e-05 -0.00047302246 -0.0008621216
-0.00025177002 0.0008392334 0.00076293945 0.0004081726 0.001953125 0.0012664795 -0.00062942505 0.0012741089
-0.00016307831 5.7458878e-05 8.916855e-05 0.00021266937 -0.0012283325 -0.0005722046 -0.00030136108 -0.00064468384
-0.00077438354 -0.0009765625 0.0006942749 1.090765e-05 6.0796738e-05 0.00026512146 -0.001083374 -0.000289917
-0.00019454956 -0.0011444092 0.00012302399 -0.0004310608 9.202957e-05 -0.00074768066 -0.00046539307 -0.00048828125
3.4570694e-05 -0.0010681152 -9.346008e-05 -0.0008010864 -0.00092315674 -0.0005912781 0.00044441223 -0.00040626526
-0.00021648407 -0.00063705444 0.00013256073 -9.715557e-06 -0.0012512207 -0.0011062622 -9.346008e-05 -0.0010910034
-0.00033187866 -4.6014786e-05 0.00039863586 0.00011062622 0.0005531311 -2.4557114e-05 1.3768673e-05 -0.00019264221
-6.556511e-06 0.0012283325 0.00074005127 0.0005264282 0.0020599365 0.001373291 0.000116825104 0.0015945435
0.00023174286 -0.0005722046 -0.00041389465 -0.00015830994 -0.0013198853 -0.0010757446 0.00050735474 -0.001121521
0.00044631958 -0.0003490448 -0.0005302429 2.3961067e-05 -0.0015411377 -0.001083374 0.00074005127 -0.0014724731
-0.00024986267 0.0005493164 0.0005569458 0.00015068054 0.0013504028 0.0012207031 -0.00018405914 0.0008468628
-0.00074768066 -2.336502e-05 0.0007019043 0.0007133484 0.001953125 0.00077438354 -0.00076675415 0.0007209778
0.0002708435 0.0002040863 -0.0005493164 0.00015258789 -0.00011920929 -0.00035476685 -0.00025367737 0.00019359589
0.00023365021 -0.0002632141 -0.00048446655 2.2053719e-05 0.00024414062 -0.0004081726 0.00038528442 -0.00020885468
-1.2099743e-05 -0.00018787384 3.7431717e-05 0.000121593475 -0.0005378723 -0.0005340576 0.00024318695 -0.00089263916
0.00014686584 0.0011062622 0.00024318695 0.00037574768 0.0017471313 0.0012588501 -0.0005302429 0.0016326904
-0.00024795532 0.0005722046 0.0008201599 0.00042915344 0.0014572144 0.0008583069 -0.0005455017 0.0011901855
-0.00038719177 -0.0003376007 0.00064849854 -2.0503998e-05 0.00044441223 0.0005378723 -0.00075531006 0.00022697449
-0.0012741089 -0.001121521 0.0007247925 3.7670135e-05 -0.00025177002 -0.0009841919 -0.00041770935 -0.00039863586
-0.0009841919 -0.0009460449 -5.6028366e-05 -0.0002708435 -0.0006599426 0.00031852722 -0.00022411346 -0.00090789795
0.00018119812 -0.0001373291 -5.632639e-06 0.0004119873 -0.0005569458 -0.0008239746 0.00064468384 -0.00062179565
0.00025367737 0.0006980896 0.00065612793 0.0004863739 0.0009765625 0.00062561035 -0.0003452301 0.0014648438
-0.00022602081 -0.00065231323 0.0002746582 8.773804e-05 -6.9618225e-05 -0.0004310608 -9.536743e-05 -0.00022315979
0.00012874603 0.00033950806 -9.6321106e-05 0.00014686584 0.001953125 0.0013046265 -6.532669e-05 0.00028800964
-0.00042533875 0.000667572 0.0006599426 0.00012397766 0.00040626526 0.0008354187 -0.00025177002 0.00091171265
-0.00024032593 0.00075531006 0.0005226135 0.0008354187 0.0012435913 0.0009918213 -0.00028038025 0.0010070801
0.00060272217 0.0005493164 0.00023460388 -0.00033569336 0.0014648438 0.0008049011 0.0004081726 0.0013656616
0.00042533875 0.0010528564 -9.059906e-05 2.2888184e-05 0.00036239624 0.0005569458 -0.00021266937 0.0012817383
-0.00037765503 3.33786e-05 6.67572e-06 -0.00015640259 0.00090789795 0.00045585632 -0.0006752014 0.00041389465
00000000: 3fba 81ba bc38 6fb9 48ba 88ba 4539 63ba
00000010: f638 843a fe37 8d39 473a 633a 11ba 903a
00000020: 8cba 98ba df39 cab9 d839 83b8 f8b9 62ba
00000030: 84b9 5c3a 483a d639 003b a63a 25ba a73a
00000040: 2bb9 7138 bb38 5f39 a1ba 16ba 9eb9 29ba
00000050: 4bba 80ba 363a 3737 7f38 8b39 8eba 98b9
00000060: 4cb9 96ba 0139 e2b9 c138 44ba f4b9 00ba
00000070: 1138 8cba c4b8 52ba 72ba 1bba e939 d5b9
00000080: 63b9 27ba 0b39 23b7 a4ba 91ba c4b8 8fba
00000090: aeb9 41b8 d139 e838 113a ceb7 6737 4ab9
000000a0: dcb6 a13a 423a 0a3a 073b b43a f538 d13a
000000b0: 7339 16ba d9b9 26b9 adba 8dba 053a 93ba
000000c0: ea39 b7b9 0bba c937 caba 8eba 423a c1ba
000000d0: 83b9 103a 123a 1e39 b13a a03a 41b9 5e3a
000000e0: 44ba c4b7 383a 3b3a 003b 4b3a 49ba 3d3a
000000f0: 8e39 5639 10ba 2039 fab8 bab9 85b9 4b39
00000100: 7539 8ab9 feb9 b937 8039 d6b9 ca39 5bb9
00000110: 4bb7 45b9 1d38 ff38 0dba 0cba 7f39 6aba
00000120: 1a39 913a 7f39 c539 e53a a53a 0bba d63a
00000130: 82b9 163a 573a e139 bf3a 613a 0fba 9c3a
00000140: cbb9 b1b9 2a3a acb7 e939 0d3a 46ba 6e39
00000150: a7ba 93ba 3e3a 1e38 84b9 81ba dbb9 d1b9
00000160: 81ba 78ba 6bb8 8eb9 2dba a739 6bb9 6eba
00000170: 3e39 10b9 bdb6 d839 12ba 58ba 293a 23ba
00000180: 8539 373a 2c3a ff39 803a 243a b5b9 c03a
00000190: 6db9 2bba 9039 b838 92b8 e2b9 c8b8 6ab9
000001a0: 0739 b239 cab8 1a39 003b ab3a 89b8 9739
000001b0: dfb9 2f3a 2d3a 0239 d539 5b3a 84b9 6f3a
000001c0: 7cb9 463a 093a 5b3a a33a 823a 93b9 843a
000001d0: 1e3a 103a 7639 b0b9 c03a 533a d639 b33a
000001e0: df39 8a3a beb8 c037 be39 123a 5fb9 a83a
000001f0: c6b9 0c38 e036 24b9 6e3a ef39 31ba d939

base_model.model.transformer.h.10.attn.c_attn.lora_A.weight bf16 [8, 768]
-0.015258789 -0.030273438 0.017578125 0.013000488 -0.0011444092 -0.0078125 -0.03564453 -0.020507812
-0.011230469 0.020629883 -0.0020141602 -0.004180908 0.0054016113 0.007080078 0.0078125 -0.022216797
-0.032714844 0.021972656 -0.028564453 0.005645752 -0.0078125 -0.0048828125 0.026611328 -0.025878906
-0.034179688 0.0041503906 0.023925781 0.018798828 0.013366699 0.009277344 0.014099121 -0.0014648438
0.03125 -0.018188477 0.008605957 0.033935547 -0.026977539 -0.014709473 -0.018676758 0.032714844
-0.033691406 -0.020507812 -0.032470703 0.0040893555 0.0078125 0.020019531 0.024047852 -0.011413574
0.017700195 0.022338867 -0.017578125 -0.028808594 0.02722168 0.013916016 0.029541016 -0.022216797
-0.023071289 -0.008178711 -0.011962891 0.02758789 -0.008728027 -0.021606445 -0.016235352 0.03466797
0.015625 -0.03540039 0.005279541 -0.030761719 -0.017578125 -0.026000977 -0.022216797 0.01965332
-0.002380371 -0.020507812 0.03466797 0.0025177002 -0.0078125 0.016113281 0.01586914 -0.01940918
0.004638672 -0.0119018555 0.0065307617 0.02355957 -0.013793945 -0.026977539 0.018920898 0.0008239746
0.02734375 0.01965332 0.033935547 0.009338379 -0.020019531 -0.025024414 -0.0016555786 0.014709473
0.032470703 0.023071289 -0.033691406 -0.0138549805 0.01953125 0.026489258 0.020263672 -0.0030059814
-0.0011749268 -0.021484375 -0.030395508 -0.015625 0.030517578 0.0036621094 -0.021484375 0.0050354004
0.0020141602 -0.018066406 0.016479492 -0.013061523 -0.020263672 -0.0043640137 0.033203125 -0.0061035156
0.028930664 -0.03100586 -0.032470703 0.0032958984 0.0078125 -0.026367188 -0.025634766 -0.025024414
0.017944336 -0.01361084 -0.033935547 -0.0099487305 -0.03515625 0.0043029785 0.03491211 -0.013549805
-0.009765625 0.032470703 -0.022949219 -0.010314941 0.02355957 0.01574707 0.035888672 0.001876831
-0.022460938 0.021972656 0.031982422 -2.682209e-05 -0.020874023 -0.018188477 -0.032714844 -0.00793457
-0.018066406 0.026977539 0.024414062 -0.028442383 0.02758789 0.028930664 0.030029297 0.0078125
0.009277344 0.007873535 -0.0107421875 0.0078125 -0.016845703 -0.024780273 0.011291504 0.026855469
0.012817383 0.0042419434 0.0008430481 0.021972656 -0.03515625 0.025024414 0.0066833496 -0.0087890625
-0.0078125 0.03491211 0.011047363 0.030151367 -0.0078125 0.020019531 -0.009460449 -0.023071289
0.0078125 0.009399414 0.009460449 0.008300781 0.00079345703 -0.002243042 0.011108398 0.009887695
0.033203125 -0.036132812 0.03540039 0.013977051 0.012207031 0.01940918 -0.014404297 0.008850098
0.018066406 0.009399414 -0.0005722046 -0.029785156 0.015625 -0.033935547 -0.022460938 -0.029052734
-0.0051879883 -0.03100586 0.0013580322 -0.007293701 0.03100586 0.021606445 0.0107421875 -0.0078125
0.0013961792 0.028442383 -0.012145996 -0.02368164 -0.018798828 -0.028564453 0.004058838 -0.0030212402
-0.03466797 -0.020141602 0.017211914 0.030273438 0.01159668 -0.02709961 0.028442383 0.029174805
-0.028076172 0.0029449463 0.014953613 0.003540039 -0.016479492 -0.03491211 -0.020385742 -0.028076172
-0.01373291 -0.025512695 -0.015136719 -0.0027770996 -0.0078125 -0.010620117 0.016479492 0.0234375
-0.028320312 -0.020751953 0.020507812 -0.021362305 -0.03149414 0.014099121 -0.026489258 -0.0115356445
00000000: 7abc f8bc 903c 553c 96ba 00bc 12bd a8bc
00000010: 38bc a93c 04bb 89bb b13b e83b 003c b6bc
00000020: 06bd b43c eabc b93b 00bc a0bb da3c d4bc
00000030: 0cbd 883b c43c 9a3c 5b3c 183c 673c c0ba
00000040: 003d 95bc 0d3c 0b3d ddbc 71bc 99bc 063d
00000050: 0abd a8bc 05bd 863b 003c a43c c53c 3bbc
00000060: 913c b73c 90bc ecbc df3c 643c f23c b6bc
00000070: bdbc 06bc 44bc e23c 0fbc b1bc 85bc 0e3d
00000080: 803c 11bd ad3b fcbc 90bc d5bc b6bc a13c
00000090: 1cbb a8bc 0e3d 253b 00bc 843c 823c 9fbc
000000a0: 983b 43bc d63b c13c 62bc ddbc 9b3c 583a
000000b0: e03c a13c 0b3d 193c a4bc cdbc d9ba 713c
000000c0: 053d bd3c 0abd 63bc a03c d93c a63c 45bb
000000d0: 9aba b0bc f9bc 80bc fa3c 703b b0bc a53b
000000e0: 043b 94bc 873c 56bc a6bc 8fbb 083d c8bb
000000f0: ed3c febc 05bd 583b 003c d8bc d2bc cdbc
00000100: 933c 5fbc 0bbd 23bc 10bd 8d3b 0f3d 5ebc
00000110: 20bc 053d bcbc 29bc c13c 813c 133d f63a
00000120: b8bc b43c 033d e1b7 abbc 95bc 06bd 02bc
00000130: 94bc dd3c c83c e9bc e23c ed3c f63c 003c
00000140: 183c 013c 30bc 003c 8abc cbbc 393c dc3c
00000150: 523c 8b3b 5d3a b43c 10bd cd3c db3b 10bc
00000160: 00bc 0f3d 353c f73c 00bc a43c 1bbc bdbc
00000170: 003c 1a3c 1b3c 083c 503a 13bb 363c 223c
00000180: 083d 14bd 113d 653c 483c 9f3c 6cbc 113c
00000190: 943c 1a3c 16ba f4bc 803c 0bbd b8bc eebc
000001a0: aabb febc b23a efbb fe3c b13c 303c 00bc
000001b0: b73a e93c 47bc c2bc 9abc eabc 853b 46bb
000001c0: 0ebd a5bc 8d3c f83c 3e3c debc e93c ef3c
000001d0: e6bc 413b 753c 683b 87bc 0fbd a7bc e6bc
000001e0: 61bc d1bc 78bc 36bb 00bc 2ebc 873c c03c
000001f0: e8bc aabc a83c afbc 01bd 673c d9bc 3dbc

base_model.model.transformer.h.10.attn.c_attn.lora_B.weight bf16 [2304, 8]
-0.0026245117 -0.0021820068 0.0013427734 0.0026245117 0.0019989014 -0.0024108887 0.0025939941 -0.001953125
-0.0011138916 -0.0010223389 0.00076675415 0.00079345703 0.0012130737 -0.0011978149 0.0007209778 -0.0011672974
0.00075149536 0.0016174316 -0.00077819824 -0.0023498535 -0.0022277832 0.0021209717 -0.0025787354 0.001953125
0.0017700195 0.0013809204 -0.0019302368 -0.0017089844 -0.0012435913 0.0008544922 -0.001663208 0.0006904602
-5.173683e-05 0.00028038025 -0.00016307831 -0.00050354004 0.00048446655 0.00061798096 -0.00016307831 0.00092697144
0.0028686523 0.0026245117 -0.0029449463 -0.0037384033 -0.002532959 0.0027770996 -0.0034637451 0.0030212402
0.0009498596 0.0007133484 -0.0019989014 -7.247925e-05 -0.0014724731 -0.00044059753 -0.00075149536 0.00049591064
-0.00092697144 -0.0010604858 0.000120162964 0.0014038086 0.0016479492 -0.0019683838 0.0017547607 -0.0017242432
-0.0016479492 -0.0015106201 0.001373291 0.0019989014 0.0022125244 -0.0018844604 0.002105713 -0.001411438
-0.0025939941 -0.0030212402 0.002380371 0.0031585693 0.0029144287 -0.0025634766 0.0030822754 -0.0025939941
0.0018615723 0.0017623901 -0.0011520386 -0.0026397705 -0.0021209717 0.0020446777 -0.0028533936 0.0019073486
-0.002105713 -0.0024871826 0.0023498535 0.003112793 0.0023651123 -0.0021514893 0.0024871826 -0.0022735596
-0.0007972717 -0.0011062622 0.0009536743 0.0018157959 0.0012054443 -0.0021362305 0.0014266968 -0.0009841919
0.0011444092 0.0012130737 -0.000957489 -0.0019836426 -0.0013580322 0.0017318726 -0.0021209717 0.0015640259
0.0025787354 0.0022735596 -0.003326416 -0.0032348633 -0.0021209717 0.0022277832 -0.002456665 0.0022125244
-0.0020751953 -0.0023498535 0.0026550293 0.0030670166 0.0021514893 -0.0024414062 0.0028686523 -0.0027160645
-0.001953125 -0.0016021729 0.0012893677 0.001953125 0.001953125 -0.0017318726 0.0021362305 -0.0012283325
0.002243042 0.0022735596 -0.0027770996 -0.0030212402 -0.0023651123 0.002243042 -0.0023651123 0.0023345947
-0.0016174316 -0.0015029907 0.0028076172 0.0018463135 0.0012359619 -0.001159668 0.001739502 -0.0016403198
0.0006790161 0.00033950806 -0.0018081665 -0.00045585632 -0.00010251999 0.0003452301 -0.00038719177 0.00077056885
-0.0025787354 -0.0022125244 0.0032043457 0.003189087 0.0021972656 -0.002456665 0.0023956299 -0.0022735596
-0.0011901855 -0.0014419556 0.0013885498 0.0014953613 0.0020141602 -0.0014877319 0.001739502 -0.0017623901
-0.0018157959 -0.0020599365 0.0015869141 0.0013046265 0.002090454 -0.001335144 0.0014572144 -0.0015106201
-0.0018157959 -0.0015029907 0.001953125 0.0016860962 0.0019683838 -0.0011062622 0.0012359619 -0.0015335083
-0.0012969971 -0.0012130737 0.0019454956 -0.00011062622 -0.0005683899 -8.6426735e-06 -0.0005645752 -8.440018e-05
-0.001159668 -0.001083374 0.0019454956 0.0021972656 0.0018539429 -0.002105713 0.0019989014 -0.0015106201
0.00022029877 -0.0005645752 8.249283e-05 0.00061798096 0.00061035156 -0.0009841919 0.0007324219 -0.0006790161
0.0018463135 0.0019989014 -0.0023498535 -0.002670288 -0.0023498535 0.0024261475 -0.0030517578 0.0027008057
0.0013275146 0.00013065338 -0.0016708374 8.678436e-05 0.00033950806 -0.0007324219 0.0004386902 0.00023937225
0.00063705444 -0.00018405914 -0.0014343262 -0.00047302246 -0.00036621094 4.172325e-05 0.0005264282 0.00011110306
-0.001953125 -0.001953125 0.0032958984 0.0034637451 0.002822876 -0.0029907227 0.003479004 -0.002609253
0.0014190674 0.0019683838 -0.0020446777 -0.0021362305 -0.0022735596 0.001953125 -0.002243042 0.001953125
00000000: 2cbb 0fbb b03a 2c3b 033b 1ebb 2a3b 00bb
00000010: 92ba 86ba 493a 503a 9f3a 9dba 3d3a 99ba
00000020: 453a d43a 4cba 1abb 12bb 0b3b 29bb 003b
00000030: e83a b53a fdba e0ba a3ba 603a daba 353a
00000040: 59b8 9339 2bb9 04ba fe39 223a 2bb9 733a
00000050: 3c3b 2c3b 41bb 75bb 26bb 363b 63bb 463b
00000060: 793a 3b3a 03bb 98b8 c1ba e7b9 45ba 023a
00000070: 73ba 8bba fc38 b83a d83a 01bb e63a e2ba
00000080: d8ba c6ba b43a 033b 113b f7ba 0a3b b9ba
00000090: 2abb 46bb 1c3b 4f3b 3f3b 28bb 4a3b 2abb
000000a0: f43a e73a 97ba 2dbb 0bbb 063b 3bbb fa3a
000000b0: 0abb 23bb 1a3b 4c3b 1b3b 0dbb 233b 15bb
000000c0: 51ba 91ba 7a3a ee3a 9e3a 0cbb bb3a 81ba
000000d0: 963a 9f3a 7bba 02bb b2ba e33a 0bbb cd3a
000000e0: 293b 153b 5abb 54bb 0bbb 123b 21bb 113b
000000f0: 08bb 1abb 2e3b 493b 0d3b 20bb 3c3b 32bb
00000100: 00bb d2ba a93a 003b 003b e3ba 0c3b a1ba
00000110: 133b 153b 36bb 46bb 1bbb 133b 1bbb 193b
00000120: d4ba c5ba 383b f23a a23a 98ba e43a d7ba
00000130: 323a b239 edba efb9 d7b8 b539 cbb9 4a3a
00000140: 29bb 11bb 523b 513b 103b 21bb 1d3b 15bb
00000150: 9cba bdba b63a c43a 043b c3ba e43a e7ba
00000160: eeba 07bb d03a ab3a 093b afba bf3a c6ba
00000170: eeba c5ba 003b dd3a 013b 91ba a23a c9ba
00000180: aaba 9fba ff3a e8b8 15ba 11b7 14ba b1b8
00000190: 98ba 8eba ff3a 103b f33a 0abb 033b c6ba
000001a0: 6739 14ba ad38 223a 203a 81ba 403a 32ba
000001b0: f23a 033b 1abb 2fbb 1abb 1f3b 48bb 313b
000001c0: ae3a 0939 dbba b638 b239 40ba e639 7b39
000001d0: 273a 41b9 bcba f8b9 c0b9 2f38 0a3a e938
000001e0: 00bb 00bb 583b 633b 393b 44bb 643b 2bbb
000001f0: ba3a 013b 06bb 0cbb 15bb 003b 13bb 003b

base_model.model.transformer.h.11.attn.c_attn.lora_A.weight bf16 [8, 768]
0.03564453 0.008605957 0.008605957 -0.015075684 -0.014038086 -0.026000977 -0.00065612793 0.008056641
-0.017333984 0.0078125 0.018676758 -0.010070801 0.0078125 -0.020141602 -0.008117676 0.020263672
-0.0234375 -0.020019531 -0.0027923584 -0.033447266 0.018554688 0.0077209473 0.0039367676 -0.008178711
-0.032226562 0.0078125 -0.02709961 0.029907227 -0.0022125244 -0.020629883 -0.015380859 0.013671875
0.033203125 -0.03173828 -0.00390625 0.024902344 0.026611328 0.022216797 -0.00035858154 -0.02746582
0.0018692017 -0.024047852 -0.032714844 -0.028564453 -0.018920898 0.027709961 -0.025146484 -0.008422852
0.022216797 -0.03515625 0.017700195 -0.020263672 -0.0078125 0.0010299683 -0.013061523 0.014282227
0.0045166016 0.032714844 -0.010009766 0.027954102 0.026489258 0.0154418945 -0.014770508 0.026245117
0.014221191 -0.022949219 0.032226562 0.0087890625 0.02368164 0.021362305 0.01940918 0.005065918
0.0050354004 0.01965332 -0.011657715 0.033691406 -0.0062561035 -0.02746582 -0.0039367676 0.030395508
-0.03564453 0.0031738281 -0.021240234 0.02722168 0.014953613 0.017089844 0.0078125 -0.008361816
0.026611328 0.02758789 -0.001739502 0.007080078 0.034423828 0.006164551 -0.030029297 -0.00010538101
-0.03112793 0.024047852 0.029541016 -0.008117676 -0.0043029785 -0.03466797 -0.02746582 0.021362305
-0.024169922 -0.017578125 -0.015075684 -0.007293701 0.017089844 0.032958984 -0.029907227 0.01574707
-0.014282227 -0.0060424805 0.015991211 -0.01965332 -0.028442383 -0.009216309 0.0078125 -0.019897461
0.008911133 -0.032226562 0.006164551 0.01928711 0.012145996 -0.026123047 -0.0115356445 -0.021850586
-0.018920898 -0.014404297 -0.0078125 0.009765625 -0.00793457 0.015991211 0.010681152 0.009033203
0.018920898 0.021850586 0.010864258 0.030273438 -0.02331543 -0.010498047 0.014465332 -0.019897461
0.0078125 -0.011108398 0.02722168 0.005279541 -0.010864258 0.006713867 -0.03515625 0.026367188
0.013000488 -0.029296875 0.029541016 0.035888672 0.0234375 -0.009887695 -0.017333984 -0.03564453
-0.020019531 0.02746582 -0.035888672 0.020141602 -0.03564453 0.018676758 -0.0009994507 0.02758789
0.0078125 0.03515625 0.004272461 -0.014526367 0.022460938 -0.004119873 -0.025268555 -0.011352539
-0.004211426 -0.026123047 -0.024414062 0.014709473 0.02355957 0.014587402 0.022827148 -0.018066406
0.010803223 -0.0078125 0.00340271 -0.01953125 -0.028930664 0.024902344 -0.00074386597 -0.010498047
-0.028930664 -0.02709961 0.03515625 -0.03466797 0.020996094 0.030517578 0.0028076172 -0.009887695
0.0087890625 0.008911133 0.015625 -0.02319336 -0.015991211 -0.025878906 -0.005584717 -0.008056641
-0.0010757446 0.018188477 -0.024414062 0.032226562 -0.026611328 0.018066406 -0.03491211 -0.0065307617
0.03564453 0.030761719 0.020141602 -0.004272461 0.01953125 0.012268066 -0.024780273 0.017456055
0.016113281 0.019897461 0.0039978027 0.011108398 0.020996094 0.028808594 -0.032470703 0.01965332
-0.029296875 -0.03100586 0.013000488 -0.016601562 -0.0027008057 0.0034332275 -0.012573242 0.02331543
0.012451172 -0.020629883 0.017578125 -0.015197754 -0.0063171387 0.03100586 -0.017822266 0.024658203
-0.0078125 -0.034423828 -0.029418945 -0.0099487305 0.02331543 -0.0038909912 -0.0078125 -0.0013656616
00000000: 123d 0d3c 0d3c 77bc 66bc d5bc 2cba 043c
00000010: 8ebc 003c 993c 25bc 003c a5bc 05bc a63c
00000020: c0bc a4bc 37bb 09bd 983c fd3b 813b 06bc
00000030: 04bd 003c debc f53c 11bb a9bc 7cbc 603c
00000040: 083d 02bd 80bb cc3c da3c b63c bcb9 e1bc
00000050: f53a c5bc 06bd eabc 9bbc e33c cebc 0abc
00000060: b63c 10bd 913c a6bc 00bc 873a 56bc 6a3c
00000070: 943b 063d 24bc e53c d93c 7d3c 72bc d73c
00000080: 693c bcbc 043d 103c c23c af3c 9f3c a63b
00000090: a53b a13c 3fbc 0a3d cdbb e1bc 81bb f93c
000000a0: 12bd 503b aebc df3c 753c 8c3c 003c 09bc
000000b0: da3c e23c e4ba e83b 0d3d ca3b f6bc ddb8
000000c0: ffbc c53c f23c 05bc 8dbb 0ebd e1bc af3c
000000d0: c6bc 90bc 77bc efbb 8c3c 073d f5bc 813c
000000e0: 6abc c6bb 833c a1bc e9bc 17bc 003c a3bc
000000f0: 123c 04bd ca3b 9e3c 473c d6bc 3dbc b3bc
00000100: 9bbc 6cbc 00bc 203c 02bc 833c 2f3c 143c
00000110: 9b3c b33c 323c f83c bfbc 2cbc 6d3c a3bc
00000120: 003c 36bc df3c ad3b 32bc dc3b 10bd d83c
00000130: 553c f0bc f23c 133d c03c 22bc 8ebc 12bd
00000140: a4bc e13c 13bd a53c 12bd 993c 83ba e23c
00000150: 003c 103d 8c3b 6ebc b83c 87bb cfbc 3abc
00000160: 8abb d6bc c8bc 713c c13c 6f3c bb3c 94bc
00000170: 313c 00bc 5f3b a0bc edbc cc3c 43ba 2cbc
00000180: edbc debc 103d 0ebd ac3c fa3c 383b 22bc
00000190: 103c 123c 803c bebc 83bc d4bc b7bb 04bc
000001a0: 8dba 953c c8bc 043d dabc 943c 0fbd d6bb
000001b0: 123d fc3c a53c 8cbb a03c 493c cbbc 8f3c
000001c0: 843c a33c 833b 363c ac3c ec3c 05bd a13c
000001d0: f0bc febc 553c 88bc 31bb 613b 4ebc bf3c
000001e0: 4c3c a9bc 903c 79bc cfbb fe3c 92bc ca3c
000001f0: 00bc 0dbd f1bc 23bc bf3c 7fbb 00bc b3ba

base_model.model.transformer.h.11.attn.c_attn.lora_B.weight bf16 [2304, 8]
-0.0013275146 -0.0008773804 0.0023040771 0.0013809204 0.001159668 -0.00091552734 -0.0021514893 0.002090454
-0.0019683838 -0.0013809204 0.0019226074 0.0014190674 0.00019454956 -0.0015335083 -0.002029419 0.0016098022
-0.0004787445 -5.4597855e-05 -8.940697e-06 -0.0007972717 -0.0005607605 0.00047683716 0.0005722046 -0.00019836426
0.0011978149 0.00012302399 -0.00089645386 -0.00038337708 0.000113487244 0.00032615662 0.00062561035 -0.0012054443
0.0016784668 0.00077819824 -0.0013656616 -6.580353e-05 -0.00092315674 7.4863434e-05 0.0008430481 -0.0010681152
0.00023937225 0.0026245117 -0.0010757446 -0.0011444092 0.00076293945 0.0025177002 0.0013580322 -0.0013122559
-0.00390625 -0.0009918213 0.0040283203 0.002532959 0.0024261475 -0.0013656616 -0.00390625 0.00390625
-0.0011901855 -0.00065231323 0.0012512207 0.00043296814 0.00093460083 -0.0004787445 -0.0013885498 0.001121521
-0.0013122559 -0.0011138916 0.0021820068 0.001083374 0.0009994507 -0.00088500977 -0.0027770996 0.0017700195
-0.0019836426 0.0009498596 0.001373291 0.0001039505 0.0012359619 0.00079345703 -0.0010757446 0.001083374
-0.0001296997 0.00051116943 0.000118255615 7.724762e-05 -0.00031280518 0.00022125244 -0.0004749298 5.197525e-05
0.003112793 0.0023345947 -0.0037078857 -0.0021209717 -0.0013198853 0.0028686523 0.0035095215 -0.0032958984
0.003326416 1.4126301e-05 -0.0033721924 -0.0013198853 -0.0023651123 1.3768673e-05 0.0027618408 -0.0025482178
-0.00033950806 -0.00089645386 0.0011978149 0.0009613037 7.9631805e-05 -0.00049209595 -0.0014419556 0.0010147095
0.003967285 0.0012283325 -0.003967285 -0.0018463135 -0.0022735596 0.0011978149 0.0034484863 -0.00340271
-0.0005187988 0.0018310547 -0.00016880035 -0.00044822693 0.00039100647 0.0019836426 -0.00031661987 -0.00038528442
0.0014038086 -0.0009498596 -0.0009841919 -0.00030708313 -0.00077819824 -0.0010070801 0.0003566742 -0.0010757446
-0.00092697144 -0.00074005127 0.00027275085 -0.0004119873 -0.0008659363 -0.00026512146 -7.8201294e-05 -3.0994415e-05
0.0006637573 -0.00027275085 -0.0005683899 -1.2099743e-05 -0.00048065186 -0.00030136108 0.00012588501 -0.0001707077
-0.001953125 -7.772446e-05 0.0018844604 0.0005531311 0.00061416626 -0.0007095337 -0.0014343262 0.0015945435
0.0023498535 0.0014877319 -0.002960205 -0.0020599365 -0.0012359619 0.002105713 0.0029296875 -0.0027923584
0.002105713 -0.00019168854 -0.0023345947 -0.0012664795 -0.0022583008 0.0002861023 0.0018234253 -0.0019989014
-0.002243042 -0.0011062622 0.001373291 0.00063705444 0.0012054443 -0.00051498413 -0.0010910034 0.0012207031
-0.0033416748 -0.0007133484 0.00390625 0.0019683838 0.0024871826 -0.0012435913 -0.003112793 0.003753662
-0.0027313232 0.0008735657 0.0022583008 0.00044441223 0.0015945435 0.0008163452 -0.0013961792 0.0019073486
-0.002029419 0.0002937317 0.001953125 0.0008621216 0.0016555786 0.00030708313 -0.0018234253 0.001373291
0.00063705444 0.00019836426 -0.0013504028 -0.00031471252 -0.0005226135 0.00037002563 0.0008354187 -0.0011444092
-0.002609253 0.00022888184 0.0034942627 0.0015335083 0.0019073486 -0.00023174286 -0.0028076172 0.0024871826
-0.0021514893 0.0005531311 0.0019989014 0.0008354187 0.0010528564 6.055832e-05 -0.0015411377 0.0018539429
0.001083374 1.6212463e-05 -0.0008430481 -0.00090408325 8.8214874e-05 0.00064849854 0.00035858154 -0.00065231323
0.0030212402 0.0002746582 -0.002746582 -0.0012512207 -0.0014572144 0.0006980896 0.0026855469 -0.0028076172
-0.0033569336 -0.001953125 0.00390625 0.0021820068 0.0023956299 -0.0022277832 -0.00390625 0.0038146973
00000000: aeba 66ba 173b b53a 983a 70ba 0dbb 093b
00000010: 01bb b5ba fc3a ba3a 4c39 c9ba 05bb d33a
00000020: fbb9 65b8 16b7 51ba 13ba fa39 163a 50b9
00000030: 9d3a 0139 6bba c9b9 ee38 ab39 243a 9eba
00000040: dc3a 4c3a b3ba 8ab8 72ba 9d38 5d3a 8cba
00000050: 7b39 2c3b 8dba 96ba 483a 253b b23a acba
00000060: 80bb 82ba 843b 263b 1f3b b3ba 80bb 803b
00000070: 9cba 2bba a43a e339 753a fbb9 b6ba 933a
00000080: acba 92ba 0f3b 8e3a 833a 68ba 36bb e83a
00000090: 02bb 793a b43a da38 a23a 503a 8dba 8e3a
000000a0: 08b9 063a f838 a238 a4b9 6839 f9b9 5a38
000000b0: 4c3b 193b 73bb 0bbb adba 3c3b 663b 58bb
000000c0: 5a3b 6d37 5dbb adba 1bbb 6737 353b 27bb
000000d0: b2b9 6bba 9d3a 7c3a a738 01ba bdba 853a
000000e0: 823b a13a 82bb f2ba 15bb 9d3a 623b 5fbb
000000f0: 08ba f03a 31b9 ebb9 cd39 023b a6b9 cab9
00000100: b83a 79ba 81ba a1b9 4cba 84ba bb39 8dba
00000110: 73ba 42ba 8f39 d8b9 63ba 8bb9 a4b8 02b8
00000120: 2e3a 8fb9 15ba 4bb7 fcb9 9eb9 0439 33b9
00000130: 00bb a3b8 f73a 113a 213a 3aba bcba d13a
00000140: 1a3b c33a 42bb 07bb a2ba 0a3b 403b 37bb
00000150: 0a3b 49b9 19bb a6ba 14bb 9639 ef3a 03bb
00000160: 13bb 91ba b43a 273a 9e3a 07ba 8fba a03a
00000170: 5bbb 3bba 803b 013b 233b a3ba 4cbb 763b
00000180: 33bb 653a 143b e939 d13a 563a b7ba fa3a
00000190: 05bb 9a39 003b 623a d93a a139 efba b43a
000001a0: 273a 5039 b1ba a5b9 09ba c239 5b3a 96ba
000001b0: 2bbb 7039 653b c93a fa3a 73b9 38bb 233b
000001c0: 0dbb 113a 033b 5b3a 8a3a 7e38 caba f33a
000001d0: 8e3a 8837 5dba 6dba b938 2a3a bc39 2bba
000001e0: 463b 9039 34bb a4ba bfba 373a 303b 38bb
000001f0: 5cbb 00bb 803b 0f3b 1d3b 12bb 80bb 7a3b

base_model.model.transformer.h.2.attn.c_attn.lora_A.weight bf16 [8, 768]
-0.024291992 -0.017211914 0.016113281 -0.02355957 0.032714844 0.00592041 -0.01586914 -0.016357422
0.01184082 0.007080078 -0.02355957 0.017578125 -0.012878418 0.021606445 -0.012573242 0.017211914
-0.024780273 0.02709961 0.013000488 -0.00340271 0.016113281 0.014099121 0.021362305 -0.0018997192
0.0234375 0.01965332 -0.014099121 -0.024169922 0.032226562 -0.011291504 0.032958984 -0.022338867
0.01361084 0.0034942627 0.033203125 0.00074768066 0.031982422 0.013366699 -0.000869751 0.02722168
-0.015625 0.022705078 0.016479492 -0.032958984 0.00078964233 -0.006286621 -0.0046081543 -0.03149414
-0.029052734 -0.015075684 0.024658203 0.025512695 -0.03100586 0.03149414 -0.0012512207 0.022216797
-0.017578125 -0.0015106201 -0.016601562 0.006134033 -0.007873535 0.030517578 -0.024536133 -0.009521484
0.0078125 0.013244629 0.026977539 -0.021850586 0.021484375 -0.00075912476 -0.020996094 0.028076172
-0.007873535 0.014770508 0.033691406 0.004638672 -0.030517578 0.012451172 0.0005760193 -0.017944336
0.026611328 0.01361084 -0.01574707 -0.013671875 -0.027832031 0.024169922 0.028930664 -0.005859375
0.013427734 -0.01171875 -0.020263672 -0.025390625 -0.025146484 0.013916016 -0.03466797 0.032958984
-0.0012283325 -0.033203125 -0.035888672 -0.032470703 -0.030151367 -0.0234375 0.018310547 -0.020874023
-0.021728516 -0.0078125 0.014953613 0.033691406 0.02319336 -0.03564453 -0.0074157715 -0.007171631
0.022949219 0.019165039 -0.012145996 0.016235352 -0.022094727 -0.0016555786 -0.030029297 -0.03173828
0.018432617 0.033935547 0.00035858154 -0.024902344 0.0051574707 0.016113281 -0.0079956055 0.033203125
-0.010498047 -0.030029297 -0.008483887 -0.013244629 0.0039978027 -0.029663086 0.009399414 0.025756836
-0.033691406 -0.0078125 -0.020751953 -0.016479492 -0.016235352 -0.029541016 0.013305664 -0.0047912598
-0.017089844 -0.006439209 0.016845703 0.028686523 0.00982666 0.001953125 0.014892578 -0.020629883
-0.010620117 0.0039978027 0.021484375 0.023925781 -0.028442383 -0.01940918 0.019165039 -0.00038528442
-0.032714844 -0.016967773 0.024780273 -0.033935547 -0.009033203 -0.020751953 -0.010009766 -0.033935547
0.026855469 0.0065612793 0.033935547 -0.031982422 -0.02734375 -0.03564453 -0.029785156 -0.024291992
-0.010009766 0.0099487305 0.01953125 0.023071289 -0.018798828 0.028686523 -0.0040893555 -0.032714844
-0.008178711 0.011352539 0.021118164 0.011108398 -0.0017852783 -0.024902344 0.0046691895 0.034179688
-0.0234375 -0.013977051 -0.022338867 -0.03149414 0.03100586 -0.02319336 0.005859375 -0.0043945312
0.0015411377 -0.025634766 6.771088e-05 -0.015136719 -0.008178711 0.030151367 -0.017700195 -0.009338379
-0.00078201294 0.032714844 -0.03564453 0.006591797 0.032714844 0.026123047 -0.0009536743 -0.025268555
0.03564453 -0.012817383 0.020263672 0.009399414 -0.03173828 0.020874023 -0.011779785 -0.0021972656
0.0022277832 0.032958984 0.02709961 0.029785156 0.025512695 0.0078125 -0.032470703 -0.028930664
0.0030212402 -0.03466797 0.00040626526 -0.0002593994 0.026367188 -0.029174805 -0.03540039 -0.020996094
0.03149414 0.014282227 -0.016357422 0.033203125 -0.022827148 0.021362305 -0.0073242188 -0.020629883
-0.013061523 -0.009887695 -0.014221191 0.030639648 0.023925781 -0.02734375 -0.0078125 -0.0022583008
00000000: c7bc 8dbc 843c c1bc 063d c23b 82bc 86bc
00000010: 423c e83b c1bc 903c 53bc b13c 4ebc 8d3c
00000020: cbbc de3c 553c 5fbb 843c 673c af3c f9ba
00000030: c03c a13c 67bc c6bc 043d 39bc 073d b7bc
00000040: 5f3c 653b 083d 443a 033d 5b3c 64ba df3c
00000050: 80bc ba3c 873c 07bd 4f3a cebb 97bb 01bd
00000060: eebc 77bc ca3c d13c febc 013d a4ba b63c
00000070: 90bc c6ba 88bc c93b 01bc fa3c c9bc 1cbc
00000080: 003c 593c dd3c b3bc b03c 47ba acbc e63c
00000090: 01bc 723c 0a3d 983b fabc 4c3c 173a 93bc
000000a0: da3c 5f3c 81bc 60bc e4bc c63c ed3c c0bb
000000b0: 5c3c 40bc a6bc d0bc cebc 643c 0ebd 073d
000000c0: a1ba 08bd 13bd 05bd f7bc c0bc 963c abbc
000000d0: b2bc 00bc 753c 0a3d be3c 12bd f3bb ebbb
000000e0: bc3c 9d3c 47bc 853c b5bc d9ba f6bc 02bd
000000f0: 973c 0b3d bc39 ccbc a93b 843c 03bc 083d
00000100: 2cbc f6bc 0bbc 59bc 833b f3bc 1a3c d33c
00000110: 0abd 00bc aabc 87bc 85bc f2bc 5a3c 9dbb
00000120: 8cbc d3bb 8a3c eb3c 213c 003b 743c a9bc
00000130: 2ebc 833b b03c c43c e9bc 9fbc 9d3c cab9
00000140: 06bd 8bbc cb3c 0bbd 14bc aabc 24bc 0bbd
00000150: dc3c d73b 0b3d 03bd e0bc 12bd f4bc c7bc
00000160: 24bc 233c a03c bd3c 9abc eb3c 86bb 06bd
00000170: 06bc 3a3c ad3c 363c eaba ccbc 993b 0c3d
00000180: c0bc 65bc b7bc 01bd fe3c bebc c03b 90bb
00000190: ca3a d2bc 8e38 78bc 06bc f73c 91bc 19bc
000001a0: 4dba 063d 12bd d83b 063d d63c 7aba cfbc
000001b0: 123d 52bc a63c 1a3c 02bd ab3c 41bc 10bb
000001c0: 123b 073d de3c f43c d13c 003c 05bd edbc
000001d0: 463b 0ebd d539 88b9 d83c efbc 11bd acbc
000001e0: 013d 6a3c 86bc 083d bbbc af3c f0bb a9bc
000001f0: 56bc 22bc 69bc fb3c c43c e0bc 00bc 14bb
