examples/research_projects/stack_llama/scripts/gpt2_peft_stack-exchange-paired_rmts__100000_2e-05/checkpoint-31500/adapter_model.safetensors (safetensors, 594496 bytes, 25 tensors)

base_model.model.score.weight bf16 [1, 768]
0	0x3cf0	0.029296875
1	0x3bb9	0.005645752
2	0x3c9e	0.01928711
3	0x3d01	0.03149414
4	0x3c22	0.009887695
5	0xbcf9	-0.030395508
6	0xbbb0	-0.0053710938
7	0x3c3c	0.011474609
8	0x3bce	0.006286621
9	0xbc3a	-0.011352539
10	0x3c32	0.010864258
11	0xbc38	-0.011230469
12	0x3c45	0.012023926
13	0x3d43	0.047607422
14	0x3d09	0.033447266
15	0xbc89	-0.016723633
16	0xbc25	-0.010070801
17	0xbc27	-0.010192871
18	0xbc0f	-0.008728027
19	0x3ce0	0.02734375
20	0xbc5c	-0.013427734
21	0xbb80	-0.00390625
22	0x3c93	0.017944336
23	0xbcdb	-0.026733398
24	0x3c7b	0.015319824
25	0x3cbc	0.022949219
26	0xbc3c	-0.011474609
27	0x3c9e	0.01928711
28	0x3d27	0.040771484
29	0x3c38	0.011230469
30	0xbb3b	-0.0028533936
31	0xbc65	-0.013977051
32	0xbc1a	-0.009399414
33	0xbce4	-0.027832031
34	0x3ce3	0.027709961
35	0xbc49	-0.012268066
36	0x3d72	0.05908203
37	0x3c56	0.013061523
38	0xbcde	-0.02709961
39	0xbcf3	-0.029663086
40	0x3ca2	0.01977539
41	0x3cc3	0.023803711
42	0xbd25	-0.040283203
43	0xbd03	-0.031982422
44	0xbc9e	-0.01928711
45	0x3c38	0.011230469
46	0xbc60	-0.013671875
47	0xbc76	-0.015014648
48	0x3c97	0.018432617
49	0x3bf1	0.0073547363
50	0x3c23	0.0099487305
51	0xbce8	-0.028320312
52	0x3b16	0.0022888184
53	0x3d03	0.031982422
54	0x3bcb	0.0061950684
55	0xbc20	-0.009765625
56	0x3c90	0.017578125
57	0xbce7	-0.028198242
58	0x3b46	0.0030212402
59	0xbc91	-0.017700195
60	0x3b0b	0.0021209717
61	0x3b80	0.00390625
62	0xbcba	-0.022705078
63	0x3b8f	0.0043640137
64	0x3c9a	0.018798828
65	0x3c03	0.0079956055
66	0x3c29	0.010314941
67	0x3cb1	0.021606445
68	0xbc0b	-0.008483887
69	0xbce9	-0.028442383
70	0xbc3e	-0.01159668
71	0x3c4d	0.012512207
72	0x3cd1	0.025512695
73	0xbbae	-0.0053100586
74	0x3adf	0.001701355
75	0x3c1d	0.0095825195
76	0x3cb5	0.022094727
77	0x3a81	0.0009841919
78	0x3c00	0.0078125
79	0x3caa	0.020751953
80	0x3cac	0.020996094
81	0xbc05	-0.008117676
82	0xbcb5	-0.022094727
83	0xbb0d	-0.0021514893
84	0xbbd0	-0.0063476562
85	0xbc98	-0.018554688
86	0xbc95	-0.018188477
87	0xbc69	-0.014221191
88	0x3cc8	0.024414062
89	0x3bc6	0.0060424805
90	0x3bbb	0.005706787
91	0xbb80	-0.00390625
92	0xbc64	-0.013916016
93	0x3d20	0.0390625
94	0x3cbe	0.02319336
95	0x3abd	0.0014419556
96	0x3b34	0.002746582
97	0x3ca0	0.01953125
98	0xbb08	-0.0020751953
99	0x3c27	0.010192871
100	0xbcba	-0.022705078
101	0x3ce9	0.028442383
102	0xbc92	-0.017822266
103	0x3c25	0.010070801
104	0x3cd0	0.025390625
105	0x3b17	0.0023040771
106	0xbc5f	-0.01361084
107	0x3cbc	0.022949219
108	0x3b60	0.0034179688
109	0xbc07	-0.008239746
110	0xba99	-0.0011672974
111	0xbd0b	-0.033935547
112	0x3c8a	0.016845703
113	0x3c3e	0.01159668
114	0xbd29	-0.041259766
115	0xbc87	-0.016479492
116	0xbc52	-0.012817383
117	0x3c24	0.010009766
118	0x3c75	0.014953613
119	0xbb8b	-0.0042419434
120	0x3c2e	0.010620117
121	0xbced	-0.028930664
122	0xbc5a	-0.013305664
123	0x3b99	0.0046691895
124	0x3cb6	0.022216797
125	0x3cc8	0.024414062
126	0x3d1f	0.03881836
127	0x3d03	0.031982422
128	0xbc1f	-0.00970459
129	0x3c95	0.018188477
130	0xbcb8	-0.022460938
131	0x3bef	0.007293701
132	0xbcb7	-0.022338867
133	0xbc9c	-0.019042969
134	0xbb0d	-0.0021514893
135	0x3c36	0.011108398
136	0xbce4	-0.027832031
137	0x3cb5	0.022094727
138	0xbcc8	-0.024414062
139	0x3c92	0.017822266
140	0x3cd5	0.026000977
141	0xbb63	-0.0034637451
142	0x3b55	0.003250122
143	0x3c98	0.018554688
144	0xbd0b	-0.033935547
145	0x3c2d	0.010559082
146	0xbbd1	-0.006378174
147	0xbcd9	-0.026489258
148	0x3cf3	0.029663086
149	0xbb89	-0.004180908
150	0x3b7f	0.0038909912
151	0xbcc9	-0.024536133
152	0x3c47	0.012145996
153	0x3c99	0.018676758
154	0xbd2e	-0.04248047
155	0xbb5a	-0.003326416
156	0x3c9a	0.018798828
157	0xbcbf	-0.02331543
158	0x3b80	0.00390625
159	0x3b8c	0.004272461
160	0x3c71	0.014709473
161	0xbc59	-0.013244629
162	0x3c3b	0.011413574
163	0x3c5e	0.013549805
164	0xbc95	-0.018188477
165	0x3d03	0.031982422
166	0x3c1a	0.009399414
167	0x3b94	0.0045166016
168	0xbc55	-0.013000488
169	0xbbee	-0.0072631836
170	0xbcd6	-0.026123047
171	0x3d1a	0.037597656
172	0xbc65	-0.013977051
173	0x3c3c	0.011474609
174	0x3c73	0.014831543
175	0x3cf5	0.029907227
176	0x3c2d	0.010559082
177	0xbb82	-0.003967285
178	0x3b82	0.003967285
179	0xbb9a	-0.004699707
180	0xbc47	-0.012145996
181	0x3c45	0.012023926
182	0x3bb1	0.0054016113
183	0x3af6	0.001876831
184	0x3d02	0.03173828
185	0x3c28	0.010253906
186	0x3b85	0.004058838
187	0xbc90	-0.017578125
188	0xb939	-0.00017642975
189	0x3c86	0.016357422
190	0x3b80	0.00390625
191	0xbb80	-0.00390625
192	0xbc43	-0.0119018555
193	0x3cb3	0.021850586
194	0x3d02	0.03173828
195	0xbcb5	-0.022094727
196	0x3d02	0.03173828
197	0xbc71	-0.014709473
198	0x3c1b	0.009460449
199	0xbc07	-0.008239746
200	0x3b4b	0.0030975342
201	0x3b7d	0.0038604736
202	0x3b2d	0.0026397705
203	0x3cc5	0.024047852
204	0xbcf3	-0.029663086
205	0x3c08	0.008300781
206	0x3b6c	0.0036010742
207	0x3b76	0.003753662
208	0x3b25	0.0025177002
209	0xbb12	-0.0022277832
210	0x3bd6	0.0065307617
211	0x3b72	0.003692627
212	0x3c7b	0.015319824
213	0xbc9e	-0.01928711
214	0x3d0a	0.033691406
215	0x3b82	0.003967285
216	0xbc36	-0.011108398
217	0x3c85	0.016235352
218	0xbb83	-0.0039978027
219	0x3c9d	0.019165039
220	0x3bc0	0.005859375
221	0x3c9d	0.019165039
222	0x3b3a	0.0028381348
223	0xbd57	-0.052490234
224	0xbc07	-0.008239746
225	0x3cbe	0.02319336
226	0xbd44	-0.047851562
227	0xbc60	-0.013671875
228	0xbd00	-0.03125
229	0xbca8	-0.020507812
230	0x3c8d	0.017211914
231	0x3bd7	0.0065612793
232	0xbd38	-0.044921875
233	0x3c1d	0.0095825195
234	0xbd05	-0.032470703
235	0xbc43	-0.0119018555
236	0xbc91	-0.017700195
237	0x3c1e	0.009643555
238	0x3c47	0.012145996
239	0xbc7e	-0.01550293
240	0xbcbf	-0.02331543
241	0x3c90	0.017578125
242	0x3cb5	0.022094727
243	0x3cb3	0.021850586
244	0xbd05	-0.032470703
245	0xb9cd	-0.00039100647
246	0x3c5f	0.01361084
247	0x3c71	0.014709473
248	0xbcbc	-0.022949219
249	0xbc6d	-0.014465332
250	0xbb85	-0.004058838
251	0xbb80	-0.00390625
252	0x3bae	0.0053100586
253	0x3c90	0.017578125
254	0xbcca	-0.024658203
255	0x3c67	0.014099121

base_model.model.transformer.h.0.attn.c_attn.lora_A.weight bf16 [8, 768]
0	0xbcd6	-0.026123047
1	0x3ce5	0.027954102
2	0xbce7	-0.028198242
3	0xbb80	-0.00390625
4	0x3d0a	0.033691406
5	0x3c90	0.017578125
6	0xbbab	-0.005218506
7	0x3c83	0.015991211
8	0x3c10	0.0087890625
9	0xbc36	-0.011108398
10	0xbc1a	-0.009399414
11	0xbc33	-0.010925293
12	0xbd08	-0.033203125
13	0xbcc0	-0.0234375
14	0x3b8b	0.0042419434
15	0x3c9d	0.019165039
16	0xbced	-0.028930664
17	0x3cd5	0.026000977
18	0x3d04	0.032226562
19	0xbca5	-0.020141602
20	0x3c7f	0.015563965
21	0x3cc6	0.024169922
22	0xbc94	-0.018066406
23	0x3c92	0.017822266
24	0x3d06	0.032714844
25	0x3cdf	0.02722168
26	0xbd0a	-0.033691406
27	0x3b7e	0.0038757324
28	0xbb8f	-0.0043640137
29	0x3c87	0.016479492
30	0x3b8f	0.0043640137
31	0xbcb2	-0.021728516
32	0xbd08	-0.033203125
33	0xbc1a	-0.009399414
34	0x3b80	0.00390625
35	0xbcc4	-0.023925781
36	0x3c60	0.013671875
37	0xbc3b	-0.011413574
38	0xbc39	-0.011291504
39	0xbc9a	-0.018798828
40	0xbcc5	-0.024047852
41	0x3cbf	0.02331543
42	0x3ce3	0.027709961
43	0x3b92	0.0044555664
44	0xbc99	-0.018676758
45	0xbb00	-0.001953125
46	0xbbf3	-0.0074157715
47	0x3c86	0.016357422
48	0xbc04	-0.008056641
49	0xbca0	-0.01953125
50	0x3cbc	0.022949219
51	0xbc2f	-0.010681152
52	0x3cdb	0.026733398
53	0x3b8e	0.004333496
54	0x3cac	0.020996094
55	0x3b29	0.0025787354
56	0xbc07	-0.008239746
57	0xbb80	-0.00390625
58	0xbb87	-0.004119873
59	0x3b80	0.00390625
60	0xbb82	-0.003967285
61	0x3c86	0.016357422
62	0x3b16	0.0022888184
63	0xbb78	-0.0037841797
64	0x3b95	0.004547119
65	0x3ba5	0.0050354004
66	0x3d09	0.033447266
67	0x3c20	0.009765625
68	0x3d02	0.03173828
69	0x3c73	0.014831543
70	0x3ccc	0.024902344
71	0xbccc	-0.024902344
72	0x3cd1	0.025512695
73	0xbca0	-0.01953125
74	0x3b72	0.003692627
75	0x3d02	0.03173828
76	0x3b75	0.0037384033
77	0x3c9d	0.019165039
78	0xbb8a	-0.004211426
79	0xbccc	-0.024902344
80	0x3ce7	0.028198242
81	0xbca5	-0.020141602
82	0x3d10	0.03515625
83	0xbba2	-0.0049438477
84	0xbc78	-0.015136719
85	0xbcf6	-0.030029297
86	0x3caf	0.021362305
87	0xbcf0	-0.029296875
88	0xbba4	-0.005004883
89	0x3b13	0.002243042
90	0x3c6b	0.014343262
91	0xbc79	-0.015197754
92	0x3c12	0.008911133
93	0xbcd7	-0.026245117
94	0x3c70	0.0146484375
95	0xbc28	-0.010253906
96	0x3ca6	0.020263672
97	0x3d04	0.032226562
98	0x3d04	0.032226562
99	0xbcd2	-0.025634766
100	0xbd03	-0.031982422
101	0x3c52	0.012817383
102	0xbcbf	-0.02331543
103	0xbbbb	-0.005706787
104	0x3c87	0.016479492
105	0x3ca2	0.01977539
106	0xbbe5	-0.0069885254
107	0x3cbb	0.022827148
108	0xbc84	-0.016113281
109	0xbbcd	-0.0062561035
110	0x3ca3	0.019897461
111	0x3bd1	0.006378174
112	0x3d04	0.032226562
113	0x3c9e	0.01928711
114	0x3cdb	0.026733398
115	0x3c20	0.009765625
116	0x3b7b	0.003829956
117	0xbc03	-0.0079956055
118	0x3ce8	0.028320312
119	0xbb7f	-0.0038909912
120	0x3b84	0.0040283203
121	0xbcbd	-0.023071289
122	0x3b33	0.0027313232
123	0x3b66	0.0035095215
124	0x3c1b	0.009460449
125	0x3c97	0.018432617
126	0x3c6b	0.014343262
127	0xbd0d	-0.034423828
128	0xbcf4	-0.029785156
129	0x3cca	0.024658203
130	0xbd0e	-0.03466797
131	0x3c9a	0.018798828
132	0x3adb	0.0016708374
133	0x3c53	0.012878418
134	0xbcdc	-0.026855469
135	0x3c42	0.01184082
136	0xbc94	-0.018066406
137	0x3d12	0.03564453
138	0xbc6a	-0.014282227
139	0xbbe7	-0.0070495605
140	0xbb0a	-0.002105713
141	0x3c1c	0.009521484
142	0xbc7c	-0.015380859
143	0x3d04	0.032226562
144	0xbca8	-0.020507812
145	0x3b80	0.00390625
146	0x3c3a	0.011352539
147	0xbd10	-0.03515625
148	0xbcf1	-0.029418945
149	0x3cb6	0.022216797
150	0x3d11	0.03540039
151	0x3c92	0.017822266
152	0xbca5	-0.020141602
153	0x3c09	0.008361816
154	0xbd0e	-0.03466797
155	0x3b81	0.0039367676
156	0xbcd3	-0.025756836
157	0xbc32	-0.010864258
158	0x3cb6	0.022216797
159	0x3d05	0.032470703
160	0xbc4b	-0.012390137
161	0x3cc8	0.024414062
162	0xbd07	-0.032958984
163	0x3b90	0.0043945312
164	0x3c71	0.014709473
165	0xbcaf	-0.021362305
166	0x3cad	0.021118164
167	0x3ce6	0.028076172
168	0x3bcc	0.006225586
169	0x3ca7	0.020385742
170	0x3cf3	0.029663086
171	0x3c09	0.008361816
172	0x3c91	0.017700195
173	0xbb9a	-0.004699707
174	0xbb82	-0.003967285
175	0x3c3b	0.011413574
176	0x3d0c	0.034179688
177	0xbcf2	-0.029541016
178	0x3ce2	0.02758789
179	0x3c15	0.009094238
180	0xbca9	-0.020629883
181	0x3c7c	0.015380859
182	0xbb7c	-0.0038452148
183	0xbc36	-0.011108398
184	0x3d07	0.032958984
185	0x3bfd	0.0077209473
186	0xbce9	-0.028442383
187	0x3cfb	0.030639648
188	0xbc7f	-0.015563965
189	0x3cb9	0.022583008
190	0x3cb0	0.021484375
191	0xbbe8	-0.007080078
192	0x3d08	0.033203125
193	0x3b82	0.003967285
194	0x3ccf	0.025268555
195	0x3caa	0.020751953
196	0xbcb0	-0.021484375
197	0x3cd3	0.025756836
198	0xbc14	-0.009033203
199	0xbbb4	-0.005493164
200	0x3ca8	0.020507812
201	0x3c27	0.010192871
202	0x3d11	0.03540039
203	0x3cc7	0.024291992
204	0x3b82	0.003967285
205	0x3d10	0.03515625
206	0xbc4c	-0.012451172
207	0xbcdc	-0.026855469
208	0xbc66	-0.014038086
209	0xbcad	-0.021118164
210	0x3b5a	0.003326416
211	0xbc63	-0.0138549805
212	0xbcea	-0.028564453
213	0x3b85	0.004058838
214	0xbc88	-0.016601562
215	0xbb37	-0.0027923584
216	0xbc4a	-0.012329102
217	0xbc91	-0.017700195
218	0x3d11	0.03540039
219	0x3bb2	0.005432129
220	0xbb97	-0.0046081543
221	0xbbe8	-0.007080078
222	0x3cf4	0.029785156
223	0xbce2	-0.02758789
224	0x3cd9	0.026489258
225	0x3d13	0.035888672
226	0xbc4e	-0.012573242
227	0xbc9e	-0.01928711
228	0x3c81	0.01574707
229	0x3d03	0.031982422
230	0xbb82	-0.003967285
231	0x3cf9	0.030395508
232	0xbc14	-0.009033203
233	0xbd11	-0.03540039
234	0x3c93	0.017944336
235	0x3d0d	0.034423828
236	0xbc19	-0.009338379
237	0xbbfb	-0.007659912
238	0x3c03	0.0079956055
239	0x3d05	0.032470703
240	0x3d04	0.032226562
241	0xbcad	-0.021118164
242	0x3cd7	0.026245117
243	0xbc88	-0.016601562
244	0xbc26	-0.010131836
245	0x3bf1	0.0073547363
246	0x3cd9	0.026489258
247	0xbca8	-0.020507812
248	0x3b95	0.004547119
249	0xbcbb	-0.022827148
250	0xbd02	-0.03173828
251	0xbc94	-0.018066406
252	0xbc28	-0.010253906
253	0xbcc7	-0.024291992
254	0xbcde	-0.02709961
255	0xbbfb	-0.007659912

base_model.model.transformer.h.0.attn.c_attn.lora_B.weight bf16 [2304, 8]
0	0xbaff	-0.0019454956
1	0xbaea	-0.0017852783
2	0x39a3	0.00031089783
3	0x3992	0.0002784729
4	0xbada	-0.001663208
5	0xbad2	-0.0016021729
6	0x3aad	0.0013198853
7	0x3ae9	0.0017776489
8	0xbb01	-0.0019683838
9	0xb85b	-5.221367e-05
10	0x3a90	0.0010986328
11	0x3b0f	0.0021820068
12	0xba7c	-0.0009613037
13	0xbaf9	-0.0018997192
14	0xba1f	-0.00060653687
15	0x3a1c	0.0005950928
16	0x3abb	0.0014266968
17	0x3b17	0.0023040771
18	0x3adb	0.0016708374
19	0x3a13	0.0005607605
20	0x3b0a	0.002105713
21	0x3aac	0.0013122559
22	0xbaf6	-0.001876831
23	0xbab6	-0.0013885498
24	0x3b04	0.0020141602
25	0x3a9a	0.0011749268
26	0xba11	-0.0005531311
27	0x3ae0	0.0017089844
28	0x3b0b	0.0021209717
29	0xb9fd	-0.0004825592
30	0xbaf5	-0.0018692017
31	0xbaa7	-0.0012741089
32	0xba9f	-0.0012130737
33	0x3908	0.0001296997
34	0x39ba	0.00035476685
35	0xbaca	-0.0015411377
36	0x3a8f	0.0010910034
37	0x3ac5	0.0015029907
38	0x3aa4	0.0012512207
39	0xba30	-0.0006713867
40	0xba92	-0.0011138916
41	0x3ae2	0.0017242432
42	0x3abd	0.0014419556
43	0x3a31	0.0006752014
44	0xbaa9	-0.0012893677
45	0xbae1	-0.0017166138
46	0xbaa9	-0.0012893677
47	0x387c	6.0081482e-05
48	0x3a85	0.0010147095
49	0x3ad8	0.0016479492
50	0x3abb	0.0014266968
51	0x3aa1	0.0012283325
52	0xb756	-1.2755394e-05
53	0xbad5	-0.001625061
54	0xba9a	-0.0011749268
55	0xbad1	-0.0015945435
56	0x3951	0.00019931793
57	0x3ac9	0.0015335083
58	0x38ef	0.00011396408
59	0x3a73	0.00092697144
60	0xb9af	-0.000333786
61	0xbafb	-0.001914978
62	0xb93b	-0.0001783371
63	0xba82	-0.0009918213
64	0xbae7	-0.0017623901
65	0xbab7	-0.0013961792
66	0x3823	3.886223e-05
67	0x3a64	0.000869751
68	0xb99d	-0.00029945374
69	0x3a0c	0.0005340576
70	0x3a6b	0.00089645386
71	0xbaae	-0.0013275146
72	0xb8ab	-8.1539154e-05
73	0xba12	-0.0005569458
74	0x3a2f	0.000667572
75	0xbae5	-0.0017471313
76	0xba9d	-0.0011978149
77	0xba31	-0.0006752014
78	0xb9e1	-0.00042915344
79	0xb98a	-0.0002632141
80	0x3a89	0.001045227
81	0xbae8	-0.0017700195
82	0xbb04	-0.0020141602
83	0x3b03	0.0019989014
84	0x3aff	0.0019454956
85	0xba6d	-0.00090408325
86	0xbaf6	-0.001876831
87	0xbb00	-0.001953125
88	0xb985	-0.00025367737
89	0x3a98	0.001159668
90	0x3a0e	0.000541687
91	0x3aaf	0.001335144
92	0xbb00	-0.001953125
93	0xba3a	-0.0007095337
94	0xba3c	-0.0007171631
95	0x39e0	0.0004272461
96	0x3a92	0.0011138916
97	0x3a8d	0.0010757446
98	0xba48	-0.00076293945
99	0x3ace	0.0015716553
100	0x3af3	0.0018539429
101	0xb9e5	-0.00043678284
102	0xbad5	-0.001625061
103	0xbacb	-0.0015487671
104	0x3a95	0.0011367798
105	0x3afe	0.0019378662
106	0x3a7d	0.0009651184
107	0xba85	-0.0010147095
108	0xba3a	-0.0007095337
109	0x3a86	0.0010223389
110	0xba8f	-0.0010910034
111	0xba26	-0.00063323975
112	0xbaa9	-0.0012893677
113	0xbafa	-0.0019073486
114	0xbafc	-0.0019226074
115	0x3ae8	0.0017700195
116	0x3a15	0.0005683899
117	0x3ad9	0.0016555786
118	0x3ac6	0.0015106201
119	0x3a21	0.00061416626
120	0x3a75	0.00093460083
121	0x3ad6	0.0016326904
122	0x3b08	0.0020751953
123	0x3a3e	0.0007247925
124	0xbb02	-0.0019836426
125	0xbaa0	-0.0012207031
126	0xba5b	-0.0008354187
127	0x3ab1	0.0013504028
128	0xba9f	-0.0012130737
129	0x3949	0.00019168854
130	0x3aa0	0.0012207031
131	0xba99	-0.0011672974
132	0xb98b	-0.00026512146
133	0x3952	0.0002002716
134	0xba90	-0.0010986328
135	0x3a65	0.0008735657
136	0xbaa7	-0.0012741089
137	0xbb12	-0.0022277832
138	0xba97	-0.0011520386
139	0xbaee	-0.0018157959
140	0x3a8b	0.0010604858
141	0x3a25	0.00062942505
142	0x3acc	0.0015563965
143	0x3ae2	0.0017242432
144	0xba88	-0.0010375977
145	0x3aa8	0.0012817383
146	0x3b00	0.001953125
147	0xbb01	-0.0019683838
148	0xbaef	-0.0018234253
149	0xbafc	-0.0019226074
150	0x3972	0.00023078918
151	0x3b05	0.002029419
152	0x3a26	0.00063323975
153	0x3ada	0.001663208
154	0x3b06	0.0020446777
155	0xbb05	-0.002029419
156	0xbb05	-0.002029419
157	0xbaf2	-0.0018463135
158	0x398a	0.0002632141
159	0x3a81	0.0009841919
160	0xbaea	-0.0017852783
161	0xbb0c	-0.0021362305
162	0xba89	-0.001045227
163	0xbafa	-0.0019073486
164	0xbaad	-0.0013198853
165	0xba1e	-0.00060272217
166	0x3b0e	0.002166748
167	0x3ad8	0.0016479492
168	0xba99	-0.0011672974
169	0xbad7	-0.0016403198
170	0x3a9c	0.0011901855
171	0xbada	-0.001663208
172	0xbaf1	-0.0018386841
173	0xba68	-0.00088500977
174	0x3af8	0.0018920898
175	0x3a79	0.0009498596
176	0xbab7	-0.0013961792
177	0xbb11	-0.0022125244
178	0x3a92	0.0011138916
179	0x3b03	0.0019989014
180	0xbae2	-0.0017242432
181	0xba85	-0.0010147095
182	0x3b05	0.002029419
183	0xb94a	-0.00019264221
184	0x3a7b	0.000957489
185	0x3a20	0.00061035156
186	0x3afa	0.0019073486
187	0xba42	-0.00074005127
188	0xba4d	-0.00078201294
189	0x3a22	0.00061798096
190	0xba19	-0.0005836487
191	0xba97	-0.0011520386
192	0x3abe	0.001449585
193	0x3b09	0.002090454
194	0xbaa2	-0.0012359619
195	0xbafd	-0.0019302368
196	0x3a47	0.00075912476
197	0x3aef	0.0018234253
198	0xba3c	-0.0007171631
199	0x3a7b	0.000957489
200	0x3895	7.104874e-05
201	0xbafe	-0.0019378662
202	0xbb1c	-0.002380371
203	0xba80	-0.0009765625
204	0x3ace	0.0015716553
205	0xbad2	-0.0016021729
206	0x3a65	0.0008735657
207	0x3a80	0.0009765625
208	0x3a8e	0.001083374
209	0x3aae	0.0013275146
210	0x3b02	0.0019836426
211	0x3981	0.00024604797
212	0xba37	-0.0006980896
213	0xb9dc	-0.0004196167
214	0xbad5	-0.001625061
215	0xba87	-0.0010299683
216	0x3a39	0.000705719
217	0xba75	-0.00093460083
218	0x3ae1	0.0017166138
219	0x3a64	0.000869751
220	0xbaef	-0.0018234253
221	0xbae2	-0.0017242432
222	0xba9d	-0.0011978149
223	0xba9f	-0.0012130737
224	0x3ad5	0.001625061
225	0x3ac5	0.0015029907
226	0xb9c1	-0.0003681183
227	0xba9e	-0.0012054443
228	0xbaca	-0.0015411377
229	0xbac9	-0.0015335083
230	0x3adc	0.0016784668
231	0x3b04	0.0020141602
232	0xba8e	-0.001083374
233	0xbac7	-0.0015182495
234	0xbaa1	-0.0012283325
235	0x3ab7	0.0013961792
236	0x3a93	0.001121521
237	0xba93	-0.001121521
238	0x3a9f	0.0012130737
239	0x3ade	0.0016937256
240	0xb94c	-0.00019454956
241	0xbaba	-0.0014190674
242	0xbaec	-0.0018005371
243	0xbab0	-0.0013427734
244	0x3af6	0.001876831
245	0x3b00	0.001953125
246	0x3a92	0.0011138916
247	0xb79c	-1.859665e-05
248	0x3ad8	0.0016479492
249	0xba41	-0.0007362366
250	0x3a6e	0.00090789795
251	0x3acf	0.0015792847
252	0xb827	-3.9815903e-05
253	0xba1b	-0.0005912781
254	0xbaad	-0.0013198853
255	0x3997	0.00028800964

base_model.model.transformer.h.1.attn.c_attn.lora_A.weight bf16 [8, 768]
0	0x3cbe	0.02319336
1	0x3ca9	0.020629883
2	0xbcd7	-0.026245117
3	0x3c05	0.008117676
4	0xbd0a	-0.033691406
5	0x3cb1	0.021606445
6	0xbca0	-0.01953125
7	0xbc2d	-0.010559082
8	0xbcee	-0.029052734
9	0x3d04	0.032226562
10	0x3d12	0.03564453
11	0x3c16	0.009155273
12	0xbb7c	-0.0038452148
13	0xbb85	-0.004058838
14	0x3ca8	0.020507812
15	0x3cb3	0.021850586
16	0xbc2e	-0.010620117
17	0x3b97	0.0046081543
18	0xbc00	-0.0078125
19	0x3ccd	0.025024414
20	0x3c36	0.011108398
21	0xbcad	-0.021118164
22	0xbca2	-0.01977539
23	0x3c84	0.016113281
24	0x3c5a	0.013305664
25	0xbc30	-0.0107421875
26	0xbbf8	-0.0075683594
27	0xbc25	-0.010070801
28	0xbc9e	-0.01928711
29	0x3c1d	0.0095825195
30	0x3cd2	0.025634766
31	0xbc71	-0.014709473
32	0x3c39	0.011291504
33	0xbcaa	-0.020751953
34	0x3c6c	0.014404297
35	0x3ba1	0.00491333
36	0x3c16	0.009155273
37	0xbc05	-0.008117676
38	0x3d0b	0.033935547
39	0xbcca	-0.024658203
40	0x3c06	0.008178711
41	0xbd09	-0.033447266
42	0x3ced	0.028930664
43	0x3c34	0.010986328
44	0xbba1	-0.00491333
45	0x3d13	0.035888672
46	0xbca6	-0.020263672
47	0x3cf2	0.029541016
48	0x3bbb	0.005706787
49	0x3c85	0.016235352
50	0x3c6d	0.014465332
51	0xbc83	-0.015991211
52	0x3bd2	0.0064086914
53	0xbcb4	-0.021972656
54	0xbc87	-0.016479492
55	0x3cb3	0.021850586
56	0x3c8d	0.017211914
57	0xbd13	-0.035888672
58	0x3c6b	0.014343262
59	0x3cd0	0.025390625
60	0x3b3b	0.0028533936
61	0xbc09	-0.008361816
62	0x3ba8	0.005126953
63	0x3b51	0.003189087
64	0xbc4a	-0.012329102
65	0x3c79	0.015197754
66	0x3cd0	0.025390625
67	0x3cfe	0.03100586
68	0xbcc5	-0.024047852
69	0xbc0b	-0.008483887
70	0x3d11	0.03540039
71	0x3c82	0.01586914
72	0xbcaf	-0.021362305
73	0xbb3f	-0.0029144287
74	0x3c93	0.017944336
75	0xbc79	-0.015197754
76	0xbd02	-0.03173828
77	0x3c64	0.013916016
78	0xbcc2	-0.02368164
79	0xbc9c	-0.019042969
80	0x3c81	0.01574707
81	0xbb9f	-0.004852295
82	0xbc00	-0.0078125
83	0x3beb	0.007171631
84	0xbcb2	-0.021728516
85	0xbca6	-0.020263672
86	0xbb9a	-0.004699707
87	0x3cf6	0.030029297
88	0x3cc3	0.023803711
89	0x3c22	0.009887695
90	0xbaee	-0.0018157959
91	0xbc00	-0.0078125
92	0x3b85	0.004058838
93	0x3bb7	0.005584717
94	0x3bcd	0.0062561035
95	0xbd0d	-0.034423828
96	0x3ca3	0.019897461
97	0xbb5a	-0.003326416
98	0x3c98	0.018554688
99	0x3d0e	0.03466797
100	0x3cfe	0.03100586
101	0x3c8e	0.017333984
102	0xbb7c	-0.0038452148
103	0xbcef	-0.029174805
104	0x3d12	0.03564453
105	0x3c00	0.0078125
106	0x3ca3	0.019897461
107	0x3c36	0.011108398
108	0x3cc5	0.024047852
109	0xbcca	-0.024658203
110	0xbcc5	-0.024047852
111	0xbb6c	-0.0036010742
112	0xbd0d	-0.034423828
113	0xba93	-0.001121521
114	0xbcfa	-0.030517578
115	0xbc49	-0.012268066
116	0xbcf8	-0.030273438
117	0xbc2b	-0.010437012
118	0x3cc3	0.023803711
119	0xbbb1	-0.0054016113
120	0x3c1a	0.009399414
121	0xbb95	-0.004547119
122	0xbbf7	-0.007537842
123	0xbcf7	-0.030151367
124	0xbccf	-0.025268555
125	0xbcce	-0.025146484
126	0x3c8c	0.017089844
127	0x3b79	0.0037994385
128	0x3d0d	0.034423828
129	0x3b8a	0.004211426
130	0xbcc6	-0.024169922
131	0x3caa	0.020751953
132	0xbca2	-0.01977539
133	0xbced	-0.028930664
134	0xbc7a	-0.015258789
135	0x3d00	0.03125
136	0x3c46	0.012084961
137	0x3d11	0.03540039
138	0xbcf7	-0.030151367
139	0x3c40	0.01171875
140	0xbd05	-0.032470703
141	0x3c9f	0.01940918
142	0x3cd6	0.026123047
143	0xbc5b	-0.013366699
144	0x3cbb	0.022827148
145	0x3c7d	0.0154418945
146	0x3c3a	0.011352539
147	0xbcb4	-0.021972656
148	0x3c7e	0.01550293
149	0xbc5f	-0.01361084
150	0x3c5d	0.0134887695
151	0xbc6b	-0.014343262
152	0x3cbd	0.023071289
153	0x3c59	0.013244629
154	0xbcc1	-0.02355957
155	0x3d10	0.03515625
156	0x3b89	0.004180908
157	0x3bb9	0.005645752
158	0xbd14	-0.036132812
159	0x3c8c	0.017089844
160	0x3cde	0.02709961
161	0xbcbe	-0.02319336
162	0xbca7	-0.020385742
163	0xbbfb	-0.007659912
164	0xbc90	-0.017578125
165	0xbc3b	-0.011413574
166	0x3bdf	0.00680542
167	0x3d04	0.032226562
168	0xbbd3	-0.006439209
169	0xbd02	-0.03173828
170	0x3c37	0.011169434
171	0x3cbe	0.02319336
172	0xbd07	-0.032958984
173	0x3c87	0.016479492
174	0x3d04	0.032226562
175	0xbbaf	-0.005340576
176	0xbcb4	-0.021972656
177	0x3ad3	0.0016098022
178	0xbd09	-0.033447266
179	0xbc42	-0.01184082
180	0xbc5b	-0.013366699
181	0xbcb4	-0.021972656
182	0xbd09	-0.033447266
183	0xbced	-0.028930664
184	0x3bd0	0.0063476562
185	0x3b28	0.0025634766
186	0x3bbd	0.0057678223
187	0x3cc1	0.02355957
188	0xbc8f	-0.017456055
189	0xbc73	-0.014831543
190	0x3c67	0.014099121
191	0xbada	-0.001663208
192	0x3d0a	0.033691406
193	0xbcf0	-0.029296875
194	0xbb72	-0.003692627
195	0x3c7c	0.015380859
196	0x3bc8	0.0061035156
197	0x3c34	0.010986328
198	0x3c46	0.012084961
199	0xbd06	-0.032714844
200	0x3d07	0.032958984
201	0x3cc0	0.0234375
202	0xbcc1	-0.02355957
203	0x3ccc	0.024902344
204	0x3c4a	0.012329102
205	0xbc4a	-0.012329102
206	0x3c00	0.0078125
207	0x3b72	0.003692627
208	0xbb8a	-0.004211426
209	0x3c44	0.011962891
210	0x3cd2	0.025634766
211	0x3cff	0.03112793
212	0xbaed	-0.0018081665
213	0x3c3a	0.011352539
214	0x3c9e	0.01928711
215	0x3c9e	0.01928711
216	0xbcb8	-0.022460938
217	0x3b99	0.0046691895
218	0x3d0f	0.03491211
219	0x3d01	0.03149414
220	0x3c94	0.018066406
221	0x3c17	0.009216309
222	0x3cb2	0.021728516
223	0x3d09	0.033447266
224	0x3b5a	0.003326416
225	0x3ce9	0.028442383
226	0x3cfd	0.030883789
227	0xbc81	-0.01574707
228	0xbb80	-0.00390625
229	0x3c70	0.0146484375
230	0xbc33	-0.010925293
231	0x3cda	0.026611328
232	0xbce5	-0.027954102
233	0xbcb0	-0.021484375
234	0x3d10	0.03515625
235	0xbcc2	-0.02368164
236	0x3ce8	0.028320312
237	0x3d04	0.032226562
238	0x3c76	0.015014648
239	0x3c0b	0.008483887
240	0xbbe6	-0.007019043
241	0xbb7b	-0.003829956
242	0x3b6e	0.0036315918
243	0xbc0a	-0.008422852
244	0x3ad9	0.0016555786
245	0x3c34	0.010986328
246	0x3c86	0.016357422
247	0x3ce5	0.027954102
248	0x3c75	0.014953613
249	0x3ce3	0.027709961
250	0x3c09	0.008361816
251	0x3c11	0.008850098
252	0x3cc0	0.0234375
253	0x3b90	0.0043945312
254	0xbcc6	-0.024169922
255	0xbca3	-0.019897461

base_model.model.transformer.h.1.attn.c_attn.lora_B.weight bf16 [2304, 8]
0	0xbaa9	-0.0012893677
1	0xbac0	-0.0014648438
2	0xba36	-0.0006942749
3	0xb98b	-0.00026512146
4	0xba77	-0.0009422302
5	0xba97	-0.0011520386
6	0xba2c	-0.00065612793
7	0xbabf	-0.0014572144
8	0x3a88	0.0010375977
9	0x3b00	0.001953125
10	0x3a93	0.001121521
11	0x399a	0.0002937317
12	0x3a5d	0.0008430481
13	0xbaa6	-0.0012664795
14	0x398f	0.00027275085
15	0x3af1	0.0018386841
16	0xbaaf	-0.001335144
17	0xbb05	-0.002029419
18	0x3aaf	0.001335144
19	0xbaa9	-0.0012893677
20	0xba1d	-0.00059890747
21	0xbace	-0.0015716553
22	0x3a85	0.0010147095
23	0xba75	-0.00093460083
24	0xba91	-0.0011062622
25	0x398b	0.00026512146
26	0x39a7	0.00031852722
27	0x39e2	0.0004310608
28	0x3afa	0.0019073486
29	0xba98	-0.001159668
30	0xba7c	-0.0009613037
31	0x3aeb	0.0017929077
32	0x3923	0.00015544891
33	0x3a98	0.001159668
34	0xbad6	-0.0016326904
35	0x381f	3.7908554e-05
36	0xba11	-0.0005531311
37	0xbaa5	-0.0012588501
38	0xbac2	-0.0014801025
39	0x3a6a	0.00089263916
40	0xb98b	-0.00026512146
41	0xba02	-0.00049591064
42	0x3b11	0.0022125244
43	0xba1f	-0.00060653687
44	0xba4c	-0.00077819824
45	0x3a9c	0.0011901855
46	0x3ae3	0.0017318726
47	0x3a72	0.00092315674
48	0xba88	-0.0010375977
49	0xbabc	-0.0014343262
50	0xbafb	-0.001914978
51	0xbaa9	-0.0012893677
52	0xbaf9	-0.0018997192
53	0xbb0b	-0.0021209717
54	0xba90	-0.0010986328
55	0x39db	0.00041770935
56	0xb7de	-2.6464462e-05
57	0xbafb	-0.001914978
58	0xba13	-0.0005607605
59	0xbb02	-0.0019836426
60	0xba79	-0.0009498596
61	0xba86	-0.0010223389
62	0x396d	0.00022602081
63	0xbad4	-0.0016174316
64	0x3ac7	0.0015182495
65	0x3a18	0.000579834
66	0xb89f	-7.581711e-05
67	0xb833	-4.2676926e-05
68	0xbafd	-0.0019302368
69	0x3acc	0.0015563965
70	0xba4c	-0.00077819824
71	0xbb0c	-0.0021362305
72	0x3af0	0.0018310547
73	0x3b10	0.0021972656
74	0x3a86	0.0010223389
75	0x3b07	0.0020599365
76	0x3aec	0.0018005371
77	0x3b00	0.001953125
78	0x39ba	0.00035476685
79	0x3b01	0.0019683838
80	0xba86	-0.0010223389
81	0x37b4	2.1457672e-05
82	0x3b01	0.0019683838
83	0x3a94	0.0011291504
84	0x3af4	0.0018615723
85	0x396c	0.00022506714
86	0x3ae6	0.0017547607
87	0x3b04	0.0020141602
88	0x3b06	0.0020446777
89	0x3ae3	0.0017318726
90	0x3935	0.00017261505
91	0x3a14	0.0005645752
92	0x398a	0.0002632141
93	0x3af7	0.0018844604
94	0xb829	-4.029274e-05
95	0xbae0	-0.0017089844
96	0x3afe	0.0019378662
97	0x3a91	0.0011062622
98	0xbb09	-0.002090454
99	0xba1f	-0.00060653687
100	0xbaeb	-0.0017929077
101	0x3ab8	0.0014038086
102	0x39bd	0.0003604889
103	0xbb00	-0.001953125
104	0xba5f	-0.0008506775
105	0xb9b5	-0.0003452301
106	0x3a03	0.00049972534
107	0xba11	-0.0005531311
108	0x3a81	0.0009841919
109	0xbaba	-0.0014190674
110	0x3aab	0.0013046265
111	0x3a7d	0.0009651184
112	0xba57	-0.0008201599
113	0xbaf9	-0.0018997192
114	0xba83	-0.0009994507
115	0xba94	-0.0011291504
116	0x3a61	0.0008583069
117	0xba94	-0.0011291504
118	0xbac5	-0.0015029907
119	0x3a8a	0.0010528564
120	0xbaa0	-0.0012207031
121	0x39e3	0.00043296814
122	0xb9e3	-0.00043296814
123	0x3899	7.2956085e-05
124	0xb907	-0.00012874603
125	0xb90d	-0.00013446808
126	0xba93	-0.001121521
127	0x39e3	0.00043296814
128	0x3a86	0.0010223389
129	0x38d2	0.0001001358
130	0xb9a7	-0.00031852722
131	0x3add	0.0016860962
132	0x3b07	0.0020599365
133	0x3a82	0.0009918213
134	0xb834	-4.2915344e-05
135	0xbad9	-0.0016555786
136	0x3ab3	0.0013656616
137	0x3a99	0.0011672974
138	0xbaf9	-0.0018997192
139	0xba0d	-0.0005378723
140	0xba9b	-0.0011825562
141	0xb8c5	-9.393692e-05
142	0x3a81	0.0009841919
143	0xbb00	-0.001953125
144	0xba82	-0.0009918213
145	0x3b00	0.001953125
146	0x3b00	0.001953125
147	0x3adf	0.001701355
148	0x3afe	0.0019378662
149	0x3b06	0.0020446777
150	0x3959	0.00020694733
151	0x3b02	0.0019836426
152	0xba69	-0.00088882446
153	0xbb0b	-0.0021209717
154	0xba76	-0.0009384155
155	0xba63	-0.0008659363
156	0x3ac1	0.0014724731
157	0xbaa8	-0.0012817383
158	0xbab6	-0.0013885498
159	0x3abe	0.001449585
160	0xba86	-0.0010223389
161	0xbb1d	-0.0023956299
162	0xbad6	-0.0016326904
163	0xbb00	-0.001953125
164	0xbab6	-0.0013885498
165	0xba8d	-0.0010757446
166	0xbaac	-0.0013122559
167	0x3ab3	0.0013656616
168	0xbaec	-0.0018005371
169	0xbb09	-0.002090454
170	0xbae2	-0.0017242432
171	0xba9e	-0.0012054443
172	0xba39	-0.000705719
173	0xbaea	-0.0017852783
174	0x3a21	0.00061416626
175	0xbabc	-0.0014343262
176	0xbb03	-0.0019989014
177	0xbb08	-0.0020751953
178	0xbafb	-0.001914978
179	0xbb0b	-0.0021209717
180	0xbb10	-0.0021972656
181	0xbaf6	-0.001876831
182	0xba8b	-0.0010604858
183	0xbb0c	-0.0021362305
184	0x3a33	0.0006828308
185	0x383c	4.4822693e-05
186	0xbaff	-0.0019454956
187	0xba2a	-0.00064849854
188	0xbad8	-0.0016479492
189	0x3aa8	0.0012817383
190	0xba9b	-0.0011825562
191	0xba27	-0.00063705444
192	0x3a1b	0.0005912781
193	0x3b24	0.0025024414
194	0x3a46	0.00075531006
195	0x3b05	0.002029419
196	0x3b0d	0.0021514893
197	0x3b09	0.002090454
198	0xba0e	-0.000541687
199	0x3b1d	0.0023956299
200	0xbae5	-0.0017471313
201	0xbb0a	-0.002105713
202	0xba8c	-0.0010681152
203	0xba9e	-0.0012054443
204	0xba45	-0.00075149536
205	0xbab9	-0.001411438
206	0xba80	-0.0009765625
207	0x3899	7.2956085e-05
208	0x3a1e	0.00060272217
209	0xba3d	-0.0007209778
210	0x3b07	0.0020599365
211	0x3ac1	0.0014724731
212	0x3afc	0.0019226074
213	0x3a7d	0.0009651184
214	0x3b05	0.002029419
215	0xba67	-0.00088119507
216	0xbb08	-0.0020751953
217	0x3a6f	0.00091171265
218	0x3972	0.00023078918
219	0xbab2	-0.0013580322
220	0xbacf	-0.0015792847
221	0xbaf5	-0.0018692017
222	0xbabe	-0.001449585
223	0x3a40	0.0007324219
224	0x3a7c	0.0009613037
225	0x3ac3	0.0014877319
226	0x3953	0.00020122528
227	0x394a	0.00019264221
228	0x3a9a	0.0011749268
229	0x3ac6	0.0015106201
230	0x3a9d	0.0011978149
231	0x3ad2	0.0016021729
232	0x3ad9	0.0016555786
233	0x3aca	0.0015411377
234	0x3aea	0.0017852783
235	0x3afb	0.001914978
236	0x3acf	0.0015792847
237	0x3a5a	0.000831604
238	0x3ad9	0.0016555786
239	0x3b01	0.0019683838
240	0x3a43	0.00074386597
241	0x3b00	0.001953125
242	0x3b03	0.0019989014
243	0x3ae7	0.0017623901
244	0x3b18	0.002319336
245	0x3b0c	0.0021362305
246	0x360b	2.0712614e-06
247	0x3b0b	0.0021209717
248	0xba81	-0.0009841919
249	0xb9f6	-0.00046920776
250	0xb9a2	-0.00030899048
251	0x39ed	0.00045204163
252	0x3a08	0.0005187988
253	0xba45	-0.00075149536
254	0xba61	-0.0008583069
255	0x3a81	0.0009841919

base_model.model.transformer.h.10.attn.c_attn.lora_A.weight bf16 [8, 768]
0	0xbc72	-0.014770508
1	0xbcf8	-0.030273438
2	0x3c90	0.017578125
3	0x3c50	0.0126953125
4	0x3bde	0.0067749023
5	0xbbe9	-0.0071105957
6	0xbd12	-0.03564453
7	0xbca8	-0.020507812
8	0xbc38	-0.011230469
9	0x3ca9	0.020629883
10	0xbb83	-0.0039978027
11	0xbc00	-0.0078125
12	0xbbad	-0.005279541
13	0xbb85	-0.004058838
14	0xbb7a	-0.0038146973
15	0xbcb6	-0.022216797
16	0xbd06	-0.032714844
17	0x3cb4	0.021972656
18	0xbcea	-0.028564453
19	0xbb80	-0.00390625
20	0x3b88	0.0041503906
21	0xbc00	-0.0078125
22	0x3cda	0.026611328
23	0xbcd4	-0.025878906
24	0xbd0c	-0.034179688
25	0xbb9f	-0.004852295
26	0x3cc4	0.023925781
27	0x3c9a	0.018798828
28	0x3c6f	0.014587402
29	0x3c2e	0.010620117
30	0x3c64	0.013916016
31	0x3bfc	0.0076904297
32	0x3d00	0.03125
33	0xbc95	-0.018188477
34	0x3bd6	0.0065307617
35	0x3d0b	0.033935547
36	0xbcdd	-0.026977539
37	0xbc6b	-0.014343262
38	0xbc99	-0.018676758
39	0x3d06	0.032714844
40	0xbd0a	-0.033691406
41	0xbca8	-0.020507812
42	0xbd05	-0.032470703
43	0xbbac	-0.0052490234
44	0xbb2b	-0.002609253
45	0x3ca4	0.020019531
46	0x3cc5	0.024047852
47	0xbc3b	-0.011413574
48	0x3c91	0.017700195
49	0x3cb7	0.022338867
50	0xbc90	-0.017578125
51	0xbcec	-0.028808594
52	0x3cdf	0.02722168
53	0x3c64	0.013916016
54	0x3cf2	0.029541016
55	0xbcb6	-0.022216797
56	0xbcbd	-0.023071289
57	0xbc06	-0.008178711
58	0xbc5d	-0.0134887695
59	0x3ce2	0.02758789
60	0xbbf7	-0.007537842
61	0xbcb1	-0.021606445
62	0xbc85	-0.016235352
63	0x3d0e	0.03466797
64	0x3c69	0.014221191
65	0xbd11	-0.03540039
66	0x3be7	0.0070495605
67	0xbcfc	-0.030761719
68	0xbc90	-0.017578125
69	0xbcd5	-0.026000977
70	0xbcb6	-0.022216797
71	0x3ca1	0.01965332
72	0x3be9	0.0071105957
73	0xbca8	-0.020507812
74	0x3d0e	0.03466797
75	0xbc00	-0.0078125
76	0x3b8a	0.004211426
77	0x3c84	0.016113281
78	0x3c82	0.01586914
79	0xbc9f	-0.01940918
80	0xbb9b	-0.0047302246
81	0xbc4b	-0.012390137
82	0x3bff	0.0077819824
83	0x3cc1	0.02355957
84	0xbc62	-0.013793945
85	0xbcdd	-0.026977539
86	0x3c9b	0.018920898
87	0x3bbb	0.005706787
88	0x3ce0	0.02734375
89	0x3ca1	0.01965332
90	0x3d0b	0.033935547
91	0x3c19	0.009338379
92	0xbca4	-0.020019531
93	0xbccd	-0.025024414
94	0x3b80	0.00390625
95	0x3c65	0.013977051
96	0x3d05	0.032470703
97	0x3cbd	0.023071289
98	0xbd0a	-0.033691406
99	0xbc63	-0.0138549805
100	0x3ca0	0.01953125
101	0x3cd9	0.026489258
102	0x3ca6	0.020263672
103	0x3b1f	0.0024261475
104	0xbb21	-0.002456665
105	0xbcb0	-0.021484375
106	0xbcf9	-0.030395508
107	0xbc52	-0.012817383
108	0x3cfa	0.030517578
109	0xbb9d	-0.0047912598
110	0xbcb0	-0.021484375
111	0x3bfd	0.0077209473
112	0x3bb9	0.005645752
113	0xbc94	-0.018066406
114	0x3c87	0.016479492
115	0xbc56	-0.013061523
116	0xbca6	-0.020263672
117	0x3b7f	0.0038909912
118	0x3d08	0.033203125
119	0x3bb5	0.0055236816
120	0x3ced	0.028930664
121	0xbcfe	-0.03100586
122	0xbd05	-0.032470703
123	0x3bb0	0.0053710938
124	0x3bf6	0.007507324
125	0xbcd8	-0.026367188
126	0xbcd2	-0.025634766
127	0xbccd	-0.025024414
128	0x3c93	0.017944336
129	0xbc5a	-0.013305664
130	0xbd0b	-0.033935547
131	0x3b25	0.0025177002
132	0xbd10	-0.03515625
133	0xbb01	-0.0019683838
134	0x3d0f	0.03491211
135	0xbc5a	-0.013305664
136	0xbc20	-0.009765625
137	0x3d05	0.032470703
138	0xbcbc	-0.022949219
139	0xbc29	-0.010314941
140	0x3cc1	0.02355957
141	0x3c81	0.01574707
142	0x3d13	0.035888672
143	0x3bb0	0.0053710938
144	0xbcb8	-0.022460938
145	0x3cb4	0.021972656
146	0x3d03	0.031982422
147	0xbbe4	-0.006958008
148	0xbcab	-0.020874023
149	0xbc95	-0.018188477
150	0xbd06	-0.032714844
151	0xbb85	-0.004058838
152	0xbc94	-0.018066406
153	0x3cdd	0.026977539
154	0x3cc8	0.024414062
155	0xbce9	-0.028442383
156	0x3ce2	0.02758789
157	0x3ced	0.028930664
158	0x3cf6	0.030029297
159	0x3be7	0.0070495605
160	0x3c35	0.011047363
161	0xba13	-0.0005607605
162	0xbc38	-0.011230469
163	0x3c00	0.0078125
164	0xbc8a	-0.016845703
165	0xbccb	-0.024780273
166	0x3c51	0.012756348
167	0x3cdc	0.026855469
168	0x3c52	0.012817383
169	0xbbaa	-0.0051879883
170	0x3b7e	0.0038757324
171	0x3cb4	0.021972656
172	0xbd10	-0.03515625
173	0x3ccd	0.025024414
174	0x3c00	0.0078125
175	0xbc0f	-0.008728027
176	0x3bff	0.0077819824
177	0x3d0f	0.03491211
178	0x3c56	0.013061523
179	0x3cf7	0.030151367
180	0x3b81	0.0039367676
181	0x3ca4	0.020019531
182	0xbc1b	-0.009460449
183	0xbcbd	-0.023071289
184	0xbbb4	-0.005493164
185	0x3c1b	0.009460449
186	0x3c1b	0.009460449
187	0x3bad	0.005279541
188	0x3c00	0.0078125
189	0x3b8e	0.004333496
190	0x3c36	0.011108398
191	0x3c1d	0.0095825195
192	0x3d08	0.033203125
193	0xbd14	-0.036132812
194	0x3d11	0.03540039
195	0x3c65	0.013977051
196	0x3c49	0.012268066
197	0x3c9f	0.01940918
198	0xbc6c	-0.014404297
199	0x3c0f	0.008728027
200	0x3c94	0.018066406
201	0x3c1a	0.009399414
202	0x3b72	0.003692627
203	0xbcf4	-0.029785156
204	0x3c7a	0.015258789
205	0xbd0b	-0.033935547
206	0xbcb8	-0.022460938
207	0xbcee	-0.029052734
208	0x3b80	0.00390625
209	0xbcfe	-0.03100586
210	0xbbad	-0.005279541
211	0x3b80	0.00390625
212	0x3cfe	0.03100586
213	0x3cb1	0.021606445
214	0x3c25	0.010070801
215	0x3a73	0.00092697144
216	0xbbab	-0.005218506
217	0x3ce9	0.028442383
218	0xbc46	-0.012084961
219	0xbcc2	-0.02368164
220	0xbc9a	-0.018798828
221	0xbcea	-0.028564453
222	0xbbef	-0.007293701
223	0x3c00	0.0078125
224	0xbd0e	-0.03466797
225	0xbca5	-0.020141602
226	0x3c8d	0.017211914
227	0x3cf8	0.030273438
228	0x3c3e	0.01159668
229	0xbcde	-0.02709961
230	0x3ce9	0.028442383
231	0x3cef	0.029174805
232	0xbce6	-0.028076172
233	0xbc00	-0.0078125
234	0x3c6c	0.014404297
235	0xbc00	-0.0078125
236	0xbc87	-0.016479492
237	0xbd0f	-0.03491211
238	0xbca7	-0.020385742
239	0xbce6	-0.028076172
240	0xbc61	-0.01373291
241	0xbcd1	-0.025512695
242	0xbc5c	-0.013427734
243	0xbc00	-0.0078125
244	0x3bac	0.0052490234
245	0xbc2b	-0.010437012
246	0x3c87	0.016479492
247	0x3cc0	0.0234375
248	0xbce8	-0.028320312
249	0xbcaa	-0.020751953
250	0x3ca8	0.020507812
251	0xbcaf	-0.021362305
252	0xbd01	-0.03149414
253	0x3c7a	0.015258789
254	0xbcd9	-0.026489258
255	0xbb91	-0.004425049

base_model.model.transformer.h.10.attn.c_attn.lora_B.weight bf16 [2304, 8]
0	0x3b22	0.0024719238
1	0xbb30	-0.0026855469
2	0x3b08	0.0020751953
3	0x3b4a	0.0030822754
4	0x3b11	0.0022125244
5	0xbb28	-0.0025634766
6	0x3b63	0.0034637451
7	0xbb0b	-0.0021209717
8	0x3b13	0.002243042
9	0xbb27	-0.0025482178
10	0x3b16	0.0022888184
11	0x3b0a	0.002105713
12	0x3b3d	0.0028839111
13	0xbb04	-0.0020141602
14	0x3b04	0.0020141602
15	0xbb06	-0.0020446777
16	0xbb3d	-0.0028839111
17	0x3b45	0.0030059814
18	0xbb04	-0.0020141602
19	0xbb66	-0.0035095215
20	0xbb4a	-0.0030822754
21	0x3b4e	0.0031433105
22	0xbb2e	-0.0026550293
23	0x3b06	0.0020446777
24	0xbb0b	-0.0021209717
25	0x3b2f	0.002670288
26	0xbb65	-0.0034942627
27	0xbb2f	-0.002670288
28	0xbb2b	-0.002609253
29	0x3b1c	0.002380371
30	0xbb29	-0.0025787354
31	0x3b2d	0.0026397705
32	0x3aa1	0.0012283325
33	0x3b01	0.0019683838
34	0xbb00	-0.001953125
35	0xbaae	-0.0013275146
36	0xbafb	-0.001914978
37	0x3b00	0.001953125
38	0xbac8	-0.0015258789
39	0x3afc	0.0019226074
40	0xbb47	-0.003036499
41	0x3b73	0.0037078857
42	0xbb80	-0.00390625
43	0xbb80	-0.00390625
44	0xbb40	-0.0029296875
45	0x3b81	0.0039367676
46	0xbb7f	-0.0038909912
47	0x3b80	0.00390625
48	0xbb30	-0.0026855469
49	0x3b43	0.0029754639
50	0xbb68	-0.003540039
51	0xbb40	-0.0029296875
52	0xbb3e	-0.00289917
53	0x3b05	0.002029419
54	0xbb48	-0.0030517578
55	0x3b24	0.0025024414
56	0x3a98	0.001159668
57	0xbaf6	-0.001876831
58	0x3aae	0.0013275146
59	0x3ae2	0.0017242432
60	0x3ac4	0.0014953613
61	0xbb35	-0.0027618408
62	0x3b1f	0.0024261475
63	0xbb00	-0.001953125
64	0x3b48	0.0030517578
65	0xbb55	-0.003250122
66	0x3b39	0.002822876
67	0x3b59	0.0033111572
68	0x3b37	0.0027923584
69	0xbb58	-0.0032958984
70	0x3b5d	0.0033721924
71	0xbb0a	-0.002105713
72	0x3b80	0.00390625
73	0xbb83	-0.0039978027
74	0x3b80	0.00390625
75	0x3b82	0.003967285
76	0x3b7e	0.0038757324
77	0xbb80	-0.00390625
78	0x3b83	0.0039978027
79	0xbb80	-0.00390625
80	0xbb80	-0.00390625
81	0x3b3d	0.0028839111
82	0xbb05	-0.002029419
83	0xbb7d	-0.0038604736
84	0xbb56	-0.0032653809
85	0x3b7b	0.003829956
86	0xbb80	-0.00390625
87	0x3b4d	0.0031280518
88	0x3b3c	0.0028686523
89	0xbb5c	-0.0033569336
90	0x3b74	0.0037231445
91	0x3b71	0.0036773682
92	0x3b55	0.003250122
93	0xbb48	-0.0030517578
94	0x3b60	0.0034179688
95	0xbb7d	-0.0038604736
96	0x3b10	0.0021972656
97	0xbb12	-0.0022277832
98	0x3b23	0.0024871826
99	0x3b2d	0.0026397705
100	0x3b22	0.0024719238
101	0xbb0c	-0.0021362305
102	0x3b4c	0.003112793
103	0xbb2f	-0.002670288
104	0xbb0b	-0.0021209717
105	0x3b03	0.0019989014
106	0xbb11	-0.0022125244
107	0xbb2a	-0.0025939941
108	0xbaff	-0.0019454956
109	0x3b23	0.0024871826
110	0xbb31	-0.0027008057
111	0x3b2e	0.0026550293
112	0xbb48	-0.0030517578
113	0x3b5e	0.0033874512
114	0xbb80	-0.00390625
115	0xbb80	-0.00390625
116	0xbb51	-0.003189087
117	0x3b7f	0.0038909912
118	0xbb80	-0.00390625
119	0x3b80	0.00390625
120	0x3b63	0.0034637451
121	0xbb7c	-0.0038452148
122	0x3b7e	0.0038757324
123	0x3b80	0.00390625
124	0x3b80	0.00390625
125	0xbb80	-0.00390625
126	0x3b80	0.00390625
127	0xbb82	-0.003967285
128	0x3b0c	0.0021362305
129	0xbb42	-0.002960205
130	0x3b5d	0.0033721924
131	0x3b6f	0.0036468506
132	0x3b27	0.0025482178
133	0xbb59	-0.0033111572
134	0x3b1c	0.002380371
135	0xbb28	-0.0025634766
136	0xbb6b	-0.0035858154
137	0x3b72	0.003692627
138	0xbb80	-0.00390625
139	0xbb80	-0.00390625
140	0xbb52	-0.0032043457
141	0x3b69	0.0035552979
142	0xbb81	-0.0039367676
143	0x3b80	0.00390625
144	0x3b3b	0.0028533936
145	0xbb67	-0.0035247803
146	0x3b80	0.00390625
147	0x3b80	0.00390625
148	0x3b4b	0.0030975342
149	0xbb64	-0.003479004
150	0x3b64	0.003479004
151	0xbb63	-0.0034637451
152	0x3aa2	0.0012359619
153	0x3b0e	0.002166748
154	0xbb3e	-0.00289917
155	0xbae0	-0.0017089844
156	0xbaf7	-0.0018844604
157	0x3af3	0.0018539429
158	0xbb02	-0.0019836426
159	0x3b02	0.0019836426
160	0x3b73	0.0037078857
161	0xbb83	-0.0039978027
162	0x3b80	0.00390625
163	0x3b81	0.0039367676
164	0x3b71	0.0036773682
165	0xbb80	-0.00390625
166	0x3b80	0.00390625
167	0xbb80	-0.00390625
168	0x3b66	0.0035095215
169	0xbaec	-0.0018005371
170	0x3b27	0.0025482178
171	0x3b78	0.0037841797
172	0x3b4f	0.0031585693
173	0xbb09	-0.002090454
174	0x3b62	0.0034484863
175	0xbb5a	-0.003326416
176	0x3b11	0.0022125244
177	0x3ae6	0.0017547607
178	0xbb10	-0.0021972656
179	0x3aff	0.0019454956
180	0x3b10	0.0021972656
181	0x3adb	0.0016708374
182	0x3a7d	0.0009651184
183	0x3aa2	0.0012359619
184	0x3b3d	0.0028839111
185	0xbb5e	-0.0033874512
186	0x3b1b	0.0023651123
187	0x3b6a	0.0035705566
188	0x3b36	0.0027770996
189	0xbb1f	-0.0024261475
190	0x3b78	0.0037841797
191	0xbb0c	-0.0021362305
192	0xbb5c	-0.0033569336
193	0xbaf3	-0.0018539429
194	0x3adc	0.0016784668
195	0xbb3b	-0.0028533936
196	0x3afb	0.001914978
197	0x3af0	0.0018310547
198	0xbb2f	-0.002670288
199	0x3afb	0.001914978
200	0x3b2d	0.0026397705
201	0xbb2f	-0.002670288
202	0x3b64	0.003479004
203	0x3b60	0.0034179688
204	0x3b2a	0.0025939941
205	0xbb1c	-0.002380371
206	0x3b6a	0.0035705566
207	0xbb7c	-0.0038452148
208	0x3b12	0.0022277832
209	0xbb03	-0.0019989014
210	0x3b02	0.0019836426
211	0x3afa	0.0019073486
212	0x3aff	0.0019454956
213	0xbb06	-0.0020446777
214	0x3b02	0.0019836426
215	0xbb14	-0.0022583008
216	0xbb82	-0.003967285
217	0x3b7d	0.0038604736
218	0xbb84	-0.0040283203
219	0xbb84	-0.0040283203
220	0xbb6a	-0.0035705566
221	0x3b7f	0.0038909912
222	0xbb81	-0.0039367676
223	0x3b7d	0.0038604736
224	0xbab8	-0.0014038086
225	0x3a4a	0.00077056885
226	0xb90f	-0.00013637543
227	0xba80	-0.0009765625
228	0xbafa	-0.0019073486
229	0xba0a	-0.0005264282
230	0xbab1	-0.0013504028
231	0x3a49	0.00076675415
232	0xb8b3	-8.535385e-05
233	0xbab1	-0.0013504028
234	0xbabc	-0.0014343262
235	0xba19	-0.0005836487
236	0xbad5	-0.001625061
237	0xb9d8	-0.0004119873
238	0x39aa	0.00032424927
239	0x3a93	0.001121521
240	0x3b82	0.003967285
241	0xbb82	-0.003967285
242	0x3b80	0.00390625
243	0x3b82	0.003967285
244	0x3b7e	0.0038757324
245	0xbb80	-0.00390625
246	0x3b82	0.003967285
247	0xbb83	-0.0039978027
248	0xbb55	-0.003250122
249	0x3b47	0.003036499
250	0xbb7e	-0.0038757324
251	0xbb80	-0.00390625
252	0xbb3e	-0.00289917
253	0x3b50	0.0031738281
254	0xbb7b	-0.003829956
255	0x3b7c	0.0038452148

base_model.model.transformer.h.11.attn.c_attn.lora_A.weight bf16 [8, 768]
0	0x3d12	0.03564453
1	0x3c0f	0.008728027
2	0x3c0d	0.008605957
3	0xbc79	-0.015197754
4	0xbc67	-0.014099121
5	0xbcd5	-0.026000977
6	0xbb80	-0.00390625
7	0x3c00	0.0078125
8	0xbc8e	-0.017333984
9	0x3c00	0.0078125
10	0x3c99	0.018676758
11	0xbc24	-0.010009766
12	0x3be3	0.0069274902
13	0xbca5	-0.020141602
14	0xbbdd	-0.0067443848
15	0x3ca6	0.020263672
16	0xbcc0	-0.0234375
17	0xbca4	-0.020019531
18	0xbb87	-0.004119873
19	0xbd09	-0.033447266
20	0x3c98	0.018554688
21	0x3c00	0.0078125
22	0x3b87	0.004119873
23	0xbc06	-0.008178711
24	0xbd04	-0.032226562
25	0x3c00	0.0078125
26	0xbcde	-0.02709961
27	0x3cf5	0.029907227
28	0xbb91	-0.004425049
29	0xbca9	-0.020629883
30	0xbc7c	-0.015380859
31	0x3c60	0.013671875
32	0x3d08	0.033203125
33	0xbd02	-0.03173828
34	0xbb87	-0.004119873
35	0x3ccc	0.024902344
36	0x3cda	0.026611328
37	0x3cb6	0.022216797
38	0xb9a7	-0.00031852722
39	0xbce1	-0.02746582
40	0xbb17	-0.0023040771
41	0xbcc5	-0.024047852
42	0xbd06	-0.032714844
43	0xbcea	-0.028564453
44	0xbc9b	-0.018920898
45	0x3ce3	0.027709961
46	0xbcce	-0.025146484
47	0xbba4	-0.005004883
48	0x3cb6	0.022216797
49	0xbd10	-0.03515625
50	0x3c91	0.017700195
51	0xbca6	-0.020263672
52	0xbc00	-0.0078125
53	0x3b04	0.0020141602
54	0xbc58	-0.013183594
55	0x3c68	0.014160156
56	0x3b8f	0.0043640137
57	0x3d06	0.032714844
58	0xbc24	-0.010009766
59	0x3ce5	0.027954102
60	0x3cd9	0.026489258
61	0x3c7d	0.0154418945
62	0xbc72	-0.014770508
63	0x3cd7	0.026245117
64	0x3c64	0.013916016
65	0xbcbc	-0.022949219
66	0x3d04	0.032226562
67	0x3c12	0.008911133
68	0x3cc2	0.02368164
69	0x3caf	0.021362305
70	0x3c9f	0.01940918
71	0x3b9a	0.004699707
72	0x3bc3	0.0059509277
73	0x3ca1	0.01965332
74	0xbc40	-0.01171875
75	0x3d0a	0.033691406
76	0xbbd2	-0.0064086914
77	0xbce1	-0.02746582
78	0xbba4	-0.005004883
79	0x3cf9	0.030395508
80	0xbd12	-0.03564453
81	0x3b91	0.004425049
82	0xbcae	-0.021240234
83	0x3cdf	0.02722168
84	0x3c75	0.014953613
85	0x3c8c	0.017089844
86	0x3c00	0.0078125
87	0xbc09	-0.008361816
88	0x3cda	0.026611328
89	0x3ce2	0.02758789
90	0xbb81	-0.0039367676
91	0x3c00	0.0078125
92	0x3d0d	0.034423828
93	0x3be3	0.0069274902
94	0xbcf6	-0.030029297
95	0x3b80	0.00390625
96	0xbcff	-0.03112793
97	0x3cc5	0.024047852
98	0x3cf2	0.029541016
99	0xbc05	-0.008117676
100	0xbb8a	-0.004211426
101	0xbd0e	-0.03466797
102	0xbce1	-0.02746582
103	0x3caf	0.021362305
104	0xbcc6	-0.024169922
105	0xbc90	-0.017578125
106	0xbc77	-0.015075684
107	0xbbbd	-0.0057678223
108	0x3c8c	0.017089844
109	0x3d07	0.032958984
110	0xbcf5	-0.029907227
111	0x3c81	0.01574707
112	0xbc6a	-0.014282227
113	0xbbac	-0.0052490234
114	0x3c83	0.015991211
115	0xbca1	-0.01965332
116	0xbce9	-0.028442383
117	0xbc17	-0.009216309
118	0x3c01	0.007873535
119	0xbca3	-0.019897461
120	0x3c12	0.008911133
121	0xbd04	-0.032226562
122	0x3bdc	0.006713867
123	0x3c9e	0.01928711
124	0x3c47	0.012145996
125	0xbcd6	-0.026123047
126	0xbc3d	-0.0115356445
127	0xbcb3	-0.021850586
128	0xbc9b	-0.018920898
129	0xbc6c	-0.014404297
130	0xbc00	-0.0078125
131	0x3c20	0.009765625
132	0xbc00	-0.0078125
133	0x3c83	0.015991211
134	0x3c2f	0.010681152
135	0x3c14	0.009033203
136	0x3c9b	0.018920898
137	0x3cb3	0.021850586
138	0x3c2e	0.010620117
139	0x3cf8	0.030273438
140	0xbcbf	-0.02331543
141	0xbc2c	-0.010498047
142	0x3c69	0.014221191
143	0xbca3	-0.019897461
144	0x3c00	0.0078125
145	0xbc36	-0.011108398
146	0x3cdf	0.02722168
147	0x3ba4	0.005004883
148	0xbc27	-0.010192871
149	0x3bf1	0.0073547363
150	0xbd10	-0.03515625
151	0x3cd8	0.026367188
152	0x3c54	0.012939453
153	0xbcf0	-0.029296875
154	0x3cf2	0.029541016
155	0x3d13	0.035888672
156	0x3cc0	0.0234375
157	0xbc23	-0.0099487305
158	0xbc8e	-0.017333984
159	0xbd12	-0.03564453
160	0xbca4	-0.020019531
161	0x3ce1	0.02746582
162	0xbd13	-0.035888672
163	0x3ca5	0.020141602
164	0xbd12	-0.03564453
165	0x3c99	0.018676758
166	0xbb80	-0.00390625
167	0x3ce2	0.02758789
168	0x3bff	0.0077819824
169	0x3d10	0.03515625
170	0x3b8e	0.004333496
171	0xbc6e	-0.014526367
172	0x3cb8	0.022460938
173	0xbb9a	-0.004699707
174	0xbccf	-0.025268555
175	0xbc3a	-0.011352539
176	0xbb93	-0.004486084
177	0xbcd6	-0.026123047
178	0xbcc8	-0.024414062
179	0x3c71	0.014709473
180	0x3cc1	0.02355957
181	0x3c6a	0.014282227
182	0x3cbb	0.022827148
183	0xbc94	-0.018066406
184	0x3c24	0.010009766
185	0xbc00	-0.0078125
186	0xbb55	-0.003250122
187	0xbca0	-0.01953125
188	0xbced	-0.028930664
189	0x3ccc	0.024902344
190	0xbb7f	-0.0038909912
191	0xbc2c	-0.010498047
192	0xbced	-0.028930664
193	0xbcde	-0.02709961
194	0x3d10	0.03515625
195	0xbd0e	-0.03466797
196	0x3cac	0.020996094
197	0x3cfa	0.030517578
198	0x3b80	0.00390625
199	0xbc22	-0.009887695
200	0x3c10	0.0087890625
201	0x3c12	0.008911133
202	0x3c80	0.015625
203	0xbcbe	-0.02319336
204	0xbc83	-0.015991211
205	0xbcd4	-0.025878906
206	0xbbb3	-0.0054626465
207	0xbc04	-0.008056641
208	0xbb8b	-0.0042419434
209	0x3c95	0.018188477
210	0xbcc8	-0.024414062
211	0x3d04	0.032226562
212	0xbcda	-0.026611328
213	0x3c94	0.018066406
214	0xbd0f	-0.03491211
215	0xbbb3	-0.0054626465
216	0x3d12	0.03564453
217	0x3cfc	0.030761719
218	0x3ca5	0.020141602
219	0xbb90	-0.0043945312
220	0x3ca0	0.01953125
221	0x3c49	0.012268066
222	0xbccb	-0.024780273
223	0x3c8f	0.017456055
224	0x3c84	0.016113281
225	0x3ca3	0.019897461
226	0xbb0f	-0.0021820068
227	0x3c3a	0.011352539
228	0x3cac	0.020996094
229	0x3cec	0.028808594
230	0xbd05	-0.032470703
231	0x3ca1	0.01965332
232	0xbcf0	-0.029296875
233	0xbcfe	-0.03100586
234	0x3c55	0.013000488
235	0xbc88	-0.016601562
236	0xbb86	-0.0040893555
237	0x3b81	0.0039367676
238	0xbc4e	-0.012573242
239	0x3cbf	0.02331543
240	0x3c4c	0.012451172
241	0xbca9	-0.020629883
242	0x3c90	0.017578125
243	0xbc7b	-0.015319824
244	0xbbbb	-0.005706787
245	0x3cfe	0.03100586
246	0xbc92	-0.017822266
247	0x3cca	0.024658203
248	0xbc00	-0.0078125
249	0xbd0d	-0.034423828
250	0xbcf1	-0.029418945
251	0xbc22	-0.009887695
252	0x3cbf	0.02331543
253	0xbb8e	-0.004333496
254	0xbbdc	-0.006713867
255	0xbb80	-0.00390625
