examples/research_projects/stack_llama/scripts/gpt2_peft_stack-exchange-paired_rmts__100000_2e-05/checkpoint-1500/adapter_model.safetensors (safetensors, 594496 bytes, 25 tensors)

base_model.model.score.weight bf16 [1, 768]
0	0x3cf0	0.029296875
1	0x3bbf	0.0058288574
2	0x3c9e	0.01928711
3	0x3d01	0.03149414
4	0x3c22	0.009887695
5	0xbcf9	-0.030395508
6	0xbba3	-0.0049743652
7	0x3c3c	0.011474609
8	0x3bc5	0.006011963
9	0xbc3a	-0.011352539
10	0x3c32	0.010864258
11	0xbc38	-0.011230469
12	0x3c45	0.012023926
13	0x3d43	0.047607422
14	0x3d09	0.033447266
15	0xbc89	-0.016723633
16	0xbc25	-0.010070801
17	0xbc27	-0.010192871
18	0xbc0f	-0.008728027
19	0x3ce0	0.02734375
20	0xbc5c	-0.013427734
21	0xbb27	-0.0025482178
22	0x3c93	0.017944336
23	0xbcdb	-0.026733398
24	0x3c7b	0.015319824
25	0x3cbc	0.022949219
26	0xbc3c	-0.011474609
27	0x3c9e	0.01928711
28	0x3d27	0.040771484
29	0x3c38	0.011230469
30	0x3a36	0.0006942749
31	0xbc65	-0.013977051
32	0xbc1a	-0.009399414
33	0xbce4	-0.027832031
34	0x3ce3	0.027709961
35	0xbc49	-0.012268066
36	0x3d72	0.05908203
37	0x3c56	0.013061523
38	0xbcde	-0.02709961
39	0xbcf3	-0.029663086
40	0x3ca2	0.01977539
41	0x3cc3	0.023803711
42	0xbd25	-0.040283203
43	0xbd03	-0.031982422
44	0xbc9e	-0.01928711
45	0x3c38	0.011230469
46	0xbc60	-0.013671875
47	0xbc76	-0.015014648
48	0x3c97	0.018432617
49	0x3bf3	0.0074157715
50	0x3c23	0.0099487305
51	0xbce8	-0.028320312
52	0xba06	-0.00051116943
53	0x3d03	0.031982422
54	0x3bc2	0.00592041
55	0xbc20	-0.009765625
56	0x3c90	0.017578125
57	0xbce7	-0.028198242
58	0x3b09	0.002090454
59	0xbc91	-0.017700195
60	0xb9a1	-0.00030708313
61	0x3b43	0.0029754639
62	0xbcba	-0.022705078
63	0x3b87	0.004119873
64	0x3c9a	0.018798828
65	0x3c03	0.0079956055
66	0x3c29	0.010314941
67	0x3cb1	0.021606445
68	0xbc0b	-0.008483887
69	0xbce9	-0.028442383
70	0xbc3e	-0.01159668
71	0x3c4d	0.012512207
72	0x3cd1	0.025512695
73	0xbba4	-0.005004883
74	0xbb10	-0.0021972656
75	0x3c1d	0.0095825195
76	0x3cb5	0.022094727
77	0xbb34	-0.002746582
78	0x3c00	0.0078125
79	0x3caa	0.020751953
80	0x3cac	0.020996094
81	0xbc05	-0.008117676
82	0xbcb5	-0.022094727
83	0xbae1	-0.0017166138
84	0xbbd5	-0.006500244
85	0xbc98	-0.018554688
86	0xbc95	-0.018188477
87	0xbc69	-0.014221191
88	0x3cc8	0.024414062
89	0x3bc7	0.006072998
90	0x3bc6	0.0060424805
91	0xbb57	-0.0032806396
92	0xbc64	-0.013916016
93	0x3d20	0.0390625
94	0x3cbe	0.02319336
95	0x3a93	0.001121521
96	0x3b11	0.0022125244
97	0x3ca0	0.01953125
98	0x3a83	0.0009994507
99	0x3c27	0.010192871
100	0xbcba	-0.022705078
101	0x3ce9	0.028442383
102	0xbc92	-0.017822266
103	0x3c25	0.010070801
104	0x3cd0	0.025390625
105	0x3ae3	0.0017318726
106	0xbc5f	-0.01361084
107	0x3cbc	0.022949219
108	0x3b06	0.0020446777
109	0xbc07	-0.008239746
110	0xb993	-0.00028038025
111	0xbd0b	-0.033935547
112	0x3c8a	0.016845703
113	0x3c3e	0.01159668
114	0xbd29	-0.041259766
115	0xbc87	-0.016479492
116	0xbc52	-0.012817383
117	0x3c24	0.010009766
118	0x3c75	0.014953613
119	0xbb86	-0.0040893555
120	0x3c2e	0.010620117
121	0xbced	-0.028930664
122	0xbc5a	-0.013305664
123	0x3b9f	0.004852295
124	0x3cb6	0.022216797
125	0x3cc8	0.024414062
126	0x3d1f	0.03881836
127	0x3d03	0.031982422
128	0xbc1f	-0.00970459
129	0x3c95	0.018188477
130	0xbcb8	-0.022460938
131	0x3bf1	0.0073547363
132	0xbcb7	-0.022338867
133	0xbc9c	-0.019042969
134	0xb964	-0.00021743774
135	0x3c36	0.011108398
136	0xbce4	-0.027832031
137	0x3cb5	0.022094727
138	0xbcc8	-0.024414062
139	0x3c92	0.017822266
140	0x3cd5	0.026000977
141	0xbb12	-0.0022277832
142	0x3b18	0.002319336
143	0x3c98	0.018554688
144	0xbd0b	-0.033935547
145	0x3c2d	0.010559082
146	0xbbc2	-0.00592041
147	0xbcd9	-0.026489258
148	0x3cf3	0.029663086
149	0xbb80	-0.00390625
150	0x3b12	0.0022277832
151	0xbcc9	-0.024536133
152	0x3c47	0.012145996
153	0x3c99	0.018676758
154	0xbd2e	-0.04248047
155	0xbb4e	-0.0031433105
156	0x3c9a	0.018798828
157	0xbcbf	-0.02331543
158	0x3b7b	0.003829956
159	0x3b8f	0.0043640137
160	0x3c71	0.014709473
161	0xbc59	-0.013244629
162	0x3c3b	0.011413574
163	0x3c5e	0.013549805
164	0xbc95	-0.018188477
165	0x3d03	0.031982422
166	0x3c1a	0.009399414
167	0x3b9e	0.0048217773
168	0xbc55	-0.013000488
169	0xbbf5	-0.0074768066
170	0xbcd6	-0.026123047
171	0x3d1a	0.037597656
172	0xbc65	-0.013977051
173	0x3c3c	0.011474609
174	0x3c73	0.014831543
175	0x3cf5	0.029907227
176	0x3c2d	0.010559082
177	0xbb86	-0.0040893555
178	0x3b88	0.0041503906
179	0xbb91	-0.004425049
180	0xbc47	-0.012145996
181	0x3c45	0.012023926
182	0x3bb5	0.0055236816
183	0xba23	-0.00062179565
184	0x3d02	0.03173828
185	0x3c28	0.010253906
186	0x3b8c	0.004272461
187	0xbc90	-0.017578125
188	0x3aee	0.0018157959
189	0x3c86	0.016357422
190	0x3b7d	0.0038604736
191	0xbb84	-0.0040283203
192	0xbc43	-0.0119018555
193	0x3cb3	0.021850586
194	0x3d02	0.03173828
195	0xbcb5	-0.022094727
196	0x3d02	0.03173828
197	0xbc71	-0.014709473
198	0x3c1b	0.009460449
199	0xbc07	-0.008239746
200	0x3b18	0.002319336
201	0x3b82	0.003967285
202	0x3b48	0.0030517578
203	0x3cc5	0.024047852
204	0xbcf3	-0.029663086
205	0x3c08	0.008300781
206	0x3b7e	0.0038757324
207	0x3b59	0.0033111572
208	0xbaa5	-0.0012588501
209	0xbafc	-0.0019226074
210	0x3be1	0.006866455
211	0x3b5a	0.003326416
212	0x3c7b	0.015319824
213	0xbc9e	-0.01928711
214	0x3d0a	0.033691406
215	0x3b79	0.0037994385
216	0xbc36	-0.011108398
217	0x3c85	0.016235352
218	0xbb80	-0.00390625
219	0x3c9d	0.019165039
220	0x3bcc	0.006225586
221	0x3c9d	0.019165039
222	0x3b5c	0.0033569336
223	0xbd57	-0.052490234
224	0xbc07	-0.008239746
225	0x3cbe	0.02319336
226	0xbd44	-0.047851562
227	0xbc60	-0.013671875
228	0xbd00	-0.03125
229	0xbca8	-0.020507812
230	0x3c8d	0.017211914
231	0x3bc5	0.006011963
232	0xbd38	-0.044921875
233	0x3c1d	0.0095825195
234	0xbd05	-0.032470703
235	0xbc43	-0.0119018555
236	0xbc91	-0.017700195
237	0x3c1e	0.009643555
238	0x3c47	0.012145996
239	0xbc7e	-0.01550293
240	0xbcbf	-0.02331543
241	0x3c90	0.017578125
242	0x3cb5	0.022094727
243	0x3cb3	0.021850586
244	0xbd05	-0.032470703
245	0xbaca	-0.0015411377
246	0x3c5f	0.01361084
247	0x3c71	0.014709473
248	0xbcbc	-0.022949219
249	0xbc6d	-0.014465332
250	0xbb8b	-0.0042419434
251	0xbb8b	-0.0042419434
252	0x3bb6	0.005554199
253	0x3c90	0.017578125
254	0xbcca	-0.024658203
255	0x3c67	0.014099121

base_model.model.transformer.h.0.attn.c_attn.lora_A.weight bf16 [8, 768]
0	0xbcd6	-0.026123047
1	0x3ce5	0.027954102
2	0xbce7	-0.028198242
3	0xbb5d	-0.0033721924
4	0x3d0a	0.033691406
5	0x3c90	0.017578125
6	0xbb8e	-0.004333496
7	0x3c83	0.015991211
8	0x3c10	0.0087890625
9	0xbc36	-0.011108398
10	0xbc1a	-0.009399414
11	0xbc32	-0.010864258
12	0xbd08	-0.033203125
13	0xbcc0	-0.0234375
14	0x3b82	0.003967285
15	0x3c9d	0.019165039
16	0xbced	-0.028930664
17	0x3cd5	0.026000977
18	0x3d04	0.032226562
19	0xbca5	-0.020141602
20	0x3c7f	0.015563965
21	0x3cc6	0.024169922
22	0xbc94	-0.018066406
23	0x3c92	0.017822266
24	0x3d06	0.032714844
25	0x3cdf	0.02722168
26	0xbd0a	-0.033691406
27	0x3b61	0.0034332275
28	0xbba6	-0.005065918
29	0x3c87	0.016479492
30	0x3b9a	0.004699707
31	0xbcb2	-0.021728516
32	0xbd08	-0.033203125
33	0xbc1a	-0.009399414
34	0x3b56	0.0032653809
35	0xbcc4	-0.023925781
36	0x3c60	0.013671875
37	0xbc3c	-0.011474609
38	0xbc39	-0.011291504
39	0xbc9a	-0.018798828
40	0xbcc5	-0.024047852
41	0x3cbf	0.02331543
42	0x3ce3	0.027709961
43	0x3b80	0.00390625
44	0xbc99	-0.018676758
45	0xbaee	-0.0018157959
46	0xbbff	-0.0077819824
47	0x3c86	0.016357422
48	0xbc04	-0.008056641
49	0xbca0	-0.01953125
50	0x3cbc	0.022949219
51	0xbc2f	-0.010681152
52	0x3cdb	0.026733398
53	0x3b8f	0.0043640137
54	0x3cac	0.020996094
55	0x3a82	0.0009918213
56	0xbc07	-0.008239746
57	0xbb80	-0.00390625
58	0x3b59	0.0033111572
59	0x3baf	0.005340576
60	0xbb64	-0.003479004
61	0x3c86	0.016357422
62	0x3b04	0.0020141602
63	0xbba8	-0.005126953
64	0x3b8b	0.0042419434
65	0x3b9a	0.004699707
66	0x3d09	0.033447266
67	0x3c20	0.009765625
68	0x3d02	0.03173828
69	0x3c73	0.014831543
70	0x3ccc	0.024902344
71	0xbccc	-0.024902344
72	0x3cd1	0.025512695
73	0xbca0	-0.01953125
74	0x3b86	0.0040893555
75	0x3d02	0.03173828
76	0x3b29	0.0025787354
77	0x3c9d	0.019165039
78	0xbbb7	-0.005584717
79	0xbccc	-0.024902344
80	0x3ce7	0.028198242
81	0xbca5	-0.020141602
82	0x3d10	0.03515625
83	0xbbb6	-0.005554199
84	0xbc78	-0.015136719
85	0xbcf6	-0.030029297
86	0x3caf	0.021362305
87	0xbcf0	-0.029296875
88	0xbba5	-0.0050354004
89	0x3ac3	0.0014877319
90	0x3c6b	0.014343262
91	0xbc79	-0.015197754
92	0x3c12	0.008911133
93	0xbcd7	-0.026245117
94	0x3c70	0.0146484375
95	0xbc28	-0.010253906
96	0x3ca6	0.020263672
97	0x3d04	0.032226562
98	0x3d04	0.032226562
99	0xbcd2	-0.025634766
100	0xbd03	-0.031982422
101	0x3c52	0.012817383
102	0xbcbf	-0.02331543
103	0xbbd3	-0.006439209
104	0x3c87	0.016479492
105	0x3ca2	0.01977539
106	0xbc00	-0.0078125
107	0x3cbb	0.022827148
108	0xbc84	-0.016113281
109	0xbb85	-0.004058838
110	0x3ca3	0.019897461
111	0x3bd8	0.006591797
112	0x3d04	0.032226562
113	0x3c9e	0.01928711
114	0x3cdb	0.026733398
115	0x3c20	0.009765625
116	0x3a8f	0.0010910034
117	0xbc03	-0.0079956055
118	0x3ce8	0.028320312
119	0xbb7b	-0.003829956
120	0x3b87	0.004119873
121	0xbcbd	-0.023071289
122	0x3aec	0.0018005371
123	0x3ab6	0.0013885498
124	0x3c1b	0.009460449
125	0x3c97	0.018432617
126	0x3c6b	0.014343262
127	0xbd0d	-0.034423828
128	0xbcf4	-0.029785156
129	0x3cca	0.024658203
130	0xbd0e	-0.03466797
131	0x3c9a	0.018798828
132	0x3b22	0.0024719238
133	0x3c53	0.012878418
134	0xbcdc	-0.026855469
135	0x3c42	0.01184082
136	0xbc94	-0.018066406
137	0x3d12	0.03564453
138	0xbc6a	-0.014282227
139	0xbc00	-0.0078125
140	0xba69	-0.00088882446
141	0x3c1c	0.009521484
142	0xbc7c	-0.015380859
143	0x3d04	0.032226562
144	0xbca8	-0.020507812
145	0x3b63	0.0034637451
146	0x3c3a	0.011352539
147	0xbd10	-0.03515625
148	0xbcf1	-0.029418945
149	0x3cb6	0.022216797
150	0x3d11	0.03540039
151	0x3c92	0.017822266
152	0xbca5	-0.020141602
153	0x3c09	0.008361816
154	0xbd0e	-0.03466797
155	0x3b98	0.004638672
156	0xbcd3	-0.025756836
157	0xbc32	-0.010864258
158	0x3cb6	0.022216797
159	0x3d05	0.032470703
160	0xbc4b	-0.012390137
161	0x3cc8	0.024414062
162	0xbd07	-0.032958984
163	0x3b8b	0.0042419434
164	0x3c71	0.014709473
165	0xbcaf	-0.021362305
166	0x3cad	0.021118164
167	0x3ce6	0.028076172
168	0x3bcd	0.0062561035
169	0x3ca7	0.020385742
170	0x3cf3	0.029663086
171	0x3c09	0.008361816
172	0x3c91	0.017700195
173	0xbbd9	-0.0066223145
174	0xbb81	-0.0039367676
175	0x3c3b	0.011413574
176	0x3d0c	0.034179688
177	0xbcf2	-0.029541016
178	0x3ce2	0.02758789
179	0x3c15	0.009094238
180	0xbca9	-0.020629883
181	0x3c7c	0.015380859
182	0xbb11	-0.0022125244
183	0xbc36	-0.011108398
184	0x3d07	0.032958984
185	0x3bf5	0.0074768066
186	0xbce9	-0.028442383
187	0x3cfb	0.030639648
188	0xbc7f	-0.015563965
189	0x3cb9	0.022583008
190	0x3cb0	0.021484375
191	0xbbde	-0.0067749023
192	0x3d08	0.033203125
193	0x3b6f	0.0036468506
194	0x3ccf	0.025268555
195	0x3caa	0.020751953
196	0xbcb0	-0.021484375
197	0x3cd3	0.025756836
198	0xbc14	-0.009033203
199	0xbbbc	-0.0057373047
200	0x3ca8	0.020507812
201	0x3c27	0.010192871
202	0x3d11	0.03540039
203	0x3cc7	0.024291992
204	0x3b92	0.0044555664
205	0x3d10	0.03515625
206	0xbc4c	-0.012451172
207	0xbcdc	-0.026855469
208	0xbc66	-0.014038086
209	0xbcad	-0.021118164
210	0x3940	0.00018310547
211	0xbc62	-0.013793945
212	0xbcea	-0.028564453
213	0x3b88	0.0041503906
214	0xbc88	-0.016601562
215	0xbb6c	-0.0036010742
216	0xbc4a	-0.012329102
217	0xbc91	-0.017700195
218	0x3d11	0.03540039
219	0x3bb4	0.005493164
220	0xbb71	-0.0036773682
221	0xbbf0	-0.0073242188
222	0x3cf4	0.029785156
223	0xbce2	-0.02758789
224	0x3cd9	0.026489258
225	0x3d13	0.035888672
226	0xbc4e	-0.012573242
227	0xbc9e	-0.01928711
228	0x3c81	0.01574707
229	0x3d03	0.031982422
230	0xbb8a	-0.004211426
231	0x3cf9	0.030395508
232	0xbc14	-0.009033203
233	0xbd11	-0.03540039
234	0x3c93	0.017944336
235	0x3d0d	0.034423828
236	0xbc19	-0.009338379
237	0xbbe6	-0.007019043
238	0x3c03	0.0079956055
239	0x3d05	0.032470703
240	0x3d04	0.032226562
241	0xbcad	-0.021118164
242	0x3cd7	0.026245117
243	0xbc88	-0.016601562
244	0xbc26	-0.010131836
245	0x3bf4	0.007446289
246	0x3cd9	0.026489258
247	0xbca8	-0.020507812
248	0x3b20	0.0024414062
249	0xbcbb	-0.022827148
250	0xbd02	-0.03173828
251	0xbc94	-0.018066406
252	0xbc28	-0.010253906
253	0xbcc7	-0.024291992
254	0xbcde	-0.02709961
255	0xbc00	-0.0078125

base_model.model.transformer.h.0.attn.c_attn.lora_B.weight bf16 [2304, 8]
0	0xb9b9	-0.0003528595
1	0xba6b	-0.00089645386
2	0x3997	0.00028800964
3	0xba09	-0.0005226135
4	0x38e6	0.00010967255
5	0xb921	-0.00015354156
6	0x3a6c	0.00090026855
7	0x3acf	0.0015792847
8	0xb9a1	-0.00030708313
9	0x393f	0.0001821518
10	0x3927	0.00015926361
11	0x3a4a	0.00077056885
12	0x3786	1.5974045e-05
13	0xb8ff	-0.000121593475
14	0xb93b	-0.0001783371
15	0x38db	0.00010442734
16	0xba84	-0.0010070801
17	0x3a7a	0.0009536743
18	0x39ea	0.00044631958
19	0x39ad	0.0003299713
20	0xb9bb	-0.0003566742
21	0xba53	-0.0008049011
22	0xba9c	-0.0011901855
23	0xba03	-0.00049972534
24	0x39bb	0.0003566742
25	0x3a85	0.0010147095
26	0xba4b	-0.00077438354
27	0x3ab6	0.0013885498
28	0x3a61	0.0008583069
29	0x396e	0.00022697449
30	0xb9cc	-0.00038909912
31	0xbac3	-0.0014877319
32	0xb9fd	-0.0004825592
33	0x3990	0.0002746582
34	0x39f7	0.0004711151
35	0x39c6	0.00037765503
36	0x365a	3.2484531e-06
37	0x38e7	0.00011014938
38	0xb9b8	-0.00035095215
39	0xb911	-0.00013828278
40	0xba26	-0.00063323975
41	0x393a	0.00017738342
42	0x3a75	0.00093460083
43	0x39a6	0.00031661987
44	0xbb00	-0.001953125
45	0xba52	-0.0008010864
46	0x3a0b	0.0005302429
47	0xba62	-0.0008621216
48	0x39c5	0.00037574768
49	0x3a05	0.00050735474
50	0xb9dc	-0.0004196167
51	0x3ab5	0.0013809204
52	0x38a0	7.6293945e-05
53	0xb918	-0.0001449585
54	0xba52	-0.0008010864
55	0xbaf7	-0.0018844604
56	0x382a	4.053116e-05
57	0x398e	0.0002708435
58	0xb956	-0.0002040863
59	0x3a87	0.0010299683
60	0x388d	6.723404e-05
61	0x3aa4	0.0012512207
62	0xb8c4	-9.346008e-05
63	0xba11	-0.0005531311
64	0x3a20	0.00061035156
65	0xba39	-0.000705719
66	0xba14	-0.0005645752
67	0x39f8	0.00047302246
68	0x3a5a	0.000831604
69	0xb976	-0.00023460388
70	0x39af	0.000333786
71	0x3a3c	0.0007171631
72	0xbab7	-0.0013961792
73	0xba0a	-0.0005264282
74	0x3ad1	0.0015945435
75	0xbab7	-0.0013961792
76	0xbabe	-0.001449585
77	0x3987	0.00025749207
78	0x3799	1.8239021e-05
79	0x3a8b	0.0010604858
80	0xb8d6	-0.00010204315
81	0x372e	1.0371208e-05
82	0xba11	-0.0005531311
83	0x3a79	0.0009498596
84	0x3a08	0.0005187988
85	0x39f6	0.00046920776
86	0xb99a	-0.0002937317
87	0xbacf	-0.0015792847
88	0x39f7	0.0004711151
89	0x3a6a	0.00089263916
90	0xba12	-0.0005569458
91	0x3a5b	0.0008354187
92	0x3885	6.341934e-05
93	0x3779	1.4841557e-05
94	0xb93f	-0.0001821518
95	0xba81	-0.0009841919
96	0x3a2d	0.0006599426
97	0x3ac4	0.0014953613
98	0xba2e	-0.0006637573
99	0x3a3f	0.0007286072
100	0x3910	0.0001373291
101	0x3990	0.0002746582
102	0xb9bf	-0.0003643036
103	0xbaf2	-0.0018463135
104	0x39b7	0.0003490448
105	0x3797	1.8000603e-05
106	0xba59	-0.0008277893
107	0x3a0d	0.0005378723
108	0x3a8b	0.0010604858
109	0x39db	0.00041770935
110	0xb9d3	-0.00040245056
111	0x3a6b	0.00089645386
112	0xb997	-0.00028800964
113	0x39e2	0.0004310608
114	0xb98c	-0.0002670288
115	0xba0d	-0.0005378723
116	0xba83	-0.0009994507
117	0x395a	0.000207901
118	0x3a5b	0.0008354187
119	0x3a18	0.000579834
120	0xb9f4	-0.00046539307
121	0x3a5f	0.0008506775
122	0x3a0c	0.0005340576
123	0x3901	0.00012302399
124	0xba9f	-0.0012130737
125	0xba9a	-0.0011749268
126	0xba2a	-0.00064849854
127	0xba53	-0.0008049011
128	0x3a8b	0.0010604858
129	0xba3c	-0.0007171631
130	0xba2e	-0.0006637573
131	0xb9b0	-0.00033569336
132	0x3a94	0.0011291504
133	0xba02	-0.00049591064
134	0xba19	-0.0005836487
135	0xb807	-3.2186508e-05
136	0x3863	5.4121017e-05
137	0xba0a	-0.0005264282
138	0xb9aa	-0.00032424927
139	0xb99a	-0.0002937317
140	0xb8be	-9.059906e-05
141	0x3a51	0.0007972717
142	0xb852	-5.00679e-05
143	0xb9fc	-0.00048065186
144	0xba14	-0.0005645752
145	0x39a3	0.00031089783
146	0x3a89	0.001045227
147	0x3a36	0.0006942749
148	0xba90	-0.0010986328
149	0xbacd	-0.0015640259
150	0xba6b	-0.00089645386
151	0xba90	-0.0010986328
152	0x39cb	0.00038719177
153	0xb811	-3.4570694e-05
154	0x39dd	0.00042152405
155	0x39d1	0.00039863586
156	0x3880	6.1035156e-05
157	0xba35	-0.0006904602
158	0xbaa5	-0.0012588501
159	0xba2a	-0.00064849854
160	0x3a41	0.0007362366
161	0xba57	-0.0008201599
162	0xb83e	-4.529953e-05
163	0xba96	-0.0011444092
164	0x39a0	0.00030517578
165	0xb9a7	-0.00031852722
166	0x3a9c	0.0011901855
167	0x3ac6	0.0015106201
168	0xba79	-0.0009498596
169	0xb9a6	-0.00031661987
170	0x3a48	0.00076293945
171	0xba60	-0.0008544922
172	0xba43	-0.00074386597
173	0x38b4	8.583069e-05
174	0x39a7	0.00031852722
175	0xba88	-0.0010375977
176	0x385c	5.2452087e-05
177	0x3a27	0.00063705444
178	0xba1e	-0.00060272217
179	0x3a98	0.001159668
180	0x39d0	0.00039672852
181	0x3a9c	0.0011901855
182	0x3895	7.104874e-05
183	0xbaca	-0.0015411377
184	0x3a2a	0.00064849854
185	0x39bf	0.0003643036
186	0xba14	-0.0005645752
187	0xba43	-0.00074386597
188	0x3a82	0.0009918213
189	0xba15	-0.0005683899
190	0xb9b1	-0.0003376007
191	0x39b1	0.0003376007
192	0x3994	0.0002822876
193	0x3a26	0.00063323975
194	0xba1a	-0.0005874634
195	0xb9b7	-0.0003490448
196	0x3a51	0.0007972717
197	0x3953	0.00020122528
198	0xba37	-0.0006980896
199	0x3a02	0.00049591064
200	0xb96c	-0.00022506714
201	0xba12	-0.0005569458
202	0xb9a0	-0.00030517578
203	0xba22	-0.00061798096
204	0xba58	-0.0008239746
205	0xba4f	-0.00078964233
206	0x3a8c	0.0010681152
207	0x397d	0.0002412796
208	0xb9d5	-0.00040626526
209	0x3a2b	0.00065231323
210	0x3a89	0.001045227
211	0xb8c2	-9.250641e-05
212	0xba92	-0.0011138916
213	0x3893	7.009506e-05
214	0x3991	0.00027656555
215	0xb8cf	-9.870529e-05
216	0xba43	-0.00074386597
217	0x39ae	0.00033187866
218	0x3a6d	0.00090408325
219	0x3922	0.00015449524
220	0xbac2	-0.0014801025
221	0xba85	-0.0010147095
222	0x3a0b	0.0005302429
223	0xbb00	-0.001953125
224	0xb926	-0.00015830994
225	0x39dc	0.0004196167
226	0xb888	-6.484985e-05
227	0x3981	0.00024604797
228	0xb958	-0.00020599365
229	0xbaa1	-0.0012283325
230	0xb9d5	-0.00040626526
231	0x391c	0.0001487732
232	0x3a00	0.00048828125
233	0xb9d0	-0.00039672852
234	0xba1f	-0.00060653687
235	0x3a7c	0.0009613037
236	0x3a9a	0.0011749268
237	0x3a8e	0.001083374
238	0x39ea	0.00044631958
239	0x396e	0.00022697449
240	0x3a04	0.00050354004
241	0xbaa3	-0.0012435913
242	0xba20	-0.00061035156
243	0xba81	-0.0009841919
244	0x3a34	0.0006866455
245	0x3a0c	0.0005340576
246	0x3a4a	0.00077056885
247	0x3afb	0.001914978
248	0x39c5	0.00037574768
249	0x3a48	0.00076293945
250	0x3994	0.0002822876
251	0x3a0c	0.0005340576
252	0x3977	0.00023555756
253	0x3a22	0.00061798096
254	0xba1e	-0.00060272217
255	0xb993	-0.00028038025

base_model.model.transformer.h.1.attn.c_attn.lora_A.weight bf16 [8, 768]
0	0x3cbe	0.02319336
1	0x3ca9	0.020629883
2	0xbcd7	-0.026245117
3	0x3c05	0.008117676
4	0xbd0a	-0.033691406
5	0x3cb1	0.021606445
6	0xbca0	-0.01953125
7	0xbc2d	-0.010559082
8	0xbcee	-0.029052734
9	0x3d04	0.032226562
10	0x3d12	0.03564453
11	0x3c16	0.009155273
12	0xbb7b	-0.003829956
13	0xbb3d	-0.0028839111
14	0x3ca8	0.020507812
15	0x3cb3	0.021850586
16	0xbc2e	-0.010620117
17	0xb8c7	-9.4890594e-05
18	0xbc00	-0.0078125
19	0x3ccd	0.025024414
20	0x3c36	0.011108398
21	0xbcad	-0.021118164
22	0xbca2	-0.01977539
23	0x3c84	0.016113281
24	0x3c5d	0.0134887695
25	0xbc31	-0.010803223
26	0xbbfb	-0.007659912
27	0xbc25	-0.010070801
28	0xbc9e	-0.01928711
29	0x3c1c	0.009521484
30	0x3cd2	0.025634766
31	0xbc71	-0.014709473
32	0x3c3a	0.011352539
33	0xbcaa	-0.020751953
34	0x3c6c	0.014404297
35	0xbb01	-0.0019683838
36	0x3c16	0.009155273
37	0xbc05	-0.008117676
38	0x3d0b	0.033935547
39	0xbcca	-0.024658203
40	0x3c06	0.008178711
41	0xbd09	-0.033447266
42	0x3ced	0.028930664
43	0x3c35	0.011047363
44	0xbb91	-0.004425049
45	0x3d13	0.035888672
46	0xbca6	-0.020263672
47	0x3cf2	0.029541016
48	0x3bba	0.0056762695
49	0x3c85	0.016235352
50	0x3c6c	0.014404297
51	0xbc83	-0.015991211
52	0x3bbc	0.0057373047
53	0xbcb4	-0.021972656
54	0xbc87	-0.016479492
55	0x3cb3	0.021850586
56	0x3c8d	0.017211914
57	0xbd13	-0.035888672
58	0x3c6b	0.014343262
59	0x3cd0	0.025390625
60	0x3b30	0.0026855469
61	0xbc09	-0.008361816
62	0x3b84	0.0040283203
63	0x3aeb	0.0017929077
64	0xbc4a	-0.012329102
65	0x3c76	0.015014648
66	0x3cd0	0.025390625
67	0x3cfe	0.03100586
68	0xbcc5	-0.024047852
69	0xbc0b	-0.008483887
70	0x3d11	0.03540039
71	0x3c82	0.01586914
72	0xbcaf	-0.021362305
73	0xbb0e	-0.002166748
74	0x3c93	0.017944336
75	0xbc79	-0.015197754
76	0xbd02	-0.03173828
77	0x3c65	0.013977051
78	0xbcc2	-0.02368164
79	0xbc9c	-0.019042969
80	0x3c81	0.01574707
81	0xbb86	-0.0040893555
82	0xbc00	-0.0078125
83	0x3bd5	0.006500244
84	0xbcb2	-0.021728516
85	0xbca6	-0.020263672
86	0xbb8b	-0.0042419434
87	0x3cf6	0.030029297
88	0x3cc3	0.023803711
89	0x3c22	0.009887695
90	0xbb51	-0.003189087
91	0xbbfc	-0.0076904297
92	0x3b3a	0.0028381348
93	0x3bc5	0.006011963
94	0x3bc5	0.006011963
95	0xbd0d	-0.034423828
96	0x3ca3	0.019897461
97	0xbb3c	-0.0028686523
98	0x3c98	0.018554688
99	0x3d0e	0.03466797
100	0x3cfe	0.03100586
101	0x3c8e	0.017333984
102	0xbb83	-0.0039978027
103	0xbcef	-0.029174805
104	0x3d12	0.03564453
105	0x3c00	0.0078125
106	0x3ca3	0.019897461
107	0x3c39	0.011291504
108	0x3cc5	0.024047852
109	0xbcca	-0.024658203
110	0xbcc5	-0.024047852
111	0xbb04	-0.0020141602
112	0xbd0d	-0.034423828
113	0xbb2f	-0.002670288
114	0xbcfa	-0.030517578
115	0xbc4a	-0.012329102
116	0xbcf8	-0.030273438
117	0xbc2b	-0.010437012
118	0x3cc3	0.023803711
119	0xbb88	-0.0041503906
120	0x3c1a	0.009399414
121	0xbb77	-0.003768921
122	0xbbfd	-0.0077209473
123	0xbcf7	-0.030151367
124	0xbccf	-0.025268555
125	0xbcce	-0.025146484
126	0x3c8c	0.017089844
127	0x3b05	0.002029419
128	0x3d0d	0.034423828
129	0x3b8c	0.004272461
130	0xbcc6	-0.024169922
131	0x3caa	0.020751953
132	0xbca2	-0.01977539
133	0xbced	-0.028930664
134	0xbc7a	-0.015258789
135	0x3d00	0.03125
136	0x3c46	0.012084961
137	0x3d11	0.03540039
138	0xbcf7	-0.030151367
139	0x3c40	0.01171875
140	0xbd05	-0.032470703
141	0x3c9f	0.01940918
142	0x3cd6	0.026123047
143	0xbc5b	-0.013366699
144	0x3cbb	0.022827148
145	0x3c79	0.015197754
146	0x3c3b	0.011413574
147	0xbcb4	-0.021972656
148	0x3c7e	0.01550293
149	0xbc62	-0.013793945
150	0x3c5b	0.013366699
151	0xbc6d	-0.014465332
152	0x3cbd	0.023071289
153	0x3c59	0.013244629
154	0xbcc1	-0.02355957
155	0x3d10	0.03515625
156	0x3b83	0.0039978027
157	0x3bc1	0.0058898926
158	0xbd14	-0.036132812
159	0x3c8c	0.017089844
160	0x3cde	0.02709961
161	0xbcbe	-0.02319336
162	0xbca7	-0.020385742
163	0xbc00	-0.0078125
164	0xbc90	-0.017578125
165	0xbc3b	-0.011413574
166	0x3bc2	0.00592041
167	0x3d04	0.032226562
168	0xbbd3	-0.006439209
169	0xbd02	-0.03173828
170	0x3c36	0.011108398
171	0x3cbe	0.02319336
172	0xbd07	-0.032958984
173	0x3c87	0.016479492
174	0x3d04	0.032226562
175	0xbbd6	-0.0065307617
176	0xbcb4	-0.021972656
177	0xbb83	-0.0039978027
178	0xbd09	-0.033447266
179	0xbc42	-0.01184082
180	0xbc5b	-0.013366699
181	0xbcb4	-0.021972656
182	0xbd09	-0.033447266
183	0xbced	-0.028930664
184	0x3bd1	0.006378174
185	0xb8af	-8.34465e-05
186	0x3bbe	0.00579834
187	0x3cc1	0.02355957
188	0xbc8f	-0.017456055
189	0xbc73	-0.014831543
190	0x3c67	0.014099121
191	0xbaa9	-0.0012893677
192	0x3d0a	0.033691406
193	0xbcf0	-0.029296875
194	0xbb84	-0.0040283203
195	0x3c7c	0.015380859
196	0x3bcb	0.0061950684
197	0x3c34	0.010986328
198	0x3c41	0.011779785
199	0xbd06	-0.032714844
200	0x3d07	0.032958984
201	0x3cc0	0.0234375
202	0xbcc1	-0.02355957
203	0x3ccc	0.024902344
204	0x3c4c	0.012451172
205	0xbc4a	-0.012329102
206	0x3c00	0.0078125
207	0x3a94	0.0011291504
208	0xbb81	-0.0039367676
209	0x3c41	0.011779785
210	0x3cd2	0.025634766
211	0x3cff	0.03112793
212	0xba62	-0.0008621216
213	0x3c3a	0.011352539
214	0x3c9e	0.01928711
215	0x3c9e	0.01928711
216	0xbcb8	-0.022460938
217	0x3b9f	0.004852295
218	0x3d0f	0.03491211
219	0x3d01	0.03149414
220	0x3c94	0.018066406
221	0x3c11	0.008850098
222	0x3cb2	0.021728516
223	0x3d09	0.033447266
224	0x3b11	0.0022125244
225	0x3ce9	0.028442383
226	0x3cfd	0.030883789
227	0xbc81	-0.01574707
228	0xbb28	-0.0025634766
229	0x3c70	0.0146484375
230	0xbc32	-0.010864258
231	0x3cda	0.026611328
232	0xbce5	-0.027954102
233	0xbcb0	-0.021484375
234	0x3d10	0.03515625
235	0xbcc2	-0.02368164
236	0x3ce8	0.028320312
237	0x3d04	0.032226562
238	0x3c76	0.015014648
239	0x3c08	0.008300781
240	0xbc00	-0.0078125
241	0xbb8c	-0.004272461
242	0x3b80	0.00390625
243	0xbc0a	-0.008422852
244	0x3b87	0.004119873
245	0x3c34	0.010986328
246	0x3c86	0.016357422
247	0x3ce5	0.027954102
248	0x3c75	0.014953613
249	0x3ce3	0.027709961
250	0x3c09	0.008361816
251	0x3c10	0.0087890625
252	0x3cc0	0.0234375
253	0x3bb9	0.005645752
254	0xbcc6	-0.024169922
255	0xbca3	-0.019897461

base_model.model.transformer.h.1.attn.c_attn.lora_B.weight bf16 [2304, 8]
0	0xba58	-0.0008239746
1	0xbacb	-0.0015487671
2	0x3945	0.00018787384
3	0xba58	-0.0008239746
4	0xba40	-0.0007324219
5	0xba95	-0.0011367798
6	0xb900	-0.00012207031
7	0xbac3	-0.0014877319
8	0x3a1a	0.0005874634
9	0x3ae5	0.0017471313
10	0xb9c2	-0.00037002563
11	0x3953	0.00020122528
12	0x3a89	0.001045227
13	0x3ad3	0.0016098022
14	0xba3f	-0.0007286072
15	0x3b03	0.0019989014
16	0xba91	-0.0011062622
17	0xbab3	-0.0013656616
18	0x3a90	0.0010986328
19	0xba70	-0.00091552734
20	0x38c2	9.250641e-05
21	0xb9b0	-0.00033569336
22	0xb994	-0.0002822876
23	0xba98	-0.001159668
24	0xb88e	-6.771088e-05
25	0x3a9a	0.0011749268
26	0x3a01	0.00049209595
27	0x39aa	0.00032424927
28	0x3afd	0.0019302368
29	0x3af4	0.0018615723
30	0xba6d	-0.00090408325
31	0x3afa	0.0019073486
32	0x39b6	0.00034713745
33	0x3a05	0.00050735474
34	0x3837	4.36306e-05
35	0x3820	3.8146973e-05
36	0xba97	-0.0011520386
37	0xb8a9	-8.058548e-05
38	0xb99e	-0.00030136108
39	0xba13	-0.0005607605
40	0xba81	-0.0009841919
41	0xba8e	-0.001083374
42	0x3a95	0.0011367798
43	0x39aa	0.00032424927
44	0x3a94	0.0011291504
45	0x3a0a	0.0005264282
46	0xbaa7	-0.0012741089
47	0xb8dd	-0.00010538101
48	0x3826	3.9577484e-05
49	0xbaa4	-0.0012512207
50	0xb9aa	-0.00032424927
51	0xbaa6	-0.0012664795
52	0x39d5	0.00040626526
53	0xbab1	-0.0013504028
54	0xb7ee	-2.8371811e-05
55	0xb8cd	-9.775162e-05
56	0x38a3	7.772446e-05
57	0xba9a	-0.0011749268
58	0x3898	7.247925e-05
59	0xbab3	-0.0013656616
60	0xba8e	-0.001083374
61	0xba3e	-0.0007247925
62	0x3a6f	0.00091171265
63	0xba8b	-0.0010604858
64	0xb9fd	-0.0004825592
65	0xba94	-0.0011291504
66	0x3a75	0.00093460083
67	0x3a23	0.00062179565
68	0xba82	-0.0009918213
69	0xbaaf	-0.001335144
70	0xba45	-0.00075149536
71	0xbadc	-0.0016784668
72	0x3899	7.2956085e-05
73	0x38d2	0.0001001358
74	0xb99d	-0.00029945374
75	0x39bf	0.0003643036
76	0x39db	0.00041770935
77	0x398a	0.0002632141
78	0x38ce	9.8228455e-05
79	0xb980	-0.00024414062
80	0xb93e	-0.00018119812
81	0x3ac3	0.0014877319
82	0x3a74	0.00093078613
83	0x3a53	0.0008049011
84	0x3b13	0.002243042
85	0x3afa	0.0019073486
86	0x39b2	0.00033950806
87	0x3ac7	0.0015182495
88	0xb922	-0.00015449524
89	0xba90	-0.0010986328
90	0xb8fd	-0.0001206398
91	0x396f	0.00022792816
92	0xbad2	-0.0016021729
93	0xbab3	-0.0013656616
94	0x39e7	0.00044059753
95	0xbaea	-0.0017852783
96	0x3920	0.00015258789
97	0xba56	-0.0008163452
98	0xba01	-0.00049209595
99	0x39fc	0.00048065186
100	0xbafc	-0.0019226074
101	0xbaf7	-0.0018844604
102	0x3a88	0.0010375977
103	0xbaf9	-0.0018997192
104	0x379d	1.8715858e-05
105	0x3a18	0.000579834
106	0x3965	0.00021839142
107	0xb9d2	-0.0004005432
108	0x3ae9	0.0017776489
109	0x3a99	0.0011672974
110	0x3928	0.00016021729
111	0x3a2a	0.00064849854
112	0xba63	-0.0008659363
113	0xb997	-0.00028800964
114	0x3986	0.00025558472
115	0x3a00	0.00048828125
116	0x3b04	0.0020141602
117	0x3a6b	0.00089645386
118	0xba5d	-0.0008430481
119	0x3a9c	0.0011901855
120	0xb82a	-4.053116e-05
121	0xb975	-0.00023365021
122	0xb8a3	-7.772446e-05
123	0x3978	0.00023651123
124	0xb9f0	-0.00045776367
125	0xba63	-0.0008659363
126	0xb9a7	-0.00031852722
127	0xb9d4	-0.0004043579
128	0xb8cc	-9.727478e-05
129	0xb9c6	-0.00037765503
130	0xb8ce	-9.8228455e-05
131	0x3a67	0.00088119507
132	0x3a55	0.0008125305
133	0xb9c6	-0.00037765503
134	0x38f6	0.00011730194
135	0xba4a	-0.00077056885
136	0xb8e7	-0.00011014938
137	0xba56	-0.0008163452
138	0x390c	0.0001335144
139	0x39f8	0.00047302246
140	0xba10	-0.0005493164
141	0xba9e	-0.0012054443
142	0x398d	0.00026893616
143	0xbad9	-0.0016555786
144	0x39f2	0.00046157837
145	0x3afa	0.0019073486
146	0x37df	2.6583672e-05
147	0x39e0	0.0004272461
148	0x3af7	0.0018844604
149	0x3aff	0.0019454956
150	0xb9fd	-0.0004825592
151	0x3af1	0.0018386841
152	0x3952	0.0002002716
153	0x3a9f	0.0012130737
154	0x3a54	0.0008087158
155	0x3a0e	0.000541687
156	0x3b01	0.0019683838
157	0x3acc	0.0015563965
158	0xba8e	-0.001083374
159	0x3b06	0.0020446777
160	0xb90f	-0.00013637543
161	0x3889	6.532669e-05
162	0x39ae	0.00033187866
163	0xba1a	-0.0005874634
164	0x3aad	0.0013198853
165	0x3a22	0.00061798096
166	0xbac9	-0.0015335083
167	0x3a82	0.0009918213
168	0xbac5	-0.0015029907
169	0xbaf7	-0.0018844604
170	0x3a22	0.00061798096
171	0xb975	-0.00023365021
172	0xba89	-0.001045227
173	0xbad5	-0.001625061
174	0xb8ef	-0.00011396408
175	0xba39	-0.000705719
176	0xbad2	-0.0016021729
177	0xbaa5	-0.0012588501
178	0x391a	0.00014686584
179	0xba1f	-0.00060653687
180	0xba64	-0.000869751
181	0xb8ea	-0.000111579895
182	0x3905	0.00012683868
183	0xbad3	-0.0016098022
184	0xb91f	-0.00015163422
185	0xba71	-0.00091934204
186	0xba03	-0.00049972534
187	0x38e8	0.00011062622
188	0xba8c	-0.0010681152
189	0xbaaa	-0.0012969971
190	0x3a15	0.0005683899
191	0xbaaa	-0.0012969971
192	0x3a61	0.0008583069
193	0x3ad2	0.0016021729
194	0xb7d2	-2.503395e-05
195	0x3a17	0.0005760193
196	0x3aaf	0.001335144
197	0x3ad3	0.0016098022
198	0xba23	-0.00062179565
199	0x3b05	0.002029419
200	0xba06	-0.00051116943
201	0xba79	-0.0009498596
202	0xb81d	-3.7431717e-05
203	0x3a02	0.00049591064
204	0x399c	0.0002975464
205	0xba5b	-0.0008354187
206	0xba40	-0.0007324219
207	0x39de	0.0004234314
208	0xb8a9	-8.058548e-05
209	0x394a	0.00019264221
210	0x3988	0.0002593994
211	0x3a45	0.00075149536
212	0x3b06	0.0020446777
213	0x3ace	0.0015716553
214	0xb905	-0.00012683868
215	0x3907	0.00012874603
216	0xba2c	-0.00065612793
217	0x3a5f	0.0008506775
218	0x3a19	0.0005836487
219	0xba1f	-0.00060653687
220	0xb8e0	-0.00010681152
221	0x3a72	0.00092315674
222	0xba14	-0.0005645752
223	0x3aaa	0.0012969971
224	0xb9b4	-0.00034332275
225	0x3abc	0.0014343262
226	0x39f7	0.0004711151
227	0x3abc	0.0014343262
228	0x3a9e	0.0012054443
229	0x3aeb	0.0017929077
230	0xb8fc	-0.000120162964
231	0x3aaa	0.0012969971
232	0x3a93	0.001121521
233	0x3ab6	0.0013885498
234	0x38d8	0.000102996826
235	0x3907	0.00012874603
236	0x3af3	0.0018539429
237	0x3a80	0.0009765625
238	0x39c5	0.00037574768
239	0x3b01	0.0019683838
240	0x39fe	0.00048446655
241	0x3aa4	0.0012512207
242	0xb98a	-0.0002632141
243	0x38fa	0.00011920929
244	0x3a20	0.00061035156
245	0x3ab0	0.0013427734
246	0xb9de	-0.0004234314
247	0x3aaa	0.0012969971
248	0x388a	6.580353e-05
249	0xb8af	-8.34465e-05
250	0xb9ff	-0.0004863739
251	0xba1a	-0.0005874634
252	0x3a9e	0.0012054443
253	0xb91b	-0.00014781952
254	0xba7b	-0.000957489
255	0x3a87	0.0010299683

base_model.model.transformer.h.10.attn.c_attn.lora_A.weight bf16 [8, 768]
0	0xbc7a	-0.015258789
1	0xbcf8	-0.030273438
2	0x3c90	0.017578125
3	0x3c55	0.013000488
4	0xbb82	-0.003967285
5	0xbc00	-0.0078125
6	0xbd12	-0.03564453
7	0xbca8	-0.020507812
8	0xbc38	-0.011230469
9	0x3ca9	0.020629883
10	0xbb93	-0.004486084
11	0xbb87	-0.004119873
12	0x3bf6	0.007507324
13	0x3bf3	0.0074157715
14	0x3c00	0.0078125
15	0xbcb6	-0.022216797
16	0xbd06	-0.032714844
17	0x3cb4	0.021972656
18	0xbcea	-0.028564453
19	0x3bc3	0.0059509277
20	0xbc00	-0.0078125
21	0xbb84	-0.0040283203
22	0x3cda	0.026611328
23	0xbcd4	-0.025878906
24	0xbd0c	-0.034179688
25	0x3b9c	0.004760742
26	0x3cc4	0.023925781
27	0x3c9a	0.018798828
28	0x3c5b	0.013366699
29	0x3c18	0.009277344
30	0x3c67	0.014099121
31	0xbb7f	-0.0038909912
32	0x3d00	0.03125
33	0xbc95	-0.018188477
34	0x3c0d	0.008605957
35	0x3d0b	0.033935547
36	0xbcdd	-0.026977539
37	0xbc71	-0.014709473
38	0xbc99	-0.018676758
39	0x3d06	0.032714844
40	0xbd0a	-0.033691406
41	0xbca8	-0.020507812
42	0xbd05	-0.032470703
43	0x3bd9	0.0066223145
44	0x3c00	0.0078125
45	0x3ca4	0.020019531
46	0x3cc5	0.024047852
47	0xbc3b	-0.011413574
48	0x3c91	0.017700195
49	0x3cb7	0.022338867
50	0xbc90	-0.017578125
51	0xbcec	-0.028808594
52	0x3cdf	0.02722168
53	0x3c64	0.013916016
54	0x3cf2	0.029541016
55	0xbcb6	-0.022216797
56	0xbcbd	-0.023071289
57	0xbc06	-0.008178711
58	0xbc44	-0.011962891
59	0x3ce2	0.02758789
60	0xbc0f	-0.008728027
61	0xbcb1	-0.021606445
62	0xbc85	-0.016235352
63	0x3d0e	0.03466797
64	0x3c80	0.015625
65	0xbd11	-0.03540039
66	0x3bca	0.006164551
67	0xbcfc	-0.030761719
68	0xbc90	-0.017578125
69	0xbcd5	-0.026000977
70	0xbcb6	-0.022216797
71	0x3ca1	0.01965332
72	0xbb9a	-0.004699707
73	0xbca8	-0.020507812
74	0x3d0e	0.03466797
75	0x3bb7	0.005584717
76	0xbc00	-0.0078125
77	0x3c84	0.016113281
78	0x3c82	0.01586914
79	0xbc9f	-0.01940918
80	0x3c00	0.0078125
81	0xbc43	-0.0119018555
82	0x3bd5	0.006500244
83	0x3cc1	0.02355957
84	0xbc62	-0.013793945
85	0xbcdd	-0.026977539
86	0x3c9b	0.018920898
87	0xbb6f	-0.0036468506
88	0x3ce0	0.02734375
89	0x3ca1	0.01965332
90	0x3d0b	0.033935547
91	0x3c19	0.009338379
92	0xbca4	-0.020019531
93	0xbccd	-0.025024414
94	0x3b3a	0.0028381348
95	0x3c71	0.014709473
96	0x3d05	0.032470703
97	0x3cbd	0.023071289
98	0xbd0a	-0.033691406
99	0xbc63	-0.0138549805
100	0x3ca0	0.01953125
101	0x3cd9	0.026489258
102	0x3ca6	0.020263672
103	0xbb7a	-0.0038146973
104	0xbb41	-0.0029449463
105	0xbcb0	-0.021484375
106	0xbcf9	-0.030395508
107	0xbc80	-0.015625
108	0x3cfa	0.030517578
109	0x3bd8	0.006591797
110	0xbcb0	-0.021484375
111	0x3b99	0.0046691895
112	0xbb22	-0.0024719238
113	0xbc94	-0.018066406
114	0x3c87	0.016479492
115	0xbc56	-0.013061523
116	0xbca6	-0.020263672
117	0xbb96	-0.0045776367
118	0x3d08	0.033203125
119	0xbc00	-0.0078125
120	0x3ced	0.028930664
121	0xbcfe	-0.03100586
122	0xbd05	-0.032470703
123	0x3b81	0.0039367676
124	0x3c00	0.0078125
125	0xbcd8	-0.026367188
126	0xbcd2	-0.025634766
127	0xbccd	-0.025024414
128	0x3c93	0.017944336
129	0xbc5f	-0.01361084
130	0xbd0b	-0.033935547
131	0xbc23	-0.0099487305
132	0xbd10	-0.03515625
133	0x3b8f	0.0043640137
134	0x3d0f	0.03491211
135	0xbc5e	-0.013549805
136	0xbc20	-0.009765625
137	0x3d05	0.032470703
138	0xbcbc	-0.022949219
139	0xbc29	-0.010314941
140	0x3cc1	0.02355957
141	0x3c81	0.01574707
142	0x3d13	0.035888672
143	0xbb07	-0.0020599365
144	0xbcb8	-0.022460938
145	0x3cb4	0.021972656
146	0x3d03	0.031982422
147	0x3b95	0.004547119
148	0xbcab	-0.020874023
149	0xbc95	-0.018188477
150	0xbd06	-0.032714844
151	0xbc02	-0.00793457
152	0xbc94	-0.018066406
153	0x3cdd	0.026977539
154	0x3cc8	0.024414062
155	0xbce9	-0.028442383
156	0x3ce2	0.02758789
157	0x3ced	0.028930664
158	0x3cf6	0.030029297
159	0x3c00	0.0078125
160	0x3c18	0.009277344
161	0x3c01	0.007873535
162	0xbc30	-0.0107421875
163	0x3c00	0.0078125
164	0xbc8a	-0.016845703
165	0xbccb	-0.024780273
166	0x3c39	0.011291504
167	0x3cdc	0.026855469
168	0x3c52	0.012817383
169	0x3b91	0.004425049
170	0xbb0a	-0.002105713
171	0x3cb4	0.021972656
172	0xbd10	-0.03515625
173	0x3ccd	0.025024414
174	0x3c00	0.0078125
175	0xbc10	-0.0087890625
176	0xbc00	-0.0078125
177	0x3d0f	0.03491211
178	0x3c35	0.011047363
179	0x3cf7	0.030151367
180	0xbc00	-0.0078125
181	0x3ca4	0.020019531
182	0xbc1b	-0.009460449
183	0xbcbd	-0.023071289
184	0x3c00	0.0078125
185	0x3c1a	0.009399414
186	0x3c1b	0.009460449
187	0x3c08	0.008300781
188	0xbb88	-0.0041503906
189	0xbb9a	-0.004699707
190	0x3c36	0.011108398
191	0x3c22	0.009887695
192	0x3d08	0.033203125
193	0xbd14	-0.036132812
194	0x3d11	0.03540039
195	0x3c65	0.013977051
196	0x3c48	0.012207031
197	0x3c9f	0.01940918
198	0xbc6c	-0.014404297
199	0x3c11	0.008850098
200	0x3c94	0.018066406
201	0x3c1a	0.009399414
202	0xbb80	-0.00390625
203	0xbcf4	-0.029785156
204	0x3c80	0.015625
205	0xbd0b	-0.033935547
206	0xbcb8	-0.022460938
207	0xbcee	-0.029052734
208	0xbbab	-0.005218506
209	0xbcfe	-0.03100586
210	0x3a30	0.0006713867
211	0xbc00	-0.0078125
212	0x3cfe	0.03100586
213	0x3cb1	0.021606445
214	0x3c30	0.0107421875
215	0xbc00	-0.0078125
216	0x3b83	0.0039978027
217	0x3ce9	0.028442383
218	0xbc47	-0.012145996
219	0xbcc2	-0.02368164
220	0xbc9a	-0.018798828
221	0xbcea	-0.028564453
222	0x3baf	0.005340576
223	0xbbe2	-0.0068969727
224	0xbd0e	-0.03466797
225	0xbca5	-0.020141602
226	0x3c8d	0.017211914
227	0x3cf8	0.030273438
228	0x3c3e	0.01159668
229	0xbcde	-0.02709961
230	0x3ce9	0.028442383
231	0x3cef	0.029174805
232	0xbce6	-0.028076172
233	0x3b9f	0.004852295
234	0x3c75	0.014953613
235	0x3bc1	0.0058898926
236	0xbc87	-0.016479492
237	0xbd0f	-0.03491211
238	0xbca7	-0.020385742
239	0xbce6	-0.028076172
240	0xbc61	-0.01373291
241	0xbcd1	-0.025512695
242	0xbc78	-0.015136719
243	0xbb73	-0.0037078857
244	0xbc00	-0.0078125
245	0xbc2e	-0.010620117
246	0x3c87	0.016479492
247	0x3cc0	0.0234375
248	0xbce8	-0.028320312
249	0xbcaa	-0.020751953
250	0x3ca8	0.020507812
251	0xbcaf	-0.021362305
252	0xbd01	-0.03149414
253	0x3c67	0.014099121
254	0xbcd9	-0.026489258
255	0xbc3d	-0.0115356445

base_model.model.transformer.h.10.attn.c_attn.lora_B.weight bf16 [2304, 8]
0	0xbb53	-0.0032196045
1	0xbb29	-0.0025787354
2	0x3ad1	0.0015945435
3	0x3b39	0.002822876
4	0x3b0d	0.0021514893
5	0xbb2a	-0.0025939941
6	0x3b2c	0.0026245117
7	0xbb16	-0.0022888184
8	0xbad6	-0.0016326904
9	0xbaf6	-0.001876831
10	0x3ad1	0.0015945435
11	0x3a85	0.0010147095
12	0x3b05	0.002029419
13	0xbb02	-0.0019836426
14	0x3ad2	0.0016021729
15	0xbad7	-0.0016403198
16	0x3b17	0.0023040771
17	0x3b2e	0.0026550293
18	0xbb0f	-0.0021820068
19	0xbb51	-0.003189087
20	0xbb49	-0.0030670166
21	0x3b4b	0.0030975342
22	0xbb61	-0.0034332275
23	0x3b45	0.0030059814
24	0x3b1d	0.0023956299
25	0x3b24	0.0025024414
26	0xbb3a	-0.0028381348
27	0xbb21	-0.002456665
28	0xbb25	-0.0025177002
29	0x3b10	0.0021972656
30	0xbb21	-0.002456665
31	0x3b10	0.0021972656
32	0x3a87	0.0010299683
33	0x3a4d	0.00078201294
34	0xba88	-0.0010375977
35	0xba8d	-0.0010757446
36	0x3a5b	0.0008354187
37	0x3a35	0.0006904602
38	0xb8dc	-0.000104904175
39	0x3ae2	0.0017242432
40	0x3b7c	0.0038452148
41	0x3b76	0.003753662
42	0xbb80	-0.00390625
43	0xbb83	-0.0039978027
44	0xbb5a	-0.003326416
45	0x3b80	0.00390625
46	0xbb80	-0.00390625
47	0x3b80	0.00390625
48	0x3ad3	0.0016098022
49	0x3ae3	0.0017318726
50	0xbb1c	-0.002380371
51	0xbab9	-0.001411438
52	0xbb1b	-0.0023651123
53	0x3a75	0.00093460083
54	0xbaaf	-0.001335144
55	0x3a90	0.0010986328
56	0xbb0c	-0.0021362305
57	0xbb01	-0.0019683838
58	0x3ab1	0.0013504028
59	0x3b06	0.0020446777
60	0x3ae0	0.0017089844
61	0xbb24	-0.0025024414
62	0x3b0a	0.002105713
63	0xbb23	-0.0024871826
64	0xbb2f	-0.002670288
65	0xbb16	-0.0022888184
66	0x3b1d	0.0023956299
67	0x3b0b	0.0021209717
68	0x3b1c	0.002380371
69	0xbb0d	-0.0021514893
70	0x3b1d	0.0023956299
71	0xbb1a	-0.0023498535
72	0xbb67	-0.0035247803
73	0xbb73	-0.0037078857
74	0x3b63	0.0034637451
75	0x3b80	0.00390625
76	0x3b70	0.0036621094
77	0xbb5e	-0.0033874512
78	0x3b6d	0.003616333
79	0xbb80	-0.00390625
80	0x3b07	0.0020599365
81	0x3b00	0.001953125
82	0xbab8	-0.0014038086
83	0xbb43	-0.0029754639
84	0xbb1d	-0.0023956299
85	0x3b1b	0.0023651123
86	0xbb50	-0.0031738281
87	0x3b20	0.0024414062
88	0xbb38	-0.0028076172
89	0xbb57	-0.0032806396
90	0x3b52	0.0032043457
91	0x3b6a	0.0035705566
92	0x3b3c	0.0028686523
93	0xbb50	-0.0031738281
94	0x3b3a	0.0028381348
95	0xbb38	-0.0028076172
96	0xbafc	-0.0019226074
97	0xbafa	-0.0019073486
98	0x3b01	0.0019683838
99	0x3b23	0.0024871826
100	0x3b02	0.0019836426
101	0xbb1d	-0.0023956299
102	0x3b04	0.0020141602
103	0xbaae	-0.0013275146
104	0x3b22	0.0024719238
105	0x3b13	0.002243042
106	0xbb01	-0.0019683838
107	0xbb3c	-0.0028686523
108	0xbb21	-0.002456665
109	0x3b34	0.002746582
110	0xbb2b	-0.002609253
111	0x3b3b	0.0028533936
112	0x3b66	0.0035095215
113	0x3b58	0.0032958984
114	0xbb7f	-0.0038909912
115	0xbb80	-0.00390625
116	0xbb2e	-0.0026550293
117	0x3b50	0.0031738281
118	0xbb2e	-0.0026550293
119	0x3b44	0.0029907227
120	0xbb77	-0.003768921
121	0xbb70	-0.0036621094
122	0x3b80	0.00390625
123	0x3b80	0.00390625
124	0x3b5d	0.0033721924
125	0xbb80	-0.00390625
126	0x3b80	0.00390625
127	0xbb80	-0.00390625
128	0xbb39	-0.002822876
129	0xbb1a	-0.0023498535
130	0x3b18	0.002319336
131	0x3b26	0.002532959
132	0x3b17	0.0023040771
133	0xbb19	-0.0023345947
134	0x3b0e	0.002166748
135	0xbb03	-0.0019989014
136	0x3b26	0.002532959
137	0x3b50	0.0031738281
138	0xbb78	-0.0037841797
139	0xbb7f	-0.0038909912
140	0xbb56	-0.0032653809
141	0x3b67	0.0035247803
142	0xbb38	-0.0028076172
143	0x3b61	0.0034332275
144	0xbb1d	-0.0023956299
145	0xbb0e	-0.002166748
146	0x3b7f	0.0038909912
147	0x3b25	0.0025177002
148	0x3b1d	0.0023956299
149	0xbb1f	-0.0024261475
150	0x3b0e	0.002166748
151	0xbb25	-0.0025177002
152	0x3a14	0.0005645752
153	0x3a77	0.0009422302
154	0xbb20	-0.0024414062
155	0xba38	-0.0007019043
156	0xba06	-0.00051116943
157	0x3a07	0.00051498413
158	0xba26	-0.00063323975
159	0x3a00	0.00048828125
160	0xbb76	-0.003753662
161	0xbb59	-0.0033111572
162	0x3b80	0.00390625
163	0x3b80	0.00390625
164	0x3b46	0.0030212402
165	0xbb72	-0.003692627
166	0x3b35	0.0027618408
167	0xbb5e	-0.0033874512
168	0xba69	-0.00088882446
169	0xbad5	-0.001625061
170	0x3aaa	0.0012969971
171	0x3aea	0.0017852783
172	0x3b16	0.0022888184
173	0xbb12	-0.0022277832
174	0x3b20	0.0024414062
175	0xbb06	-0.0020446777
176	0xbabe	-0.001449585
177	0xbb0a	-0.002105713
178	0x3b0b	0.0021209717
179	0x3ac2	0.0014801025
180	0x3b46	0.0030212402
181	0xbb19	-0.0023345947
182	0x3b17	0.0023040771
183	0xbb0b	-0.0021209717
184	0xbb18	-0.002319336
185	0xbb17	-0.0023040771
186	0x3b1a	0.0023498535
187	0x3b16	0.0022888184
188	0x3b2b	0.002609253
189	0xbb08	-0.0020751953
190	0x3b0e	0.002166748
191	0xbb13	-0.002243042
192	0xbae4	-0.001739502
193	0xbb25	-0.0025177002
194	0x3b16	0.0022888184
195	0x3a0c	0.0005340576
196	0x3a20	0.00061035156
197	0xba3c	-0.0007171631
198	0xb9a3	-0.00031089783
199	0x3924	0.00015640259
200	0xbb13	-0.002243042
201	0xbaee	-0.0018157959
202	0x3b1a	0.0023498535
203	0x3b24	0.0025024414
204	0x3b21	0.002456665
205	0xbb30	-0.0026855469
206	0x3b09	0.002090454
207	0xbb19	-0.0023345947
208	0x3a24	0.00062561035
209	0xba49	-0.00076675415
210	0x3951	0.00019931793
211	0x3a38	0.0007019043
212	0x39da	0.000415802
213	0xba70	-0.00091552734
214	0x3a79	0.0009498596
215	0xba75	-0.00093460083
216	0x3b58	0.0032958984
217	0x3b20	0.0024414062
218	0xbb7e	-0.0038757324
219	0xbb6b	-0.0035858154
220	0xbb50	-0.0031738281
221	0x3b61	0.0034332275
222	0xbb61	-0.0034332275
223	0x3b80	0.00390625
224	0x3aa1	0.0012283325
225	0x3a58	0.0008239746
226	0xbb18	-0.002319336
227	0xb88b	-6.6280365e-05
228	0xb9a5	-0.00031471252
229	0xb9dd	-0.00042152405
230	0xb7b2	-2.1219254e-05
231	0x3985	0.00025367737
232	0x3a7b	0.000957489
233	0xb9b7	-0.0003490448
234	0xbae9	-0.0017776489
235	0xba66	-0.0008773804
236	0xba06	-0.00051116943
237	0x3868	5.531311e-05
238	0x3a0b	0.0005302429
239	0x36d8	6.4373016e-06
240	0xbb4d	-0.0031280518
241	0xbb36	-0.0027770996
242	0x3b80	0.00390625
243	0x3b80	0.00390625
244	0x3b73	0.0037078857
245	0xbb80	-0.00390625
246	0x3b80	0.00390625
247	0xbb80	-0.00390625
248	0x3b0b	0.0021209717
249	0x3b27	0.0025482178
250	0xbb42	-0.002960205
251	0xbb59	-0.0033111572
252	0xbb46	-0.0030212402
253	0x3b4d	0.0031280518
254	0xbb36	-0.0027770996
255	0x3b45	0.0030059814

base_model.model.transformer.h.11.attn.c_attn.lora_A.weight bf16 [8, 768]
0	0x3d12	0.03564453
1	0x3c0d	0.008605957
2	0x3c0d	0.008605957
3	0xbc77	-0.015075684
4	0xbc66	-0.014038086
5	0xbcd5	-0.026000977
6	0xbb82	-0.003967285
7	0x3c04	0.008056641
8	0xbc8e	-0.017333984
9	0x3c00	0.0078125
10	0x3c99	0.018676758
11	0xbc25	-0.010070801
12	0x3c00	0.0078125
13	0xbca5	-0.020141602
14	0xbc05	-0.008117676
15	0x3ca6	0.020263672
16	0xbcc0	-0.0234375
17	0xbca4	-0.020019531
18	0xbb83	-0.0039978027
19	0xbd09	-0.033447266
20	0x3c98	0.018554688
21	0x3bfd	0.0077209473
22	0x3b82	0.003967285
23	0xbc06	-0.008178711
24	0xbd04	-0.032226562
25	0x3c00	0.0078125
26	0xbcde	-0.02709961
27	0x3cf5	0.029907227
28	0xbb80	-0.00390625
29	0xbca9	-0.020629883
30	0xbc7c	-0.015380859
31	0x3c60	0.013671875
32	0x3d08	0.033203125
33	0xbd02	-0.03173828
34	0xbb7e	-0.0038757324
35	0x3ccc	0.024902344
36	0x3cda	0.026611328
37	0x3cb6	0.022216797
38	0xbae4	-0.001739502
39	0xbce1	-0.02746582
40	0x3abd	0.0014419556
41	0xbcc5	-0.024047852
42	0xbd06	-0.032714844
43	0xbcea	-0.028564453
44	0xbc9b	-0.018920898
45	0x3ce3	0.027709961
46	0xbcce	-0.025146484
47	0xbc0a	-0.008422852
48	0x3cb6	0.022216797
49	0xbd10	-0.03515625
50	0x3c91	0.017700195
51	0xbca6	-0.020263672
52	0xbc00	-0.0078125
53	0x3aa0	0.0012207031
54	0xbc56	-0.013061523
55	0x3c6a	0.014282227
56	0x3b9b	0.0047302246
57	0x3d06	0.032714844
58	0xbc24	-0.010009766
59	0x3ce5	0.027954102
60	0x3cd9	0.026489258
61	0x3c7d	0.0154418945
62	0xbc72	-0.014770508
63	0x3cd7	0.026245117
64	0x3c69	0.014221191
65	0xbcbc	-0.022949219
66	0x3d04	0.032226562
67	0x3c10	0.0087890625
68	0x3cc2	0.02368164
69	0x3caf	0.021362305
70	0x3c9f	0.01940918
71	0x3ba3	0.0049743652
72	0x3ba4	0.005004883
73	0x3ca1	0.01965332
74	0xbc3f	-0.011657715
75	0x3d0a	0.033691406
76	0xbbd3	-0.006439209
77	0xbce1	-0.02746582
78	0xbb8c	-0.004272461
79	0x3cf9	0.030395508
80	0xbd12	-0.03564453
81	0x3b8b	0.0042419434
82	0xbcae	-0.021240234
83	0x3cdf	0.02722168
84	0x3c75	0.014953613
85	0x3c8c	0.017089844
86	0x3c00	0.0078125
87	0xbc09	-0.008361816
88	0x3cda	0.026611328
89	0x3ce2	0.02758789
90	0xbb81	-0.0039367676
91	0x3be8	0.007080078
92	0x3d0d	0.034423828
93	0x3bcc	0.006225586
94	0xbcf6	-0.030029297
95	0x3b21	0.002456665
96	0xbcff	-0.03112793
97	0x3cc5	0.024047852
98	0x3cf2	0.029541016
99	0xbc05	-0.008117676
100	0xbb8e	-0.004333496
101	0xbd0e	-0.03466797
102	0xbce1	-0.02746582
103	0x3caf	0.021362305
104	0xbcc6	-0.024169922
105	0xbc90	-0.017578125
106	0xbc77	-0.015075684
107	0xbc00	-0.0078125
108	0x3c8c	0.017089844
109	0x3d07	0.032958984
110	0xbcf5	-0.029907227
111	0x3c81	0.01574707
112	0xbc6a	-0.014282227
113	0xbbcb	-0.0061950684
114	0x3c83	0.015991211
115	0xbca1	-0.01965332
116	0xbce9	-0.028442383
117	0xbc17	-0.009216309
118	0x3c00	0.0078125
119	0xbca3	-0.019897461
120	0x3c12	0.008911133
121	0xbd04	-0.032226562
122	0x3bc5	0.006011963
123	0x3c9e	0.01928711
124	0x3c47	0.012145996
125	0xbcd6	-0.026123047
126	0xbc3d	-0.0115356445
127	0xbcb3	-0.021850586
128	0xbc9b	-0.018920898
129	0xbc6c	-0.014404297
130	0xbc00	-0.0078125
131	0x3c20	0.009765625
132	0xbc02	-0.00793457
133	0x3c83	0.015991211
134	0x3c2f	0.010681152
135	0x3c14	0.009033203
136	0x3c9b	0.018920898
137	0x3cb3	0.021850586
138	0x3c32	0.010864258
139	0x3cf8	0.030273438
140	0xbcbf	-0.02331543
141	0xbc2c	-0.010498047
142	0x3c6d	0.014465332
143	0xbca3	-0.019897461
144	0x3c00	0.0078125
145	0xbc36	-0.011108398
146	0x3cdf	0.02722168
147	0x3bad	0.005279541
148	0xbc32	-0.010864258
149	0x3bd9	0.0066223145
150	0xbd10	-0.03515625
151	0x3cd8	0.026367188
152	0x3c55	0.013000488
153	0xbcf0	-0.029296875
154	0x3cf2	0.029541016
155	0x3d13	0.035888672
156	0x3cc0	0.0234375
157	0xbc22	-0.009887695
158	0xbc8e	-0.017333984
159	0xbd12	-0.03564453
160	0xbca4	-0.020019531
161	0x3ce1	0.02746582
162	0xbd13	-0.035888672
163	0x3ca5	0.020141602
164	0xbd12	-0.03564453
165	0x3c99	0.018676758
166	0xbb80	-0.00390625
167	0x3ce2	0.02758789
168	0x3c00	0.0078125
169	0x3d10	0.03515625
170	0x3b8a	0.004211426
171	0xbc6e	-0.014526367
172	0x3cb8	0.022460938
173	0xbb91	-0.004425049
174	0xbccf	-0.025268555
175	0xbc3a	-0.011352539
176	0xbb9b	-0.0047302246
177	0xbcd6	-0.026123047
178	0xbcc8	-0.024414062
179	0x3c71	0.014709473
180	0x3cc1	0.02355957
181	0x3c6f	0.014587402
182	0x3cbb	0.022827148
183	0xbc94	-0.018066406
184	0x3c31	0.010803223
185	0xbc00	-0.0078125
186	0x3aa9	0.0012893677
187	0xbca0	-0.01953125
188	0xbced	-0.028930664
189	0x3ccc	0.024902344
190	0xbb10	-0.0021972656
191	0xbc2c	-0.010498047
192	0xbced	-0.028930664
193	0xbcde	-0.02709961
194	0x3d10	0.03515625
195	0xbd0e	-0.03466797
196	0x3cac	0.020996094
197	0x3cfa	0.030517578
198	0x3b7f	0.0038909912
199	0xbc22	-0.009887695
200	0x3c10	0.0087890625
201	0x3c12	0.008911133
202	0x3c80	0.015625
203	0xbcbe	-0.02319336
204	0xbc83	-0.015991211
205	0xbcd4	-0.025878906
206	0xbbbb	-0.005706787
207	0xbc04	-0.008056641
208	0xbaf0	-0.0018310547
209	0x3c95	0.018188477
210	0xbcc8	-0.024414062
211	0x3d04	0.032226562
212	0xbcda	-0.026611328
213	0x3c94	0.018066406
214	0xbd0f	-0.03491211
215	0xbbd6	-0.0065307617
216	0x3d12	0.03564453
217	0x3cfc	0.030761719
218	0x3ca5	0.020141602
219	0xbb92	-0.0044555664
220	0x3ca0	0.01953125
221	0x3c49	0.012268066
222	0xbccb	-0.024780273
223	0x3c8f	0.017456055
224	0x3c84	0.016113281
225	0x3ca3	0.019897461
226	0x3b84	0.0040283203
227	0x3c36	0.011108398
228	0x3cac	0.020996094
229	0x3cec	0.028808594
230	0xbd05	-0.032470703
231	0x3ca1	0.01965332
232	0xbcf0	-0.029296875
233	0xbcfe	-0.03100586
234	0x3c55	0.013000488
235	0xbc88	-0.016601562
236	0xbb58	-0.0032958984
237	0x3b83	0.0039978027
238	0xbc4e	-0.012573242
239	0x3cbf	0.02331543
240	0x3c4c	0.012451172
241	0xbca9	-0.020629883
242	0x3c90	0.017578125
243	0xbc79	-0.015197754
244	0xbbcf	-0.0063171387
245	0x3cfe	0.03100586
246	0xbc92	-0.017822266
247	0x3cca	0.024658203
248	0xbc00	-0.0078125
249	0xbd0d	-0.034423828
250	0xbcf1	-0.029418945
251	0xbc23	-0.0099487305
252	0x3cbf	0.02331543
253	0xbb82	-0.003967285
254	0xbc00	-0.0078125
255	0xbb57	-0.0032806396
