examples/research_projects/stack_llama/scripts/gpt2_peft_stack-exchange-paired_rmts__100000_2e-05/checkpoint-3000/adapter_model.safetensors (safetensors, 594496 bytes, 25 tensors)

base_model.model.score.weight bf16 [1, 768]
0.029296875 0.005645752 0.01928711 0.03149414 0.009887695 -0.030395508 -0.0053710938 0.011474609
0.006286621 -0.011352539 0.010864258 -0.011230469 0.012023926 0.047607422 0.033447266 -0.016723633
-0.010070801 -0.010192871 -0.008728027 0.02734375 -0.013427734 -0.00390625 0.017944336 -0.026733398
0.015319824 0.022949219 -0.011474609 0.01928711 0.040771484 0.011230469 -0.00090789795 -0.013977051
-0.009399414 -0.027832031 0.027709961 -0.012268066 0.05908203 0.013061523 -0.02709961 -0.029663086
0.01977539 0.023803711 -0.040283203 -0.031982422 -0.01928711 0.011230469 -0.013671875 -0.015014648
0.018432617 0.0073547363 0.0099487305 -0.028320312 0.00064849854 0.031982422 0.006225586 -0.009765625
0.017578125 -0.028198242 0.0024719238 -0.017700195 -0.0013198853 0.0028839111 -0.022705078 0.0043640137
0.018798828 0.0079956055 0.010314941 0.021606445 -0.008483887 -0.028442383 -0.01159668 0.012512207
0.025512695 -0.0053100586 -0.00062179565 0.0095825195 0.022094727 -0.002166748 0.0078125 0.020751953
0.020996094 -0.008117676 -0.022094727 0.0002193451 -0.0063476562 -0.018554688 -0.018188477 -0.014221191
0.024414062 0.0060424805 0.005706787 -0.0037231445 -0.013916016 0.0390625 0.02319336 0.0004749298
0.0021820068 0.01953125 -0.001953125 0.010192871 -0.022705078 0.028442383 -0.017822266 0.010070801
0.025390625 0.0027618408 -0.01361084 0.022949219 0.0028686523 -0.008239746 -0.000415802 -0.033935547
0.016845703 0.01159668 -0.041259766 -0.016479492 -0.012817383 0.010009766 0.014953613 -0.0042419434
0.010620117 -0.028930664 -0.013305664 0.0046691895 0.022216797 0.024414062 0.03881836 0.031982422
-0.00970459 0.018188477 -0.022460938 0.007293701 -0.022338867 -0.019042969 -0.0017929077 0.011108398
-0.027832031 0.022094727 -0.024414062 0.017822266 0.026000977 -0.0030212402 0.0026855469 0.018554688
-0.033935547 0.010559082 -0.006378174 -0.026489258 0.029663086 -0.004180908 0.00390625 -0.024536133
0.012145996 0.018676758 -0.04248047 -0.0026245117 0.018798828 -0.02331543 0.00390625 0.004272461
0.014709473 -0.013244629 0.011413574 0.013549805 -0.018188477 0.031982422 0.009399414 0.0045166016
-0.013000488 -0.0072631836 -0.026123047 0.037597656 -0.013977051 0.011474609 0.014831543 0.029907227
0.010559082 -0.003967285 0.003967285 -0.004699707 -0.012145996 0.012023926 0.0054016113 -0.0004081726
0.03173828 0.010253906 0.004058838 -0.017578125 0.0017623901 0.016357422 0.00390625 -0.00390625
-0.0119018555 0.021850586 0.03173828 -0.022094727 0.03173828 -0.014709473 0.009460449 -0.008239746
0.002319336 0.00390625 0.0024719238 0.024047852 -0.029663086 0.008300781 0.00390625 0.00390625
0.00062942505 -0.001953125 0.0065307617 0.0038757324 0.015319824 -0.01928711 0.033691406 0.003967285
-0.011108398 0.016235352 -0.00390625 0.019165039 0.005859375 0.019165039 0.0026397705 -0.052490234
-0.008239746 0.02319336 -0.047851562 -0.013671875 -0.03125 -0.020507812 0.017211914 0.0065612793
-0.044921875 0.0095825195 -0.032470703 -0.0119018555 -0.017700195 0.009643555 0.012145996 -0.01550293
-0.02331543 0.017578125 0.022094727 0.021850586 -0.032470703 -0.0018081665 0.01361084 0.014709473
-0.022949219 -0.014465332 -0.004058838 -0.003768921 0.0053100586 0.017578125 -0.024658203 0.014099121
00000000: f03c b93b 9e3c 013d 223c f9bc b0bb 3c3c
00000010: ce3b 3abc 323c 38bc 453c 433d 093d 89bc
00000020: 25bc 27bc 0fbc e03c 5cbc 80bb 933c dbbc
00000030: 7b3c bc3c 3cbc 9e3c 273d 383c 6eba 65bc
00000040: 1abc e4bc e33c 49bc 723d 563c debc f3bc
00000050: a23c c33c 25bd 03bd 9ebc 383c 60bc 76bc
00000060: 973c f13b 233c e8bc 2a3a 033d cc3b 20bc
00000070: 903c e7bc 223b 91bc adba 3d3b babc 8f3b
00000080: 9a3c 033c 293c b13c 0bbc e9bc 3ebc 4d3c
00000090: d13c aebb 23ba 1d3c b53c 0ebb 003c aa3c
000000a0: ac3c 05bc b5bc 6639 d0bb 98bc 95bc 69bc
000000b0: c83c c63b bb3b 74bb 64bc 203d be3c f939
000000c0: 0f3b a03c 00bb 273c babc e93c 92bc 253c
000000d0: d03c 353b 5fbc bc3c 3c3b 07bc dab9 0bbd
000000e0: 8a3c 3e3c 29bd 87bc 52bc 243c 753c 8bbb
000000f0: 2e3c edbc 5abc 993b b63c c83c 1f3d 033d
00000100: 1fbc 953c b8bc ef3b b7bc 9cbc ebba 363c
00000110: e4bc b53c c8bc 923c d53c 46bb 303b 983c
00000120: 0bbd 2d3c d1bb d9bc f33c 89bb 803b c9bc
00000130: 473c 993c 2ebd 2cbb 9a3c bfbc 803b 8c3b
00000140: 713c 59bc 3b3c 5e3c 95bc 033d 1a3c 943b
00000150: 55bc eebb d6bc 1a3d 65bc 3c3c 733c f53c
00000160: 2d3c 82bb 823b 9abb 47bc 453c b13b d6b9
00000170: 023d 283c 853b 90bc e73a 863c 803b 80bb
00000180: 43bc b33c 023d b5bc 023d 71bc 1b3c 07bc
00000190: 183b 803b 223b c53c f3bc 083c 803b 803b
000001a0: 253a 00bb d63b 7e3b 7b3c 9ebc 0a3d 823b
000001b0: 36bc 853c 80bb 9d3c c03b 9d3c 2d3b 57bd
000001c0: 07bc be3c 44bd 60bc 00bd a8bc 8d3c d73b
000001d0: 38bd 1d3c 05bd 43bc 91bc 1e3c 473c 7ebc
000001e0: bfbc 903c b53c b33c 05bd edba 5f3c 713c
000001f0: bcbc 6dbc 85bb 77bb ae3b 903c cabc 673c

base_model.model.transformer.h.0.attn.c_attn.lora_A.weight bf16 [8, 768]
-0.026123047 0.027954102 -0.028198242 -0.0029754639 0.033691406 0.017578125 -0.005218506 0.015991211
0.0087890625 -0.011108398 -0.009399414 -0.010925293 -0.033203125 -0.0234375 0.004211426 0.019165039
-0.028930664 0.026000977 0.032226562 -0.020141602 0.015563965 0.024169922 -0.018066406 0.017822266
0.032714844 0.02722168 -0.033691406 0.0026397705 -0.0043029785 0.016479492 0.0043640137 -0.021728516
-0.033203125 -0.009399414 0.0033111572 -0.023925781 0.013671875 -0.011413574 -0.011291504 -0.018798828
-0.024047852 0.02331543 0.027709961 0.0044555664 -0.018676758 0.0021972656 -0.007385254 0.016357422
-0.008056641 -0.01953125 0.022949219 -0.010681152 0.026733398 0.004180908 0.020996094 0.00022029877
-0.008239746 -0.00390625 -0.004119873 0.00390625 -0.0028686523 0.016357422 0.0021362305 -0.0038452148
0.004425049 0.0050354004 0.033447266 0.009765625 0.03173828 0.014831543 0.024902344 -0.024902344
0.025512695 -0.01953125 0.0039367676 0.03173828 0.002456665 0.019165039 -0.004211426 -0.024902344
0.028198242 -0.020141602 0.03515625 -0.00491333 -0.015136719 -0.030029297 0.021362305 -0.029296875
-0.0049743652 0.00024223328 0.014343262 -0.015197754 0.008911133 -0.026245117 0.0146484375 -0.010253906
0.020263672 0.032226562 0.032226562 -0.025634766 -0.031982422 0.012817383 -0.02331543 -0.005706787
0.016479492 0.01977539 -0.0068969727 0.022827148 -0.016113281 -0.006286621 0.019897461 0.006378174
0.032226562 0.01928711 0.026733398 0.009765625 0.0029296875 -0.0079956055 0.028320312 -0.0018844604
0.0038757324 -0.023071289 0.0013885498 0.0037231445 0.009460449 0.018432617 0.014343262 -0.034423828
-0.029785156 0.024658203 -0.03466797 0.018798828 0.0008277893 0.012878418 -0.026855469 0.01184082
-0.018066406 0.03564453 -0.014282227 -0.0070495605 0.0008201599 0.009521484 -0.015380859 0.032226562
-0.020507812 0.0019683838 0.011352539 -0.03515625 -0.029418945 0.022216797 0.03540039 0.017822266
-0.020141602 0.008361816 -0.03466797 0.003967285 -0.025756836 -0.010864258 0.022216797 0.032470703
-0.012390137 0.024414062 -0.032958984 0.0043945312 0.014709473 -0.021362305 0.021118164 0.028076172
0.006225586 0.020385742 0.029663086 0.008361816 0.017700195 -0.004638672 -0.0036773682 0.011413574
0.034179688 -0.029541016 0.02758789 0.009094238 -0.020629883 0.015380859 -0.0024261475 -0.011108398
0.032958984 0.0076904297 -0.028442383 0.030639648 -0.015563965 0.022583008 0.021484375 -0.007080078
0.033203125 0.0036621094 0.025268555 0.020751953 -0.021484375 0.025756836 -0.009033203 -0.005493164
0.020507812 0.010192871 0.03540039 0.024291992 0.003967285 0.03515625 -0.012451172 -0.026855469
-0.014038086 -0.021118164 0.001663208 -0.0138549805 -0.028564453 0.004058838 -0.016601562 -0.0008506775
-0.012329102 -0.017700195 0.03540039 0.005432129 -0.0046081543 -0.0069885254 0.029785156 -0.02758789
0.026489258 0.035888672 -0.012573242 -0.01928711 0.01574707 0.031982422 -0.0039367676 0.030395508
-0.009033203 -0.03540039 0.017944336 0.034423828 -0.009338379 -0.007659912 0.0079956055 0.032470703
0.032226562 -0.021118164 0.026245117 -0.016601562 -0.010131836 0.0073242188 0.026489258 -0.020507812
0.004638672 -0.022827148 -0.03173828 -0.018066406 -0.010253906 -0.024291992 -0.02709961 -0.0078125
00000000: d6bc e53c e7bc 43bb 0a3d 903c abbb 833c
00000010: 103c 36bc 1abc 33bc 08bd c0bc 8a3b 9d3c
00000020: edbc d53c 043d a5bc 7f3c c63c 94bc 923c
00000030: 063d df3c 0abd 2d3b 8dbb 873c 8f3b b2bc
00000040: 08bd 1abc 593b c4bc 603c 3bbc 39bc 9abc
00000050: c5bc bf3c e33c 923b 99bc 103b f2bb 863c
00000060: 04bc a0bc bc3c 2fbc db3c 893b ac3c 6739
00000070: 07bc 80bb 87bb 803b 3cbb 863c 0c3b 7cbb
00000080: 913b a53b 093d 203c 023d 733c cc3c ccbc
00000090: d13c a0bc 813b 023d 213b 9d3c 8abb ccbc
000000a0: e73c a5bc 103d a1bb 78bc f6bc af3c f0bc
000000b0: a3bb 7e39 6b3c 79bc 123c d7bc 703c 28bc
000000c0: a63c 043d 043d d2bc 03bd 523c bfbc bbbb
000000d0: 873c a23c e2bb bb3c 84bc cebb a33c d13b
000000e0: 043d 9e3c db3c 203c 403b 03bc e83c f7ba
000000f0: 7e3b bdbc b63a 743b 1b3c 973c 6b3c 0dbd
00000100: f4bc ca3c 0ebd 9a3c 593a 533c dcbc 423c
00000110: 94bc 123d 6abc e7bb 573a 1c3c 7cbc 043d
00000120: a8bc 013b 3a3c 10bd f1bc b63c 113d 923c
00000130: a5bc 093c 0ebd 823b d3bc 32bc b63c 053d
00000140: 4bbc c83c 07bd 903b 713c afbc ad3c e63c
00000150: cc3b a73c f33c 093c 913c 98bb 71bb 3b3c
00000160: 0c3d f2bc e23c 153c a9bc 7c3c 1fbb 36bc
00000170: 073d fc3b e9bc fb3c 7fbc b93c b03c e8bb
00000180: 083d 703b cf3c aa3c b0bc d33c 14bc b4bb
00000190: a83c 273c 113d c73c 823b 103d 4cbc dcbc
000001a0: 66bc adbc da3a 63bc eabc 853b 88bc 5fba
000001b0: 4abc 91bc 113d b23b 97bb e5bb f43c e2bc
000001c0: d93c 133d 4ebc 9ebc 813c 033d 81bb f93c
000001d0: 14bc 11bd 933c 0d3d 19bc fbbb 033c 053d
000001e0: 043d adbc d73c 88bc 26bc f03b d93c a8bc
000001f0: 983b bbbc 02bd 94bc 28bc c7bc debc 00bc

base_model.model.transformer.h.0.attn.c_attn.lora_B.weight bf16 [2304, 8]
-0.0010375977 -0.001121521 0.00061035156 0.00020122528 -0.00062561035 -0.00079345703 0.00041770935 0.0006752014
-0.0009841919 -1.0728836e-05 -0.00090026855 0.001953125 0.00076675415 -0.00022983551 -0.0005455017 -0.0004310608
0.0009841919 0.0011520386 0.0005912781 -4.4584274e-05 0.0014343262 0.00076293945 -0.00089645386 -0.0005455017
0.0014572144 0.00030899048 -0.0019302368 0.001701355 0.002105713 -0.00026512146 -0.0015563965 -0.0012054443
-0.0019683838 0.00040245056 0.000831604 -0.001701355 -0.0007019043 -0.00089263916 0.0008049011 0.00049591064
-0.00020122528 0.00064086914 0.00016498566 -0.0006790161 4.720688e-05 -0.00011539459 3.194809e-05 -0.00041770935
0.001159668 0.001045227 -0.00032615662 0.0004196167 0.00018405914 -0.00049209595 -0.0006942749 -0.0010528564
0.00023460388 0.00060653687 -0.0004711151 0.00075531006 0.0009384155 -0.00030708313 8.1539154e-05 -0.0015258789
-0.0005836487 -0.0006828308 0.00039672852 -0.00015449524 -0.0004749298 0.00015735626 -0.00091171265 0.0011444092
0.00029945374 0.00043678284 0.00046539307 -0.002029419 -0.0011062622 -0.0013809204 0.0008125305 0.0016326904
0.0004196167 -0.0004196167 -0.0015716553 0.0017242432 0.0017318726 -0.00043678284 -0.0016784668 -0.0014648438
0.0013504028 0.00044631958 0.0002822876 0.000108242035 -4.887581e-05 -0.00045967102 -0.0001411438 -0.00050735474
0.0010375977 -0.0007362366 0.00025367737 0.00025367737 0.0009765625 0.00049209595 -0.0009918213 -0.0005187988
0.00048828125 0.0007247925 -0.0010986328 -0.00041389465 0.0019836426 0.0008468628 -0.00033950806 -0.00051498413
-0.0004005432 -0.0008544922 -0.00049209595 0.0001039505 -0.0015411377 0.0004310608 0.0004749298 0.00037002563
0.0013198853 0.0014877319 0.0010528564 -0.00032424927 -0.0005493164 7.8201294e-05 -0.0006599426 -0.00022220612
-0.0011825562 -0.0005226135 -0.00064086914 0.0009918213 0.0010299683 6.580353e-05 -0.00093460083 -0.0008354187
-6.723404e-05 -0.0012283325 -0.0005760193 -0.00031661987 0.00035858154 0.00018978119 0.00025177002 0.00093460083
0.0006599426 0.00050354004 0.0008239746 -0.0010604858 -0.00037193298 -0.0019073486 8.6307526e-05 4.863739e-05
0.00060272217 0.00075531006 0.001663208 -0.0011062622 -0.001876831 -0.0017089844 0.0010681152 -0.00059890747
-0.001335144 -0.00032424927 -0.0001206398 0.00045204163 -0.00030708313 0.0012054443 0.0009651184 0.0007019043
0.0002670288 9.393692e-05 -4.4345856e-05 0.00011205673 -0.0008621216 0.00023269653 0.00061035156 -0.0002670288
-0.00025558472 -0.0019683838 0.0003566742 0.0017929077 -0.0008735657 0.0005264282 0.0004005432 -0.00076293945
-0.00044822693 0.00046348572 0.0011138916 0.00015068054 -0.00078201294 0.00032615662 -0.0008430481 -0.00045776367
0.0012359619 0.00050735474 -0.0016326904 -0.0005455017 0.0011291504 0.0012054443 0.00035858154 -0.0004787445
-0.000104904175 -0.001411438 -0.002029419 0.00064849854 0.0010910034 -0.00026130676 -0.00025558472 0.00060272217
-0.00020313263 -0.00062561035 0.0013275146 -0.00035095215 -2.4080276e-05 -0.00048828125 0.00039100647 0.00014686584
0.0005950928 -0.00013065338 0.0013122559 -0.00078582764 -0.001335144 -0.0008621216 -0.00044631958 -0.00091552734
0.0016098022 0.0006866455 0.0008201599 -0.0005874634 -0.0004386902 -9.679794e-05 0.000541687 0.0014953613
-0.00074386597 -0.0001821518 -0.0011672974 0.0013656616 0.0009918213 -0.0010375977 -2.2649765e-05 0.0015106201
-0.0008277893 1.3709068e-05 -4.5895576e-06 -8.440018e-05 -0.00028419495 0.0010757446 0.00061798096 0.0011978149
0.0009689331 -0.00037002563 0.0005531311 0.0010299683 -0.0006752014 1.7762184e-05 -0.00025558472 -0.0005607605
00000000: 88ba 93ba 203a 5339 24ba 50ba db39 313a
00000010: 81ba 34b7 6cba 003b 493a 71b9 0fba e2b9
00000020: 813a 973a 1b3a 3bb8 bc3a 483a 6bba 0fba
00000030: bf3a a239 fdba df3a 0a3b 8bb9 ccba 9eba
00000040: 01bb d339 5a3a dfba 38ba 6aba 533a 023a
00000050: 53b9 283a 2d39 32ba 4638 f2b8 0638 dbb9
00000060: 983a 893a abb9 dc39 4139 01ba 36ba 8aba
00000070: 7639 1f3a f7b9 463a 763a a1b9 ab38 c8ba
00000080: 19ba 33ba d039 22b9 f9b9 2539 6fba 963a
00000090: 9d39 e539 f439 05bb 91ba b5ba 553a d63a
000000a0: dc39 dcb9 ceba e23a e33a e5b9 dcba c0ba
000000b0: b13a ea39 9439 e338 4db8 f1b9 14b9 05ba
000000c0: 883a 41ba 8539 8539 803a 013a 82ba 08ba
000000d0: 003a 3e3a 90ba d9b9 023b 5e3a b2b9 07ba
000000e0: d2b9 60ba 01ba da38 caba e239 f939 c239
000000f0: ad3a c33a 8a3a aab9 10ba a438 2dba 69b9
00000100: 9bba 09ba 28ba 823a 873a 8a38 75ba 5bba
00000110: 8db8 a1ba 17ba a6b9 bc39 4739 8439 753a
00000120: 2d3a 043a 583a 8bba c3b9 faba b538 4c38
00000130: 1e3a 463a da3a 91ba f6ba e0ba 8c3a 1dba
00000140: afba aab9 fdb8 ed39 a1b9 9e3a 7d3a 383a
00000150: 8c39 c538 3ab8 eb38 62ba 7439 203a 8cb9
00000160: 86b9 01bb bb39 eb3a 65ba 0a3a d239 48ba
00000170: ebb9 f339 923a 1e39 4dba ab39 5dba f0b9
00000180: a23a 053a d6ba 0fba 943a 9e3a bc39 fbb9
00000190: dcb8 b9ba 05bb 2a3a 8f3a 89b9 86b9 1e3a
000001a0: 55b9 24ba ae3a b8b9 cab7 00ba cd39 1a39
000001b0: 1c3a 09b9 ac3a 4eba afba 62ba eab9 70ba
000001c0: d33a 343a 573a 1aba e6b9 cbb8 0e3a c43a
000001d0: 43ba 3fb9 99ba b33a 823a 88ba beb7 c63a
000001e0: 59ba 6637 9ab6 b1b8 95b9 8d3a 223a 9d3a
000001f0: 7e3a c2b9 113a 873a 31ba 9537 86b9 13ba

base_model.model.transformer.h.1.attn.c_attn.lora_A.weight bf16 [8, 768]
0.02319336 0.020629883 -0.026245117 0.008117676 -0.033691406 0.021606445 -0.01953125 -0.010559082
-0.029052734 0.032226562 0.03564453 0.009155273 -0.002960205 -0.003189087 0.020507812 0.021850586
-0.010620117 0.0046691895 -0.0078125 0.025024414 0.011108398 -0.021118164 -0.01977539 0.016113281
0.013427734 -0.010803223 -0.0073547363 -0.010070801 -0.01928711 0.009521484 0.025634766 -0.014709473
0.011352539 -0.020751953 0.014404297 0.0050964355 0.009155273 -0.008117676 0.033935547 -0.024658203
0.008178711 -0.033447266 0.028930664 0.011047363 -0.0048217773 0.035888672 -0.020263672 0.029541016
0.0055236816 0.016235352 0.014404297 -0.015991211 0.006134033 -0.021972656 -0.016479492 0.021850586
0.017211914 -0.035888672 0.014343262 0.025390625 0.001159668 -0.008361816 0.0050964355 0.0030822754
-0.012329102 0.015014648 0.025390625 0.03100586 -0.024047852 -0.008483887 0.03540039 0.01586914
-0.021362305 -0.0014724731 0.017944336 -0.015197754 -0.03173828 0.013916016 -0.02368164 -0.019042969
0.01574707 -0.004486084 -0.0078125 0.007171631 -0.021728516 -0.020263672 -0.0049743652 0.030029297
0.023803711 0.009887695 -0.0013427734 -0.0078125 0.00390625 0.00592041 0.006439209 -0.034423828
0.019897461 -0.0024414062 0.018554688 0.03466797 0.03100586 0.017333984 -0.00390625 -0.029174805
0.03564453 0.0078125 0.019897461 0.011108398 0.024047852 -0.024658203 -0.024047852 -0.002105713
-0.034423828 -0.00039291382 -0.030517578 -0.012268066 -0.030273438 -0.010437012 0.023803711 -0.005493164
0.009399414 -0.004211426 -0.0073242188 -0.030151367 -0.025268555 -0.025146484 0.017089844 0.003540039
0.034423828 0.0042419434 -0.024169922 0.020751953 -0.01977539 -0.028930664 -0.015258789 0.03125
0.012084961 0.03540039 -0.030151367 0.01171875 -0.032470703 0.01940918 0.026123047 -0.013366699
0.022827148 0.0154418945 0.0115356445 -0.021972656 0.01550293 -0.013793945 0.013366699 -0.014465332
0.023071289 0.013244629 -0.02355957 0.03515625 0.0038909912 0.0057678223 -0.036132812 0.017089844
0.02709961 -0.02319336 -0.020385742 -0.007659912 -0.017578125 -0.011413574 0.0067749023 0.032226562
-0.0065612793 -0.03173828 0.011108398 0.02319336 -0.032958984 0.016479492 0.032226562 -0.0053100586
-0.021972656 -0.0021972656 -0.033447266 -0.01184082 -0.013366699 -0.021972656 -0.033447266 -0.028930664
0.0066223145 0.0014953613 0.0057678223 0.02355957 -0.017456055 -0.014831543 0.014099121 0.00019645691
0.033691406 -0.029296875 -0.004119873 0.015380859 0.0062561035 0.010986328 0.011779785 -0.032714844
0.032958984 0.0234375 -0.02355957 0.024902344 0.012329102 -0.012329102 0.0076293945 0.0016021729
-0.00390625 0.011779785 0.025634766 0.03112793 0.00017356873 0.011352539 0.01928711 0.01928711
-0.022460938 0.0046081543 0.03491211 0.03149414 0.018066406 0.008972168 0.021728516 0.033447266
0.0021514893 0.028442383 0.030883789 -0.01574707 -0.0024871826 0.0146484375 -0.010986328 0.026611328
-0.027954102 -0.021484375 0.03515625 -0.02368164 0.028320312 0.032226562 0.015014648 0.008483887
-0.0069885254 -0.00390625 0.0036621094 -0.008422852 0.0014266968 0.010986328 0.016357422 0.027954102
0.014953613 0.027709961 0.008361816 0.0087890625 0.0234375 0.0040283203 -0.024169922 -0.019897461
00000000: be3c a93c d7bc 053c 0abd b13c a0bc 2dbc
00000010: eebc 043d 123d 163c 42bb 51bb a83c b33c
00000020: 2ebc 993b 00bc cd3c 363c adbc a2bc 843c
00000030: 5c3c 31bc f1bb 25bc 9ebc 1c3c d23c 71bc
00000040: 3a3c aabc 6c3c a73b 163c 05bc 0b3d cabc
00000050: 063c 09bd ed3c 353c 9ebb 133d a6bc f23c
00000060: b53b 853c 6c3c 83bc c93b b4bc 87bc b33c
00000070: 8d3c 13bd 6b3c d03c 983a 09bc a73b 4a3b
00000080: 4abc 763c d03c fe3c c5bc 0bbc 113d 823c
00000090: afbc c1ba 933c 79bc 02bd 643c c2bc 9cbc
000000a0: 813c 93bb 00bc eb3b b2bc a6bc a3bb f63c
000000b0: c33c 223c b0ba 00bc 803b c23b d33b 0dbd
000000c0: a33c 20bb 983c 0e3d fe3c 8e3c 80bb efbc
000000d0: 123d 003c a33c 363c c53c cabc c5bc 0abb
000000e0: 0dbd ceb9 fabc 49bc f8bc 2bbc c33c b4bb
000000f0: 1a3c 8abb f0bb f7bc cfbc cebc 8c3c 683b
00000100: 0d3d 8b3b c6bc aa3c a2bc edbc 7abc 003d
00000110: 463c 113d f7bc 403c 05bd 9f3c d63c 5bbc
00000120: bb3c 7d3c 3d3c b4bc 7e3c 62bc 5b3c 6dbc
00000130: bd3c 593c c1bc 103d 7f3b bd3b 14bd 8c3c
00000140: de3c bebc a7bc fbbb 90bc 3bbc de3b 043d
00000150: d7bb 02bd 363c be3c 07bd 873c 043d aebb
00000160: b4bc 10bb 09bd 42bc 5bbc b4bc 09bd edbc
00000170: d93b c43a bd3b c13c 8fbc 73bc 673c 4e39
00000180: 0a3d f0bc 87bb 7c3c cd3b 343c 413c 06bd
00000190: 073d c03c c1bc cc3c 4a3c 4abc fa3b d23a
000001a0: 80bb 413c d23c ff3c 3639 3a3c 9e3c 9e3c
000001b0: b8bc 973b 0f3d 013d 943c 133c b23c 093d
000001c0: 0d3b e93c fd3c 81bc 23bb 703c 34bc da3c
000001d0: e5bc b0bc 103d c2bc e83c 043d 763c 0b3c
000001e0: e5bb 80bb 703b 0abc bb3a 343c 863c e53c
000001f0: 753c e33c 093c 103c c03c 843b c6bc a3bc

base_model.model.transformer.h.1.attn.c_attn.lora_B.weight bf16 [2304, 8]
0.00030899048 -0.001739502 -0.0009498596 -0.0013504028 -0.0012664795 -0.0016784668 -0.00049972534 -0.0010375977
0.00092697144 0.0015792847 0.0013427734 0.0011291504 0.0010910034 0.0009498596 0.0014877319 0.0018997192
-0.0011138916 -0.0010528564 0.0018615723 7.200241e-05 0.00074768066 -0.0014572144 0.000541687 -0.00063323975
-0.00050735474 5.698204e-05 0.0014801025 0.0008621216 0.001159668 -2.503395e-05 0.0014572144 0.001953125
0.0012741089 0.0009994507 -0.0017547607 -0.0008010864 -0.00077438354 -0.000333786 -0.001953125 0.00075531006
-0.0012435913 -2.861023e-05 0.0013961792 0.00077056885 0.00015830994 9.10759e-05 -0.00074005127 6.2942505e-05
-0.0010147095 -0.0019073486 -0.0014266968 -0.00091171265 -0.0014953613 -0.002029419 -0.00049972534 0.0006637573
0.00042152405 -0.0016403198 3.4093857e-05 -0.0019683838 -0.00064468384 -0.00029945374 7.6293945e-05 -0.0015411377
0.0015792847 0.00042915344 -0.00091934204 -0.00051116943 -0.0006790161 0.0006599426 -0.00024414062 -0.0011749268
0.0003452301 0.0014343262 1.2755394e-05 0.002105713 0.0018539429 0.0018539429 -8.6307526e-05 0.0016555786
-0.00033187866 0.0005645752 0.0018539429 0.0010070801 0.0011978149 0.0009422302 0.0019302368 0.0013275146
0.0015029907 0.0012588501 -0.0016479492 -0.0009498596 -0.0007133484 0.0010528564 -0.0012359619 -0.0010528564
0.0013656616 0.00024414062 -0.0020751953 -0.0013275146 -0.0013046265 -0.00030136108 -0.0017318726 -0.001449585
6.0796738e-06 -0.00018119812 0.00051116943 -0.00036621094 0.00026893616 -0.00075149536 0.0009765625 0.00048065186
-0.0002040863 -0.00020313263 0.00046920776 0.00061035156 0.0008506775 -0.0007247925 0.00021076202 0.0010375977
-0.00091552734 0.00035095215 0.00033569336 0.0008735657 -0.00028038025 -0.00037574768 -0.0005531311 0.00051498413
0.00077438354 -1.5735626e-05 -0.0005264282 0.00042533875 0.0012588501 -0.00042915344 -0.00031280518 -5.90086e-06
0.0007209778 0.0010757446 -0.002029419 -0.0004043579 -0.0013961792 -0.00046348572 -0.0003643036 -0.0009384155
0.00028800964 0.0015640259 0.0018005371 0.0014572144 0.0013198853 0.0022277832 0.0015335083 0.0019836426
-0.0013427734 -0.0018692017 0.00035476685 0.00012493134 0.0013046265 -0.00078201294 -0.00038146973 0.0005683899
-0.0015029907 -0.0020751953 0.00019550323 -0.0008201599 -0.0011520386 -0.0019683838 0.00061035156 -0.00045967102
-0.0015411377 -0.0005836487 -0.00062561035 -0.000118255615 -0.0008239746 -0.0009384155 -0.0006599426 -0.00019168854
-0.001876831 -0.0012054443 -0.0004196167 -0.0010147095 -0.001335144 -0.0007324219 -0.0014648438 -0.0013885498
0.0012435913 0.000869751 -0.0017623901 -0.001045227 -0.0016098022 0.0007171631 -0.00059890747 0.00044250488
-0.00061798096 0.0021514893 0.0010299683 0.0015182495 0.0017242432 0.00089645386 -0.0005950928 0.002105713
-0.0012588501 -0.0014801025 -0.00088500977 -0.0008544922 -0.0009384155 -0.0014953613 -0.0006828308 -0.0009918213
0.00039672852 0.0006942749 0.0019683838 0.0016708374 0.0018692017 0.0011672974 0.0021972656 0.0005187988
-0.0005455017 -0.00045776367 0.00032043457 -0.0015106201 -0.0015258789 -0.001159668 0.00016880035 -0.00041007996
0.00047683716 0.0016326904 0.00039100647 0.00064468384 0.0018005371 0.0012664795 0.0006942749 0.0020446777
0.0011367798 0.0010528564 0.0015563965 0.0011444092 0.0013580322 0.0009460449 0.0014343262 0.0012512207
-0.0001821518 0.0015335083 0.001953125 0.0011978149 0.0013122559 0.001953125 0.0010375977 0.0014648438
-0.0008277893 -0.00088500977 0.0006637573 -3.8146973e-05 -9.393692e-05 -0.00046539307 0.00089645386 0.0010147095
00000000: a239 e4ba 79ba b1ba a6ba dcba 03ba 88ba
00000010: 733a cf3a b03a 943a 8f3a 793a c33a f93a
00000020: 92ba 8aba f43a 9738 443a bfba 0e3a 26ba
00000030: 05ba 6f38 c23a 623a 983a d2b7 bf3a 003b
00000040: a73a 833a e6ba 52ba 4bba afb9 00bb 463a
00000050: a3ba f0b7 b73a 4a3a 2639 bf38 42ba 8438
00000060: 85ba faba bbba 6fba c4ba 05bb 03ba 2e3a
00000070: dd39 d7ba 0f38 01bb 29ba 9db9 a038 caba
00000080: cf3a e139 71ba 06ba 32ba 2d3a 80b9 9aba
00000090: b539 bc3a 5637 0a3b f33a f33a b5b8 d93a
000000a0: aeb9 143a f33a 843a 9d3a 773a fd3a ae3a
000000b0: c53a a53a d8ba 79ba 3bba 8a3a a2ba 8aba
000000c0: b33a 8039 08bb aeba abba 9eb9 e3ba beba
000000d0: cc36 3eb9 063a c0b9 8d39 45ba 803a fc39
000000e0: 56b9 55b9 f639 203a 5f3a 3eba 5d39 883a
000000f0: 70ba b839 b039 653a 93b9 c5b9 11ba 073a
00000100: 4b3a 84b7 0aba df39 a53a e1b9 a4b9 c6b6
00000110: 3d3a 8d3a 05bb d4b9 b7ba f3b9 bfb9 76ba
00000120: 9739 cd3a ec3a bf3a ad3a 123b c93a 023b
00000130: b0ba f5ba ba39 0339 ab3a 4dba c8b9 153a
00000140: c5ba 08bb 4d39 57ba 97ba 01bb 203a f1b9
00000150: caba 19ba 24ba f8b8 58ba 76ba 2dba 49b9
00000160: f6ba 9eba dcb9 85ba afba 40ba c0ba b6ba
00000170: a33a 643a e7ba 89ba d3ba 3c3a 1dba e839
00000180: 22ba 0d3b 873a c73a e23a 6b3a 1cba 0a3b
00000190: a5ba c2ba 68ba 60ba 76ba c4ba 33ba 82ba
000001a0: d039 363a 013b db3a f53a 993a 103b 083a
000001b0: 0fba f0b9 a839 c6ba c8ba 98ba 3139 d7b9
000001c0: fa39 d63a cd39 293a ec3a a63a 363a 063b
000001d0: 953a 8a3a cc3a 963a b23a 783a bc3a a43a
000001e0: 3fb9 c93a 003b 9d3a ac3a 003b 883a c03a
000001f0: 59ba 68ba 2e3a 20b8 c5b8 f4b9 6b3a 853a

base_model.model.transformer.h.10.attn.c_attn.lora_A.weight bf16 [8, 768]
-0.014770508 -0.030273438 0.017578125 0.0126953125 0.0067749023 -0.0071105957 -0.03564453 -0.020507812
-0.011230469 0.020629883 -0.0039978027 -0.0078125 -0.005279541 -0.004058838 -0.00390625 -0.022216797
-0.032714844 0.021972656 -0.028564453 -0.0026855469 0.0040893555 -0.0078125 0.026611328 -0.025878906
-0.034179688 -0.004852295 0.023925781 0.018798828 0.014587402 0.010620117 0.013916016 0.0076904297
0.03125 -0.018188477 0.0065307617 0.033935547 -0.026977539 -0.014343262 -0.018676758 0.032714844
-0.033691406 -0.020507812 -0.032470703 -0.005218506 -0.00063323975 0.020019531 0.024047852 -0.011413574
0.017700195 0.022338867 -0.017578125 -0.028808594 0.02722168 0.013916016 0.029541016 -0.022216797
-0.023071289 -0.008178711 -0.0134887695 0.02758789 -0.007537842 -0.021606445 -0.016235352 0.03466797
0.014221191 -0.03540039 0.0070495605 -0.030761719 -0.017578125 -0.026000977 -0.022216797 0.01965332
0.0071105957 -0.020507812 0.03466797 -0.0078125 0.004211426 0.016113281 0.01586914 -0.01940918
-0.0047302246 -0.012390137 0.0078125 0.02355957 -0.013793945 -0.026977539 0.018920898 0.005706787
0.02734375 0.01965332 0.033935547 0.009338379 -0.020019531 -0.025024414 0.00390625 0.013977051
0.032470703 0.023071289 -0.033691406 -0.0138549805 0.01953125 0.026489258 0.020263672 0.0022125244
-0.0015182495 -0.021484375 -0.030395508 -0.012817383 0.030517578 -0.0047912598 -0.021484375 0.0077209473
0.005645752 -0.018066406 0.016479492 -0.013061523 -0.020263672 0.0038909912 0.033203125 0.0055236816
0.028930664 -0.03100586 -0.032470703 0.0053710938 0.007507324 -0.026367188 -0.025634766 -0.025024414
0.017944336 -0.013305664 -0.033935547 -0.0018692017 -0.03515625 0.0005645752 0.03491211 -0.013305664
-0.009765625 0.032470703 -0.022949219 -0.010314941 0.02355957 0.01574707 0.035888672 0.0053710938
-0.022460938 0.021972656 0.031982422 -0.006958008 -0.020874023 -0.018188477 -0.032714844 -0.004058838
-0.018066406 0.026977539 0.024414062 -0.028442383 0.02758789 0.028930664 0.030029297 0.0070495605
0.011047363 -0.0004863739 -0.011230469 0.0078125 -0.016845703 -0.024780273 0.012756348 0.026855469
0.012817383 -0.0051879883 0.0038146973 0.021972656 -0.03515625 0.025024414 0.0078125 -0.008728027
0.0077209473 0.03491211 0.013061523 0.030151367 0.0038604736 0.020019531 -0.009460449 -0.023071289
-0.0054016113 0.009460449 0.009460449 0.005279541 0.0078125 0.004333496 0.011108398 0.0095825195
0.033203125 -0.036132812 0.03540039 0.013977051 0.012268066 0.01940918 -0.014404297 0.008728027
0.018066406 0.009399414 0.0024414062 -0.029785156 0.015258789 -0.033935547 -0.022460938 -0.029052734
0.0034332275 -0.03100586 -0.005279541 0.00390625 0.03100586 0.021606445 0.010070801 0.00090408325
-0.0051879883 0.028442383 -0.012084961 -0.02368164 -0.018798828 -0.028564453 -0.007293701 0.0078125
-0.03466797 -0.020141602 0.017211914 0.030273438 0.01159668 -0.02709961 0.028442383 0.029174805
-0.028076172 -0.0078125 0.014404297 -0.0078125 -0.016479492 -0.03491211 -0.020385742 -0.028076172
-0.01373291 -0.025512695 -0.013427734 -0.0078125 0.0052490234 -0.010437012 0.016479492 0.0234375
-0.028320312 -0.020751953 0.020507812 -0.021362305 -0.03149414 0.015258789 -0.026489258 -0.004425049
00000000: 72bc f8bc 903c 503c de3b e9bb 12bd a8bc
00000010: 38bc a93c 83bb 00bc adbb 85bb 80bb b6bc
00000020: 06bd b43c eabc 30bb 863b 00bc da3c d4bc
00000030: 0cbd 9fbb c43c 9a3c 6f3c 2e3c 643c fc3b
00000040: 003d 95bc d63b 0b3d ddbc 6bbc 99bc 063d
00000050: 0abd a8bc 05bd abbb 26ba a43c c53c 3bbc
00000060: 913c b73c 90bc ecbc df3c 643c f23c b6bc
00000070: bdbc 06bc 5dbc e23c f7bb b1bc 85bc 0e3d
00000080: 693c 11bd e73b fcbc 90bc d5bc b6bc a13c
00000090: e93b a8bc 0e3d 00bc 8a3b 843c 823c 9fbc
000000a0: 9bbb 4bbc 003c c13c 62bc ddbc 9b3c bb3b
000000b0: e03c a13c 0b3d 193c a4bc cdbc 803b 653c
000000c0: 053d bd3c 0abd 63bc a03c d93c a63c 113b
000000d0: c7ba b0bc f9bc 52bc fa3c 9dbb b0bc fd3b
000000e0: b93b 94bc 873c 56bc a6bc 7f3b 083d b53b
000000f0: ed3c febc 05bd b03b f63b d8bc d2bc cdbc
00000100: 933c 5abc 0bbd f5ba 10bd 143a 0f3d 5abc
00000110: 20bc 053d bcbc 29bc c13c 813c 133d b03b
00000120: b8bc b43c 033d e4bb abbc 95bc 06bd 85bb
00000130: 94bc dd3c c83c e9bc e23c ed3c f63c e73b
00000140: 353c ffb9 38bc 003c 8abc cbbc 513c dc3c
00000150: 523c aabb 7a3b b43c 10bd cd3c 003c 0fbc
00000160: fd3b 0f3d 563c f73c 7d3b a43c 1bbc bdbc
00000170: b1bb 1b3c 1b3c ad3b 003c 8e3b 363c 1d3c
00000180: 083d 14bd 113d 653c 493c 9f3c 6cbc 0f3c
00000190: 943c 1a3c 203b f4bc 7a3c 0bbd b8bc eebc
000001a0: 613b febc adbb 803b fe3c b13c 253c 6d3a
000001b0: aabb e93c 46bc c2bc 9abc eabc efbb 003c
000001c0: 0ebd a5bc 8d3c f83c 3e3c debc e93c ef3c
000001d0: e6bc 00bc 6c3c 00bc 87bc 0fbd a7bc e6bc
000001e0: 61bc d1bc 5cbc 00bc ac3b 2bbc 873c c03c
000001f0: e8bc aabc a83c afbc 01bd 7a3c d9bc 91bb

base_model.model.transformer.h.10.attn.c_attn.lora_B.weight bf16 [2304, 8]
0.0018157959 -0.0022888184 0.0018157959 0.002380371 0.0022735596 -0.002822876 0.0030517578 -0.0021362305
0.00050735474 -0.0022583008 0.0016708374 0.0014266968 0.002243042 -0.0018692017 0.0013961792 -0.0017852783
-0.0020599365 0.002609253 -0.0012435913 -0.0032043457 -0.0027923584 0.003112793 -0.0024108887 0.0016174316
-0.0017700195 0.0022888184 -0.0029296875 -0.0023651123 -0.002090454 0.0021820068 -0.002380371 0.0020751953
0.0007171631 0.00090026855 -0.0001335144 -0.0001449585 -0.00062942505 -0.000116825104 -0.0002593994 -0.00031661987
-0.0026397705 0.002822876 -0.0038909912 -0.00390625 -0.0027008057 0.0039367676 -0.00390625 0.0038909912
-0.0020599365 0.0027618408 -0.0032958984 -0.0024719238 -0.0027618408 0.001953125 -0.0030059814 0.002532959
0.001121521 -0.0018997192 0.00033569336 0.0016555786 0.001083374 -0.002960205 0.002456665 -0.0005302429
0.0028686523 -0.002532959 0.002609253 0.0031280518 0.0023651123 -0.0030059814 0.003189087 -0.0019836426
0.0031433105 -0.0036468506 0.0037841797 0.00390625 0.0034332275 -0.00390625 0.0039978027 -0.00390625
-0.0028076172 0.0023498535 -0.0020141602 -0.0029907227 -0.003112793 0.0035858154 -0.0036468506 0.0031433105
0.0022735596 -0.0027770996 0.0029754639 0.0029907227 0.0027008057 -0.002746582 0.002960205 -0.0031280518
0.0015182495 -0.0019989014 0.0019683838 0.002319336 0.002166748 -0.0016021729 0.0024108887 -0.0023498535
-0.001121521 0.0009765625 -0.0016021729 -0.0024261475 -0.0018463135 0.0020751953 -0.0023498535 0.0024261475
-0.0025177002 0.0026550293 -0.00390625 -0.0035552979 -0.002746582 0.0038452148 -0.003692627 0.0037231445
0.002746582 -0.0036773682 0.00390625 0.00390625 0.00390625 -0.00390625 0.00390625 -0.003967285
0.0013504028 -0.0026550293 0.003250122 0.0030517578 0.0024414062 -0.0028381348 0.0022735596 -0.0024261475
-0.0022735596 0.0027923584 -0.00390625 -0.0033416748 -0.0028686523 0.0029907227 -0.003616333 0.00340271
0.0022735596 -0.002670288 0.0036010742 0.0032348633 0.0027008057 -0.0028076172 0.0030670166 -0.0028381348
0.001083374 0.0016174316 -0.0024108887 0.00044441223 -0.00047683716 0.000579834 0.0005683899 0.0008506775
0.002532959 -0.0033721924 0.00390625 0.00390625 0.0031585693 -0.0037231445 0.00390625 -0.00390625
0.002609253 -0.0018920898 0.0023498535 0.0029449463 0.00289917 -0.002166748 0.0030822754 -0.0028839111
0.00078201294 -0.0005340576 -0.0010147095 0.00075531006 0.001953125 -4.529953e-05 0.0013809204 -0.00043296814
0.0025787354 -0.0033721924 0.002532959 0.0034332275 0.0027160645 -0.0025024414 0.003692627 -0.0021362305
-0.0029144287 0.0006828308 0.0006980896 -0.0025939941 -0.0014877319 0.0012130737 -0.0023345947 0.0013198853
0.0016098022 -0.0020599365 0.0027618408 0.0024261475 0.002105713 -0.0021514893 0.0026245117 -0.0031280518
0.0019454956 -0.0011367798 0.0010528564 0.0017776489 0.000101566315 -0.0016937256 0.0008392334 -0.0010299683
-0.0034179688 0.0035095215 -0.0040283203 -0.0040283203 -0.0028381348 0.00390625 -0.0039367676 0.003692627
-0.0002593994 0.0011672974 -0.0019073486 -8.4877014e-05 -0.00059890747 -0.0010375977 -0.0005493164 0.00035095215
0.0002937317 -0.0009460449 -0.00089645386 -0.0007324219 0.00034332275 0.0005340576 -0.00014019012 0.0011978149
0.0028533936 -0.0032958984 0.00390625 0.003967285 0.0038909912 -0.00390625 0.003967285 -0.0039367676
-0.0024108887 0.0026855469 -0.0033721924 -0.0033874512 -0.0027770996 0.0031280518 -0.0034637451 0.003479004
00000000: ee3a 16bb ee3a 1c3b 153b 39bb 483b 0cbb
00000010: 053a 14bb db3a bb3a 133b f5ba b73a eaba
00000020: 07bb 2b3b a3ba 52bb 37bb 4c3b 1ebb d43a
00000030: e8ba 163b 40bb 1bbb 09bb 0f3b 1cbb 083b
00000040: 3c3a 6c3a 0cb9 18b9 25ba f5b8 88b9 a6b9
00000050: 2dbb 393b 7fbb 80bb 31bb 813b 80bb 7f3b
00000060: 07bb 353b 58bb 22bb 35bb 003b 45bb 263b
00000070: 933a f9ba b039 d93a 8e3a 42bb 213b 0bba
00000080: 3c3b 26bb 2b3b 4d3b 1b3b 45bb 513b 02bb
00000090: 4e3b 6fbb 783b 803b 613b 80bb 833b 80bb
000000a0: 38bb 1a3b 04bb 44bb 4cbb 6b3b 6fbb 4e3b
000000b0: 153b 36bb 433b 443b 313b 34bb 423b 4dbb
000000c0: c73a 03bb 013b 183b 0e3b d2ba 1e3b 1abb
000000d0: 93ba 803a d2ba 1fbb f2ba 083b 1abb 1f3b
000000e0: 25bb 2e3b 80bb 69bb 34bb 7c3b 72bb 743b
000000f0: 343b 71bb 803b 803b 803b 80bb 803b 82bb
00000100: b13a 2ebb 553b 483b 203b 3abb 153b 1fbb
00000110: 15bb 373b 80bb 5bbb 3cbb 443b 6dbb 5f3b
00000120: 153b 2fbb 6c3b 543b 313b 38bb 493b 3abb
00000130: 8e3a d43a 1ebb e939 fab9 183a 153a 5f3a
00000140: 263b 5dbb 803b 803b 4f3b 74bb 803b 80bb
00000150: 2b3b f8ba 1a3b 413b 3e3b 0ebb 4a3b 3dbb
00000160: 4d3a 0cba 85ba 463a 003b 3eb8 b53a e3b9
00000170: 293b 5dbb 263b 613b 323b 24bb 723b 0cbb
00000180: 3fbb 333a 373a 2abb c3ba 9f3a 19bb ad3a
00000190: d33a 07bb 353b 1f3b 0a3b 0dbb 2c3b 4dbb
000001a0: ff3a 95ba 8a3a e93a d538 deba 5c3a 87ba
000001b0: 60bb 663b 84bb 84bb 3abb 803b 81bb 723b
000001c0: 88b9 993a faba b2b8 1dba 88ba 10ba b839
000001d0: 9a39 78ba 6bba 40ba b439 0c3a 13b9 9d3a
000001e0: 3b3b 58bb 803b 823b 7f3b 80bb 823b 81bb
000001f0: 1ebb 303b 5dbb 5ebb 36bb 4d3b 63bb 643b

base_model.model.transformer.h.11.attn.c_attn.lora_A.weight bf16 [8, 768]
0.03564453 0.008728027 0.008605957 -0.015197754 -0.014099121 -0.026000977 -0.0038146973 0.0078125
-0.017333984 0.0078125 0.018676758 -0.010009766 0.0069274902 -0.020141602 -0.0067443848 0.020263672
-0.0234375 -0.020019531 -0.004119873 -0.033447266 0.018554688 0.0078125 0.004119873 -0.008178711
-0.032226562 0.0078125 -0.02709961 0.029907227 -0.0043945312 -0.020629883 -0.015380859 0.013671875
0.033203125 -0.03173828 -0.004119873 0.024902344 0.026611328 0.022216797 0.00031471252 -0.02746582
-0.0020446777 -0.024047852 -0.032714844 -0.028564453 -0.018920898 0.027709961 -0.025146484 -0.005065918
0.022216797 -0.03515625 0.017700195 -0.020263672 -0.0078125 0.0019836426 -0.013183594 0.014160156
0.0043640137 0.032714844 -0.010009766 0.027954102 0.026489258 0.0154418945 -0.014770508 0.026245117
0.013916016 -0.022949219 0.032226562 0.008911133 0.02368164 0.021362305 0.01940918 0.004699707
0.0059509277 0.01965332 -0.01171875 0.033691406 -0.0064086914 -0.02746582 -0.0049438477 0.030395508
-0.03564453 0.0043640137 -0.021240234 0.02722168 0.014953613 0.017089844 0.0078125 -0.008361816
0.026611328 0.02758789 -0.0039367676 0.0078125 0.034423828 0.006866455 -0.030029297 0.00390625
-0.03112793 0.024047852 0.029541016 -0.008117676 -0.004211426 -0.03466797 -0.02746582 0.021362305
-0.024169922 -0.017578125 -0.015075684 -0.0057678223 0.017089844 0.032958984 -0.029907227 0.01574707
-0.014282227 -0.0052490234 0.015991211 -0.01965332 -0.028442383 -0.009216309 0.007873535 -0.019897461
0.008911133 -0.032226562 0.006713867 0.01928711 0.012145996 -0.026123047 -0.0115356445 -0.021850586
-0.018920898 -0.014404297 -0.0078125 0.009765625 -0.0078125 0.015991211 0.010681152 0.009033203
0.018920898 0.021850586 0.010620117 0.030273438 -0.02331543 -0.010498047 0.014221191 -0.019897461
0.0078125 -0.011108398 0.02722168 0.005004883 -0.010192871 0.0073547363 -0.03515625 0.026367188
0.012939453 -0.029296875 0.029541016 0.035888672 0.0234375 -0.0099487305 -0.017333984 -0.03564453
-0.020019531 0.02746582 -0.035888672 0.020141602 -0.03564453 0.018676758 -0.00390625 0.02758789
0.0077819824 0.03515625 0.004333496 -0.014526367 0.022460938 -0.004699707 -0.025268555 -0.011352539
-0.0044555664 -0.026123047 -0.024414062 0.014709473 0.02355957 0.014282227 0.022827148 -0.018066406
0.010009766 -0.0078125 0.0012741089 -0.01953125 -0.028930664 0.024902344 -0.003616333 -0.010498047
-0.028930664 -0.02709961 0.03515625 -0.03466797 0.020996094 0.030517578 0.0038604736 -0.009887695
0.0087890625 0.008911133 0.015625 -0.02319336 -0.015991211 -0.025878906 -0.0054626465 -0.008056641
-0.0042419434 0.018188477 -0.024414062 0.032226562 -0.026611328 0.018066406 -0.03491211 -0.0054626465
0.03564453 0.030761719 0.020141602 -0.0043945312 0.01953125 0.012268066 -0.024780273 0.017456055
0.016113281 0.019897461 -0.00063705444 0.011352539 0.020996094 0.028808594 -0.032470703 0.01965332
-0.029296875 -0.03100586 0.013000488 -0.016601562 -0.0040893555 0.0039367676 -0.012573242 0.02331543
0.012451172 -0.020629883 0.017578125 -0.015319824 -0.005706787 0.03100586 -0.017822266 0.024658203
-0.0078125 -0.034423828 -0.029418945 -0.009887695 0.02331543 -0.004333496 -0.006713867 -0.00390625
00000000: 123d 0f3c 0d3c 79bc 67bc d5bc 7abb 003c
00000010: 8ebc 003c 993c 24bc e33b a5bc ddbb a63c
00000020: c0bc a4bc 87bb 09bd 983c 003c 873b 06bc
00000030: 04bd 003c debc f53c 90bb a9bc 7cbc 603c
00000040: 083d 02bd 87bb cc3c da3c b63c a539 e1bc
00000050: 06bb c5bc 06bd eabc 9bbc e33c cebc a6bb
00000060: b63c 10bd 913c a6bc 00bc 023b 58bc 683c
00000070: 8f3b 063d 24bc e53c d93c 7d3c 72bc d73c
00000080: 643c bcbc 043d 123c c23c af3c 9f3c 9a3b
00000090: c33b a13c 40bc 0a3d d2bb e1bc a2bb f93c
000000a0: 12bd 8f3b aebc df3c 753c 8c3c 003c 09bc
000000b0: da3c e23c 81bb 003c 0d3d e13b f6bc 803b
000000c0: ffbc c53c f23c 05bc 8abb 0ebd e1bc af3c
000000d0: c6bc 90bc 77bc bdbb 8c3c 073d f5bc 813c
000000e0: 6abc acbb 833c a1bc e9bc 17bc 013c a3bc
000000f0: 123c 04bd dc3b 9e3c 473c d6bc 3dbc b3bc
00000100: 9bbc 6cbc 00bc 203c 00bc 833c 2f3c 143c
00000110: 9b3c b33c 2e3c f83c bfbc 2cbc 693c a3bc
00000120: 003c 36bc df3c a43b 27bc f13b 10bd d83c
00000130: 543c f0bc f23c 133d c03c 23bc 8ebc 12bd
00000140: a4bc e13c 13bd a53c 12bd 993c 80bb e23c
00000150: ff3b 103d 8e3b 6ebc b83c 9abb cfbc 3abc
00000160: 92bb d6bc c8bc 713c c13c 6a3c bb3c 94bc
00000170: 243c 00bc a73a a0bc edbc cc3c 6dbb 2cbc
00000180: edbc debc 103d 0ebd ac3c fa3c 7d3b 22bc
00000190: 103c 123c 803c bebc 83bc d4bc b3bb 04bc
000001a0: 8bbb 953c c8bc 043d dabc 943c 0fbd b3bb
000001b0: 123d fc3c a53c 90bb a03c 493c cbbc 8f3c
000001c0: 843c a33c 27ba 3a3c ac3c ec3c 05bd a13c
000001d0: f0bc febc 553c 88bc 86bb 813b 4ebc bf3c
000001e0: 4c3c a9bc 903c 7bbc bbbb fe3c 92bc ca3c
000001f0: 00bc 0dbd f1bc 22bc bf3c 8ebb dcbb 80bb

base_model.model.transformer.h.11.attn.c_attn.lora_B.weight bf16 [2304, 8]
-0.0013961792 -0.0025024414 0.0027923584 0.0024261475 -0.0006713867 -0.0034637451 -0.0026397705 0.0032196045
-0.0017089844 -0.0024719238 0.0023956299 0.002960205 -0.0001411438 -0.0030975342 -0.0027008057 0.0028381348
-0.0021820068 -0.0018310547 0.0019683838 -0.0009918213 0.0007171631 -0.00049972534 -0.0027008057 0.0018005371
0.002029419 -0.001121521 -0.0023651123 -0.0010986328 -0.0017623901 0.0016937256 0.002090454 -0.0027618408
0.0019302368 0.00038528442 -0.0025482178 -0.0019378662 -0.0021362305 0.0020446777 0.0025177002 -0.0023956299
-0.00092697144 0.0038452148 -0.0019989014 -0.0031280518 0.0028381348 0.0032653809 0.0019683838 -0.0029144287
-0.0040893555 0.00042915344 0.0043029785 0.0021514893 0.00390625 -0.0038757324 -0.0038757324 0.003967285
-0.0016479492 -0.0018539429 0.0022125244 0.0013427734 0.00048065186 -0.0024108887 -0.0025939941 0.002380371
-0.0015029907 -0.002822876 0.0030517578 0.0023040771 0.00024795532 -0.0029907227 -0.0028381348 0.0032806396
-0.0017776489 0.0027618408 0.000957489 -0.0025177002 0.0022888184 0.0024871826 -0.0013580322 -0.00062942505
7.9631805e-05 8.773804e-05 0.0008506775 0.0005531311 -0.00040626526 0.0013656616 5.221367e-05 0.00076293945
0.003768921 0.0027313232 -0.0039367676 -0.0027313232 -0.002166748 0.0038757324 0.0038604736 -0.0039978027
0.0038909912 -0.0034332275 -0.0035247803 0.0022125244 -0.0038604736 -0.0009384155 0.003540039 -0.0022735596
0.0010757446 -0.0023498535 0.0022888184 0.002456665 -0.0015029907 -0.0022277832 0.0001821518 0.0018920898
0.0041503906 -0.0006752014 -0.0043640137 -0.0022888184 -0.0037994385 0.00289917 0.004119873 -0.0040283203
-0.0013580322 0.0033416748 0.00011968613 -0.001876831 0.0006790161 0.0024719238 -0.00021076202 -0.0011672974
0.0022735596 -0.0027313232 -0.0025177002 2.4080276e-05 -0.0025482178 0.00022315979 0.002532959 -0.0014801025
-0.001159668 -0.000289917 -0.000415802 -0.000869751 0.0010910034 0.0007972717 -0.00061798096 0.00050354004
0.0013046265 -0.002609253 -0.0017089844 -0.00064086914 -0.0018005371 -0.0008163452 0.0015640259 -0.00022315979
-0.0030517578 0.0013198853 0.0026550293 0.0015945435 0.0032653809 -0.0017776489 -0.0034942627 0.0032653809
0.003967285 0.0029449463 -0.0043029785 -0.00390625 -0.0024871826 0.0039367676 0.004119873 -0.00390625
0.0021972656 -0.0031280518 -0.0011749268 0.0022583008 -0.002960205 -0.0021209717 0.001953125 0.0008087158
-0.003768921 0.00037765503 0.0030670166 -3.2186508e-05 0.0028686523 -0.0021209717 -0.0028839111 0.003250122
-0.004211426 0.0008735657 0.004180908 0.0023040771 0.00390625 -0.0036315918 -0.0040283203 0.004058838
-0.0031585693 0.0034179688 0.0020446777 -0.0027923584 0.0037841797 0.001953125 -0.0022735596 0.00019168854
-0.0018615723 0.0017700195 0.0028533936 7.8201294e-05 0.0024414062 -0.0006980896 -0.0025177002 0.0018692017
-4.7683716e-05 0.0010986328 -0.00340271 -0.001953125 -1.7046928e-05 0.0016326904 0.0022277832 -0.0026397705
-0.003692627 0.0019378662 0.0039978027 0.0017242432 0.0036468506 -0.0020141602 -0.0039978027 0.00390625
-0.003540039 0.0027618408 0.0030059814 -0.0019378662 0.0031433105 0.00075912476 -0.0035705566 0.0023498535
0.002456665 9.2983246e-05 -0.0029296875 -0.0011901855 -0.0022277832 0.0018310547 0.0027160645 -0.0023651123
0.0038604736 -0.0012588501 -0.00390625 -0.00091552734 -0.0035552979 0.0022125244 0.003967285 -0.003967285
-0.00390625 -0.002105713 0.004119873 0.0038757324 0.00390625 -0.00390625 -0.0040893555 0.0039978027
00000000: b7ba 24bb 373b 1f3b 30ba 63bb 2dbb 533b
00000010: e0ba 22bb 1d3b 423b 14b9 4bbb 31bb 3a3b
00000020: 0fbb f0ba 013b 82ba 3c3a 03ba 31bb ec3a
00000030: 053b 93ba 1bbb 90ba e7ba de3a 093b 35bb
00000040: fd3a ca39 27bb feba 0cbb 063b 253b 1dbb
00000050: 73ba 7c3b 03bb 4dbb 3a3b 563b 013b 3fbb
00000060: 86bb e139 8d3b 0d3b 803b 7ebb 7ebb 823b
00000070: d8ba f3ba 113b b03a fc39 1ebb 2abb 1c3b
00000080: c5ba 39bb 483b 173b 8239 44bb 3abb 573b
00000090: e9ba 353b 7b3a 25bb 163b 233b b2ba 25ba
000000a0: a738 b838 5f3a 113a d5b9 b33a 5b38 483a
000000b0: 773b 333b 81bb 33bb 0ebb 7e3b 7d3b 83bb
000000c0: 7f3b 61bb 67bb 113b 7dbb 76ba 683b 15bb
000000d0: 8d3a 1abb 163b 213b c5ba 12bb 3f39 f83a
000000e0: 883b 31ba 8fbb 16bb 79bb 3e3b 873b 84bb
000000f0: b2ba 5b3b fb38 f6ba 323a 223b 5db9 99ba
00000100: 153b 33bb 25bb ca37 27bb 6a39 263b c2ba
00000110: 98ba 98b9 dab9 64ba 8f3a 513a 22ba 043a
00000120: ab3a 2bbb e0ba 28ba ecba 56ba cd3a 6ab9
00000130: 48bb ad3a 2e3b d13a 563b e9ba 65bb 563b
00000140: 823b 413b 8dbb 80bb 23bb 813b 873b 80bb
00000150: 103b 4dbb 9aba 143b 42bb 0bbb 003b 543a
00000160: 77bb c639 493b 07b8 3c3b 0bbb 3dbb 553b
00000170: 8abb 653a 893b 173b 803b 6ebb 84bb 853b
00000180: 4fbb 603b 063b 37bb 783b 003b 15bb 4939
00000190: f4ba e83a 3b3b a438 203b 37ba 25bb f53a
000001a0: 48b8 903a 5fbb 00bb 8fb7 d63a 123b 2dbb
000001b0: 72bb fe3a 833b e23a 6f3b 04bb 83bb 803b
000001c0: 68bb 353b 453b feba 4e3b 473a 6abb 1a3b
000001d0: 213b c338 40bb 9cba 12bb f03a 323b 1bbb
000001e0: 7d3b a5ba 80bb 70ba 69bb 113b 823b 82bb
000001f0: 80bb 0abb 873b 7e3b 803b 80bb 86bb 833b

base_model.model.transformer.h.2.attn.c_attn.lora_A.weight bf16 [8, 768]
-0.024291992 -0.017211914 0.016113281 -0.02355957 0.032714844 0.0058898926 -0.01586914 -0.016357422
0.01184082 0.007171631 -0.02355957 0.017578125 -0.012878418 0.021606445 -0.012573242 0.017211914
-0.024780273 0.02709961 0.013000488 -0.00390625 0.016113281 0.014099121 0.021362305 -0.0020141602
0.0234375 0.01965332 -0.014099121 -0.024169922 0.032226562 -0.011291504 0.032958984 -0.022338867
0.01361084 0.0051574707 0.033203125 0.00390625 0.031982422 0.01361084 -0.0011367798 0.02722168
-0.015625 0.022705078 0.016479492 -0.032958984 0.00027275085 -0.0066833496 -0.0046081543 -0.03149414
-0.029052734 -0.015075684 0.024658203 0.025512695 -0.03100586 0.03149414 0.00075149536 0.022216797
-0.017578125 0.0012283325 -0.016601562 0.0056762695 -0.007873535 0.030517578 -0.024536133 -0.009521484
0.0078125 0.013244629 0.026977539 -0.021850586 0.021484375 -0.00039482117 -0.020996094 0.028076172
-0.007873535 0.014770508 0.033691406 0.0039367676 -0.030517578 0.012451172 -0.0012664795 -0.017944336
0.026611328 0.01361084 -0.01574707 -0.013671875 -0.027832031 0.024169922 0.028930664 -0.005340576
0.013427734 -0.01171875 -0.020263672 -0.025390625 -0.025146484 0.013916016 -0.03466797 0.032958984
-0.0034332275 -0.033203125 -0.035888672 -0.032470703 -0.030151367 -0.0234375 0.018310547 -0.020874023
-0.021728516 -0.0078125 0.014953613 0.033691406 0.02319336 -0.03564453 -0.007232666 -0.007507324
0.022949219 0.019165039 -0.012145996 0.016235352 -0.022094727 -0.0035247803 -0.030029297 -0.03173828
0.018432617 0.033935547 0.001953125 -0.024902344 0.0046081543 0.016113281 -0.0079956055 0.033203125
-0.010498047 -0.030029297 -0.008483887 -0.013244629 0.004760742 -0.029663086 0.009399414 0.025756836
-0.033691406 -0.0078125 -0.020751953 -0.016479492 -0.016235352 -0.029541016 0.013305664 -0.0053710938
-0.017089844 -0.0062561035 0.016845703 0.028686523 0.00982666 0.0039367676 0.014892578 -0.020629883
-0.010620117 0.0045166016 0.021484375 0.023925781 -0.028442383 -0.01940918 0.019165039 0.0013656616
-0.032714844 -0.016967773 0.024780273 -0.033935547 -0.009033203 -0.020751953 -0.010009766 -0.033935547
0.026855469 0.006713867 0.033935547 -0.031982422 -0.02734375 -0.03564453 -0.029785156 -0.024291992
-0.010009766 0.0099487305 0.01953125 0.023071289 -0.018798828 0.028686523 -0.004180908 -0.032714844
-0.008178711 0.011352539 0.021118164 0.011108398 -0.003829956 -0.024902344 0.0047302246 0.034179688
-0.0234375 -0.013977051 -0.022338867 -0.03149414 0.03100586 -0.02319336 0.0054016113 0.0012893677
-0.001701355 -0.025634766 -0.0011749268 -0.015136719 -0.008178711 0.030151367 -0.017700195 -0.009338379
-0.0019989014 0.032714844 -0.03564453 0.006958008 0.032714844 0.026123047 0.00075912476 -0.025268555
0.03564453 -0.012817383 0.020263672 0.009399414 -0.03173828 0.020874023 -0.011779785 -0.0039367676
0.0043029785 0.032958984 0.02709961 0.029785156 0.025512695 0.0078125 -0.032470703 -0.028930664
0.0041503906 -0.03466797 -0.000667572 0.0037841797 0.026367188 -0.029174805 -0.03540039 -0.020996094
0.03149414 0.014282227 -0.016357422 0.033203125 -0.022827148 0.021362305 -0.0074157715 -0.020629883
-0.013061523 -0.009887695 -0.014221191 0.030639648 0.023925781 -0.02734375 -0.0078125 -0.00390625
00000000: c7bc 8dbc 843c c1bc 063d c13b 82bc 86bc
00000010: 423c eb3b c1bc 903c 53bc b13c 4ebc 8d3c
00000020: cbbc de3c 553c 80bb 843c 673c af3c 04bb
00000030: c03c a13c 67bc c6bc 043d 39bc 073d b7bc
00000040: 5f3c a93b 083d 803b 033d 5f3c 95ba df3c
00000050: 80bc ba3c 873c 07bd 8f39 dbbb 97bb 01bd
00000060: eebc 77bc ca3c d13c febc 013d 453a b63c
00000070: 90bc a13a 88bc ba3b 01bc fa3c c9bc 1cbc
00000080: 003c 593c dd3c b3bc b03c cfb9 acbc e63c
00000090: 01bc 723c 0a3d 813b fabc 4c3c a6ba 93bc
000000a0: da3c 5f3c 81bc 60bc e4bc c63c ed3c afbb
000000b0: 5c3c 40bc a6bc d0bc cebc 643c 0ebd 073d
000000c0: 61bb 08bd 13bd 05bd f7bc c0bc 963c abbc
000000d0: b2bc 00bc 753c 0a3d be3c 12bd edbb f6bb
000000e0: bc3c 9d3c 47bc 853c b5bc 67bb f6bc 02bd
000000f0: 973c 0b3d 003b ccbc 973b 843c 03bc 083d
00000100: 2cbc f6bc 0bbc 59bc 9c3b f3bc 1a3c d33c
00000110: 0abd 00bc aabc 87bc 85bc f2bc 5a3c b0bb
00000120: 8cbc cdbb 8a3c eb3c 213c 813b 743c a9bc
00000130: 2ebc 943b b03c c43c e9bc 9fbc 9d3c b33a
00000140: 06bd 8bbc cb3c 0bbd 14bc aabc 24bc 0bbd
00000150: dc3c dc3b 0b3d 03bd e0bc 12bd f4bc c7bc
00000160: 24bc 233c a03c bd3c 9abc eb3c 89bb 06bd
00000170: 06bc 3a3c ad3c 363c 7bbb ccbc 9b3b 0c3d
00000180: c0bc 65bc b7bc 01bd fe3c bebc b13b a93a
00000190: dfba d2bc 9aba 78bc 06bc f73c 91bc 19bc
000001a0: 03bb 063d 12bd e43b 063d d63c 473a cfbc
000001b0: 123d 52bc a63c 1a3c 02bd ab3c 41bc 81bb
000001c0: 8d3b 073d de3c f43c d13c 003c 05bd edbc
000001d0: 883b 0ebd 2fba 783b d83c efbc 11bd acbc
000001e0: 013d 6a3c 86bc 083d bbbc af3c f3bb a9bc
000001f0: 56bc 22bc 69bc fb3c c43c e0bc 00bc 80bb
