examples/research_projects/stack_llama_2/scripts/results/checkpoint_10/pytorch_model.bin (torch, 17916 bytes, 1 tensors)

v_head.summary.weight f4 [1, 4096]
00000000: 2c65 1d3c 0067 a53b 5881 123c 21d1 bdbb
00000010: 111c 6ebc e161 a9b8 42ad 123c 6ab5 213c
00000020: 9e75 e2bb 900e 4b3c d7d4 37bc ac5e 403c
00000030: 3135 473c 827a a638 e118 40bc 13df 48bb
00000040: fd80 ee3b fb7c 72bc 5585 92ba d099 243b
00000050: 5f5e ff3b ac6d a43b 10d8 333b d646 0a3c
00000060: 81ec a1bb a738 7cbc b663 5a3c 2f83 52bc
00000070: 39a5 103c b49e 70bc 74c9 803b ec9d 0a3c
00000080: 106f 91ba 4fde 6fbc 7139 2c3c c739 75bc
00000090: e719 a6b9 826d 44bc 2f8a bdbb 439e 0a39
000000a0: 7277 633c 875c 4cbc a99c 0ebc 51f9 65bb
000000b0: bf8d b0ba 3e2f 8fbb 1d35 aabb 3178 763c
000000c0: 11fb e5bb 508e 4abc 6712 c739 972d 1dbc
000000d0: 7009 313c 1a3e 2d3c 31fb 12bc 886a 6f3c
000000e0: bb00 843b 6ff4 66ba 6712 71bb a8df 51bc
000000f0: 8d8c 5e3c 7e7a 3dbc f931 973b b177 93bb
00000100: 650c c23a 0f33 eb3b 6924 27bb 9caa 78b9
00000110: ca4b d23a cc0e 1a3c b83b 0c3c 61b3 e63b
00000120: 2257 b23b f3b6 2bba 13a5 713b 86bd 59bc
00000130: 8d38 3e3c 7259 2cbc 5311 6abc 0eb5 5e3c
00000140: 58c3 a53b 5744 2f3c 5a11 f9bb bff1 5cbc
00000150: 48ad 59bb d7a0 7cbc 07ee 66bb 9cb8 5abc
00000160: 69b3 56bc 51eb c03b 3310 1f3c f8dc ebbb
00000170: dd21 17bc 33ad 043b ed5c b43b 81e0 0a3c
00000180: 6d35 58bc b7e1 8a3a fc60 d13b 8130 8b3b
00000190: 8a6d 773c 97ff 863b 2938 823a 5f11 7a3b
000001a0: e2d6 813b 7e8a 323c 8610 e23b 0241 1f3b
000001b0: 08da 15bc c6a3 59bc fda9 563a 7cfd 3ebc
000001c0: d392 2b3a 9af1 55bc e103 0ebb 3405 4bbc
000001d0: a72d 3e3b 4ee9 48bc 09a6 f1bb a77f 353b
000001e0: cec9 1dbc 077f 383b 3a8e 0e3b d006 5f3c
000001f0: 7498 aaba 069c 2b3c d8f1 443c 98cd 03bc
00000200: 3c89 74bc b9de 3d39 7436 10bc 0f40 34bc
00000210: 98d8 e33b ecf1 6dba 2b07 7a3c 8d92 2ebc
00000220: df99 d8bb a190 42bc f560 2bbc 0bee 12b9
00000230: 9d95 56bc f211 7abc 25ca bdb9 f9e8 14bc
00000240: 1ce8 343c c39f 1abc 9201 07bc e30b 733c
00000250: 9ca3 693c 8490 6bbc 012d 05bc 798c d0bb
00000260: 2611 103c f7ee f13b 024f 833b 800f 90ba
00000270: 073d c2bb be80 223b 0b90 51bc 5056 7ebb
00000280: 4030 3e3b dcd2 913b 7b2d 5bbb d218 43bc
00000290: 588e dbbb 610a 60bc 1ef7 1bbc c2f5 e0bb
000002a0: e229 9eb9 61ea 383c b326 3f39 9d94 70bc
000002b0: 77e2 c7bb 76ba 57ba c438 4c3c 5661 17bc
000002c0: 7949 503b b443 533c e6c6 363c 8eaa 0bbc
000002d0: 3092 bdbb 66fd bb3b 4fd0 85bb 011f 6dbb
000002e0: 2e7f c63b 9bfe 45bc dc8c 4abb 6335 d3ba
000002f0: b78e 66bc cb40 4c3c 622f 7ebb 6341 ae3b
00000300: 2f30 023c f66b f53b a8e9 14bc b641 9abb
00000310: 7c2c 12ba 2dd7 3dbb e137 233c 447c 0c3a
00000320: ea6a 733c f627 5fbb 541e f33b e53a 26bc
00000330: 7f8f 893b ff2d 2dbc e22b 2ebc fff8 123c
00000340: d349 35bc 7a79 5b3c e63b 66bc ad56 263c
00000350: 4c44 4abc 51dd 73bc 0b17 793c f963 2ebb
00000360: 19fd f0bb b6c6 bf3a be10 1abc 3478 57bc
00000370: 514f 253c b742 76bc f808 243c ac39 753b
00000380: 38e2 28bc 1888 fd3a 04b0 383b b601 003b
00000390: 317e 7d3c 613d 42bc 236e 8d3b 8379 f1bb
000003a0: 04fe d13b c74e d4b9 e8ed a2bb 2230 653c
000003b0: 78d2 1ebc 5475 173c 84e4 45bc 63ed 54bc
000003c0: 96cf c139 2910 42ba 1df2 72bc cae0 c1bb
000003d0: 4a93 7f3b 1958 853b e949 1c3c 0130 3a3c
000003e0: abe1 58bb fb0e 473b 6bea 013b c3db 08bc
000003f0: 3495 923b 4c58 b2bb 8283 9bbb 498c 1ebc
0.009606641 0.005047679 0.008941971 -0.0057927524 -0.014533059 -8.076779e-05 0.008952441 0.009869913
-0.0069109937 0.012393609 -0.011220179 0.0117413215 0.012158678 7.938316e-05 -0.011724682 -0.003065054
0.00727856 -0.0148003055 -0.0011178652 0.0025116093 0.0077932323 0.0050179567 0.0027442016 0.00843974
-0.0049415235 -0.015394366 0.013329437 -0.012848659 0.008828455 -0.014686275 0.003930265 0.008460503
-0.0011095721 -0.014640405 0.010511742 -0.0149673885 -0.00031681286 -0.011988999 -0.005784295 0.00013219663
0.013883458 -0.012473232 -0.008704343 -0.003509123 -0.0013469978 -0.0043696454 -0.00519432 0.015043304
-0.007018455 -0.0123630315 0.0003796995 -0.009593389 0.010805473 0.010573888 -0.0089710215 0.014612801
0.0040284074 -0.0008810227 -0.003678465 -0.012809671 0.013583315 -0.011564849 0.0046141115 -0.0045003523
0.0014804719 0.0071777175 -0.002550388 -0.0002371468 0.0016044315 0.009402942 0.00855916 0.0070404266
0.005442516 -0.0006550394 0.0036872074 -0.013289815 0.011610162 -0.010519372 -0.014286357 0.0135929715
0.005058687 0.010697446 -0.0076009454 -0.013485371 -0.0033214856 -0.015419207 -0.003523709 -0.013349678
-0.013104298 0.005887427 0.009708452 -0.0071979724 -0.009224382 0.0020244836 0.0055042417 0.008476377
-0.013196331 0.0010595833 0.0063897353 0.0042477255 0.0151018 0.004119824 0.000993495 0.0038157327
0.0039623836 0.010897277 0.0068989424 0.0024300222 -0.009146221 -0.013283676 0.00081887824 -0.011657115
0.0006545011 -0.013058091 -0.0021669792 -0.012391377 0.002901891 -0.012262655 -0.0073745293 0.0027694495
-0.0096306335 0.0028151886 0.0021752254 0.013612464 -0.0013015405 0.010474211 0.012020551 -0.008044623
-0.014925297 0.00018107415 -0.008802045 -0.011001601 0.00695331 -0.00090768817 0.015260498 -0.010655058
-0.0066101397 -0.0118753025 -0.010460128 -0.00014012323 -0.013097194 -0.015263068 -0.000361995 -0.009088748
0.011041667 -0.009437504 -0.0082401205 0.014834377 0.014260199 -0.014377717 -0.008128406 -0.006364402
0.008793151 0.007383223 0.004007221 -0.0010990947 -0.005927685 0.0024795975 -0.01279069 -0.003880877
0.0029020458 0.004450185 -0.0033443857 -0.011907773 -0.0067003183 -0.0136743495 -0.009519367 -0.006865234
-0.00030167314 0.011286349 0.00018229596 -0.01468387 -0.0060999948 -0.0008229384 0.012464706 -0.009239515
0.0031782074 0.01289456 0.0111558195 -0.00852455 -0.005785249 0.0057369946 -0.00408367 -0.003618181
0.0060576415 -0.012084628 -0.0030906713 -0.0016113933 -0.014072112 0.01246662 -0.0038785567 0.0053178533
0.007946058 0.0074896766 -0.009088911 -0.0047075404 -0.00055760867 -0.0028967366 0.009962053 0.0005359093
0.014857033 -0.0034050918 0.007419387 -0.0101458775 0.0041980143 -0.010570048 -0.01063058 0.008970498
-0.011064964 0.0133956615 -0.014052367 0.010152501 -0.012345385 -0.014884309 0.015203248 -0.0026609881
-0.0073543903 0.0014631364 -0.009403406 -0.013151217 0.010089711 -0.0150305545 0.010011904 0.0037418408
-0.010307841 0.0019342927 0.0028181085 0.001953227 0.015471981 -0.011855454 0.004316108 -0.0073692217
0.006408455 -0.00040494485 -0.0049722083 0.013988527 -0.009693734 0.009244282 -0.012078408 -0.0129960505
0.00036966492 -0.0007402921 -0.014828232 -0.0059166895 0.0038997703 0.00406934 0.009539106 0.011363984
-0.0033093493 0.003037392 0.0019823562 -0.0083531765 0.004473353 -0.0054426547 -0.0047459016 -0.009677001
