examples/research_projects/stack_llama_2/scripts/results/checkpoint_36/pytorch_model.bin (torch, 17916 bytes, 1 tensors)

v_head.summary.weight f4 [1, 4096]
-0.011961965 -0.00639397 -0.0044561536 -0.00064479373 0.0120615205 -0.0023446698 -0.0011416281 0.0067292005
0.010125857 0.008639674 0.010263043 -0.01469045 0.0030506153 -0.0055540297 -0.0061045513 -9.1179136e-05
-0.006429337 0.010031183 0.005863876 0.0060538366 0.004484894 -0.00087042624 0.011059092 0.0155096445
-0.002613465 0.005892497 0.00016091444 0.0122444425 0.013068674 0.0028639208 0.0073981956 0.0054250625
0.009566982 -0.0067413156 -0.0045788516 -0.0064131576 -0.015999513 0.0020945084 -0.0056306724 -0.0018265644
-0.013361635 -0.006724283 0.0040032053 -0.0096903285 0.007955439 -0.007467615 0.010588856 0.011273374
0.013777818 -0.0113770105 -0.0076270974 -0.015200131 -0.014677307 0.015164566 -0.012165693 0.0026416925
-0.013268958 0.014058602 -0.0055778185 -0.005855986 -0.016295591 0.0002765467 -0.0060830335 0.0139110265
-0.008970134 0.013440233 0.0025834756 -0.0069531295 -0.0012433236 -0.011398126 -0.010504603 0.006820777
0.015372612 -0.009650819 -0.011460277 -0.010804014 -0.01176831 -0.012257737 0.0051537487 0.0028024348
0.006527873 -0.005151356 0.008184907 -0.00587952 -0.004207178 0.014478576 -0.0053120586 -0.006185987
-0.0068547972 -0.010803414 0.015026403 0.007864505 0.0072844615 0.0069350856 -0.0029370675 0.013654877
-0.0067462674 0.009037373 0.0022338072 -0.013135291 -0.0047566113 -0.0067957966 0.0010800837 -0.013470508
-0.000611638 0.0016855918 -0.0004960444 0.0005936489 0.00174993 -0.014368242 0.012797914 1.3690418e-05
0.008438108 -0.007637124 -0.007061454 -0.014175561 0.0027023638 0.010661775 -0.0005621882 0.0068154815
0.011230047 -0.011785419 0.0022534903 0.005745588 -0.0009370754 0.006092937 -0.012469247 0.007720807
0.005209569 -0.0059417826 -0.00017618653 -0.002933887 -0.009340152 -0.0138936555 0.0014036088 0.007627331
0.012232936 -0.013638566 -0.009416458 -0.012592355 0.005965009 0.01114111 0.014342634 0.00050653704
0.0080068465 -0.006019836 -0.0024232694 -0.010119212 0.0010830446 0.010654315 -0.01117568 0.0025728545
0.0046974667 -0.011135131 0.002840973 0.014789795 0.006920217 0.011929453 -0.012375826 0.011655353
-0.0054139392 -0.0019838163 0.004162992 0.01513906 0.007621923 0.0026732045 0.005152445 0.0023755922
-0.0034738497 0.014238385 0.0145841455 0.012291205 0.004835136 0.00652248 0.010049345 -0.0059205303
-0.008757089 0.0016933833 -0.0136250565 0.0049010436 -0.014028369 -0.0023658685 0.0011597703 0.0045015872
-0.00048529846 0.01140255 0.0043152147 -0.011879785 -0.012256939 -0.00027351987 -0.012036463 0.010900719
0.011972545 0.0021249785 0.0052551995 -0.008725528 0.014722364 0.010835291 0.004908614 -0.0029173458
-0.008930728 -0.010978862 0.012027275 -0.016100544 0.0067242407 0.0032506764 0.008703031 -0.0030576235
0.00857781 -0.012796178 0.014019491 -0.015474491 -0.011426753 -0.010547819 0.0123013705 -0.00854192
0.0070113055 -0.0020461536 0.010846896 -0.0065612434 -0.015599121 -0.00074012496 0.014158826 0.0119833145
0.00441891 -0.010892131 0.0053783273 0.0074240435 0.0026766155 -0.005462982 0.0065621748 0.012443841
0.003186899 -0.0032842068 -0.013354432 -0.010167432 0.00043817773 0.012204895 0.0021273133 0.004390687
0.0043214466 -0.002799496 0.014669237 0.0028236446 0.0020836543 0.0028528923 -0.00050825125 0.0013354004
-0.010118735 0.009140334 -0.007058767 -0.0038855127 0.009666356 -0.005910215 0.00019207975 0.012221806
00000000: 1efc 43bc 8284 d1bb ed04 92bb 6007 29ba
00000010: af9d 453c 08a9 19bb afa2 95ba a080 dc3b
00000020: ece6 253c 6b8d 0d3c 5326 283c 37b0 70bc
00000030: d5ec 473b 94fe b5bb b008 c8bb 6d37 bfb8
00000040: 30ad d2bb d559 243c c225 c03b 435f c63b
00000050: 05f6 923b 512d 64ba 3231 353c 2a1c 7e3c
00000060: ab46 2bbb d915 c13b 24bb 2839 ea9c 483c
00000070: fe1d 563c 9eb0 3b3b 906c f23b b9c4 b13b
00000080: d5be 1c3c 41e6 dcbb 310a 96bb 7725 d2bb
00000090: 6911 83bc 0544 093b 8181 b8bb 5569 efba
000000a0: c2ea 5abc 6057 dcbb 522d 833b 2fc4 1ebc
000000b0: 8857 023c e5b2 f4bb e27c 2d3c f5b3 383c
000000c0: 5bbc 613c a466 3abc bbec f9bb f809 79bc
000000d0: 1679 70bc cd74 783c 9d52 47bc 3f20 2d3b
000000e0: 0b66 59bc 0d56 663c 22c6 b6bb 92e3 bfbb
000000f0: 557e 85bc 78fd 9039 2f54 c7bb 13eb 633c
00000100: 78f7 12bc 6c34 5c3c 874f 293b 14d7 e3bb
00000110: 04f7 a2ba 35bf 3abc 801b 2cbc d380 df3b
00000120: 68dd 7b3c 781e 1ebc e3c3 3bbc 5203 31bc
00000130: dfcf 40bc add4 48bc c7e0 a83b 0ea9 373b
00000140: c5e7 d53b b5cc a8bb fd19 063c fda8 c0bb
00000150: 5edc 89bb 8d37 6d3c c710 aebb d2b3 cabb
00000160: 359e e0bb cd00 31bc 4d31 763c 20da 003c
00000170: 7eb2 ee3b b73f e33b d17b 40bb b5b8 5f3c
00000180: cb0f ddbb 7d11 143c 1165 123b 6735 57bc
00000190: 59dd 9bbb 46af debb 9891 8d3a 68b3 5cbc
000001a0: 5556 20ba 13ef dc3a fa08 02ba 1a9f 1b3a
000001b0: e85d e53a c668 6bbc 58ae 513c e6af 6537
000001c0: fd3f 0a3c d740 fabb c563 e7bb 9d40 68bc
000001d0: 241a 313b baae 2e3c d05f 13ba 6754 df3b
000001e0: 3bfe 373c a117 41bc 4baf 133b 7c45 bc3b
000001f0: 11a6 75ba 43a7 c73b d04b 4cbc d3fe fc3b
00000200: 08b5 aa3b 49b3 c2bb b6be 38b9 7546 40bb
00000210: 7007 19bc 37a2 63bc 4cf9 b73a b1ee f93b
00000220: a76c 483c 4b74 5fbc 7d47 1abc 2a50 4ebc
00000230: 1f76 c33b 3489 363c 5efd 6a3c 20c9 043a
00000240: 262f 033c 0b42 c5bb b7cf 1ebb 0dcb 25bc
00000250: f2f4 8d3a 708f 2e3c 331a 37bc 569d 283b
00000260: 35ed 993b 2070 36bc 9e2f 3a3b e550 723c
00000270: fdc2 e23b c173 433c fac3 4abc 18f6 3e3c
00000280: 6a67 b1bb ea02 02bb b569 883b d209 783c
00000290: 53c1 f93b ee30 2f3b d7d5 a83b d3af 1b3b
000002a0: 87a9 63bb 1d48 693c 57f2 6e3c 0d61 493c
000002b0: 0f70 9e3b 87ba d53b 02a6 243c 0201 c2bb
000002c0: e579 0fbc 84f4 dd3a a13b 5fbc ef98 a03b
000002d0: 3fd7 65bc b00c 1bbb 6f03 983a 0d82 933b
000002e0: a86f feb9 c3d1 3a3c a566 8d3b 6ea3 42bc
000002f0: 54d1 48bc 3767 8fb9 9634 45bc ee98 323c
00000300: 7e28 443c 3943 0b3b cf33 ac3b 84f5 0ebc
00000310: 1236 713c 8186 313c 70d8 a03b f130 3fbb
00000320: 3052 12bc afe0 33bc 0c0e 453c 4ae5 83bc
00000330: 0557 dc3b 4d09 553b 2897 0e3c 6962 48bb
00000340: f189 0c3c 10a7 51bc 02b2 653c b888 7dbc
00000350: 4737 3bbc c2d0 2cbc b08b 493c 69f3 0bbc
00000360: 18bf e53b c318 06bb 2eb7 313c b3ff d6bb
00000370: 7593 7fbc f204 42ba 6cfa 673c aa55 443c
00000380: 81cc 903b e974 32bc ae3c b03b 6445 f33b
00000390: 286a 2f3b d102 b3bb 8307 d73b 41e1 4b3c
000003a0: 4bdb 503b d93b 57bb 8ccc 5abc 4d95 26bc
000003b0: 38bb e539 0af7 473c 656a 0b3b c1df 8f3b
000003c0: ec9a 8d3b c077 37bb 3d57 703c e50c 393b
000003d0: eb8d 083b 97f7 3a3b 2a3c 05ba 9a08 af3a
000003e0: 0dc9 25bc 57c1 153c 3b4d e7bb 16a4 7ebb
000003f0: a35f 1e3c 7aaa c1bb 0469 4939 f83d 483c
