examples/research_projects/stack_llama/scripts/gpt2_peft_stack-exchange-paired_rmts__100000_2e-05/checkpoint-29000/adapter_model.safetensors (safetensors, 594496 bytes, 25 tensors)

base_model.model.score.weight bf16 [1, 768]
00000000: f03c b93b 9e3c 013d 223c f9bc b0bb 3c3c
00000010: ce3b 3abc 323c 38bc 453c 433d 093d 89bc
00000020: 25bc 27bc 0fbc e03c 5cbc 80bb 933c dbbc
00000030: 7b3c bc3c 3cbc 9e3c 273d 383c 3bbb 65bc
00000040: 1abc e4bc e33c 49bc 723d 563c debc f3bc
00000050: a23c c33c 25bd 03bd 9ebc 383c 60bc 76bc
00000060: 973c f13b 233c e8bc 163b 033d cb3b 20bc
00000070: 903c e7bc 463b 91bc 0b3b 803b babc 8f3b
00000080: 9a3c 033c 293c b13c 0bbc e9bc 3ebc 4d3c
00000090: d13c aebb f53a 1d3c b53c 823a 003c aa3c
000000a0: ac3c 05bc b5bc 0dbb d0bb 98bc 95bc 69bc
000000b0: c83c c63b bb3b 80bb 64bc 203d be3c b33a
000000c0: 343b a03c 08bb 273c babc e93c 92bc 253c
000000d0: d03c 173b 5fbc bc3c 603b 07bc 86ba 0bbd
000000e0: 8a3c 3e3c 29bd 87bc 52bc 243c 753c 8bbb
000000f0: 2e3c edbc 5abc 993b b63c c83c 1f3d 033d
00000100: 1fbc 953c b8bc ef3b b7bc 9cbc 0dbb 363c
00000110: e4bc b53c c8bc 923c d53c 63bb 553b 983c
00000120: 0bbd 2d3c d1bb d9bc f33c 89bb 7f3b c9bc
00000130: 473c 993c 2ebd 5abb 9a3c bfbc 803b 8c3b
00000140: 713c 59bc 3b3c 5e3c 95bc 033d 1a3c 943b
00000150: 55bc eebb d6bc 1a3d 65bc 3c3c 733c f53c
00000160: 2d3c 82bb 823b 9abb 47bc 453c b13b eb3a
00000170: 023d 283c 853b 90bc dab9 863c 803b 80bb
00000180: 43bc b33c 023d b5bc 023d 71bc 1b3c 07bc
00000190: 4b3b 7d3b 2d3b c53c f3bc 083c 6c3b 763b
000001a0: 253b 12bb d63b 723b 7b3c 9ebc 0a3d 823b
000001b0: 36bc 853c 83bb 9d3c c03b 9d3c 3a3b 57bd
000001c0: 07bc be3c 44bd 60bc 00bd a8bc 8d3c d73b
000001d0: 38bd 1d3c 05bd 43bc 91bc 1e3c 473c 7ebc
000001e0: bfbc 903c b53c b33c 05bd c5b9 5f3c 713c
000001f0: bcbc 6dbc 85bb 80bb ae3b 903c cabc 673c
0.029296875 0.005645752 0.01928711 0.03149414 0.009887695 -0.030395508 -0.0053710938 0.011474609
0.006286621 -0.011352539 0.010864258 -0.011230469 0.012023926 0.047607422 0.033447266 -0.016723633
-0.010070801 -0.010192871 -0.008728027 0.02734375 -0.013427734 -0.00390625 0.017944336 -0.026733398
0.015319824 0.022949219 -0.011474609 0.01928711 0.040771484 0.011230469 -0.0028533936 -0.013977051
-0.009399414 -0.027832031 0.027709961 -0.012268066 0.05908203 0.013061523 -0.02709961 -0.029663086
0.01977539 0.023803711 -0.040283203 -0.031982422 -0.01928711 0.011230469 -0.013671875 -0.015014648
0.018432617 0.0073547363 0.0099487305 -0.028320312 0.0022888184 0.031982422 0.0061950684 -0.009765625
0.017578125 -0.028198242 0.0030212402 -0.017700195 0.0021209717 0.00390625 -0.022705078 0.0043640137
0.018798828 0.0079956055 0.010314941 0.021606445 -0.008483887 -0.028442383 -0.01159668 0.012512207
0.025512695 -0.0053100586 0.0018692017 0.0095825195 0.022094727 0.0009918213 0.0078125 0.020751953
0.020996094 -0.008117676 -0.022094727 -0.0021514893 -0.0063476562 -0.018554688 -0.018188477 -0.014221191
0.024414062 0.0060424805 0.005706787 -0.00390625 -0.013916016 0.0390625 0.02319336 0.0013656616
0.002746582 0.01953125 -0.0020751953 0.010192871 -0.022705078 0.028442383 -0.017822266 0.010070801
0.025390625 0.0023040771 -0.01361084 0.022949219 0.0034179688 -0.008239746 -0.0010223389 -0.033935547
0.016845703 0.01159668 -0.041259766 -0.016479492 -0.012817383 0.010009766 0.014953613 -0.0042419434
0.010620117 -0.028930664 -0.013305664 0.0046691895 0.022216797 0.024414062 0.03881836 0.031982422
-0.00970459 0.018188477 -0.022460938 0.007293701 -0.022338867 -0.019042969 -0.0021514893 0.011108398
-0.027832031 0.022094727 -0.024414062 0.017822266 0.026000977 -0.0034637451 0.003250122 0.018554688
-0.033935547 0.010559082 -0.006378174 -0.026489258 0.029663086 -0.004180908 0.0038909912 -0.024536133
0.012145996 0.018676758 -0.04248047 -0.003326416 0.018798828 -0.02331543 0.00390625 0.004272461
0.014709473 -0.013244629 0.011413574 0.013549805 -0.018188477 0.031982422 0.009399414 0.0045166016
-0.013000488 -0.0072631836 -0.026123047 0.037597656 -0.013977051 0.011474609 0.014831543 0.029907227
0.010559082 -0.003967285 0.003967285 -0.004699707 -0.012145996 0.012023926 0.0054016113 0.0017929077
0.03173828 0.010253906 0.004058838 -0.017578125 -0.000415802 0.016357422 0.00390625 -0.00390625
-0.0119018555 0.021850586 0.03173828 -0.022094727 0.03173828 -0.014709473 0.009460449 -0.008239746
0.0030975342 0.0038604736 0.0026397705 0.024047852 -0.029663086 0.008300781 0.0036010742 0.003753662
0.0025177002 -0.0022277832 0.0065307617 0.003692627 0.015319824 -0.01928711 0.033691406 0.003967285
-0.011108398 0.016235352 -0.0039978027 0.019165039 0.005859375 0.019165039 0.0028381348 -0.052490234
-0.008239746 0.02319336 -0.047851562 -0.013671875 -0.03125 -0.020507812 0.017211914 0.0065612793
-0.044921875 0.0095825195 -0.032470703 -0.0119018555 -0.017700195 0.009643555 0.012145996 -0.01550293
-0.02331543 0.017578125 0.022094727 0.021850586 -0.032470703 -0.00037574768 0.01361084 0.014709473
-0.022949219 -0.014465332 -0.004058838 -0.00390625 0.0053100586 0.017578125 -0.024658203 0.014099121

base_model.model.transformer.h.0.attn.c_attn.lora_A.weight bf16 [8, 768]
00000000: d6bc e53c e7bc 80bb 0a3d 903c abbb 833c
00000010: 103c 36bc 1abc 33bc 08bd c0bc 8b3b 9d3c
00000020: edbc d53c 043d a5bc 7f3c c63c 94bc 923c
00000030: 063d df3c 0abd 7e3b 8fbb 873c 8f3b b2bc
00000040: 08bd 1abc 803b c4bc 603c 3bbc 39bc 9abc
00000050: c5bc bf3c e33c 923b 99bc 00bb f3bb 863c
00000060: 04bc a0bc bc3c 2fbc db3c 8e3b ac3c 293b
00000070: 07bc 80bb 87bb 803b 82bb 863c 163b 78bb
00000080: 953b a53b 093d 203c 023d 733c cc3c ccbc
00000090: d13c a0bc 723b 023d 753b 9d3c 8abb ccbc
000000a0: e73c a5bc 103d a2bb 78bc f6bc af3c f0bc
000000b0: a4bb 133b 6b3c 79bc 123c d7bc 703c 28bc
000000c0: a63c 043d 043d d2bc 03bd 523c bfbc bbbb
000000d0: 873c a23c e5bb bb3c 84bc cdbb a33c d13b
000000e0: 043d 9e3c db3c 203c 7b3b 03bc e83c 7fbb
000000f0: 843b bdbc 333b 663b 1b3c 973c 6b3c 0dbd
00000100: f4bc ca3c 0ebd 9a3c d53a 533c dcbc 423c
00000110: 94bc 123d 6abc e7bb 09bb 1c3c 7cbc 043d
00000120: a8bc 803b 3a3c 10bd f1bc b63c 113d 923c
00000130: a5bc 093c 0ebd 813b d3bc 32bc b63c 053d
00000140: 4bbc c83c 07bd 903b 713c afbc ad3c e63c
00000150: cc3b a73c f33c 093c 913c 9abb 82bb 3b3c
00000160: 0c3d f2bc e23c 153c a9bc 7c3c 7cbb 36bc
00000170: 073d fd3b e9bc fb3c 7fbc b93c b03c e8bb
00000180: 083d 823b cf3c aa3c b0bc d33c 14bc b4bb
00000190: a83c 273c 113d c73c 823b 103d 4cbc dcbc
000001a0: 66bc adbc 5a3b 63bc eabc 853b 88bc 37bb
000001b0: 4abc 91bc 113d b23b 97bb e8bb f43c e2bc
000001c0: d93c 133d 4ebc 9ebc 813c 033d 82bb f93c
000001d0: 14bc 11bd 933c 0d3d 19bc fbbb 033c 053d
000001e0: 043d adbc d73c 88bc 26bc f13b d93c a8bc
000001f0: 953b bbbc 02bd 94bc 28bc c7bc debc fbbb
-0.026123047 0.027954102 -0.028198242 -0.00390625 0.033691406 0.017578125 -0.005218506 0.015991211
0.0087890625 -0.011108398 -0.009399414 -0.010925293 -0.033203125 -0.0234375 0.0042419434 0.019165039
-0.028930664 0.026000977 0.032226562 -0.020141602 0.015563965 0.024169922 -0.018066406 0.017822266
0.032714844 0.02722168 -0.033691406 0.0038757324 -0.0043640137 0.016479492 0.0043640137 -0.021728516
-0.033203125 -0.009399414 0.00390625 -0.023925781 0.013671875 -0.011413574 -0.011291504 -0.018798828
-0.024047852 0.02331543 0.027709961 0.0044555664 -0.018676758 -0.001953125 -0.0074157715 0.016357422
-0.008056641 -0.01953125 0.022949219 -0.010681152 0.026733398 0.004333496 0.020996094 0.0025787354
-0.008239746 -0.00390625 -0.004119873 0.00390625 -0.003967285 0.016357422 0.0022888184 -0.0037841797
0.004547119 0.0050354004 0.033447266 0.009765625 0.03173828 0.014831543 0.024902344 -0.024902344
0.025512695 -0.01953125 0.003692627 0.03173828 0.0037384033 0.019165039 -0.004211426 -0.024902344
0.028198242 -0.020141602 0.03515625 -0.0049438477 -0.015136719 -0.030029297 0.021362305 -0.029296875
-0.005004883 0.002243042 0.014343262 -0.015197754 0.008911133 -0.026245117 0.0146484375 -0.010253906
0.020263672 0.032226562 0.032226562 -0.025634766 -0.031982422 0.012817383 -0.02331543 -0.005706787
0.016479492 0.01977539 -0.0069885254 0.022827148 -0.016113281 -0.0062561035 0.019897461 0.006378174
0.032226562 0.01928711 0.026733398 0.009765625 0.003829956 -0.0079956055 0.028320312 -0.0038909912
0.0040283203 -0.023071289 0.0027313232 0.0035095215 0.009460449 0.018432617 0.014343262 -0.034423828
-0.029785156 0.024658203 -0.03466797 0.018798828 0.001625061 0.012878418 -0.026855469 0.01184082
-0.018066406 0.03564453 -0.014282227 -0.0070495605 -0.002090454 0.009521484 -0.015380859 0.032226562
-0.020507812 0.00390625 0.011352539 -0.03515625 -0.029418945 0.022216797 0.03540039 0.017822266
-0.020141602 0.008361816 -0.03466797 0.0039367676 -0.025756836 -0.010864258 0.022216797 0.032470703
-0.012390137 0.024414062 -0.032958984 0.0043945312 0.014709473 -0.021362305 0.021118164 0.028076172
0.006225586 0.020385742 0.029663086 0.008361816 0.017700195 -0.004699707 -0.003967285 0.011413574
0.034179688 -0.029541016 0.02758789 0.009094238 -0.020629883 0.015380859 -0.0038452148 -0.011108398
0.032958984 0.0077209473 -0.028442383 0.030639648 -0.015563965 0.022583008 0.021484375 -0.007080078
0.033203125 0.003967285 0.025268555 0.020751953 -0.021484375 0.025756836 -0.009033203 -0.005493164
0.020507812 0.010192871 0.03540039 0.024291992 0.003967285 0.03515625 -0.012451172 -0.026855469
-0.014038086 -0.021118164 0.003326416 -0.0138549805 -0.028564453 0.004058838 -0.016601562 -0.0027923584
-0.012329102 -0.017700195 0.03540039 0.005432129 -0.0046081543 -0.007080078 0.029785156 -0.02758789
0.026489258 0.035888672 -0.012573242 -0.01928711 0.01574707 0.031982422 -0.003967285 0.030395508
-0.009033203 -0.03540039 0.017944336 0.034423828 -0.009338379 -0.007659912 0.0079956055 0.032470703
0.032226562 -0.021118164 0.026245117 -0.016601562 -0.010131836 0.0073547363 0.026489258 -0.020507812
0.004547119 -0.022827148 -0.03173828 -0.018066406 -0.010253906 -0.024291992 -0.02709961 -0.007659912

base_model.model.transformer.h.0.attn.c_attn.lora_B.weight bf16 [2304, 8]
00000000: f9ba ddba 203a d539 deba d7ba bc3a ef3a
00000010: 01bb 0eb9 903a 0f3b 8aba f9ba bab9 743a
00000020: cc3a 173b d53a 4f3a 0a3b c33a e5ba adba
00000030: 043b 8b3a 99b9 db3a 0b3b e3b9 f7ba aeba
00000040: 97ba 90b9 8f39 c3ba 833a c33a 983a 0aba
00000050: 91ba e13a b63a 783a 9aba dcba a7ba d139
00000060: 833a cf3a bc3a 933a b0b9 cbba 99ba ceba
00000070: 1739 bc3a 7539 2f3a aeb9 faba 14ba 89ba
00000080: ecba b5ba e139 6b3a 69b9 043a e039 b4ba
00000090: 2239 40ba 083a deba 89ba 99b9 deb9 a238
000000a0: 553a f1ba 04bb 033b fd3a b7b9 feba 00bb
000000b0: f3b9 8f3a 113a a43a 00bb 7aba 0bba 2a3a
000000c0: 9b3a 8b3a 28ba cb3a f53a 14ba dfba d2ba
000000d0: 933a f43a 8d3a 7fba 41ba 823a 8eba 51ba
000000e0: b6ba 00bb eeba e73a 163a e13a be3a 4d39
000000f0: 4c3a d73a 093b f139 01bb 97ba 79ba 913a
00000100: 9bba b139 993a 97ba 8a39 b439 8fba bb39
00000110: a7ba 0fbb 92ba d7ba 8a3a d739 ce3a d63a
00000120: 89ba a43a 003b 01bb f7ba fcba 0638 053b
00000130: 553a dc3a 063b 05bb 05bb f3ba 4937 553a
00000140: ecba 0cbb 96ba faba a1ba 10ba 0e3b dc3a
00000150: 9dba d7ba 933a d3ba efba 53ba fc3a 663a
00000160: b9ba 11bb 8d3a 003b ecba 7dba 063b 5cb9
00000170: 303a f139 f53a afb9 05ba 563a 6cba a4ba
00000180: c73a 093b 9aba faba 133a ec3a fcb9 683a
00000190: 15b9 f6ba 1cbb 7bba d73a ccba 423a c839
000001a0: 763a b33a 023b d138 21ba 28ba b4ba 87ba
000001b0: 433a 89ba de3a 1f3a eeba e1ba a3ba 98ba
000001c0: d53a cd3a 63b9 92ba c6ba c2ba db3a 033b
000001d0: 95ba c5ba 8eba a93a 8d3a 97ba 9c3a d43a
000001e0: 19b8 c1ba f1ba a9ba 003b 003b a03a 27b9
000001f0: da3a 5cba 533a c23a 70b9 71ba adba 9939
-0.0018997192 -0.0016860962 0.00061035156 0.00040626526 -0.0016937256 -0.0016403198 0.0014343262 0.0018234253
-0.0019683838 -0.00013542175 0.0010986328 0.0021820068 -0.0010528564 -0.0018997192 -0.00035476685 0.00093078613
0.0015563965 0.0023040771 0.001625061 0.00078964233 0.002105713 0.0014877319 -0.0017471313 -0.0013198853
0.0020141602 0.0010604858 -0.00029182434 0.0016708374 0.0021209717 -0.00043296814 -0.0018844604 -0.0013275146
-0.0011520386 -0.0002746582 0.00027275085 -0.0014877319 0.0009994507 0.0014877319 0.001159668 -0.0005264282
-0.0011062622 0.0017166138 0.0013885498 0.0009460449 -0.0011749268 -0.0016784668 -0.0012741089 0.00039863586
0.0009994507 0.0015792847 0.0014343262 0.001121521 -0.00033569336 -0.0015487671 -0.0011672974 -0.0015716553
0.00014400482 0.0014343262 0.00023365021 0.000667572 -0.00033187866 -0.0019073486 -0.0005645752 -0.001045227
-0.0018005371 -0.0013809204 0.00042915344 0.00089645386 -0.00022220612 0.00050354004 0.0004272461 -0.001373291
0.00015449524 -0.0007324219 0.0005187988 -0.0016937256 -0.001045227 -0.00029182434 -0.0004234314 7.724762e-05
0.0008125305 -0.0018386841 -0.0020141602 0.0019989014 0.0019302368 -0.0003490448 -0.0019378662 -0.001953125
-0.00046348572 0.0010910034 0.0005531311 0.0012512207 -0.001953125 -0.0009536743 -0.0005302429 0.00064849854
0.0011825562 0.0010604858 -0.00064086914 0.0015487671 0.0018692017 -0.0005645752 -0.001701355 -0.0016021729
0.001121521 0.0018615723 0.0010757446 -0.0009727478 -0.0007362366 0.0009918213 -0.001083374 -0.0007972717
-0.0013885498 -0.001953125 -0.0018157959 0.0017623901 0.0005722046 0.0017166138 0.001449585 0.00019550323
0.00077819824 0.0016403198 0.002090454 0.00045967102 -0.0019683838 -0.0011520386 -0.0009498596 0.0011062622
-0.0011825562 0.0003376007 0.0011672974 -0.0011520386 0.0002632141 0.00034332275 -0.0010910034 0.0003566742
-0.0012741089 -0.0021820068 -0.0011138916 -0.0016403198 0.0010528564 0.00041007996 0.0015716553 0.0016326904
-0.001045227 0.0012512207 0.001953125 -0.0019683838 -0.0018844604 -0.0019226074 3.194809e-05 0.002029419
0.0008125305 0.0016784668 0.0020446777 -0.002029419 -0.002029419 -0.0018539429 1.1980534e-05 0.0008125305
-0.0018005371 -0.0021362305 -0.0011444092 -0.0019073486 -0.0012283325 -0.0005493164 0.002166748 0.0016784668
-0.0011978149 -0.0016403198 0.001121521 -0.0016098022 -0.0018234253 -0.0008049011 0.0019226074 0.0008773804
-0.001411438 -0.0022125244 0.0010757446 0.001953125 -0.0018005371 -0.0009651184 0.0020446777 -0.00020980835
0.0006713867 0.00045967102 0.0018692017 -0.000333786 -0.00050735474 0.0008163452 -0.00090026855 -0.0012512207
0.0015182495 0.002090454 -0.0011749268 -0.0019073486 0.0005607605 0.0018005371 -0.00048065186 0.00088500977
-0.00014209747 -0.001876831 -0.002380371 -0.000957489 0.0016403198 -0.0015563965 0.00074005127 0.00038146973
0.0009384155 0.0013656616 0.0019836426 9.9658966e-05 -0.00061416626 -0.00064086914 -0.001373291 -0.0010299683
0.00074386597 -0.001045227 0.0016937256 0.00060653687 -0.0018157959 -0.0017166138 -0.0012435913 -0.001159668
0.001625061 0.0015640259 -0.00021648407 -0.0011138916 -0.0015106201 -0.0014801025 0.0016708374 0.0019989014
-0.0011367798 -0.0015029907 -0.001083374 0.0012893677 0.0010757446 -0.0011520386 0.0011901855 0.0016174316
-3.6478043e-05 -0.0014724731 -0.0018386841 -0.0012893677 0.001953125 0.001953125 0.0012207031 -0.00015926361
0.001663208 -0.0008392334 0.0008049011 0.0014801025 -0.00022888184 -0.00091934204 -0.0013198853 0.00029182434

base_model.model.transformer.h.1.attn.c_attn.lora_A.weight bf16 [8, 768]
00000000: be3c a93c d7bc 053c 0abd b13c a0bc 2dbc
00000010: eebc 043d 123d 163c 7cbb 85bb a83c b33c
00000020: 2ebc 973b 00bc cd3c 363c adbc a2bc 843c
00000030: 5a3c 30bc f8bb 25bc 9ebc 1d3c d23c 71bc
00000040: 393c aabc 6c3c a13b 163c 05bc 0b3d cabc
00000050: 063c 09bd ed3c 343c a1bb 133d a6bc f23c
00000060: bb3b 853c 6d3c 83bc d23b b4bc 87bc b33c
00000070: 8d3c 13bd 6b3c d03c 3b3b 09bc a83b 513b
00000080: 4abc 793c d03c fe3c c5bc 0bbc 113d 823c
00000090: afbc 3fbb 933c 79bc 02bd 643c c2bc 9cbc
000000a0: 813c 9fbb 00bc eb3b b2bc a6bc 9abb f63c
000000b0: c33c 223c eeba 00bc 853b b73b cd3b 0dbd
000000c0: a33c 5abb 983c 0e3d fe3c 8e3c 7cbb efbc
000000d0: 123d 003c a33c 363c c53c cabc c5bc 6cbb
000000e0: 0dbd a7ba fabc 49bc f8bc 2bbc c33c b1bb
000000f0: 1a3c 95bb f7bb f7bc cfbc cebc 8c3c 793b
00000100: 0d3d 8a3b c6bc aa3c a2bc edbc 7abc 003d
00000110: 463c 113d f7bc 403c 05bd 9f3c d63c 5bbc
00000120: bb3c 7d3c 3a3c b4bc 7e3c 5fbc 5d3c 6bbc
00000130: bd3c 593c c1bc 103d 893b b93b 14bd 8c3c
00000140: de3c bebc a7bc fbbb 90bc 3bbc df3b 043d
00000150: d3bb 02bd 373c be3c 07bd 873c 043d afbb
00000160: b4bc cd3a 09bd 42bc 5bbc b4bc 09bd edbc
00000170: d03b 283b bd3b c13c 8fbc 73bc 673c deba
00000180: 0a3d f0bc 72bb 7c3c c83b 343c 463c 06bd
00000190: 073d c03c c1bc cc3c 4a3c 4abc 003c 723b
000001a0: 8abb 443c d23c ff3c ebba 3a3c 9e3c 9e3c
000001b0: b8bc 993b 0f3d 013d 943c 173c b23c 093d
000001c0: 5a3b e93c fd3c 81bc 7fbb 703c 33bc da3c
000001d0: e5bc b0bc 103d c2bc e83c 043d 763c 0b3c
000001e0: e6bb 7bbb 6e3b 0abc dd3a 343c 863c e53c
000001f0: 753c e33c 093c 113c c03c 903b c6bc a3bc
0.02319336 0.020629883 -0.026245117 0.008117676 -0.033691406 0.021606445 -0.01953125 -0.010559082
-0.029052734 0.032226562 0.03564453 0.009155273 -0.0038452148 -0.004058838 0.020507812 0.021850586
-0.010620117 0.0046081543 -0.0078125 0.025024414 0.011108398 -0.021118164 -0.01977539 0.016113281
0.013305664 -0.0107421875 -0.0075683594 -0.010070801 -0.01928711 0.0095825195 0.025634766 -0.014709473
0.011291504 -0.020751953 0.014404297 0.00491333 0.009155273 -0.008117676 0.033935547 -0.024658203
0.008178711 -0.033447266 0.028930664 0.010986328 -0.00491333 0.035888672 -0.020263672 0.029541016
0.005706787 0.016235352 0.014465332 -0.015991211 0.0064086914 -0.021972656 -0.016479492 0.021850586
0.017211914 -0.035888672 0.014343262 0.025390625 0.0028533936 -0.008361816 0.005126953 0.003189087
-0.012329102 0.015197754 0.025390625 0.03100586 -0.024047852 -0.008483887 0.03540039 0.01586914
-0.021362305 -0.0029144287 0.017944336 -0.015197754 -0.03173828 0.013916016 -0.02368164 -0.019042969
0.01574707 -0.004852295 -0.0078125 0.007171631 -0.021728516 -0.020263672 -0.004699707 0.030029297
0.023803711 0.009887695 -0.0018157959 -0.0078125 0.004058838 0.005584717 0.0062561035 -0.034423828
0.019897461 -0.003326416 0.018554688 0.03466797 0.03100586 0.017333984 -0.0038452148 -0.029174805
0.03564453 0.0078125 0.019897461 0.011108398 0.024047852 -0.024658203 -0.024047852 -0.0036010742
-0.034423828 -0.0012741089 -0.030517578 -0.012268066 -0.030273438 -0.010437012 0.023803711 -0.0054016113
0.009399414 -0.004547119 -0.007537842 -0.030151367 -0.025268555 -0.025146484 0.017089844 0.0037994385
0.034423828 0.004211426 -0.024169922 0.020751953 -0.01977539 -0.028930664 -0.015258789 0.03125
0.012084961 0.03540039 -0.030151367 0.01171875 -0.032470703 0.01940918 0.026123047 -0.013366699
0.022827148 0.0154418945 0.011352539 -0.021972656 0.01550293 -0.01361084 0.0134887695 -0.014343262
0.023071289 0.013244629 -0.02355957 0.03515625 0.004180908 0.005645752 -0.036132812 0.017089844
0.02709961 -0.02319336 -0.020385742 -0.007659912 -0.017578125 -0.011413574 0.00680542 0.032226562
-0.006439209 -0.03173828 0.011169434 0.02319336 -0.032958984 0.016479492 0.032226562 -0.005340576
-0.021972656 0.0015640259 -0.033447266 -0.01184082 -0.013366699 -0.021972656 -0.033447266 -0.028930664
0.0063476562 0.0025634766 0.0057678223 0.02355957 -0.017456055 -0.014831543 0.014099121 -0.0016937256
0.033691406 -0.029296875 -0.003692627 0.015380859 0.0061035156 0.010986328 0.012084961 -0.032714844
0.032958984 0.0234375 -0.02355957 0.024902344 0.012329102 -0.012329102 0.0078125 0.003692627
-0.004211426 0.011962891 0.025634766 0.03112793 -0.0017929077 0.011352539 0.01928711 0.01928711
-0.022460938 0.0046691895 0.03491211 0.03149414 0.018066406 0.009216309 0.021728516 0.033447266
0.003326416 0.028442383 0.030883789 -0.01574707 -0.0038909912 0.0146484375 -0.010925293 0.026611328
-0.027954102 -0.021484375 0.03515625 -0.02368164 0.028320312 0.032226562 0.015014648 0.008483887
-0.007019043 -0.003829956 0.0036315918 -0.008422852 0.0016860962 0.010986328 0.016357422 0.027954102
0.014953613 0.027709961 0.008361816 0.008850098 0.0234375 0.0043945312 -0.024169922 -0.019897461

base_model.model.transformer.h.1.attn.c_attn.lora_B.weight bf16 [2304, 8]
00000000: a9ba afba 41ba a8b9 83ba a7ba 02ba beba
00000010: 833a fd3a 953a 9a39 843a adba 1a3a eb3a
00000020: b2ba 05bb 9c3a aaba 25ba d3ba 873a 83ba
00000030: 85ba fc39 6639 2a3a ff3a 92ba 7eba f63a
00000040: 15b9 933a d8ba 8439 99b9 a2ba c9ba 8b3a
00000050: abb9 3eba 113b 01ba 53ba 993a dc3a 523a
00000060: 81ba aeba f4ba a4ba 00bb 0bbb a9ba 3f3a
00000070: 9b38 f9ba 00ba 02bb 2cba 86ba b538 c2ba
00000080: c73a 573a 06b8 8fb8 ffba d03a 38ba 0cbb
00000090: ee3a 103b 8f3a 073b f13a 003b d238 013b
000000a0: 85ba 75b9 013b 993a fd3a 053a f03a 053b
000000b0: 063b dc3a 0438 013a 2639 003b 7fb9 f0ba
000000c0: 003b 8e3a 09bb 18ba efba bd3a ec39 03bb
000000d0: 58ba 05ba 9239 19ba 543a bcba ab3a 873a
000000e0: 0fba 00bb 93ba 96ba 433a 9aba c2ba 973a
000000f0: a1ba b739 26ba 6939 cab9 d2b9 8eba 2f39
00000100: 883a 4839 efb9 d33a 073b 433a cbb8 ddba
00000110: b43a 993a f6ba 38ba 9cba 2cb8 3f3a 00bb
00000120: 71ba 003b 003b dd3a 003b 063b b339 033b
00000130: 76ba 0bbb 52ba 33ba bb3a 9dba aeba ce3a
00000140: 85ba 1dbb b4ba f9ba b6ba 88ba a6ba bc3a
00000150: efba 09bb e8ba adba 88ba f4ba fc38 c4ba
00000160: 03bb 08bb 00bb 0bbb 10bb fcba 90ba 0cbb
00000170: 3c3a 7d39 f9ba 32ba dfba a83a 9eba 24ba
00000180: 243a 243b 603a 053b 0d3b 063b 06ba 1d3b
00000190: e5ba 0abb 89ba a8ba 80ba b8ba 83ba fbb8
000001a0: 5a3a f2b9 073b b13a 003b 8e3a 053b 58ba
000001b0: 08bb 313a 2ab9 b6ba d6ba fdba afba 593a
000001c0: 553a ca3a 5239 4d39 953a c23a 9e3a d03a
000001d0: d43a ba3a ec3a fe3a da3a 6b3a e03a 013b
000001e0: 433a fe3a 023b e13a 183b 0c3b 8239 0b3b
000001f0: 80ba 29ba 1bba 82b7 f539 68ba 5eba 8b3a
-0.0012893677 -0.001335144 -0.0007362366 -0.00032043457 -0.0009994507 -0.0012741089 -0.00049591064 -0.001449585
0.0009994507 0.0019302368 0.0011367798 0.0002937317 0.0010070801 -0.0013198853 0.0005874634 0.0017929077
-0.0013580322 -0.002029419 0.0011901855 -0.0012969971 -0.00062942505 -0.0016098022 0.0010299683 -0.0009994507
-0.0010147095 0.00048065186 0.0002193451 0.00064849854 0.0019454956 -0.0011138916 -0.0009689331 0.001876831
-0.00014209747 0.001121521 -0.0016479492 0.00025177002 -0.00029182434 -0.0012359619 -0.0015335083 0.0010604858
-0.00032615662 -0.0007247925 0.0022125244 -0.00049209595 -0.0008049011 0.0011672974 0.0016784668 0.0008010864
-0.0009841919 -0.0013275146 -0.0018615723 -0.0012512207 -0.001953125 -0.0021209717 -0.0012893677 0.0007286072
7.390976e-05 -0.0018997192 -0.00048828125 -0.0019836426 -0.00065612793 -0.0010223389 8.6307526e-05 -0.0014801025
0.0015182495 0.0008201599 -3.194809e-05 -6.818771e-05 -0.0019454956 0.0015869141 -0.0007019043 -0.0021362305
0.0018157959 0.0021972656 0.0010910034 0.0020599365 0.0018386841 0.001953125 0.0001001358 0.0019683838
-0.0010147095 -0.00023365021 0.0019683838 0.0011672974 0.0019302368 0.00050735474 0.0018310547 0.002029419
0.0020446777 0.0016784668 3.1471252e-05 0.00049209595 0.00015830994 0.001953125 -0.00024318695 -0.0018310547
0.001953125 0.001083374 -0.002090454 -0.000579834 -0.0018234253 0.0014419556 0.00045013428 -0.0019989014
-0.0008239746 -0.00050735474 0.0002784729 -0.0005836487 0.0008087158 -0.0014343262 0.0013046265 0.0010299683
-0.0005455017 -0.001953125 -0.001121521 -0.0011444092 0.00074386597 -0.0011749268 -0.0014801025 0.0011520386
-0.0012283325 0.0003490448 -0.00063323975 0.00022220612 -0.00038528442 -0.0004005432 -0.001083374 0.000166893
0.0010375977 0.00019073486 -0.00045585632 0.0016098022 0.0020599365 0.00074386597 -9.679794e-05 -0.0016860962
0.001373291 0.0011672974 -0.001876831 -0.0007019043 -0.0011901855 -4.1007996e-05 0.0007286072 -0.001953125
-0.00091934204 0.001953125 0.001953125 0.0016860962 0.001953125 0.0020446777 0.0003414154 0.0019989014
-0.0009384155 -0.0021209717 -0.0008010864 -0.0006828308 0.0014266968 -0.0011978149 -0.0013275146 0.0015716553
-0.0010147095 -0.0023956299 -0.001373291 -0.0018997192 -0.0013885498 -0.0010375977 -0.0012664795 0.0014343262
-0.0018234253 -0.002090454 -0.0017700195 -0.0013198853 -0.0010375977 -0.0018615723 0.000120162964 -0.0014953613
-0.0019989014 -0.0020751953 -0.001953125 -0.0021209717 -0.0021972656 -0.0019226074 -0.0010986328 -0.0021362305
0.0007171631 0.0002412796 -0.0018997192 -0.0006790161 -0.001701355 0.0012817383 -0.0012054443 -0.00062561035
0.00062561035 0.0025024414 0.0008544922 0.002029419 0.0021514893 0.0020446777 -0.00051116943 0.0023956299
-0.0017471313 -0.002105713 -0.001045227 -0.0012817383 -0.0009765625 -0.0014038086 -0.0009994507 -0.00011968613
0.000831604 -0.00046157837 0.0020599365 0.0013504028 0.001953125 0.001083374 0.002029419 -0.0008239746
-0.0020751953 0.0006752014 -0.00016212463 -0.0013885498 -0.0016326904 -0.0019302368 -0.001335144 0.0008277893
0.0008125305 0.0015411377 0.0002002716 0.00019550323 0.0011367798 0.0014801025 0.0012054443 0.0015869141
0.0016174316 0.0014190674 0.0018005371 0.0019378662 0.001663208 0.00089645386 0.0017089844 0.0019683838
0.00074386597 0.0019378662 0.0019836426 0.0017166138 0.002319336 0.0021362305 0.00024795532 0.0021209717
-0.0009765625 -0.00064468384 -0.0005912781 -1.5497208e-05 0.00046730042 -0.00088500977 -0.0008468628 0.0010604858

base_model.model.transformer.h.10.attn.c_attn.lora_A.weight bf16 [8, 768]
00000000: 72bc f8bc 903c 503c de3b e9bb 12bd a8bc
00000010: 38bc a93c 83bb 00bc adbb 85bb 7abb b6bc
00000020: 06bd b43c eabc 80bb 883b 00bc da3c d4bc
00000030: 0cbd 9fbb c43c 9a3c 6f3c 2e3c 643c fc3b
00000040: 003d 95bc d63b 0b3d ddbc 6bbc 99bc 063d
00000050: 0abd a8bc 05bd acbb 2bbb a43c c53c 3bbc
00000060: 913c b73c 90bc ecbc df3c 643c f23c b6bc
00000070: bdbc 06bc 5dbc e23c f7bb b1bc 85bc 0e3d
00000080: 693c 11bd e73b fcbc 90bc d5bc b6bc a13c
00000090: e93b a8bc 0e3d 00bc 8a3b 843c 823c 9fbc
000000a0: 9bbb 4bbc ff3b c13c 62bc ddbc 9b3c bb3b
000000b0: e03c a13c 0b3d 193c a4bc cdbc 803b 653c
000000c0: 053d bd3c 0abd 63bc a03c d93c a63c 1f3b
000000d0: 21bb b0bc f9bc 52bc fa3c 9dbb b0bc fd3b
000000e0: b93b 94bc 873c 56bc a6bc 7f3b 083d b53b
000000f0: ed3c febc 05bd b03b f63b d8bc d2bc cdbc
00000100: 933c 5abc 0bbd 253b 10bd 01bb 0f3d 5abc
00000110: 20bc 053d bcbc 29bc c13c 813c 133d b03b
00000120: b8bc b43c 033d e4bb abbc 95bc 06bd 85bb
00000130: 94bc dd3c c83c e9bc e23c ed3c f63c e73b
00000140: 353c 9bb9 38bc 003c 8abc cbbc 513c dc3c
00000150: 523c aabb 7e3b b43c 10bd cd3c 003c 0fbc
00000160: ff3b 0f3d 563c f73c 813b a43c 1bbc bdbc
00000170: b4bb 1b3c 1b3c ad3b 003c 8e3b 363c 1d3c
00000180: 083d 14bd 113d 653c 493c 9f3c 6cbc 0f3c
00000190: 943c 1a3c 723b f4bc 7a3c 0bbd b8bc eebc
000001a0: 803b febc adbb 803b fe3c b13c 253c 6d3a
000001b0: abbb e93c 46bc c2bc 9abc eabc efbb 003c
000001c0: 0ebd a5bc 8d3c f83c 3e3c debc e93c ef3c
000001d0: e6bc 00bc 6c3c 00bc 87bc 0fbd a7bc e6bc
000001e0: 61bc d1bc 5cbc 00bc ac3b 2bbc 873c c03c
000001f0: e8bc aabc a83c afbc 01bd 7a3c d9bc 91bb
-0.014770508 -0.030273438 0.017578125 0.0126953125 0.0067749023 -0.0071105957 -0.03564453 -0.020507812
-0.011230469 0.020629883 -0.0039978027 -0.0078125 -0.005279541 -0.004058838 -0.0038146973 -0.022216797
-0.032714844 0.021972656 -0.028564453 -0.00390625 0.0041503906 -0.0078125 0.026611328 -0.025878906
-0.034179688 -0.004852295 0.023925781 0.018798828 0.014587402 0.010620117 0.013916016 0.0076904297
0.03125 -0.018188477 0.0065307617 0.033935547 -0.026977539 -0.014343262 -0.018676758 0.032714844
-0.033691406 -0.020507812 -0.032470703 -0.0052490234 -0.002609253 0.020019531 0.024047852 -0.011413574
0.017700195 0.022338867 -0.017578125 -0.028808594 0.02722168 0.013916016 0.029541016 -0.022216797
-0.023071289 -0.008178711 -0.0134887695 0.02758789 -0.007537842 -0.021606445 -0.016235352 0.03466797
0.014221191 -0.03540039 0.0070495605 -0.030761719 -0.017578125 -0.026000977 -0.022216797 0.01965332
0.0071105957 -0.020507812 0.03466797 -0.0078125 0.004211426 0.016113281 0.01586914 -0.01940918
-0.0047302246 -0.012390137 0.0077819824 0.02355957 -0.013793945 -0.026977539 0.018920898 0.005706787
0.02734375 0.01965332 0.033935547 0.009338379 -0.020019531 -0.025024414 0.00390625 0.013977051
0.032470703 0.023071289 -0.033691406 -0.0138549805 0.01953125 0.026489258 0.020263672 0.0024261475
-0.002456665 -0.021484375 -0.030395508 -0.012817383 0.030517578 -0.0047912598 -0.021484375 0.0077209473
0.005645752 -0.018066406 0.016479492 -0.013061523 -0.020263672 0.0038909912 0.033203125 0.0055236816
0.028930664 -0.03100586 -0.032470703 0.0053710938 0.007507324 -0.026367188 -0.025634766 -0.025024414
0.017944336 -0.013305664 -0.033935547 0.0025177002 -0.03515625 -0.0019683838 0.03491211 -0.013305664
-0.009765625 0.032470703 -0.022949219 -0.010314941 0.02355957 0.01574707 0.035888672 0.0053710938
-0.022460938 0.021972656 0.031982422 -0.006958008 -0.020874023 -0.018188477 -0.032714844 -0.004058838
-0.018066406 0.026977539 0.024414062 -0.028442383 0.02758789 0.028930664 0.030029297 0.0070495605
0.011047363 -0.00029563904 -0.011230469 0.0078125 -0.016845703 -0.024780273 0.012756348 0.026855469
0.012817383 -0.0051879883 0.0038757324 0.021972656 -0.03515625 0.025024414 0.0078125 -0.008728027
0.0077819824 0.03491211 0.013061523 0.030151367 0.0039367676 0.020019531 -0.009460449 -0.023071289
-0.005493164 0.009460449 0.009460449 0.005279541 0.0078125 0.004333496 0.011108398 0.0095825195
0.033203125 -0.036132812 0.03540039 0.013977051 0.012268066 0.01940918 -0.014404297 0.008728027
0.018066406 0.009399414 0.003692627 -0.029785156 0.015258789 -0.033935547 -0.022460938 -0.029052734
0.00390625 -0.03100586 -0.005279541 0.00390625 0.03100586 0.021606445 0.010070801 0.00090408325
-0.005218506 0.028442383 -0.012084961 -0.02368164 -0.018798828 -0.028564453 -0.007293701 0.0078125
-0.03466797 -0.020141602 0.017211914 0.030273438 0.01159668 -0.02709961 0.028442383 0.029174805
-0.028076172 -0.0078125 0.014404297 -0.0078125 -0.016479492 -0.03491211 -0.020385742 -0.028076172
-0.01373291 -0.025512695 -0.013427734 -0.0078125 0.0052490234 -0.010437012 0.016479492 0.0234375
-0.028320312 -0.020751953 0.020507812 -0.021362305 -0.03149414 0.015258789 -0.026489258 -0.004425049

base_model.model.transformer.h.10.attn.c_attn.lora_B.weight bf16 [2304, 8]
00000000: 223b 30bb 083b 4a3b 113b 28bb 633b 0bbb
00000010: 133b 27bb 163b 0a3b 3d3b 04bb 043b 06bb
00000020: 3dbb 453b faba 66bb 4abb 4e3b 2dbb 063b
00000030: 0bbb 2f3b 65bb 2fbb 2bbb 1c3b 29bb 2d3b
00000040: a33a 013b 00bb b1ba eaba 003b c1ba fb3a
00000050: 47bb 733b 80bb 80bb 40bb 813b 7fbb 803b
00000060: 30bb 433b 68bb 40bb 3ebb 053b 48bb 273b
00000070: 923a fcba 9c3a e23a c23a 34bb 1f3b 00bb
00000080: 483b 55bb 393b 593b 373b 58bb 5d3b 0abb
00000090: 803b 83bb 803b 823b 7e3b 80bb 833b 80bb
000000a0: 80bb 3d3b 05bb 7dbb 56bb 7b3b 80bb 4d3b
000000b0: 3c3b 5cbb 743b 713b 553b 47bb 5f3b 7dbb
000000c0: 103b 12bb 273b 2d3b 223b 0cbb 4c3b 2fbb
000000d0: 0bbb 033b 11bb 2abb fcba 233b 31bb 2e3b
000000e0: 48bb 5e3b 80bb 80bb 51bb 7f3b 80bb 803b
000000f0: 633b 7cbb 7e3b 803b 803b 80bb 803b 82bb
00000100: 0c3b 42bb 5d3b 6f3b 273b 59bb 1c3b 28bb
00000110: 6bbb 723b 80bb 80bb 52bb 693b 81bb 803b
00000120: 3b3b 67bb 803b 803b 4b3b 64bb 643b 63bb
00000130: a63a 0e3b 3ebb eaba fdba ee3a 01bb 023b
00000140: 733b 83bb 803b 813b 713b 80bb 803b 80bb
00000150: 663b deba 273b 783b 4f3b 09bb 623b 5abb
00000160: 113b e03a 10bb fd3a 103b e23a 743a 9e3a
00000170: 3d3b 5ebb 1b3b 6a3b 363b 1fbb 783b 0cbb
00000180: 5cbb f7ba f93a 3bbb fa3a ee3a 2fbb f53a
00000190: 2d3b 2fbb 643b 603b 2a3b 1cbb 6a3b 7cbb
000001a0: 123b 04bb 023b 003b 003b 06bb 023b 14bb
000001b0: 82bb 7d3b 84bb 84bb 6abb 7f3b 81bb 7d3b
000001c0: a6ba 3d3a e938 6eba e8ba 5cba a2ba 483a
000001d0: e239 aaba ccba 4dba d2ba 17ba d138 973a
000001e0: 823b 82bb 803b 823b 7e3b 80bb 823b 83bb
000001f0: 55bb 473b 7ebb 80bb 3ebb 503b 7bbb 7c3b
0.0024719238 -0.0026855469 0.0020751953 0.0030822754 0.0022125244 -0.0025634766 0.0034637451 -0.0021209717
0.002243042 -0.0025482178 0.0022888184 0.002105713 0.0028839111 -0.0020141602 0.0020141602 -0.0020446777
-0.0028839111 0.0030059814 -0.0019073486 -0.0035095215 -0.0030822754 0.0031433105 -0.0026397705 0.0020446777
-0.0021209717 0.002670288 -0.0034942627 -0.002670288 -0.002609253 0.002380371 -0.0025787354 0.0026397705
0.0012435913 0.0019683838 -0.001953125 -0.0013504028 -0.0017852783 0.001953125 -0.0014724731 0.001914978
-0.003036499 0.0037078857 -0.00390625 -0.00390625 -0.0029296875 0.0039367676 -0.0038909912 0.00390625
-0.0026855469 0.0029754639 -0.003540039 -0.0029296875 -0.00289917 0.002029419 -0.0030517578 0.0025482178
0.0011138916 -0.0019226074 0.0011901855 0.0017242432 0.0014801025 -0.002746582 0.0024261475 -0.001953125
0.0030517578 -0.003250122 0.002822876 0.0033111572 0.0027923584 -0.0032958984 0.0033721924 -0.002105713
0.00390625 -0.0039978027 0.00390625 0.003967285 0.0038757324 -0.00390625 0.0039978027 -0.00390625
-0.00390625 0.0028839111 -0.002029419 -0.0038604736 -0.0032653809 0.003829956 -0.00390625 0.0031280518
0.0028686523 -0.0033569336 0.0037231445 0.0036773682 0.003250122 -0.003036499 0.00340271 -0.0038604736
0.0021972656 -0.0022277832 0.0025482178 0.0026397705 0.0024719238 -0.0021362305 0.003112793 -0.002670288
-0.0021209717 0.0019989014 -0.0022125244 -0.0025939941 -0.0019226074 0.0024871826 -0.0027008057 0.0026550293
-0.0030517578 0.0033874512 -0.00390625 -0.00390625 -0.003189087 0.0038909912 -0.00390625 0.00390625
0.0034637451 -0.0038452148 0.0038757324 0.00390625 0.00390625 -0.00390625 0.00390625 -0.003967285
0.0021362305 -0.002960205 0.0033721924 0.0036468506 0.0025482178 -0.0033111572 0.002380371 -0.0025634766
-0.0035858154 0.003692627 -0.00390625 -0.00390625 -0.0032043457 0.0035552979 -0.0039367676 0.00390625
0.0028533936 -0.0035247803 0.00390625 0.00390625 0.0030975342 -0.003479004 0.003479004 -0.0034637451
0.0012664795 0.002166748 -0.00289917 -0.0017852783 -0.0019302368 0.0018157959 -0.0019683838 0.0019836426
0.0037078857 -0.0039978027 0.00390625 0.0039367676 0.0036773682 -0.00390625 0.00390625 -0.00390625
0.0035095215 -0.0016937256 0.0025482178 0.0037841797 0.0031585693 -0.002090454 0.0034484863 -0.003326416
0.0022125244 0.0017089844 -0.0021972656 0.0019302368 0.0021972656 0.0017242432 0.00093078613 0.0012054443
0.0028839111 -0.0033874512 0.0023651123 0.0035705566 0.0027770996 -0.0024261475 0.0037841797 -0.0021362305
-0.0033569336 -0.0018844604 0.0018997192 -0.0028533936 0.0019073486 0.0018157959 -0.002670288 0.0018692017
0.0026397705 -0.002670288 0.003479004 0.0034179688 0.0025939941 -0.002380371 0.0035705566 -0.0038452148
0.0022277832 -0.0020141602 0.0019836426 0.001953125 0.001953125 -0.0020446777 0.0019836426 -0.0022583008
-0.003967285 0.0038604736 -0.0040283203 -0.0040283203 -0.0035705566 0.0038909912 -0.0039367676 0.0038604736
-0.0012664795 0.0007209778 0.00011110306 -0.00090789795 -0.0017700195 -0.0008392334 -0.0012359619 0.00076293945
0.0004310608 -0.0012969971 -0.0015563965 -0.00078201294 -0.0016021729 -0.0005760193 9.9658966e-05 0.0011520386
0.003967285 -0.003967285 0.00390625 0.003967285 0.0038757324 -0.00390625 0.003967285 -0.0039978027
-0.003250122 0.003036499 -0.0038757324 -0.00390625 -0.00289917 0.0031738281 -0.003829956 0.0038452148

base_model.model.transformer.h.11.attn.c_attn.lora_A.weight bf16 [8, 768]
00000000: 123d 0f3c 0d3c 79bc 67bc d5bc 80bb 003c
00000010: 8ebc 003c 993c 24bc e33b a5bc ddbb a63c
00000020: c0bc a4bc 87bb 09bd 983c 003c 873b 06bc
00000030: 04bd 003c debc f53c 91bb a9bc 7cbc 603c
00000040: 083d 02bd 87bb cc3c da3c b63c 21ba e1bc
00000050: 17bb c5bc 06bd eabc 9bbc e33c cebc a4bb
00000060: b63c 10bd 913c a6bc 00bc 043b 58bc 683c
00000070: 8f3b 063d 24bc e53c d93c 7d3c 72bc d73c
00000080: 643c bcbc 043d 123c c23c af3c 9f3c 9a3b
00000090: c33b a13c 40bc 0a3d d2bb e1bc a4bb f93c
000000a0: 12bd 913b aebc df3c 753c 8c3c 003c 09bc
000000b0: da3c e23c 81bb 003c 0d3d e33b f6bc 803b
000000c0: ffbc c53c f23c 05bc 8abb 0ebd e1bc af3c
000000d0: c6bc 90bc 77bc bdbb 8c3c 073d f5bc 813c
000000e0: 6abc acbb 833c a1bc e9bc 17bc 013c a3bc
000000f0: 123c 04bd dc3b 9e3c 473c d6bc 3dbc b3bc
00000100: 9bbc 6cbc 00bc 203c 00bc 833c 2f3c 143c
00000110: 9b3c b33c 2e3c f83c bfbc 2cbc 693c a3bc
00000120: 003c 36bc df3c a43b 27bc f13b 10bd d83c
00000130: 543c f0bc f23c 133d c03c 23bc 8ebc 12bd
00000140: a4bc e13c 13bd a53c 12bd 993c 80bb e23c
00000150: ff3b 103d 8e3b 6ebc b83c 9abb cfbc 3abc
00000160: 93bb d6bc c8bc 713c c13c 6a3c bb3c 94bc
00000170: 243c 00bc 55bb a0bc edbc cc3c 7fbb 2cbc
00000180: edbc debc 103d 0ebd ac3c fa3c 803b 22bc
00000190: 103c 123c 803c bebc 83bc d4bc b3bb 04bc
000001a0: 8bbb 953c c8bc 043d dabc 943c 0fbd b3bb
000001b0: 123d fc3c a53c 90bb a03c 493c cbbc 8f3c
000001c0: 843c a33c 0fbb 3a3c ac3c ec3c 05bd a13c
000001d0: f0bc febc 553c 88bc 86bb 813b 4ebc bf3c
000001e0: 4c3c a9bc 903c 7bbc bbbb fe3c 92bc ca3c
000001f0: 00bc 0dbd f1bc 22bc bf3c 8ebb dcbb 80bb
0.03564453 0.008728027 0.008605957 -0.015197754 -0.014099121 -0.026000977 -0.00390625 0.0078125
-0.017333984 0.0078125 0.018676758 -0.010009766 0.0069274902 -0.020141602 -0.0067443848 0.020263672
-0.0234375 -0.020019531 -0.004119873 -0.033447266 0.018554688 0.0078125 0.004119873 -0.008178711
-0.032226562 0.0078125 -0.02709961 0.029907227 -0.004425049 -0.020629883 -0.015380859 0.013671875
0.033203125 -0.03173828 -0.004119873 0.024902344 0.026611328 0.022216797 -0.00061416626 -0.02746582
-0.0023040771 -0.024047852 -0.032714844 -0.028564453 -0.018920898 0.027709961 -0.025146484 -0.005004883
0.022216797 -0.03515625 0.017700195 -0.020263672 -0.0078125 0.0020141602 -0.013183594 0.014160156
0.0043640137 0.032714844 -0.010009766 0.027954102 0.026489258 0.0154418945 -0.014770508 0.026245117
0.013916016 -0.022949219 0.032226562 0.008911133 0.02368164 0.021362305 0.01940918 0.004699707
0.0059509277 0.01965332 -0.01171875 0.033691406 -0.0064086914 -0.02746582 -0.005004883 0.030395508
-0.03564453 0.004425049 -0.021240234 0.02722168 0.014953613 0.017089844 0.0078125 -0.008361816
0.026611328 0.02758789 -0.0039367676 0.0078125 0.034423828 0.0069274902 -0.030029297 0.00390625
-0.03112793 0.024047852 0.029541016 -0.008117676 -0.004211426 -0.03466797 -0.02746582 0.021362305
-0.024169922 -0.017578125 -0.015075684 -0.0057678223 0.017089844 0.032958984 -0.029907227 0.01574707
-0.014282227 -0.0052490234 0.015991211 -0.01965332 -0.028442383 -0.009216309 0.007873535 -0.019897461
0.008911133 -0.032226562 0.006713867 0.01928711 0.012145996 -0.026123047 -0.0115356445 -0.021850586
-0.018920898 -0.014404297 -0.0078125 0.009765625 -0.0078125 0.015991211 0.010681152 0.009033203
0.018920898 0.021850586 0.010620117 0.030273438 -0.02331543 -0.010498047 0.014221191 -0.019897461
0.0078125 -0.011108398 0.02722168 0.005004883 -0.010192871 0.0073547363 -0.03515625 0.026367188
0.012939453 -0.029296875 0.029541016 0.035888672 0.0234375 -0.0099487305 -0.017333984 -0.03564453
-0.020019531 0.02746582 -0.035888672 0.020141602 -0.03564453 0.018676758 -0.00390625 0.02758789
0.0077819824 0.03515625 0.004333496 -0.014526367 0.022460938 -0.004699707 -0.025268555 -0.011352539
-0.004486084 -0.026123047 -0.024414062 0.014709473 0.02355957 0.014282227 0.022827148 -0.018066406
0.010009766 -0.0078125 -0.003250122 -0.01953125 -0.028930664 0.024902344 -0.0038909912 -0.010498047
-0.028930664 -0.02709961 0.03515625 -0.03466797 0.020996094 0.030517578 0.00390625 -0.009887695
0.0087890625 0.008911133 0.015625 -0.02319336 -0.015991211 -0.025878906 -0.0054626465 -0.008056641
-0.0042419434 0.018188477 -0.024414062 0.032226562 -0.026611328 0.018066406 -0.03491211 -0.0054626465
0.03564453 0.030761719 0.020141602 -0.0043945312 0.01953125 0.012268066 -0.024780273 0.017456055
0.016113281 0.019897461 -0.0021820068 0.011352539 0.020996094 0.028808594 -0.032470703 0.01965332
-0.029296875 -0.03100586 0.013000488 -0.016601562 -0.0040893555 0.0039367676 -0.012573242 0.02331543
0.012451172 -0.020629883 0.017578125 -0.015319824 -0.005706787 0.03100586 -0.017822266 0.024658203
-0.0078125 -0.034423828 -0.029418945 -0.009887695 0.02331543 -0.004333496 -0.006713867 -0.00390625

base_model.model.transformer.h.11.attn.c_attn.lora_B.weight bf16 [2304, 8]
00000000: 13ba 4fbb 5a3b 483b a139 7fbb 44bb 743b
00000010: 0abb 45bb 4a3b 5d3b 2bba 5fbb 5abb 5b3b
00000020: a0ba 13bb fa3a 6eba 053b a7ba 38bb db3a
00000030: 3f3b 15bb 4bbb 15bb 06bb 0e3b 163b 5fbb
00000040: 023b f63a 37bb 18bb 1ebb 193b 343b 24bb
00000050: 613a 803b 33bb 80bb 5e3b 803b 243b 80bb
00000060: 86bb ef3a 8d3b 393b 803b 80bb 83bb 823b
00000070: 02bb 01bb 133b 023b 8438 24bb 24bb 253b
00000080: 9f3a 46bb 543b 513b 783a 7fbb 42bb 5a3b
00000090: 18bb 583b fb3a 32bb 1b3b 2f3b 0cbb d43a
000000a0: 6b3a d43a fd3a e93a e43a 8dba ecba f93a
000000b0: 803b 7b3b 81bb 76bb 22bb 813b 803b 83bb
000000c0: 803b 80bb 80bb 383b 80bb b1ba 803b 2bbb
000000d0: 073b 0bbb 2c3b 5f3b 163a 4cbb 00bb 223b
000000e0: 883b 16bb 8fbb 3cbb 80bb 803b 853b 81bb
000000f0: f4ba 7f3b c3ba 27bb fc3a 4e3b a8b9 0cbb
00000100: 2a3b 3fbb 3ebb fdba 28bb 57ba 423b 06bb
00000110: d1ba 5339 f7ba 00bb 9bba 003b f23a deba
00000120: ef3a 1cbb 08bb 7f39 18bb a2ba 023b 93ba
00000130: 68bb 073b 4c3b 023b 573b 01bb 77bb 6f3b
00000140: 823b 653b 8dbb 80bb 31bb 813b 873b 80bb
00000150: 3c3b 7dbb 0dbb 203b 4abb 12bb 243b 02bb
00000160: 80bb a93a 703b f93a 3a3b 06bb 42bb 6c3b
00000170: 8abb e43a 893b 693b 803b 80bb 84bb 863b
00000180: 77bb 803b 143b 56bb 7d3b 193b 29bb d83a
00000190: 0fbb 0a3b 473b 043b 3f3b 07bb 3fbb 1b3b
000001a0: f7ba 0d3b 62bb 0ebb 5fba 0f3b 003b 21bb
000001b0: 80bb 1f3b 833b 1f3b 803b 22bb 83bb 803b
000001c0: 7fbb 643b 513b 0ebb 7a3b 683a 80bb 183b
000001d0: 3f3b a6ba 68bb 1bbb 17bb 103b 5a3b 43bb
000001e0: 7c3b 1ebb 80bb 07bb 64bb 323b 823b 84bb
000001f0: 7dbb 28bb 873b 803b 7e3b 7fbb 86bb 833b
-0.0005607605 -0.0031585693 0.003326416 0.0030517578 0.00030708313 -0.0038909912 -0.0029907227 0.0037231445
-0.002105713 -0.0030059814 0.0030822754 0.0033721924 -0.00065231323 -0.00340271 -0.003326416 0.0033416748
-0.0012207031 -0.002243042 0.0019073486 -0.00090789795 0.002029419 -0.0012741089 -0.0028076172 0.0016708374
0.0029144287 -0.0022735596 -0.0030975342 -0.0022735596 -0.0020446777 0.002166748 0.0022888184 -0.00340271
0.0019836426 0.001876831 -0.0027923584 -0.002319336 -0.0024108887 0.0023345947 0.002746582 -0.0025024414
0.0008583069 0.00390625 -0.0027313232 -0.00390625 0.0033874512 0.00390625 0.0025024414 -0.00390625
-0.0040893555 0.0018234253 0.0043029785 0.002822876 0.00390625 -0.00390625 -0.0039978027 0.003967285
-0.0019836426 -0.0019683838 0.002243042 0.0019836426 6.2942505e-05 -0.0025024414 -0.0025024414 0.0025177002
0.0012130737 -0.0030212402 0.0032348633 0.003189087 0.0009460449 -0.0038909912 -0.002960205 0.003326416
-0.002319336 0.0032958984 0.001914978 -0.0027160645 0.0023651123 0.002670288 -0.0021362305 0.0016174316
0.00089645386 0.0016174316 0.0019302368 0.0017776489 0.001739502 -0.0010757446 -0.0018005371 0.0018997192
0.00390625 0.003829956 -0.0039367676 -0.003753662 -0.0024719238 0.0039367676 0.00390625 -0.0039978027
0.00390625 -0.00390625 -0.00390625 0.0028076172 -0.00390625 -0.0013504028 0.00390625 -0.002609253
0.0020599365 -0.0021209717 0.0026245117 0.00340271 0.0005722046 -0.003112793 -0.001953125 0.0024719238
0.0041503906 -0.0022888184 -0.0043640137 -0.0028686523 -0.00390625 0.00390625 0.004058838 -0.0039367676
-0.0018615723 0.0038909912 -0.0014877319 -0.0025482178 0.0019226074 0.0031433105 -0.00032043457 -0.0021362305
0.0025939941 -0.0029144287 -0.00289917 -0.0019302368 -0.0025634766 -0.0008201599 0.002960205 -0.0020446777
-0.0015945435 0.00020122528 -0.0018844604 -0.001953125 -0.0011825562 0.001953125 0.0018463135 -0.0016937256
0.0018234253 -0.002380371 -0.0020751953 0.00024318695 -0.002319336 -0.0012359619 0.0019836426 -0.001121521
-0.003540039 0.0020599365 0.003112793 0.0019836426 0.0032806396 -0.0019683838 -0.003768921 0.0036468506
0.003967285 0.0034942627 -0.0043029785 -0.00390625 -0.0027008057 0.0039367676 0.004119873 -0.00390625
0.0028686523 -0.0038604736 -0.0021514893 0.0024414062 -0.0030822754 -0.0022277832 0.0025024414 -0.0019836426
-0.00390625 0.0012893677 0.0036621094 0.0018997192 0.0028381348 -0.0020446777 -0.002960205 0.0036010742
-0.004211426 0.001739502 0.004180908 0.0035552979 0.00390625 -0.00390625 -0.0040283203 0.0040893555
-0.003768921 0.00390625 0.0022583008 -0.0032653809 0.0038604736 0.0023345947 -0.0025787354 0.0016479492
-0.0021820068 0.002105713 0.003036499 0.0020141602 0.0029144287 -0.0020599365 -0.0029144287 0.0023651123
-0.0018844604 0.0021514893 -0.0034484863 -0.002166748 -0.0008506775 0.0021820068 0.001953125 -0.002456665
-0.00390625 0.0024261475 0.0039978027 0.0024261475 0.00390625 -0.0024719238 -0.0039978027 0.00390625
-0.0038909912 0.003479004 0.003189087 -0.002166748 0.0038146973 0.00088500977 -0.00390625 0.002319336
0.0029144287 -0.0012664795 -0.003540039 -0.0023651123 -0.0023040771 0.0021972656 0.003326416 -0.0029754639
0.0038452148 -0.0024108887 -0.00390625 -0.0020599365 -0.003479004 0.0027160645 0.003967285 -0.0040283203
-0.0038604736 -0.0025634766 0.004119873 0.00390625 0.0038757324 -0.0038909912 -0.0040893555 0.0039978027

base_model.model.transformer.h.2.attn.c_attn.lora_A.weight bf16 [8, 768]
00000000: c7bc 8dbc 843c c1bc 063d c03b 82bc 86bc
00000010: 423c ee3b c1bc 903c 53bc b13c 4ebc 8d3c
00000020: cbbc de3c 553c 80bb 843c 673c af3c 33bb
00000030: c03c a13c 67bc c6bc 043d 39bc 073d b7bc
00000040: 5f3c a93b 083d 803b 033d 5f3c b4ba df3c
00000050: 80bc ba3c 873c 07bd 38ba d8bb 97bb 01bd
00000060: eebc 77bc ca3c d13c febc 013d cd3a b63c
00000070: 90bc 083b 88bc bb3b 01bc fa3c c9bc 1cbc
00000080: 003c 593c dd3c b3bc b03c d8ba acbc e63c
00000090: 01bc 723c 0a3d 713b fabc 4c3c 04bb 93bc
000000a0: da3c 5f3c 81bc 60bc e4bc c63c ed3c afbb
000000b0: 5c3c 40bc a6bc d0bc cebc 643c 0ebd 073d
000000c0: 80bb 08bd 13bd 05bd f7bc c0bc 963c abbc
000000d0: b2bc 00bc 753c 0a3d be3c 12bd edbb f6bb
000000e0: bc3c 9d3c 47bc 853c b5bc 80bb f6bc 02bd
000000f0: 973c 0b3d 113b ccbc 973b 843c 03bc 083d
00000100: 2cbc f6bc 0bbc 59bc 9c3b f3bc 1a3c d33c
00000110: 0abd 00bc aabc 87bc 85bc f2bc 5a3c b3bb
00000120: 8cbc cebb 8a3c eb3c 213c 823b 743c a9bc
00000130: 2ebc 953b b03c c43c e9bc 9fbc 9d3c 0c3b
00000140: 06bd 8bbc cb3c 0bbd 14bc aabc 24bc 0bbd
00000150: dc3c dc3b 0b3d 03bd e0bc 12bd f4bc c7bc
00000160: 24bc 233c a03c bd3c 9abc eb3c 88bb 06bd
00000170: 06bc 3a3c ad3c 363c 7ebb ccbc 9a3b 0c3d
00000180: c0bc 65bc b7bc 01bd fe3c bebc b43b 403b
00000190: 30bb d2bc 30bb 78bc 06bc f73c 91bc 19bc
000001a0: 2abb 063d 12bd e73b 063d d63c f33a cfbc
000001b0: 123d 52bc a63c 1a3c 02bd ab3c 41bc 81bb
000001c0: 8c3b 073d de3c f43c d13c 003c 05bd edbc
000001d0: 883b 0ebd 85ba 823b d83c efbc 11bd acbc
000001e0: 013d 6a3c 86bc 083d bbbc af3c f3bb a9bc
000001f0: 56bc 22bc 69bc fb3c c43c e0bc 00bc 80bb
-0.024291992 -0.017211914 0.016113281 -0.02355957 0.032714844 0.005859375 -0.01586914 -0.016357422
0.01184082 0.0072631836 -0.02355957 0.017578125 -0.012878418 0.021606445 -0.012573242 0.017211914
-0.024780273 0.02709961 0.013000488 -0.00390625 0.016113281 0.014099121 0.021362305 -0.0027313232
0.0234375 0.01965332 -0.014099121 -0.024169922 0.032226562 -0.011291504 0.032958984 -0.022338867
0.01361084 0.0051574707 0.033203125 0.00390625 0.031982422 0.01361084 -0.001373291 0.02722168
-0.015625 0.022705078 0.016479492 -0.032958984 -0.0007019043 -0.006591797 -0.0046081543 -0.03149414
-0.029052734 -0.015075684 0.024658203 0.025512695 -0.03100586 0.03149414 0.0015640259 0.022216797
-0.017578125 0.0020751953 -0.016601562 0.005706787 -0.007873535 0.030517578 -0.024536133 -0.009521484
0.0078125 0.013244629 0.026977539 -0.021850586 0.021484375 -0.0016479492 -0.020996094 0.028076172
-0.007873535 0.014770508 0.033691406 0.0036773682 -0.030517578 0.012451172 -0.0020141602 -0.017944336
0.026611328 0.01361084 -0.01574707 -0.013671875 -0.027832031 0.024169922 0.028930664 -0.005340576
0.013427734 -0.01171875 -0.020263672 -0.025390625 -0.025146484 0.013916016 -0.03466797 0.032958984
-0.00390625 -0.033203125 -0.035888672 -0.032470703 -0.030151367 -0.0234375 0.018310547 -0.020874023
-0.021728516 -0.0078125 0.014953613 0.033691406 0.02319336 -0.03564453 -0.007232666 -0.007507324
0.022949219 0.019165039 -0.012145996 0.016235352 -0.022094727 -0.00390625 -0.030029297 -0.03173828
0.018432617 0.033935547 0.0022125244 -0.024902344 0.0046081543 0.016113281 -0.0079956055 0.033203125
-0.010498047 -0.030029297 -0.008483887 -0.013244629 0.004760742 -0.029663086 0.009399414 0.025756836
-0.033691406 -0.0078125 -0.020751953 -0.016479492 -0.016235352 -0.029541016 0.013305664 -0.0054626465
-0.017089844 -0.006286621 0.016845703 0.028686523 0.00982666 0.003967285 0.014892578 -0.020629883
-0.010620117 0.004547119 0.021484375 0.023925781 -0.028442383 -0.01940918 0.019165039 0.0021362305
-0.032714844 -0.016967773 0.024780273 -0.033935547 -0.009033203 -0.020751953 -0.010009766 -0.033935547
0.026855469 0.006713867 0.033935547 -0.031982422 -0.02734375 -0.03564453 -0.029785156 -0.024291992
-0.010009766 0.0099487305 0.01953125 0.023071289 -0.018798828 0.028686523 -0.0041503906 -0.032714844
-0.008178711 0.011352539 0.021118164 0.011108398 -0.0038757324 -0.024902344 0.004699707 0.034179688
-0.0234375 -0.013977051 -0.022338867 -0.03149414 0.03100586 -0.02319336 0.005493164 0.0029296875
-0.0026855469 -0.025634766 -0.0026855469 -0.015136719 -0.008178711 0.030151367 -0.017700195 -0.009338379
-0.0025939941 0.032714844 -0.03564453 0.0070495605 0.032714844 0.026123047 0.0018539429 -0.025268555
0.03564453 -0.012817383 0.020263672 0.009399414 -0.03173828 0.020874023 -0.011779785 -0.0039367676
0.004272461 0.032958984 0.02709961 0.029785156 0.025512695 0.0078125 -0.032470703 -0.028930664
0.0041503906 -0.03466797 -0.0010147095 0.003967285 0.026367188 -0.029174805 -0.03540039 -0.020996094
0.03149414 0.014282227 -0.016357422 0.033203125 -0.022827148 0.021362305 -0.0074157715 -0.020629883
-0.013061523 -0.009887695 -0.014221191 0.030639648 0.023925781 -0.02734375 -0.0078125 -0.00390625
