examples/research_projects/stack_llama/scripts/gpt2_peft_stack-exchange-paired_rmts__100000_2e-05/checkpoint-2500/adapter_model.safetensors (safetensors, 594496 bytes, 25 tensors)

base_model.model.score.weight bf16 [1, 768]
0	0x3cf0	0.029296875
1	0x3bb9	0.005645752
2	0x3c9e	0.01928711
3	0x3d01	0.03149414
4	0x3c22	0.009887695
5	0xbcf9	-0.030395508
6	0xbbb0	-0.0053710938
7	0x3c3c	0.011474609
8	0x3bce	0.006286621
9	0xbc3a	-0.011352539
10	0x3c32	0.010864258
11	0xbc38	-0.011230469
12	0x3c45	0.012023926
13	0x3d43	0.047607422
14	0x3d09	0.033447266
15	0xbc89	-0.016723633
16	0xbc25	-0.010070801
17	0xbc27	-0.010192871
18	0xbc0f	-0.008728027
19	0x3ce0	0.02734375
20	0xbc5c	-0.013427734
21	0xbb80	-0.00390625
22	0x3c93	0.017944336
23	0xbcdb	-0.026733398
24	0x3c7b	0.015319824
25	0x3cbc	0.022949219
26	0xbc3c	-0.011474609
27	0x3c9e	0.01928711
28	0x3d27	0.040771484
29	0x3c38	0.011230469
30	0x38c3	9.2983246e-05
31	0xbc65	-0.013977051
32	0xbc1a	-0.009399414
33	0xbce4	-0.027832031
34	0x3ce3	0.027709961
35	0xbc49	-0.012268066
36	0x3d72	0.05908203
37	0x3c56	0.013061523
38	0xbcde	-0.02709961
39	0xbcf3	-0.029663086
40	0x3ca2	0.01977539
41	0x3cc3	0.023803711
42	0xbd25	-0.040283203
43	0xbd03	-0.031982422
44	0xbc9e	-0.01928711
45	0x3c38	0.011230469
46	0xbc60	-0.013671875
47	0xbc76	-0.015014648
48	0x3c97	0.018432617
49	0x3bf1	0.0073547363
50	0x3c23	0.0099487305
51	0xbce8	-0.028320312
52	0x3a10	0.0005493164
53	0x3d03	0.031982422
54	0x3bcc	0.006225586
55	0xbc20	-0.009765625
56	0x3c90	0.017578125
57	0xbce7	-0.028198242
58	0x3b1b	0.0023651123
59	0xbc91	-0.017700195
60	0xbad8	-0.0016479492
61	0x3b2b	0.002609253
62	0xbcba	-0.022705078
63	0x3b8f	0.0043640137
64	0x3c9a	0.018798828
65	0x3c03	0.0079956055
66	0x3c29	0.010314941
67	0x3cb1	0.021606445
68	0xbc0b	-0.008483887
69	0xbce9	-0.028442383
70	0xbc3e	-0.01159668
71	0x3c4d	0.012512207
72	0x3cd1	0.025512695
73	0xbbae	-0.0053100586
74	0xba80	-0.0009765625
75	0x3c1d	0.0095825195
76	0x3cb5	0.022094727
77	0xbb0f	-0.0021820068
78	0x3c00	0.0078125
79	0x3caa	0.020751953
80	0x3cac	0.020996094
81	0xbc05	-0.008117676
82	0xbcb5	-0.022094727
83	0x3912	0.00013923645
84	0xbbd0	-0.0063476562
85	0xbc98	-0.018554688
86	0xbc95	-0.018188477
87	0xbc69	-0.014221191
88	0x3cc8	0.024414062
89	0x3bc6	0.0060424805
90	0x3bbb	0.005706787
91	0xbb79	-0.0037994385
92	0xbc64	-0.013916016
93	0x3d20	0.0390625
94	0x3cbe	0.02319336
95	0x393f	0.0001821518
96	0x3af6	0.001876831
97	0x3ca0	0.01953125
98	0xba9a	-0.0011749268
99	0x3c27	0.010192871
100	0xbcba	-0.022705078
101	0x3ce9	0.028442383
102	0xbc92	-0.017822266
103	0x3c25	0.010070801
104	0x3cd0	0.025390625
105	0x3b28	0.0025634766
106	0xbc5f	-0.01361084
107	0x3cbc	0.022949219
108	0x3b39	0.002822876
109	0xbc07	-0.008239746
110	0xba33	-0.0006828308
111	0xbd0b	-0.033935547
112	0x3c8a	0.016845703
113	0x3c3e	0.01159668
114	0xbd29	-0.041259766
115	0xbc87	-0.016479492
116	0xbc52	-0.012817383
117	0x3c24	0.010009766
118	0x3c75	0.014953613
119	0xbb8b	-0.0042419434
120	0x3c2e	0.010620117
121	0xbced	-0.028930664
122	0xbc5a	-0.013305664
123	0x3b99	0.0046691895
124	0x3cb6	0.022216797
125	0x3cc8	0.024414062
126	0x3d1f	0.03881836
127	0x3d03	0.031982422
128	0xbc1f	-0.00970459
129	0x3c95	0.018188477
130	0xbcb8	-0.022460938
131	0x3bef	0.007293701
132	0xbcb7	-0.022338867
133	0xbc9c	-0.019042969
134	0xbaa3	-0.0012435913
135	0x3c36	0.011108398
136	0xbce4	-0.027832031
137	0x3cb5	0.022094727
138	0xbcc8	-0.024414062
139	0x3c92	0.017822266
140	0x3cd5	0.026000977
141	0xbb49	-0.0030670166
142	0x3b30	0.0026855469
143	0x3c98	0.018554688
144	0xbd0b	-0.033935547
145	0x3c2d	0.010559082
146	0xbbd1	-0.006378174
147	0xbcd9	-0.026489258
148	0x3cf3	0.029663086
149	0xbb89	-0.004180908
150	0x3b80	0.00390625
151	0xbcc9	-0.024536133
152	0x3c47	0.012145996
153	0x3c99	0.018676758
154	0xbd2e	-0.04248047
155	0xbb25	-0.0025177002
156	0x3c9a	0.018798828
157	0xbcbf	-0.02331543
158	0x3b80	0.00390625
159	0x3b8c	0.004272461
160	0x3c71	0.014709473
161	0xbc59	-0.013244629
162	0x3c3b	0.011413574
163	0x3c5e	0.013549805
164	0xbc95	-0.018188477
165	0x3d03	0.031982422
166	0x3c1a	0.009399414
167	0x3b94	0.0045166016
168	0xbc55	-0.013000488
169	0xbbee	-0.0072631836
170	0xbcd6	-0.026123047
171	0x3d1a	0.037597656
172	0xbc65	-0.013977051
173	0x3c3c	0.011474609
174	0x3c73	0.014831543
175	0x3cf5	0.029907227
176	0x3c2d	0.010559082
177	0xbb82	-0.003967285
178	0x3b82	0.003967285
179	0xbb9a	-0.004699707
180	0xbc47	-0.012145996
181	0x3c45	0.012023926
182	0x3bb1	0.0054016113
183	0xb96c	-0.00022506714
184	0x3d02	0.03173828
185	0x3c28	0.010253906
186	0x3b85	0.004058838
187	0xbc90	-0.017578125
188	0x3b01	0.0019683838
189	0x3c86	0.016357422
190	0x3b7b	0.003829956
191	0xbb7f	-0.0038909912
192	0xbc43	-0.0119018555
193	0x3cb3	0.021850586
194	0x3d02	0.03173828
195	0xbcb5	-0.022094727
196	0x3d02	0.03173828
197	0xbc71	-0.014709473
198	0x3c1b	0.009460449
199	0xbc07	-0.008239746
200	0x3b15	0.0022735596
201	0x3b80	0.00390625
202	0x3b22	0.0024719238
203	0x3cc5	0.024047852
204	0xbcf3	-0.029663086
205	0x3c08	0.008300781
206	0x3b7d	0.0038604736
207	0x3b80	0.00390625
208	0x3861	5.364418e-05
209	0xbab9	-0.001411438
210	0x3bd6	0.0065307617
211	0x3b7a	0.0038146973
212	0x3c7b	0.015319824
213	0xbc9e	-0.01928711
214	0x3d0a	0.033691406
215	0x3b82	0.003967285
216	0xbc36	-0.011108398
217	0x3c85	0.016235352
218	0xbb80	-0.00390625
219	0x3c9d	0.019165039
220	0x3bc0	0.005859375
221	0x3c9d	0.019165039
222	0x3b32	0.0027160645
223	0xbd57	-0.052490234
224	0xbc07	-0.008239746
225	0x3cbe	0.02319336
226	0xbd44	-0.047851562
227	0xbc60	-0.013671875
228	0xbd00	-0.03125
229	0xbca8	-0.020507812
230	0x3c8d	0.017211914
231	0x3bd7	0.0065612793
232	0xbd38	-0.044921875
233	0x3c1d	0.0095825195
234	0xbd05	-0.032470703
235	0xbc43	-0.0119018555
236	0xbc91	-0.017700195
237	0x3c1e	0.009643555
238	0x3c47	0.012145996
239	0xbc7e	-0.01550293
240	0xbcbf	-0.02331543
241	0x3c90	0.017578125
242	0x3cb5	0.022094727
243	0x3cb3	0.021850586
244	0xbd05	-0.032470703
245	0xbacc	-0.0015563965
246	0x3c5f	0.01361084
247	0x3c71	0.014709473
248	0xbcbc	-0.022949219
249	0xbc6d	-0.014465332
250	0xbb85	-0.004058838
251	0xbb80	-0.00390625
252	0x3bae	0.0053100586
253	0x3c90	0.017578125
254	0xbcca	-0.024658203
255	0x3c67	0.014099121

base_model.model.transformer.h.0.attn.c_attn.lora_A.weight bf16 [8, 768]
0	0xbcd6	-0.026123047
1	0x3ce5	0.027954102
2	0xbce7	-0.028198242
3	0xbb28	-0.0025634766
4	0x3d0a	0.033691406
5	0x3c90	0.017578125
6	0xbbae	-0.0053100586
7	0x3c83	0.015991211
8	0x3c10	0.0087890625
9	0xbc36	-0.011108398
10	0xbc1a	-0.009399414
11	0xbc33	-0.010925293
12	0xbd08	-0.033203125
13	0xbcc0	-0.0234375
14	0x3b85	0.004058838
15	0x3c9d	0.019165039
16	0xbced	-0.028930664
17	0x3cd5	0.026000977
18	0x3d04	0.032226562
19	0xbca5	-0.020141602
20	0x3c7f	0.015563965
21	0x3cc6	0.024169922
22	0xbc94	-0.018066406
23	0x3c92	0.017822266
24	0x3d06	0.032714844
25	0x3cdf	0.02722168
26	0xbd0a	-0.033691406
27	0x3b0b	0.0021209717
28	0xbb8d	-0.0043029785
29	0x3c87	0.016479492
30	0x3b8f	0.0043640137
31	0xbcb2	-0.021728516
32	0xbd08	-0.033203125
33	0xbc1a	-0.009399414
34	0x3b49	0.0030670166
35	0xbcc4	-0.023925781
36	0x3c60	0.013671875
37	0xbc3b	-0.011413574
38	0xbc39	-0.011291504
39	0xbc9a	-0.018798828
40	0xbcc5	-0.024047852
41	0x3cbf	0.02331543
42	0x3ce3	0.027709961
43	0x3b87	0.004119873
44	0xbc99	-0.018676758
45	0x3b11	0.0022125244
46	0xbbf2	-0.007385254
47	0x3c86	0.016357422
48	0xbc04	-0.008056641
49	0xbca0	-0.01953125
50	0x3cbc	0.022949219
51	0xbc2f	-0.010681152
52	0x3cdb	0.026733398
53	0x3b89	0.004180908
54	0x3cac	0.020996094
55	0x388d	6.723404e-05
56	0xbc07	-0.008239746
57	0xbb80	-0.00390625
58	0xbb87	-0.004119873
59	0x3b7c	0.0038452148
60	0xbb0e	-0.002166748
61	0x3c86	0.016357422
62	0x3b07	0.0020599365
63	0xbb7f	-0.0038909912
64	0x3b91	0.004425049
65	0x3ba5	0.0050354004
66	0x3d09	0.033447266
67	0x3c20	0.009765625
68	0x3d02	0.03173828
69	0x3c73	0.014831543
70	0x3ccc	0.024902344
71	0xbccc	-0.024902344
72	0x3cd1	0.025512695
73	0xbca0	-0.01953125
74	0x3b81	0.0039367676
75	0x3d02	0.03173828
76	0x3b03	0.0019989014
77	0x3c9d	0.019165039
78	0xbb8a	-0.004211426
79	0xbccc	-0.024902344
80	0x3ce7	0.028198242
81	0xbca5	-0.020141602
82	0x3d10	0.03515625
83	0xbba1	-0.00491333
84	0xbc78	-0.015136719
85	0xbcf6	-0.030029297
86	0x3caf	0.021362305
87	0xbcf0	-0.029296875
88	0xbba3	-0.0049743652
89	0xb91a	-0.00014686584
90	0x3c6b	0.014343262
91	0xbc79	-0.015197754
92	0x3c12	0.008911133
93	0xbcd7	-0.026245117
94	0x3c70	0.0146484375
95	0xbc28	-0.010253906
96	0x3ca6	0.020263672
97	0x3d04	0.032226562
98	0x3d04	0.032226562
99	0xbcd2	-0.025634766
100	0xbd03	-0.031982422
101	0x3c52	0.012817383
102	0xbcbf	-0.02331543
103	0xbbbb	-0.005706787
104	0x3c87	0.016479492
105	0x3ca2	0.01977539
106	0xbbe2	-0.0068969727
107	0x3cbb	0.022827148
108	0xbc84	-0.016113281
109	0xbbcf	-0.0063171387
110	0x3ca3	0.019897461
111	0x3bd1	0.006378174
112	0x3d04	0.032226562
113	0x3c9e	0.01928711
114	0x3cdb	0.026733398
115	0x3c20	0.009765625
116	0x3b1a	0.0023498535
117	0xbc03	-0.0079956055
118	0x3ce8	0.028320312
119	0xbaad	-0.0013198853
120	0x3b80	0.00390625
121	0xbcbd	-0.023071289
122	0x3a80	0.0009765625
123	0x3b71	0.0036773682
124	0x3c1b	0.009460449
125	0x3c97	0.018432617
126	0x3c6b	0.014343262
127	0xbd0d	-0.034423828
128	0xbcf4	-0.029785156
129	0x3cca	0.024658203
130	0xbd0e	-0.03466797
131	0x3c9a	0.018798828
132	0x3a2f	0.000667572
133	0x3c53	0.012878418
134	0xbcdc	-0.026855469
135	0x3c42	0.01184082
136	0xbc94	-0.018066406
137	0x3d12	0.03564453
138	0xbc6a	-0.014282227
139	0xbbe7	-0.0070495605
140	0x3acd	0.0015640259
141	0x3c1c	0.009521484
142	0xbc7c	-0.015380859
143	0x3d04	0.032226562
144	0xbca8	-0.020507812
145	0x3a30	0.0006713867
146	0x3c3a	0.011352539
147	0xbd10	-0.03515625
148	0xbcf1	-0.029418945
149	0x3cb6	0.022216797
150	0x3d11	0.03540039
151	0x3c92	0.017822266
152	0xbca5	-0.020141602
153	0x3c09	0.008361816
154	0xbd0e	-0.03466797
155	0x3b82	0.003967285
156	0xbcd3	-0.025756836
157	0xbc32	-0.010864258
158	0x3cb6	0.022216797
159	0x3d05	0.032470703
160	0xbc4b	-0.012390137
161	0x3cc8	0.024414062
162	0xbd07	-0.032958984
163	0x3b90	0.0043945312
164	0x3c71	0.014709473
165	0xbcaf	-0.021362305
166	0x3cad	0.021118164
167	0x3ce6	0.028076172
168	0x3bcc	0.006225586
169	0x3ca7	0.020385742
170	0x3cf3	0.029663086
171	0x3c09	0.008361816
172	0x3c91	0.017700195
173	0xbb97	-0.0046081543
174	0xbb63	-0.0034637451
175	0x3c3b	0.011413574
176	0x3d0c	0.034179688
177	0xbcf2	-0.029541016
178	0x3ce2	0.02758789
179	0x3c15	0.009094238
180	0xbca9	-0.020629883
181	0x3c7c	0.015380859
182	0xbb1b	-0.0023651123
183	0xbc36	-0.011108398
184	0x3d07	0.032958984
185	0x3bfc	0.0076904297
186	0xbce9	-0.028442383
187	0x3cfb	0.030639648
188	0xbc7f	-0.015563965
189	0x3cb9	0.022583008
190	0x3cb0	0.021484375
191	0xbbe7	-0.0070495605
192	0x3d08	0.033203125
193	0x3b62	0.0034484863
194	0x3ccf	0.025268555
195	0x3caa	0.020751953
196	0xbcb0	-0.021484375
197	0x3cd3	0.025756836
198	0xbc14	-0.009033203
199	0xbbb4	-0.005493164
200	0x3ca8	0.020507812
201	0x3c27	0.010192871
202	0x3d11	0.03540039
203	0x3cc7	0.024291992
204	0x3b82	0.003967285
205	0x3d10	0.03515625
206	0xbc4c	-0.012451172
207	0xbcdc	-0.026855469
208	0xbc66	-0.014038086
209	0xbcad	-0.021118164
210	0x3a87	0.0010299683
211	0xbc63	-0.0138549805
212	0xbcea	-0.028564453
213	0x3b85	0.004058838
214	0xbc88	-0.016601562
215	0xba50	-0.00079345703
216	0xbc4a	-0.012329102
217	0xbc91	-0.017700195
218	0x3d11	0.03540039
219	0x3bb2	0.005432129
220	0xbb97	-0.0046081543
221	0xbbe5	-0.0069885254
222	0x3cf4	0.029785156
223	0xbce2	-0.02758789
224	0x3cd9	0.026489258
225	0x3d13	0.035888672
226	0xbc4e	-0.012573242
227	0xbc9e	-0.01928711
228	0x3c81	0.01574707
229	0x3d03	0.031982422
230	0xbb81	-0.0039367676
231	0x3cf9	0.030395508
232	0xbc14	-0.009033203
233	0xbd11	-0.03540039
234	0x3c93	0.017944336
235	0x3d0d	0.034423828
236	0xbc19	-0.009338379
237	0xbbfb	-0.007659912
238	0x3c03	0.0079956055
239	0x3d05	0.032470703
240	0x3d04	0.032226562
241	0xbcad	-0.021118164
242	0x3cd7	0.026245117
243	0xbc88	-0.016601562
244	0xbc26	-0.010131836
245	0x3bf0	0.0073242188
246	0x3cd9	0.026489258
247	0xbca8	-0.020507812
248	0x3b98	0.004638672
249	0xbcbb	-0.022827148
250	0xbd02	-0.03173828
251	0xbc94	-0.018066406
252	0xbc28	-0.010253906
253	0xbcc7	-0.024291992
254	0xbcde	-0.02709961
255	0xbc00	-0.0078125

base_model.model.transformer.h.0.attn.c_attn.lora_B.weight bf16 [2304, 8]
0	0xba77	-0.0009422302
1	0xba86	-0.0010223389
2	0x3a0d	0.0005378723
3	0x39dd	0.00042152405
4	0xba2b	-0.00065231323
5	0xba4a	-0.00077056885
6	0x39a3	0.00031089783
7	0x3a29	0.00064468384
8	0xba3f	-0.0007286072
9	0x398d	0.00026893616
10	0xba8e	-0.001083374
11	0x3aea	0.0017852783
12	0x3a7a	0.0009536743
13	0xb867	-5.507469e-05
14	0xb9cf	-0.00039482117
15	0xba0f	-0.0005455017
16	0x3abb	0.0014266968
17	0x3a84	0.0010070801
18	0x38dc	0.000104904175
19	0xb850	-4.9591064e-05
20	0x3ab3	0.0013656616
21	0x38f6	0.00011730194
22	0xba20	-0.00061035156
23	0xba18	-0.000579834
24	0x3ace	0.0015716553
25	0x3a2a	0.00064849854
26	0xbb04	-0.0020141602
27	0x3af8	0.0018920898
28	0x3b17	0.0023040771
29	0x383b	4.4584274e-05
30	0xbae2	-0.0017242432
31	0xbab5	-0.0013809204
32	0xbae3	-0.0017318726
33	0xb896	-7.1525574e-05
34	0x3a67	0.00088119507
35	0xbaf5	-0.0018692017
36	0xba8d	-0.0010757446
37	0xbaa6	-0.0012664795
38	0x3a53	0.0008049011
39	0x39c8	0.00038146973
40	0x37da	2.5987625e-05
41	0x399f	0.00030326843
42	0x38f6	0.00011730194
43	0xba81	-0.0009841919
44	0xb97b	-0.00023937225
45	0xb963	-0.00021648407
46	0x3a3c	0.0007171631
47	0x38be	9.059906e-05
48	0x3aad	0.0013198853
49	0x3aad	0.0013198853
50	0xb9fe	-0.00048446655
51	0x399e	0.00030136108
52	0x39ca	0.00038528442
53	0xb985	-0.00025367737
54	0xba01	-0.00049209595
55	0xba83	-0.0009994507
56	0x3a20	0.00061035156
57	0x3aa8	0.0012817383
58	0xba32	-0.0006790161
59	0x39ee	0.00045394897
60	0x3a6e	0.00090789795
61	0xb99b	-0.00029563904
62	0xb91d	-0.00014972687
63	0xbabb	-0.0014266968
64	0xb9f6	-0.00046920776
65	0xb8dc	-0.000104904175
66	0x39bd	0.0003604889
67	0xb976	-0.00023460388
68	0xb943	-0.00018596649
69	0xb97e	-0.00024223328
70	0xba3b	-0.0007133484
71	0x3a81	0.0009841919
72	0x39bb	0.0003566742
73	0x38f7	0.00011777878
74	0x3a6a	0.00089263916
75	0xbb05	-0.002029419
76	0xbad1	-0.0015945435
77	0xbaa9	-0.0012893677
78	0x3a0a	0.0005264282
79	0x3acd	0.0015640259
80	0x3955	0.00020313263
81	0x38b9	8.8214874e-05
82	0xbaca	-0.0015411377
83	0x3afc	0.0019226074
84	0x3afe	0.0019378662
85	0xb9c6	-0.00037765503
86	0xbac8	-0.0015258789
87	0xbabe	-0.001449585
88	0x3a97	0.0011520386
89	0x3a06	0.00051116943
90	0x3900	0.00012207031
91	0xb5f6	-1.8328428e-06
92	0x3975	0.00023365021
93	0xb97a	-0.00023841858
94	0xb980	-0.00024414062
95	0xb9b4	-0.00034332275
96	0x3a89	0.001045227
97	0xb9f2	-0.00046157837
98	0x3751	1.2457371e-05
99	0x360f	2.130866e-06
100	0x3a52	0.0008010864
101	0x3831	4.220009e-05
102	0xba73	-0.00092697144
103	0xb8df	-0.000106334686
104	0x3a84	0.0010070801
105	0x3a14	0.0005645752
106	0xbaab	-0.0013046265
107	0xb86c	-5.6266785e-05
108	0x3b02	0.0019836426
109	0x398d	0.00026893616
110	0xba08	-0.0005187988
111	0xba3f	-0.0007286072
112	0xba6a	-0.00089263916
113	0xba8b	-0.0010604858
114	0xb92d	-0.00016498566
115	0xb9a1	-0.00030708313
116	0xbac9	-0.0015335083
117	0xb8f8	-0.000118255615
118	0x3a2a	0.00064849854
119	0x39ca	0.00038528442
120	0x3ac5	0.0015029907
121	0x3abb	0.0014266968
122	0x3a5e	0.0008468628
123	0xba02	-0.00049591064
124	0xb9a5	-0.00031471252
125	0x391c	0.0001487732
126	0xba09	-0.0005226135
127	0xb9a5	-0.00031471252
128	0xba6e	-0.00090789795
129	0xb9da	-0.000415802
130	0xb9e2	-0.0004310608
131	0x3a82	0.0009918213
132	0x3a66	0.0008773804
133	0x37ea	2.7894974e-05
134	0xba1b	-0.0005912781
135	0xba81	-0.0009841919
136	0xb9bb	-0.0003566742
137	0xbab4	-0.001373291
138	0xb9e2	-0.0004310608
139	0xb9c6	-0.00037765503
140	0xb77c	-1.50203705e-05
141	0x398e	0.0002708435
142	0x395d	0.00021076202
143	0x3a9b	0.0011825562
144	0x3a8f	0.0010910034
145	0x39da	0.000415802
146	0x3a74	0.00093078613
147	0xbaa8	-0.0012817383
148	0xb9f7	-0.0004711151
149	0xbae7	-0.0017623901
150	0x39c4	0.00037384033
151	0x39c0	0.00036621094
152	0x3a7b	0.000957489
153	0x3a7a	0.0009536743
154	0x3abb	0.0014266968
155	0xbaac	-0.0013122559
156	0xbad3	-0.0016098022
157	0xbab3	-0.0013656616
158	0x3aa2	0.0012359619
159	0xba20	-0.00061035156
160	0xbaaa	-0.0012969971
161	0xb9a9	-0.00032234192
162	0x392e	0.00016593933
163	0x3a64	0.000869751
164	0xba13	-0.0005607605
165	0x3a8c	0.0010681152
166	0x3a15	0.0005683899
167	0x3a43	0.00074386597
168	0x3986	0.00025558472
169	0x3a37	0.0006980896
170	0x3985	0.00025367737
171	0xb8b0	-8.392334e-05
172	0xba3b	-0.0007133484
173	0x3a13	0.0005607605
174	0x39bd	0.0003604889
175	0xb9b5	-0.0003452301
176	0xb9dd	-0.00042152405
177	0xbaff	-0.0019454956
178	0xb8f4	-0.00011634827
179	0x3ad9	0.0016555786
180	0xb97a	-0.00023841858
181	0x3a57	0.0008201599
182	0x38ef	0.00011396408
183	0xba8a	-0.0010528564
184	0xba18	-0.000579834
185	0x3916	0.00014305115
186	0x3a67	0.00088119507
187	0x3996	0.0002861023
188	0xba03	-0.00049972534
189	0x3999	0.00029182434
190	0xba74	-0.00093078613
191	0xba69	-0.00088882446
192	0x3a9b	0.0011825562
193	0x39f7	0.0004711151
194	0xbaf0	-0.0018310547
195	0xb9c4	-0.00037384033
196	0x3a9d	0.0011978149
197	0x3a8c	0.0010681152
198	0x39a4	0.00031280518
199	0xba18	-0.000579834
200	0xb7c4	-2.336502e-05
201	0xbaba	-0.0014190674
202	0xbb05	-0.002029419
203	0x3a03	0.00049972534
204	0x3a9d	0.0011978149
205	0xb965	-0.00021839142
206	0xb9f6	-0.00046920776
207	0x3a15	0.0005683899
208	0xba28	-0.00064086914
209	0xba98	-0.001159668
210	0x3ac6	0.0015106201
211	0xb984	-0.00025177002
212	0xb9c8	-0.00038146973
213	0xba1b	-0.0005912781
214	0x3a05	0.00050735474
215	0x3991	0.00027656555
216	0x3a10	0.0005493164
217	0xb8e1	-0.00010728836
218	0x3aac	0.0013122559
219	0xba84	-0.0010070801
220	0xbaa7	-0.0012741089
221	0xba31	-0.0006752014
222	0x38c4	9.346008e-05
223	0xba40	-0.0007324219
224	0x3acd	0.0015640259
225	0x3a1d	0.00059890747
226	0x3a60	0.0008544922
227	0xba3a	-0.0007095337
228	0xb9cd	-0.00039100647
229	0xb937	-0.0001745224
230	0x3a59	0.0008277893
231	0x3ae8	0.0017700195
232	0xba8b	-0.0010604858
233	0xb98d	-0.00026893616
234	0xba6a	-0.00089263916
235	0x3a99	0.0011672974
236	0x3a80	0.0009765625
237	0xba43	-0.00074386597
238	0xb957	-0.00020503998
239	0x3aa7	0.0012741089
240	0xba9c	-0.0011901855
241	0xb98c	-0.0002670288
242	0x39aa	0.00032424927
243	0x39ac	0.00032806396
244	0xba03	-0.00049972534
245	0x3a87	0.0010299683
246	0x3930	0.00016784668
247	0x3a73	0.00092697144
248	0x3aaa	0.0012969971
249	0xb8c3	-9.2983246e-05
250	0x39c9	0.00038337708
251	0x3a80	0.0009765625
252	0xba00	-0.00048828125
253	0x397c	0.00024032593
254	0xba0f	-0.0005455017
255	0xba00	-0.00048828125

base_model.model.transformer.h.1.attn.c_attn.lora_A.weight bf16 [8, 768]
0	0x3cbe	0.02319336
1	0x3ca9	0.020629883
2	0xbcd7	-0.026245117
3	0x3c05	0.008117676
4	0xbd0a	-0.033691406
5	0x3cb1	0.021606445
6	0xbca0	-0.01953125
7	0xbc2d	-0.010559082
8	0xbcee	-0.029052734
9	0x3d04	0.032226562
10	0x3d12	0.03564453
11	0x3c16	0.009155273
12	0xbb20	-0.0024414062
13	0xbb49	-0.0030670166
14	0x3ca8	0.020507812
15	0x3cb3	0.021850586
16	0xbc2e	-0.010620117
17	0x3b99	0.0046691895
18	0xbc00	-0.0078125
19	0x3ccd	0.025024414
20	0x3c36	0.011108398
21	0xbcad	-0.021118164
22	0xbca2	-0.01977539
23	0x3c84	0.016113281
24	0x3c5c	0.013427734
25	0xbc31	-0.010803223
26	0xbbf1	-0.0073547363
27	0xbc25	-0.010070801
28	0xbc9e	-0.01928711
29	0x3c1c	0.009521484
30	0x3cd2	0.025634766
31	0xbc71	-0.014709473
32	0x3c3a	0.011352539
33	0xbcaa	-0.020751953
34	0x3c6c	0.014404297
35	0x3ba7	0.0050964355
36	0x3c16	0.009155273
37	0xbc05	-0.008117676
38	0x3d0b	0.033935547
39	0xbcca	-0.024658203
40	0x3c06	0.008178711
41	0xbd09	-0.033447266
42	0x3ced	0.028930664
43	0x3c35	0.011047363
44	0xbb9e	-0.0048217773
45	0x3d13	0.035888672
46	0xbca6	-0.020263672
47	0x3cf2	0.029541016
48	0x3bb5	0.0055236816
49	0x3c85	0.016235352
50	0x3c6c	0.014404297
51	0xbc83	-0.015991211
52	0x3bc9	0.006134033
53	0xbcb4	-0.021972656
54	0xbc87	-0.016479492
55	0x3cb3	0.021850586
56	0x3c8d	0.017211914
57	0xbd13	-0.035888672
58	0x3c6b	0.014343262
59	0x3cd0	0.025390625
60	0x3a60	0.0008544922
61	0xbc09	-0.008361816
62	0x3ba7	0.0050964355
63	0x3b4b	0.0030975342
64	0xbc4a	-0.012329102
65	0x3c76	0.015014648
66	0x3cd0	0.025390625
67	0x3cfe	0.03100586
68	0xbcc5	-0.024047852
69	0xbc0b	-0.008483887
70	0x3d11	0.03540039
71	0x3c82	0.01586914
72	0xbcaf	-0.021362305
73	0xba33	-0.0006828308
74	0x3c93	0.017944336
75	0xbc79	-0.015197754
76	0xbd02	-0.03173828
77	0x3c64	0.013916016
78	0xbcc2	-0.02368164
79	0xbc9c	-0.019042969
80	0x3c81	0.01574707
81	0xbb93	-0.004486084
82	0xbc00	-0.0078125
83	0x3beb	0.007171631
84	0xbcb2	-0.021728516
85	0xbca6	-0.020263672
86	0xbba3	-0.0049743652
87	0x3cf6	0.030029297
88	0x3cc3	0.023803711
89	0x3c22	0.009887695
90	0xbacb	-0.0015487671
91	0xbc00	-0.0078125
92	0x3b80	0.00390625
93	0x3bc2	0.00592041
94	0x3bd3	0.006439209
95	0xbd0d	-0.034423828
96	0x3ca3	0.019897461
97	0xbb20	-0.0024414062
98	0x3c98	0.018554688
99	0x3d0e	0.03466797
100	0x3cfe	0.03100586
101	0x3c8e	0.017333984
102	0xbb7b	-0.003829956
103	0xbcef	-0.029174805
104	0x3d12	0.03564453
105	0x3c00	0.0078125
106	0x3ca3	0.019897461
107	0x3c36	0.011108398
108	0x3cc5	0.024047852
109	0xbcca	-0.024658203
110	0xbcc5	-0.024047852
111	0xbb16	-0.0022888184
112	0xbd0d	-0.034423828
113	0xb952	-0.0002002716
114	0xbcfa	-0.030517578
115	0xbc49	-0.012268066
116	0xbcf8	-0.030273438
117	0xbc2b	-0.010437012
118	0x3cc3	0.023803711
119	0xbbb4	-0.005493164
120	0x3c1a	0.009399414
121	0xbb8a	-0.004211426
122	0xbbf0	-0.0073242188
123	0xbcf7	-0.030151367
124	0xbccf	-0.025268555
125	0xbcce	-0.025146484
126	0x3c8c	0.017089844
127	0x3b71	0.0036773682
128	0x3d0d	0.034423828
129	0x3b8b	0.0042419434
130	0xbcc6	-0.024169922
131	0x3caa	0.020751953
132	0xbca2	-0.01977539
133	0xbced	-0.028930664
134	0xbc7a	-0.015258789
135	0x3d00	0.03125
136	0x3c46	0.012084961
137	0x3d11	0.03540039
138	0xbcf7	-0.030151367
139	0x3c40	0.01171875
140	0xbd05	-0.032470703
141	0x3c9f	0.01940918
142	0x3cd6	0.026123047
143	0xbc5b	-0.013366699
144	0x3cbb	0.022827148
145	0x3c7d	0.0154418945
146	0x3c3d	0.0115356445
147	0xbcb4	-0.021972656
148	0x3c7e	0.01550293
149	0xbc62	-0.013793945
150	0x3c5b	0.013366699
151	0xbc6d	-0.014465332
152	0x3cbd	0.023071289
153	0x3c59	0.013244629
154	0xbcc1	-0.02355957
155	0x3d10	0.03515625
156	0x3b80	0.00390625
157	0x3bbd	0.0057678223
158	0xbd14	-0.036132812
159	0x3c8c	0.017089844
160	0x3cde	0.02709961
161	0xbcbe	-0.02319336
162	0xbca7	-0.020385742
163	0xbbfb	-0.007659912
164	0xbc90	-0.017578125
165	0xbc3b	-0.011413574
166	0x3bde	0.0067749023
167	0x3d04	0.032226562
168	0xbbd7	-0.0065612793
169	0xbd02	-0.03173828
170	0x3c36	0.011108398
171	0x3cbe	0.02319336
172	0xbd07	-0.032958984
173	0x3c87	0.016479492
174	0x3d04	0.032226562
175	0xbbae	-0.0053100586
176	0xbcb4	-0.021972656
177	0xbb14	-0.0022583008
178	0xbd09	-0.033447266
179	0xbc42	-0.01184082
180	0xbc5b	-0.013366699
181	0xbcb4	-0.021972656
182	0xbd09	-0.033447266
183	0xbced	-0.028930664
184	0x3bd9	0.0066223145
185	0x3a8c	0.0010681152
186	0x3bbd	0.0057678223
187	0x3cc1	0.02355957
188	0xbc8f	-0.017456055
189	0xbc73	-0.014831543
190	0x3c67	0.014099121
191	0x3a1d	0.00059890747
192	0x3d0a	0.033691406
193	0xbcf0	-0.029296875
194	0xbb87	-0.004119873
195	0x3c7c	0.015380859
196	0x3bcd	0.0062561035
197	0x3c34	0.010986328
198	0x3c41	0.011779785
199	0xbd06	-0.032714844
200	0x3d07	0.032958984
201	0x3cc0	0.0234375
202	0xbcc1	-0.02355957
203	0x3ccc	0.024902344
204	0x3c4a	0.012329102
205	0xbc4a	-0.012329102
206	0x3bfa	0.0076293945
207	0x3a69	0.00088882446
208	0xbb80	-0.00390625
209	0x3c41	0.011779785
210	0x3cd2	0.025634766
211	0x3cff	0.03112793
212	0x39c7	0.00037956238
213	0x3c3a	0.011352539
214	0x3c9e	0.01928711
215	0x3c9e	0.01928711
216	0xbcb8	-0.022460938
217	0x3b97	0.0046081543
218	0x3d0f	0.03491211
219	0x3d01	0.03149414
220	0x3c94	0.018066406
221	0x3c13	0.008972168
222	0x3cb2	0.021728516
223	0x3d09	0.033447266
224	0x3b11	0.0022125244
225	0x3ce9	0.028442383
226	0x3cfd	0.030883789
227	0xbc81	-0.01574707
228	0xbb1a	-0.0023498535
229	0x3c70	0.0146484375
230	0xbc34	-0.010986328
231	0x3cda	0.026611328
232	0xbce5	-0.027954102
233	0xbcb0	-0.021484375
234	0x3d10	0.03515625
235	0xbcc2	-0.02368164
236	0x3ce8	0.028320312
237	0x3d04	0.032226562
238	0x3c76	0.015014648
239	0x3c0b	0.008483887
240	0xbbe5	-0.0069885254
241	0xbb7f	-0.0038909912
242	0x3b72	0.003692627
243	0xbc0a	-0.008422852
244	0x3adf	0.001701355
245	0x3c34	0.010986328
246	0x3c86	0.016357422
247	0x3ce5	0.027954102
248	0x3c75	0.014953613
249	0x3ce3	0.027709961
250	0x3c09	0.008361816
251	0x3c10	0.0087890625
252	0x3cc0	0.0234375
253	0x3b84	0.0040283203
254	0xbcc6	-0.024169922
255	0xbca3	-0.019897461

base_model.model.transformer.h.1.attn.c_attn.lora_B.weight bf16 [2304, 8]
0	0x3937	0.0001745224
1	0xbaee	-0.0018157959
2	0xba89	-0.001045227
3	0xbab3	-0.0013656616
4	0xbab1	-0.0013504028
5	0xbaec	-0.0018005371
6	0xba1a	-0.0005874634
7	0xba64	-0.000869751
8	0x39c6	0.00037765503
9	0x3a9a	0.0011749268
10	0x3ab5	0.0013809204
11	0x3a94	0.0011291504
12	0x3a97	0.0011520386
13	0x3a41	0.0007362366
14	0x3a9b	0.0011825562
15	0x3afc	0.0019226074
16	0xba61	-0.0008583069
17	0xba32	-0.0006790161
18	0x3af2	0.0018463135
19	0x39e4	0.0004348755
20	0x3a81	0.0009841919
21	0xba9c	-0.0011901855
22	0x3a1e	0.00060272217
23	0xb8a2	-7.724762e-05
24	0xba2d	-0.0006599426
25	0xb64d	-3.054738e-06
26	0x3a9f	0.0012130737
27	0x3a59	0.0008277893
28	0x3aa4	0.0012512207
29	0x38eb	0.00011205673
30	0x3aa2	0.0012359619
31	0x3af7	0.0018844604
32	0x3a85	0.0010147095
33	0x3a68	0.00088500977
34	0xbada	-0.001663208
35	0xba26	-0.00063323975
36	0xba56	-0.0008163452
37	0xb9d5	-0.00040626526
38	0xbae2	-0.0017242432
39	0x3a55	0.0008125305
40	0xba85	-0.0010147095
41	0x3937	0.0001745224
42	0x3ac4	0.0014953613
43	0x3a85	0.0010147095
44	0x3a16	0.0005722046
45	0x3926	0.00015830994
46	0xb9fe	-0.00048446655
47	0x3a01	0.00049209595
48	0xba6d	-0.00090408325
49	0xbafe	-0.0019378662
50	0xbad5	-0.001625061
51	0xba83	-0.0009994507
52	0xbac6	-0.0015106201
53	0xbb05	-0.002029419
54	0xba5a	-0.000831604
55	0x3a22	0.00061798096
56	0x39a6	0.00031661987
57	0xbaca	-0.0015411377
58	0x3939	0.00017642975
59	0xbaef	-0.0018234253
60	0xb987	-0.00025749207
61	0xb9a4	-0.00031280518
62	0x3962	0.0002155304
63	0xbaca	-0.0015411377
64	0x3ace	0.0015716553
65	0x39e2	0.0004310608
66	0xba0a	-0.0005264282
67	0xb988	-0.0002593994
68	0xba28	-0.00064086914
69	0x3a10	0.0005493164
70	0x38b2	8.4877014e-05
71	0xba94	-0.0011291504
72	0x3a22	0.00061798096
73	0x3ab7	0.0013961792
74	0xb91f	-0.00015163422
75	0x3aeb	0.0017929077
76	0x3ab7	0.0013961792
77	0x3af5	0.0018692017
78	0x3969	0.00022220612
79	0x3ac7	0.0015182495
80	0xba2d	-0.0006599426
81	0x3a2b	0.00065231323
82	0x3af5	0.0018692017
83	0x3a95	0.0011367798
84	0x3aad	0.0013198853
85	0x3a90	0.0010986328
86	0x3ac7	0.0015182495
87	0x3a92	0.0011138916
88	0x3ad0	0.0015869141
89	0x3a77	0.0009422302
90	0xbad4	-0.0016174316
91	0xba8e	-0.001083374
92	0xba81	-0.0009841919
93	0x3a37	0.0006980896
94	0xba79	-0.0009498596
95	0xbab9	-0.001411438
96	0x3aa2	0.0012359619
97	0x395f	0.00021266937
98	0xbb06	-0.0020446777
99	0xba9e	-0.0012054443
100	0xbac1	-0.0014724731
101	0xb9be	-0.00036239624
102	0xbaca	-0.0015411377
103	0xbac1	-0.0014724731
104	0xb748	-1.1920929e-05
105	0x378c	1.66893e-05
106	0x389f	7.581711e-05
107	0xb98c	-0.0002670288
108	0x39b6	0.00034713745
109	0xba08	-0.0005187988
110	0x3a5c	0.0008392334
111	0x3a34	0.0006866455
112	0xb95c	-0.00020980835
113	0x38da	0.0001039505
114	0x39a9	0.00032234192
115	0x39ee	0.00045394897
116	0x3a4b	0.00077438354
117	0xb9a1	-0.00030708313
118	0x37bb	2.2292137e-05
119	0x3a91	0.0011062622
120	0xba29	-0.00064468384
121	0x39d0	0.00039672852
122	0x390f	0.00013637543
123	0x3a62	0.0008621216
124	0xb987	-0.00025749207
125	0xb8e5	-0.00010919571
126	0xb992	-0.0002784729
127	0x3a11	0.0005531311
128	0x3a0b	0.0005302429
129	0xb7e6	-2.7418137e-05
130	0xb9fb	-0.0004787445
131	0x3a14	0.0005645752
132	0x3a72	0.00092315674
133	0xb884	-6.2942505e-05
134	0xb9ac	-0.00032806396
135	0xb946	-0.00018882751
136	0x3a3e	0.0007247925
137	0x3a2a	0.00064849854
138	0xbb04	-0.0020141602
139	0xb9e9	-0.00044441223
140	0xbabb	-0.0014266968
141	0xba0b	-0.0005302429
142	0xba0d	-0.0005378723
143	0xba8d	-0.0010757446
144	0x382e	4.1484833e-05
145	0x3ad9	0.0016555786
146	0x3acd	0.0015640259
147	0x3ac6	0.0015106201
148	0x3ac1	0.0014724731
149	0x3b0f	0.0021820068
150	0x3a9f	0.0012130737
151	0x3b04	0.0020141602
152	0xba9d	-0.0011978149
153	0xbad6	-0.0016326904
154	0x3997	0.00028800964
155	0xb91b	-0.00014781952
156	0x3aaa	0.0012969971
157	0xba04	-0.00050354004
158	0xba19	-0.0005836487
159	0x3a17	0.0005760193
160	0xbabe	-0.001449585
161	0xbb08	-0.0020751953
162	0x3a5c	0.0008392334
163	0xba15	-0.0005683899
164	0xba42	-0.00074005127
165	0xbafc	-0.0019226074
166	0x3a16	0.0005722046
167	0xb99a	-0.0002937317
168	0xba99	-0.0011672974
169	0xba12	-0.0005569458
170	0xba0e	-0.000541687
171	0xb8be	-9.059906e-05
172	0xba17	-0.0005760193
173	0xba6a	-0.00089263916
174	0xba6a	-0.00089263916
175	0xb943	-0.00018596649
176	0xbae5	-0.0017471313
177	0xba9c	-0.0011901855
178	0xb7ed	-2.8252602e-05
179	0xba34	-0.0006866455
180	0xba87	-0.0010299683
181	0xba09	-0.0005226135
182	0xba3f	-0.0007286072
183	0xba97	-0.0011520386
184	0x3a73	0.00092697144
185	0x3911	0.00013828278
186	0xbad9	-0.0016555786
187	0xba9e	-0.0012054443
188	0xbaf9	-0.0018997192
189	0x3944	0.00018692017
190	0xb977	-0.00023555756
191	0xba03	-0.00049972534
192	0xba4a	-0.00077056885
193	0x3b17	0.0023040771
194	0x3a63	0.0008659363
195	0x3ac0	0.0014648438
196	0x3af5	0.0018692017
197	0x3a87	0.0010299683
198	0xba42	-0.00074005127
199	0x3b0a	0.002105713
200	0xba5d	-0.0008430481
201	0xbaaf	-0.001335144
202	0xba58	-0.0008239746
203	0xba74	-0.00093078613
204	0xba57	-0.0008201599
205	0xbaae	-0.0013275146
206	0xb9f6	-0.00046920776
207	0xba6c	-0.00090026855
208	0x3a0b	0.0005302429
209	0x3a4d	0.00078201294
210	0x3ae7	0.0017623901
211	0x3ac8	0.0015258789
212	0x3ade	0.0016937256
213	0x3aa9	0.0012893677
214	0x3b0c	0.0021362305
215	0x3a48	0.00076293945
216	0xb995	-0.00028419495
217	0xb5a0	-1.1920929e-06
218	0x39eb	0.00044822693
219	0xbaab	-0.0013046265
220	0xba85	-0.0010147095
221	0xba4b	-0.00077438354
222	0x39a2	0.00030899048
223	0xb9af	-0.000333786
224	0xb80f	-3.4093857e-05
225	0x3aa7	0.0012741089
226	0x3a05	0.00050735474
227	0x3a07	0.00051498413
228	0x3ae9	0.0017776489
229	0x3a89	0.001045227
230	0x3a4b	0.00077438354
231	0x3b06	0.0020446777
232	0x3a57	0.0008201599
233	0x3a85	0.0010147095
234	0x3abc	0.0014343262
235	0x3a97	0.0011520386
236	0x3ab5	0.0013809204
237	0x3a87	0.0010299683
238	0x3ac3	0.0014877319
239	0x3aaa	0.0012969971
240	0xb9ee	-0.00045394897
241	0x3ab7	0.0013961792
242	0x3afd	0.0019302368
243	0x3aaa	0.0012969971
244	0x3ab1	0.0013504028
245	0x3ad2	0.0016021729
246	0x3a37	0.0006980896
247	0x3ab3	0.0013656616
248	0xba2e	-0.0006637573
249	0xba63	-0.0008659363
250	0x3a04	0.00050354004
251	0x38dc	0.000104904175
252	0x3759	1.2934208e-05
253	0xba03	-0.00049972534
254	0x3a19	0.0005836487
255	0x3a9f	0.0012130737

base_model.model.transformer.h.10.attn.c_attn.lora_A.weight bf16 [8, 768]
0	0xbc72	-0.014770508
1	0xbcf8	-0.030273438
2	0x3c90	0.017578125
3	0x3c50	0.0126953125
4	0x3bde	0.0067749023
5	0xbbe9	-0.0071105957
6	0xbd12	-0.03564453
7	0xbca8	-0.020507812
8	0xbc38	-0.011230469
9	0x3ca9	0.020629883
10	0xbb83	-0.0039978027
11	0xbc00	-0.0078125
12	0xbbad	-0.005279541
13	0xbb83	-0.0039978027
14	0xbb5b	-0.0033416748
15	0xbcb6	-0.022216797
16	0xbd06	-0.032714844
17	0x3cb4	0.021972656
18	0xbcea	-0.028564453
19	0xbb1c	-0.002380371
20	0x3b86	0.0040893555
21	0xbc00	-0.0078125
22	0x3cda	0.026611328
23	0xbcd4	-0.025878906
24	0xbd0c	-0.034179688
25	0xbb9f	-0.004852295
26	0x3cc4	0.023925781
27	0x3c9a	0.018798828
28	0x3c6f	0.014587402
29	0x3c2e	0.010620117
30	0x3c64	0.013916016
31	0x3bfb	0.007659912
32	0x3d00	0.03125
33	0xbc95	-0.018188477
34	0x3bd6	0.0065307617
35	0x3d0b	0.033935547
36	0xbcdd	-0.026977539
37	0xbc6b	-0.014343262
38	0xbc99	-0.018676758
39	0x3d06	0.032714844
40	0xbd0a	-0.033691406
41	0xbca8	-0.020507812
42	0xbd05	-0.032470703
43	0xbbab	-0.005218506
44	0x386b	5.6028366e-05
45	0x3ca4	0.020019531
46	0x3cc5	0.024047852
47	0xbc3b	-0.011413574
48	0x3c91	0.017700195
49	0x3cb7	0.022338867
50	0xbc90	-0.017578125
51	0xbcec	-0.028808594
52	0x3cdf	0.02722168
53	0x3c64	0.013916016
54	0x3cf2	0.029541016
55	0xbcb6	-0.022216797
56	0xbcbd	-0.023071289
57	0xbc06	-0.008178711
58	0xbc5d	-0.0134887695
59	0x3ce2	0.02758789
60	0xbbf7	-0.007537842
61	0xbcb1	-0.021606445
62	0xbc85	-0.016235352
63	0x3d0e	0.03466797
64	0x3c69	0.014221191
65	0xbd11	-0.03540039
66	0x3be7	0.0070495605
67	0xbcfc	-0.030761719
68	0xbc90	-0.017578125
69	0xbcd5	-0.026000977
70	0xbcb6	-0.022216797
71	0x3ca1	0.01965332
72	0x3be9	0.0071105957
73	0xbca8	-0.020507812
74	0x3d0e	0.03466797
75	0xbc00	-0.0078125
76	0x3b8a	0.004211426
77	0x3c84	0.016113281
78	0x3c82	0.01586914
79	0xbc9f	-0.01940918
80	0xbb9b	-0.0047302246
81	0xbc4b	-0.012390137
82	0x3c00	0.0078125
83	0x3cc1	0.02355957
84	0xbc62	-0.013793945
85	0xbcdd	-0.026977539
86	0x3c9b	0.018920898
87	0x3bbb	0.005706787
88	0x3ce0	0.02734375
89	0x3ca1	0.01965332
90	0x3d0b	0.033935547
91	0x3c19	0.009338379
92	0xbca4	-0.020019531
93	0xbccd	-0.025024414
94	0x3b80	0.00390625
95	0x3c65	0.013977051
96	0x3d05	0.032470703
97	0x3cbd	0.023071289
98	0xbd0a	-0.033691406
99	0xbc63	-0.0138549805
100	0x3ca0	0.01953125
101	0x3cd9	0.026489258
102	0x3ca6	0.020263672
103	0x3b11	0.0022125244
104	0xba69	-0.00088882446
105	0xbcb0	-0.021484375
106	0xbcf9	-0.030395508
107	0xbc52	-0.012817383
108	0x3cfa	0.030517578
109	0xbb9d	-0.0047912598
110	0xbcb0	-0.021484375
111	0x3bfd	0.0077209473
112	0x3bba	0.0056762695
113	0xbc94	-0.018066406
114	0x3c87	0.016479492
115	0xbc56	-0.013061523
116	0xbca6	-0.020263672
117	0x3b81	0.0039367676
118	0x3d08	0.033203125
119	0x3bb6	0.005554199
120	0x3ced	0.028930664
121	0xbcfe	-0.03100586
122	0xbd05	-0.032470703
123	0x3bb0	0.0053710938
124	0x3bf7	0.007537842
125	0xbcd8	-0.026367188
126	0xbcd2	-0.025634766
127	0xbccd	-0.025024414
128	0x3c93	0.017944336
129	0xbc5a	-0.013305664
130	0xbd0b	-0.033935547
131	0xbb23	-0.0024871826
132	0xbd10	-0.03515625
133	0x3a7d	0.0009651184
134	0x3d0f	0.03491211
135	0xbc5a	-0.013305664
136	0xbc20	-0.009765625
137	0x3d05	0.032470703
138	0xbcbc	-0.022949219
139	0xbc29	-0.010314941
140	0x3cc1	0.02355957
141	0x3c81	0.01574707
142	0x3d13	0.035888672
143	0x3bb0	0.0053710938
144	0xbcb8	-0.022460938
145	0x3cb4	0.021972656
146	0x3d03	0.031982422
147	0xbbe4	-0.006958008
148	0xbcab	-0.020874023
149	0xbc95	-0.018188477
150	0xbd06	-0.032714844
151	0xbb86	-0.0040893555
152	0xbc94	-0.018066406
153	0x3cdd	0.026977539
154	0x3cc8	0.024414062
155	0xbce9	-0.028442383
156	0x3ce2	0.02758789
157	0x3ced	0.028930664
158	0x3cf6	0.030029297
159	0x3be7	0.0070495605
160	0x3c35	0.011047363
161	0xb9cd	-0.00039100647
162	0xbc38	-0.011230469
163	0x3c00	0.0078125
164	0xbc8a	-0.016845703
165	0xbccb	-0.024780273
166	0x3c51	0.012756348
167	0x3cdc	0.026855469
168	0x3c52	0.012817383
169	0xbbaa	-0.0051879883
170	0x3b7a	0.0038146973
171	0x3cb4	0.021972656
172	0xbd10	-0.03515625
173	0x3ccd	0.025024414
174	0x3c00	0.0078125
175	0xbc0f	-0.008728027
176	0x3bfb	0.007659912
177	0x3d0f	0.03491211
178	0x3c56	0.013061523
179	0x3cf7	0.030151367
180	0x3b80	0.00390625
181	0x3ca4	0.020019531
182	0xbc1b	-0.009460449
183	0xbcbd	-0.023071289
184	0xbbb0	-0.0053710938
185	0x3c1b	0.009460449
186	0x3c1b	0.009460449
187	0x3bae	0.0053100586
188	0x3c00	0.0078125
189	0x3b8e	0.004333496
190	0x3c36	0.011108398
191	0x3c1d	0.0095825195
192	0x3d08	0.033203125
193	0xbd14	-0.036132812
194	0x3d11	0.03540039
195	0x3c65	0.013977051
196	0x3c49	0.012268066
197	0x3c9f	0.01940918
198	0xbc6c	-0.014404297
199	0x3c0f	0.008728027
200	0x3c94	0.018066406
201	0x3c1a	0.009399414
202	0x3b24	0.0025024414
203	0xbcf4	-0.029785156
204	0x3c7a	0.015258789
205	0xbd0b	-0.033935547
206	0xbcb8	-0.022460938
207	0xbcee	-0.029052734
208	0x3b41	0.0029449463
209	0xbcfe	-0.03100586
210	0xbbab	-0.005218506
211	0x3b76	0.003753662
212	0x3cfe	0.03100586
213	0x3cb1	0.021606445
214	0x3c25	0.010070801
215	0x3a8f	0.0010910034
216	0xbba8	-0.005126953
217	0x3ce9	0.028442383
218	0xbc46	-0.012084961
219	0xbcc2	-0.02368164
220	0xbc9a	-0.018798828
221	0xbcea	-0.028564453
222	0xbbef	-0.007293701
223	0x3c00	0.0078125
224	0xbd0e	-0.03466797
225	0xbca5	-0.020141602
226	0x3c8d	0.017211914
227	0x3cf8	0.030273438
228	0x3c3e	0.01159668
229	0xbcde	-0.02709961
230	0x3ce9	0.028442383
231	0x3cef	0.029174805
232	0xbce6	-0.028076172
233	0xbc00	-0.0078125
234	0x3c6c	0.014404297
235	0xbc00	-0.0078125
236	0xbc87	-0.016479492
237	0xbd0f	-0.03491211
238	0xbca7	-0.020385742
239	0xbce6	-0.028076172
240	0xbc61	-0.01373291
241	0xbcd1	-0.025512695
242	0xbc5c	-0.013427734
243	0xbc00	-0.0078125
244	0x3bab	0.005218506
245	0xbc2b	-0.010437012
246	0x3c87	0.016479492
247	0x3cc0	0.0234375
248	0xbce8	-0.028320312
249	0xbcaa	-0.020751953
250	0x3ca8	0.020507812
251	0xbcaf	-0.021362305
252	0xbd01	-0.03149414
253	0x3c7a	0.015258789
254	0xbcd9	-0.026489258
255	0xbb91	-0.004425049

base_model.model.transformer.h.10.attn.c_attn.lora_B.weight bf16 [2304, 8]
0	0x3ae4	0.001739502
1	0xbb18	-0.002319336
2	0x3aed	0.0018081665
3	0x3b1e	0.0024108887
4	0x3b14	0.0022583008
5	0xbb3c	-0.0028686523
6	0x3b49	0.0030670166
7	0xbb0b	-0.0021209717
8	0x3a28	0.00064086914
9	0xbb17	-0.0023040771
10	0x3a9c	0.0011901855
11	0x3aa3	0.0012435913
12	0x3b12	0.0022277832
13	0xbad0	-0.0015869141
14	0x3a80	0.0009765625
15	0xbac2	-0.0014801025
16	0xbb05	-0.002029419
17	0x3b29	0.0025787354
18	0xbaa0	-0.0012207031
19	0xbb4f	-0.0031585693
20	0xbb37	-0.0027923584
21	0x3b48	0.0030517578
22	0xbb18	-0.002319336
23	0x3aca	0.0015411377
24	0xbac7	-0.0015182495
25	0x3b14	0.0022583008
26	0xbb35	-0.0027618408
27	0xbb12	-0.0022277832
28	0xbb0d	-0.0021514893
29	0x3b08	0.0020751953
30	0xbb1b	-0.0023651123
31	0x3b09	0.002090454
32	0x3a56	0.0008163452
33	0x3a19	0.0005836487
34	0xb82b	-4.0769577e-05
35	0xb957	-0.00020503998
36	0xba4d	-0.00078201294
37	0x390f	0.00013637543
38	0xb9bf	-0.0003643036
39	0xba2b	-0.00065231323
40	0xbb2f	-0.002670288
41	0x3b39	0.002822876
42	0xbb80	-0.00390625
43	0xbb80	-0.00390625
44	0xbb31	-0.0027008057
45	0x3b81	0.0039367676
46	0xbb80	-0.00390625
47	0x3b80	0.00390625
48	0xbb05	-0.002029419
49	0x3b32	0.0027160645
50	0xbb4c	-0.003112793
51	0xbb1c	-0.002380371
52	0xbb2d	-0.0026397705
53	0x3ad6	0.0016326904
54	0xbb39	-0.002822876
55	0x3b25	0.0025177002
56	0x3a8d	0.0010757446
57	0xbb01	-0.0019683838
58	0x3a72	0.00092315674
59	0x3afd	0.0019302368
60	0x3a9d	0.0011978149
61	0xbb4c	-0.003112793
62	0x3b25	0.0025177002
63	0xba59	-0.0008277893
64	0x3b35	0.0027618408
65	0xbb29	-0.0025787354
66	0x3b2d	0.0026397705
67	0x3b51	0.003189087
68	0x3b1b	0.0023651123
69	0xbb4a	-0.0030822754
70	0x3b54	0.0032348633
71	0xbb05	-0.002029419
72	0x3b51	0.003189087
73	0xbb66	-0.0035095215
74	0x3b7f	0.0038909912
75	0x3b7c	0.0038452148
76	0x3b53	0.0032196045
77	0xbb76	-0.003753662
78	0x3b7b	0.003829956
79	0xbb7b	-0.003829956
80	0xbb38	-0.0028076172
81	0x3b1b	0.0023651123
82	0xbb0f	-0.0021820068
83	0xbb46	-0.0030212402
84	0xbb4f	-0.0031585693
85	0x3b6b	0.0035858154
86	0xbb6f	-0.0036468506
87	0x3b4f	0.0031585693
88	0x3b1a	0.0023498535
89	0xbb2f	-0.002670288
90	0x3b45	0.0030059814
91	0x3b3f	0.0029144287
92	0x3b30	0.0026855469
93	0xbb2b	-0.002609253
94	0x3b40	0.0029296875
95	0xbb47	-0.003036499
96	0x3acc	0.0015563965
97	0xbad0	-0.0015869141
98	0x3ac6	0.0015106201
99	0x3b12	0.0022277832
100	0x3b0f	0.0021820068
101	0xbad3	-0.0016098022
102	0x3b19	0.0023345947
103	0xbb12	-0.0022277832
104	0xba80	-0.0009765625
105	0x3a80	0.0009765625
106	0xbaa2	-0.0012359619
107	0xbb12	-0.0022277832
108	0xbae1	-0.0017166138
109	0x3b08	0.0020751953
110	0xbb16	-0.0022888184
111	0x3b14	0.0022583008
112	0xbb21	-0.002456665
113	0x3b25	0.0025177002
114	0xbb7b	-0.003829956
115	0xbb67	-0.0035247803
116	0xbb33	-0.0027313232
117	0x3b71	0.0036773682
118	0xbb6f	-0.0036468506
119	0x3b6e	0.0036315918
120	0x3b32	0.0027160645
121	0xbb63	-0.0034637451
122	0x3b79	0.0037994385
123	0x3b80	0.00390625
124	0x3b7f	0.0038909912
125	0xbb7d	-0.0038604736
126	0x3b80	0.00390625
127	0xbb82	-0.003967285
128	0x3a97	0.0011520386
129	0xbb24	-0.0025024414
130	0x3b45	0.0030059814
131	0x3b3a	0.0028381348
132	0x3b1c	0.002380371
133	0xbb28	-0.0025634766
134	0x3b11	0.0022125244
135	0xbb0b	-0.0021209717
136	0xbb0f	-0.0021820068
137	0x3b27	0.0025482178
138	0xbb6e	-0.0036315918
139	0xbb47	-0.003036499
140	0xbb2f	-0.002670288
141	0x3b2c	0.0026245117
142	0xbb63	-0.0034637451
143	0x3b55	0.003250122
144	0x3b10	0.0021972656
145	0xbb18	-0.002319336
146	0x3b52	0.0032043457
147	0x3b38	0.0028076172
148	0x3b1c	0.002380371
149	0xbb1f	-0.0024261475
150	0x3b39	0.002822876
151	0xbb2e	-0.0026550293
152	0x3a71	0.00091934204
153	0x3a86	0.0010223389
154	0xbafd	-0.0019302368
155	0x3a89	0.001045227
156	0xb980	-0.00024414062
157	0x3973	0.00023174286
158	0x3a4c	0.00077819824
159	0x39a9	0.00032234192
160	0x3b24	0.0025024414
161	0xbb4f	-0.0031585693
162	0x3b80	0.00390625
163	0x3b80	0.00390625
164	0x3b48	0.0030517578
165	0xbb6d	-0.003616333
166	0x3b80	0.00390625
167	0xbb80	-0.00390625
168	0x3b1d	0.0023956299
169	0xbafd	-0.0019302368
170	0x3b1a	0.0023498535
171	0x3b36	0.0027770996
172	0x3b35	0.0027618408
173	0xbaf5	-0.0018692017
174	0x3b42	0.002960205
175	0xbb34	-0.002746582
176	0x3a01	0.00049209595
177	0xb994	-0.0002822876
178	0xbaa6	-0.0012664795
179	0x3897	7.200241e-05
180	0x3ac7	0.0015182495
181	0x39ff	0.0004863739
182	0x3a76	0.0009384155
183	0x3939	0.00017642975
184	0x3b1a	0.0023498535
185	0xbb5a	-0.003326416
186	0x3b29	0.0025787354
187	0x3b59	0.0033111572
188	0x3b32	0.0027160645
189	0xbb1c	-0.002380371
190	0x3b5f	0.00340271
191	0xbb03	-0.0019989014
192	0xbb3a	-0.0028381348
193	0x3a89	0.001045227
194	0xb97e	-0.00024223328
195	0xbb36	-0.0027770996
196	0xbb01	-0.0019683838
197	0x3ad5	0.001625061
198	0xbb19	-0.0023345947
199	0x3aef	0.0018234253
200	0x3b02	0.0019836426
201	0xbb09	-0.002090454
202	0x3b34	0.002746582
203	0x3b25	0.0025177002
204	0x3b05	0.002029419
205	0xbb08	-0.0020751953
206	0x3b23	0.0024871826
207	0xbb4a	-0.0030822754
208	0x3a9c	0.0011901855
209	0xba2b	-0.00065231323
210	0x3a24	0.00062561035
211	0x3aa5	0.0012588501
212	0xb9da	-0.000415802
213	0xba95	-0.0011367798
214	0x39a4	0.00031280518
215	0xba39	-0.000705719
216	0xbb59	-0.0033111572
217	0x3b6c	0.0036010742
218	0xbb84	-0.0040283203
219	0xbb84	-0.0040283203
220	0xbb3a	-0.0028381348
221	0x3b80	0.00390625
222	0xbb81	-0.0039367676
223	0x3b72	0.003692627
224	0xb9b7	-0.0003490448
225	0x3aab	0.0013046265
226	0xbae4	-0.001739502
227	0xb87a	-5.9604645e-05
228	0xb9c9	-0.00038337708
229	0xba96	-0.0011444092
230	0xb9a1	-0.00030708313
231	0x3903	0.00012493134
232	0x38e4	0.00010871887
233	0xb9d9	-0.00041389465
234	0xba87	-0.0010299683
235	0xba64	-0.000869751
236	0xb712	-8.702278e-06
237	0x3a61	0.0008583069
238	0xb9d9	-0.00041389465
239	0x3a9a	0.0011749268
240	0x3b3d	0.0028839111
241	0xbb54	-0.0032348633
242	0x3b80	0.00390625
243	0x3b82	0.003967285
244	0x3b7f	0.0038909912
245	0xbb80	-0.00390625
246	0x3b82	0.003967285
247	0xbb81	-0.0039367676
248	0xbb16	-0.0022888184
249	0x3b26	0.002532959
250	0xbb57	-0.0032806396
251	0xbb51	-0.003189087
252	0xbb32	-0.0027160645
253	0x3b43	0.0029754639
254	0xbb51	-0.003189087
255	0x3b52	0.0032043457

base_model.model.transformer.h.11.attn.c_attn.lora_A.weight bf16 [8, 768]
0	0x3d12	0.03564453
1	0x3c0f	0.008728027
2	0x3c0d	0.008605957
3	0xbc79	-0.015197754
4	0xbc67	-0.014099121
5	0xbcd5	-0.026000977
6	0xbb34	-0.002746582
7	0x3c00	0.0078125
8	0xbc8e	-0.017333984
9	0x3c00	0.0078125
10	0x3c99	0.018676758
11	0xbc24	-0.010009766
12	0x3be3	0.0069274902
13	0xbca5	-0.020141602
14	0xbbde	-0.0067749023
15	0x3ca6	0.020263672
16	0xbcc0	-0.0234375
17	0xbca4	-0.020019531
18	0xbb87	-0.004119873
19	0xbd09	-0.033447266
20	0x3c98	0.018554688
21	0x3c00	0.0078125
22	0x3b87	0.004119873
23	0xbc06	-0.008178711
24	0xbd04	-0.032226562
25	0x3c00	0.0078125
26	0xbcde	-0.02709961
27	0x3cf5	0.029907227
28	0xbb8f	-0.0043640137
29	0xbca9	-0.020629883
30	0xbc7c	-0.015380859
31	0x3c60	0.013671875
32	0x3d08	0.033203125
33	0xbd02	-0.03173828
34	0xbb87	-0.004119873
35	0x3ccc	0.024902344
36	0x3cda	0.026611328
37	0x3cb6	0.022216797
38	0x3a0e	0.000541687
39	0xbce1	-0.02746582
40	0xbb0a	-0.002105713
41	0xbcc5	-0.024047852
42	0xbd06	-0.032714844
43	0xbcea	-0.028564453
44	0xbc9b	-0.018920898
45	0x3ce3	0.027709961
46	0xbcce	-0.025146484
47	0xbba6	-0.005065918
48	0x3cb6	0.022216797
49	0xbd10	-0.03515625
50	0x3c91	0.017700195
51	0xbca6	-0.020263672
52	0xbc00	-0.0078125
53	0x3b0c	0.0021362305
54	0xbc58	-0.013183594
55	0x3c68	0.014160156
56	0x3b8f	0.0043640137
57	0x3d06	0.032714844
58	0xbc24	-0.010009766
59	0x3ce5	0.027954102
60	0x3cd9	0.026489258
61	0x3c7d	0.0154418945
62	0xbc72	-0.014770508
63	0x3cd7	0.026245117
64	0x3c64	0.013916016
65	0xbcbc	-0.022949219
66	0x3d04	0.032226562
67	0x3c12	0.008911133
68	0x3cc2	0.02368164
69	0x3caf	0.021362305
70	0x3c9f	0.01940918
71	0x3b9a	0.004699707
72	0x3bc3	0.0059509277
73	0x3ca1	0.01965332
74	0xbc40	-0.01171875
75	0x3d0a	0.033691406
76	0xbbd2	-0.0064086914
77	0xbce1	-0.02746582
78	0xbba2	-0.0049438477
79	0x3cf9	0.030395508
80	0xbd12	-0.03564453
81	0x3b8f	0.0043640137
82	0xbcae	-0.021240234
83	0x3cdf	0.02722168
84	0x3c75	0.014953613
85	0x3c8c	0.017089844
86	0x3c00	0.0078125
87	0xbc09	-0.008361816
88	0x3cda	0.026611328
89	0x3ce2	0.02758789
90	0xbb81	-0.0039367676
91	0x3c00	0.0078125
92	0x3d0d	0.034423828
93	0x3be0	0.0068359375
94	0xbcf6	-0.030029297
95	0x3b74	0.0037231445
96	0xbcff	-0.03112793
97	0x3cc5	0.024047852
98	0x3cf2	0.029541016
99	0xbc05	-0.008117676
100	0xbb8a	-0.004211426
101	0xbd0e	-0.03466797
102	0xbce1	-0.02746582
103	0x3caf	0.021362305
104	0xbcc6	-0.024169922
105	0xbc90	-0.017578125
106	0xbc77	-0.015075684
107	0xbbbd	-0.0057678223
108	0x3c8c	0.017089844
109	0x3d07	0.032958984
110	0xbcf5	-0.029907227
111	0x3c81	0.01574707
112	0xbc6a	-0.014282227
113	0xbbac	-0.0052490234
114	0x3c83	0.015991211
115	0xbca1	-0.01965332
116	0xbce9	-0.028442383
117	0xbc17	-0.009216309
118	0x3c01	0.007873535
119	0xbca3	-0.019897461
120	0x3c12	0.008911133
121	0xbd04	-0.032226562
122	0x3bdc	0.006713867
123	0x3c9e	0.01928711
124	0x3c47	0.012145996
125	0xbcd6	-0.026123047
126	0xbc3d	-0.0115356445
127	0xbcb3	-0.021850586
128	0xbc9b	-0.018920898
129	0xbc6c	-0.014404297
130	0xbc00	-0.0078125
131	0x3c20	0.009765625
132	0xbc00	-0.0078125
133	0x3c83	0.015991211
134	0x3c2f	0.010681152
135	0x3c14	0.009033203
136	0x3c9b	0.018920898
137	0x3cb3	0.021850586
138	0x3c2e	0.010620117
139	0x3cf8	0.030273438
140	0xbcbf	-0.02331543
141	0xbc2c	-0.010498047
142	0x3c69	0.014221191
143	0xbca3	-0.019897461
144	0x3c00	0.0078125
145	0xbc36	-0.011108398
146	0x3cdf	0.02722168
147	0x3ba4	0.005004883
148	0xbc27	-0.010192871
149	0x3bf1	0.0073547363
150	0xbd10	-0.03515625
151	0x3cd8	0.026367188
152	0x3c54	0.012939453
153	0xbcf0	-0.029296875
154	0x3cf2	0.029541016
155	0x3d13	0.035888672
156	0x3cc0	0.0234375
157	0xbc23	-0.0099487305
158	0xbc8e	-0.017333984
159	0xbd12	-0.03564453
160	0xbca4	-0.020019531
161	0x3ce1	0.02746582
162	0xbd13	-0.035888672
163	0x3ca5	0.020141602
164	0xbd12	-0.03564453
165	0x3c99	0.018676758
166	0xbb80	-0.00390625
167	0x3ce2	0.02758789
168	0x3bff	0.0077819824
169	0x3d10	0.03515625
170	0x3b8e	0.004333496
171	0xbc6e	-0.014526367
172	0x3cb8	0.022460938
173	0xbb9a	-0.004699707
174	0xbccf	-0.025268555
175	0xbc3a	-0.011352539
176	0xbb92	-0.0044555664
177	0xbcd6	-0.026123047
178	0xbcc8	-0.024414062
179	0x3c71	0.014709473
180	0x3cc1	0.02355957
181	0x3c6a	0.014282227
182	0x3cbb	0.022827148
183	0xbc94	-0.018066406
184	0x3c24	0.010009766
185	0xbc00	-0.0078125
186	0x3ae1	0.0017166138
187	0xbca0	-0.01953125
188	0xbced	-0.028930664
189	0x3ccc	0.024902344
190	0xbb62	-0.0034484863
191	0xbc2c	-0.010498047
192	0xbced	-0.028930664
193	0xbcde	-0.02709961
194	0x3d10	0.03515625
195	0xbd0e	-0.03466797
196	0x3cac	0.020996094
197	0x3cfa	0.030517578
198	0x3b75	0.0037384033
199	0xbc22	-0.009887695
200	0x3c10	0.0087890625
201	0x3c12	0.008911133
202	0x3c80	0.015625
203	0xbcbe	-0.02319336
204	0xbc83	-0.015991211
205	0xbcd4	-0.025878906
206	0xbbb3	-0.0054626465
207	0xbc04	-0.008056641
208	0xbb8b	-0.0042419434
209	0x3c95	0.018188477
210	0xbcc8	-0.024414062
211	0x3d04	0.032226562
212	0xbcda	-0.026611328
213	0x3c94	0.018066406
214	0xbd0f	-0.03491211
215	0xbbb3	-0.0054626465
216	0x3d12	0.03564453
217	0x3cfc	0.030761719
218	0x3ca5	0.020141602
219	0xbb90	-0.0043945312
220	0x3ca0	0.01953125
221	0x3c49	0.012268066
222	0xbccb	-0.024780273
223	0x3c8f	0.017456055
224	0x3c84	0.016113281
225	0x3ca3	0.019897461
226	0xb9c5	-0.00037574768
227	0x3c3a	0.011352539
228	0x3cac	0.020996094
229	0x3cec	0.028808594
230	0xbd05	-0.032470703
231	0x3ca1	0.01965332
232	0xbcf0	-0.029296875
233	0xbcfe	-0.03100586
234	0x3c55	0.013000488
235	0xbc88	-0.016601562
236	0xbb86	-0.0040893555
237	0x3b81	0.0039367676
238	0xbc4e	-0.012573242
239	0x3cbf	0.02331543
240	0x3c4c	0.012451172
241	0xbca9	-0.020629883
242	0x3c90	0.017578125
243	0xbc7b	-0.015319824
244	0xbbba	-0.0056762695
245	0x3cfe	0.03100586
246	0xbc92	-0.017822266
247	0x3cca	0.024658203
248	0xbc00	-0.0078125
249	0xbd0d	-0.034423828
250	0xbcf1	-0.029418945
251	0xbc22	-0.009887695
252	0x3cbf	0.02331543
253	0xbb8e	-0.004333496
254	0xbbdc	-0.006713867
255	0xbb80	-0.00390625
