examples/research_projects/stack_llama/scripts/gpt2_peft_stack-exchange-paired_rmts__100000_2e-05/checkpoint-1000/adapter_model.safetensors (safetensors, 594496 bytes, 25 tensors)

base_model.model.score.weight bf16 [1, 768]
0.029296875 0.0058288574 0.01928711 0.03149414 0.009887695 -0.030395508 -0.005340576 0.011474609
0.006286621 -0.011352539 0.010864258 -0.011230469 0.012023926 0.047607422 0.033447266 -0.016723633
-0.010070801 -0.010192871 -0.008728027 0.02734375 -0.013427734 -0.0028686523 0.017944336 -0.026733398
0.015319824 0.022949219 -0.011474609 0.01928711 0.040771484 0.011230469 0.0025634766 -0.013977051
-0.009399414 -0.027832031 0.027709961 -0.012268066 0.05908203 0.013061523 -0.02709961 -0.029663086
0.01977539 0.023803711 -0.040283203 -0.031982422 -0.01928711 0.011230469 -0.013671875 -0.015014648
0.018432617 0.0073547363 0.0099487305 -0.028320312 -0.0010528564 0.031982422 0.006072998 -0.009765625
0.017578125 -0.028198242 0.0008354187 -0.017700195 -0.0032958984 0.0008239746 -0.022705078 0.0043945312
0.018798828 0.0079956055 0.010314941 0.021606445 -0.008483887 -0.028442383 -0.01159668 0.012512207
0.025512695 -0.0053710938 -0.001701355 0.0095825195 0.022094727 -0.0026550293 0.0078125 0.020751953
0.020996094 -0.008117676 -0.022094727 0.00033187866 -0.0063476562 -0.018554688 -0.018188477 -0.014221191
0.024414062 0.0060424805 0.005706787 -0.0027923584 -0.013916016 0.0390625 0.02319336 0.000121593475
-0.0003643036 0.01953125 -7.1525574e-05 0.010192871 -0.022705078 0.028442383 -0.017822266 0.010070801
0.025390625 0.0027618408 -0.01361084 0.022949219 0.0021972656 -0.008239746 7.8082085e-06 -0.033935547
0.016845703 0.01159668 -0.041259766 -0.016479492 -0.012817383 0.010009766 0.014953613 -0.0043029785
0.010620117 -0.028930664 -0.013305664 0.0046691895 0.022216797 0.024414062 0.03881836 0.031982422
-0.00970459 0.018188477 -0.022460938 0.007293701 -0.022338867 -0.019042969 -0.0002002716 0.011108398
-0.027832031 0.022094727 -0.024414062 0.017822266 0.026000977 -0.0025482178 0.0020751953 0.018554688
-0.033935547 0.010559082 -0.006378174 -0.026489258 0.029663086 -0.004180908 0.0031585693 -0.024536133
0.012145996 0.018676758 -0.04248047 -0.0018463135 0.018798828 -0.02331543 0.00289917 0.004211426
0.014709473 -0.013244629 0.011413574 0.013549805 -0.018188477 0.031982422 0.009399414 0.004486084
-0.013000488 -0.007232666 -0.026123047 0.037597656 -0.013977051 0.011474609 0.014831543 0.029907227
0.010559082 -0.0039978027 0.003967285 -0.0046691895 -0.012145996 0.012023926 0.0054016113 -0.0016021729
0.03173828 0.010253906 0.003967285 -0.017578125 0.00050735474 0.016357422 0.00390625 -0.00390625
-0.0119018555 0.021850586 0.03173828 -0.022094727 0.03173828 -0.014709473 0.009460449 -0.008239746
0.0021362305 0.0037231445 0.0023956299 0.024047852 -0.029663086 0.008300781 0.0036468506 0.00390625
-0.0015029907 -0.0012283325 0.006591797 0.0031738281 0.015319824 -0.01928711 0.033691406 0.003967285
-0.011108398 0.016235352 -0.0038909912 0.019165039 0.0057678223 0.019165039 0.0032348633 -0.052490234
-0.008239746 0.02319336 -0.047851562 -0.013671875 -0.03125 -0.020507812 0.017211914 0.006500244
-0.044921875 0.0095825195 -0.032470703 -0.0119018555 -0.017700195 0.009643555 0.012145996 -0.01550293
-0.02331543 0.017578125 0.022094727 0.021850586 -0.032470703 -0.0019683838 0.01361084 0.014709473
-0.022949219 -0.014465332 -0.004058838 -0.0037994385 0.0053100586 0.017578125 -0.024658203 0.014099121
00000000: f03c bf3b 9e3c 013d 223c f9bc afbb 3c3c
00000010: ce3b 3abc 323c 38bc 453c 433d 093d 89bc
00000020: 25bc 27bc 0fbc e03c 5cbc 3cbb 933c dbbc
00000030: 7b3c bc3c 3cbc 9e3c 273d 383c 283b 65bc
00000040: 1abc e4bc e33c 49bc 723d 563c debc f3bc
00000050: a23c c33c 25bd 03bd 9ebc 383c 60bc 76bc
00000060: 973c f13b 233c e8bc 8aba 033d c73b 20bc
00000070: 903c e7bc 5b3a 91bc 58bb 583a babc 903b
00000080: 9a3c 033c 293c b13c 0bbc e9bc 3ebc 4d3c
00000090: d13c b0bb dfba 1d3c b53c 2ebb 003c aa3c
000000a0: ac3c 05bc b5bc ae39 d0bb 98bc 95bc 69bc
000000b0: c83c c63b bb3b 37bb 64bc 203d be3c ff38
000000c0: bfb9 a03c 96b8 273c babc e93c 92bc 253c
000000d0: d03c 353b 5fbc bc3c 103b 07bc 0337 0bbd
000000e0: 8a3c 3e3c 29bd 87bc 52bc 243c 753c 8dbb
000000f0: 2e3c edbc 5abc 993b b63c c83c 1f3d 033d
00000100: 1fbc 953c b8bc ef3b b7bc 9cbc 52b9 363c
00000110: e4bc b53c c8bc 923c d53c 27bb 083b 983c
00000120: 0bbd 2d3c d1bb d9bc f33c 89bb 4f3b c9bc
00000130: 473c 993c 2ebd f2ba 9a3c bfbc 3e3b 8a3b
00000140: 713c 59bc 3b3c 5e3c 95bc 033d 1a3c 933b
00000150: 55bc edbb d6bc 1a3d 65bc 3c3c 733c f53c
00000160: 2d3c 83bb 823b 99bb 47bc 453c b13b d2ba
00000170: 023d 283c 823b 90bc 053a 863c 803b 80bb
00000180: 43bc b33c 023d b5bc 023d 71bc 1b3c 07bc
00000190: 0c3b 743b 1d3b c53c f3bc 083c 6f3b 803b
000001a0: c5ba a1ba d83b 503b 7b3c 9ebc 0a3d 823b
000001b0: 36bc 853c 7fbb 9d3c bd3b 9d3c 543b 57bd
000001c0: 07bc be3c 44bd 60bc 00bd a8bc 8d3c d53b
000001d0: 38bd 1d3c 05bd 43bc 91bc 1e3c 473c 7ebc
000001e0: bfbc 903c b53c b33c 05bd 01bb 5f3c 713c
000001f0: bcbc 6dbc 85bb 79bb ae3b 903c cabc 673c

base_model.model.transformer.h.0.attn.c_attn.lora_A.weight bf16 [8, 768]
-0.026123047 0.027954102 -0.028198242 -0.0011825562 0.033691406 0.017578125 -0.005340576 0.015991211
0.0087890625 -0.011108398 -0.009399414 -0.010925293 -0.033203125 -0.0234375 0.0031433105 0.019165039
-0.028930664 0.026000977 0.032226562 -0.020141602 0.015563965 0.024169922 -0.018066406 0.017822266
0.032714844 0.02722168 -0.033691406 -0.0008201599 -0.0039367676 0.016479492 0.0043640137 -0.021728516
-0.033203125 -0.009399414 0.0018539429 -0.023925781 0.013671875 -0.011413574 -0.011291504 -0.018798828
-0.024047852 0.02331543 0.027709961 0.0025482178 -0.018676758 0.00090026855 -0.0073242188 0.016357422
-0.008056641 -0.01953125 0.022949219 -0.010681152 0.026733398 0.00390625 0.020996094 -0.0015869141
-0.008239746 -0.002319336 -0.0046691895 0.003768921 0.0034179688 0.016357422 0.001045227 -0.003967285
0.004119873 0.005279541 0.033447266 0.009765625 0.03173828 0.014831543 0.024902344 -0.024902344
0.025512695 -0.01953125 0.0032653809 0.03173828 0.00078582764 0.019165039 -0.004211426 -0.024902344
0.028198242 -0.020141602 0.03515625 -0.0049743652 -0.015136719 -0.030029297 0.021362305 -0.029296875
-0.00491333 -0.0015945435 0.014343262 -0.015197754 0.008911133 -0.026245117 0.0146484375 -0.010253906
0.020263672 0.032226562 0.032226562 -0.025634766 -0.031982422 0.012817383 -0.02331543 -0.005645752
0.016479492 0.01977539 -0.0068969727 0.022827148 -0.016113281 -0.006652832 0.019897461 0.006378174
0.032226562 0.01928711 0.026733398 0.009765625 -0.00022506714 -0.0079956055 0.028320312 0.00062179565
0.0038909912 -0.023071289 -0.0009651184 0.0033111572 0.009460449 0.018432617 0.014343262 -0.034423828
-0.029785156 0.024658203 -0.03466797 0.018798828 0.0014190674 0.012878418 -0.026855469 0.01184082
-0.018066406 0.03564453 -0.014282227 -0.007080078 0.0019454956 0.009521484 -0.015380859 0.032226562
-0.020507812 -0.0030670166 0.011352539 -0.03515625 -0.029418945 0.022216797 0.03540039 0.017822266
-0.020141602 0.008361816 -0.03466797 0.003540039 -0.025756836 -0.010864258 0.022216797 0.032470703
-0.012390137 0.024414062 -0.032958984 0.004272461 0.014709473 -0.021362305 0.021118164 0.028076172
0.0062561035 0.020385742 0.029663086 0.008361816 0.017700195 -0.0045776367 -0.0016021729 0.011413574
0.034179688 -0.029541016 0.02758789 0.009094238 -0.020629883 0.015380859 0.00011968613 -0.011108398
0.032958984 0.007751465 -0.028442383 0.030639648 -0.015563965 0.022583008 0.021484375 -0.0070495605
0.033203125 0.0017242432 0.025268555 0.020751953 -0.021484375 0.025756836 -0.009033203 -0.005493164
0.020507812 0.010192871 0.03540039 0.024291992 0.0037384033 0.03515625 -0.012451172 -0.026855469
-0.014038086 -0.021118164 -0.00089645386 -0.0138549805 -0.028564453 0.0039978027 -0.016601562 -0.00022315979
-0.012329102 -0.017700195 0.03540039 0.0051574707 -0.0046691895 -0.0068359375 0.029785156 -0.02758789
0.026489258 0.035888672 -0.012573242 -0.01928711 0.01574707 0.031982422 -0.0034942627 0.030395508
-0.009033203 -0.03540039 0.017944336 0.034423828 -0.009338379 -0.0074768066 0.0079956055 0.032470703
0.032226562 -0.021118164 0.026245117 -0.016601562 -0.010131836 0.007232666 0.026489258 -0.020507812
0.004638672 -0.022827148 -0.03173828 -0.018066406 -0.010253906 -0.024291992 -0.02709961 -0.0076904297
00000000: d6bc e53c e7bc 9bba 0a3d 903c afbb 833c
00000010: 103c 36bc 1abc 33bc 08bd c0bc 4e3b 9d3c
00000020: edbc d53c 043d a5bc 7f3c c63c 94bc 923c
00000030: 063d df3c 0abd 57ba 81bb 873c 8f3b b2bc
00000040: 08bd 1abc f33a c4bc 603c 3bbc 39bc 9abc
00000050: c5bc bf3c e33c 273b 99bc 6c3a f0bb 863c
00000060: 04bc a0bc bc3c 2fbc db3c 803b ac3c d0ba
00000070: 07bc 18bb 99bb 773b 603b 863c 893a 82bb
00000080: 873b ad3b 093d 203c 023d 733c cc3c ccbc
00000090: d13c a0bc 563b 023d 4e3a 9d3c 8abb ccbc
000000a0: e73c a5bc 103d a3bb 78bc f6bc af3c f0bc
000000b0: a1bb d1ba 6b3c 79bc 123c d7bc 703c 28bc
000000c0: a63c 043d 043d d2bc 03bd 523c bfbc b9bb
000000d0: 873c a23c e2bb bb3c 84bc dabb a33c d13b
000000e0: 043d 9e3c db3c 203c 6cb9 03bc e83c 233a
000000f0: 7f3b bdbc 7dba 593b 1b3c 973c 6b3c 0dbd
00000100: f4bc ca3c 0ebd 9a3c ba3a 533c dcbc 423c
00000110: 94bc 123d 6abc e8bb ff3a 1c3c 7cbc 043d
00000120: a8bc 49bb 3a3c 10bd f1bc b63c 113d 923c
00000130: a5bc 093c 0ebd 683b d3bc 32bc b63c 053d
00000140: 4bbc c83c 07bd 8c3b 713c afbc ad3c e63c
00000150: cd3b a73c f33c 093c 913c 96bb d2ba 3b3c
00000160: 0c3d f2bc e23c 153c a9bc 7c3c fb38 36bc
00000170: 073d fe3b e9bc fb3c 7fbc b93c b03c e7bb
00000180: 083d e23a cf3c aa3c b0bc d33c 14bc b4bb
00000190: a83c 273c 113d c73c 753b 103d 4cbc dcbc
000001a0: 66bc adbc 6bba 63bc eabc 833b 88bc 6ab9
000001b0: 4abc 91bc 113d a93b 99bb e0bb f43c e2bc
000001c0: d93c 133d 4ebc 9ebc 813c 033d 65bb f93c
000001d0: 14bc 11bd 933c 0d3d 19bc f5bb 033c 053d
000001e0: 043d adbc d73c 88bc 26bc ed3b d93c a8bc
000001f0: 983b bbbc 02bd 94bc 28bc c7bc debc fcbb

base_model.model.transformer.h.0.attn.c_attn.lora_B.weight bf16 [2304, 8]
-0.00077438354 -0.00019836426 0.0006904602 -0.00038719177 -0.00050354004 -0.0006866455 -6.109476e-06 0.0002975464
-0.0006599426 0.0012817383 -0.00016975403 0.0008125305 0.0006866455 -0.00045585632 -0.00038337708 -0.00091552734
0.0002670288 9.4890594e-05 0.00019931793 6.0796738e-05 0.0005378723 8.6307526e-05 -0.0004119873 -0.00076675415
0.0007209778 0.0005760193 -0.0011444092 0.00092697144 0.0015640259 5.888939e-05 -0.0008201599 -0.0005302429
-0.00074768066 -0.00088882446 -2.527237e-05 -0.00049209595 -0.00022983551 2.014637e-05 0.00062561035 0.00016784668
-0.00049972534 0.0008621216 0.000114917755 -0.0011291504 -0.00041007996 -0.0003299713 -1.168251e-05 8.583069e-05
0.00046539307 0.0016326904 0.0002708435 -0.0005607605 0.00015640259 -7.200241e-05 -0.0005912781 -0.0008773804
0.0006980896 0.00076293945 -0.00074768066 8.058548e-05 0.00074005127 -0.00018978119 0.00022411346 -0.00041770935
-9.918213e-05 -0.000113487244 0.0002670288 -0.00037765503 -0.00020980835 7.343292e-05 -0.00013160706 0.0008201599
8.34465e-05 -0.00015258789 0.0008163452 -0.0010147095 -0.0014724731 -0.0008659363 0.0007019043 0.0014572144
0.00032043457 0.00020313263 -0.0007095337 0.0010375977 0.0014038086 -0.0003452301 -0.0008506775 -0.00075912476
9.012222e-05 0.0008049011 0.00042533875 -0.00076675415 -0.00025749207 0.00014019012 -1.0371208e-05 -0.0002975464
0.00036621094 -0.00012683868 0.000869751 -0.00032806396 -0.000166893 5.5730343e-06 -0.0001707077 0.0006790161
0.0008583069 -8.2969666e-05 -0.001373291 0.00061416626 0.0015563965 0.0010299683 0.00021648407 -0.00018310547
0.000333786 -0.00044059753 0.00092697144 -0.0011825562 -0.0016403198 -0.0005683899 0.0002632141 0.0012359619
0.00061416626 0.0015640259 0.0007972717 -0.00047302246 -0.00010871887 3.862381e-05 -0.0008125305 -0.00062942505
-0.0004310608 -0.0005645752 -0.0008735657 0.00010061264 0.0006904602 -0.0001335144 -0.0005264282 -0.0005836487
0.00035858154 -0.00074005127 -9.1552734e-05 -0.00038337708 -0.0002593994 -0.000541687 2.0861626e-05 0.001953125
2.2768974e-05 0.00062942505 0.000579834 -0.00031852722 0.0003414154 -0.00079345703 0.0003376007 -0.00061035156
0.00032806396 0.00074386597 0.00046348572 -0.00035858154 -0.00029563904 -0.00030136108 0.00034713745 -0.0006752014
-0.00093460083 -0.00065231323 0.0002975464 0.00046920776 -0.00077056885 0.0006599426 0.00061035156 0.000667572
-0.0005950928 0.001045227 0.00089645386 -0.00021076202 -0.00091171265 -0.00028800964 5.2690506e-05 -0.0007362366
9.10759e-05 -0.00038337708 0.00041007996 0.00033569336 -0.00012874603 0.00079345703 -0.0006637573 -0.0005722046
-0.00031661987 -0.00051116943 0.00031661987 -9.584427e-05 3.4570694e-05 -0.00012302399 -0.0009727478 -0.0005264282
0.0005455017 -0.00077438354 -0.0019836426 0.00028038025 0.0018844604 0.0010223389 2.5629997e-05 -0.00016593933
0.00023841858 -0.0009498596 -0.0009841919 -2.0623207e-05 0.000957489 -0.0005187988 -0.00065612793 0.00024223328
-0.0005187988 -0.0010070801 0.0014266968 -0.00065612793 -0.0008430481 -0.00093460083 0.00045394897 0.00015735626
0.00027656555 0.00065612793 0.0016784668 -0.001373291 -0.0017166138 -0.0008468628 1.3783574e-06 -5.221367e-05
0.00077819824 0.0008583069 0.00079345703 -0.000207901 -0.00012779236 -0.0006904602 0.0005760193 0.0010910034
-0.0004196167 -0.00027275085 -0.000869751 0.0010757446 0.001411438 -0.00020885468 -0.00090026855 0.0005874634
-0.00045585632 -0.0006980896 -0.0003604889 0.0009841919 -5.364418e-05 0.00064086914 0.00043296814 0.00022792816
0.000415802 0.00076675415 0.0007019043 0.00044441223 -0.00064849854 0.00037574768 -0.00029182434 -0.00026130676
00000000: 4bba 50b9 353a cbb9 04ba 34ba cdb6 9c39
00000010: 2dba a83a 32b9 553a 343a efb9 c9b9 70ba
00000020: 8c39 c738 5139 7f38 0d3a b538 d8b9 49ba
00000030: 3d3a 173a 96ba 733a cd3a 7738 57ba 0bba
00000040: 44ba 69ba d4b7 01ba 71b9 a937 243a 3039
00000050: 03ba 623a f138 94ba d7b9 adb9 44b7 b438
00000060: f439 d63a 8e39 13ba 2439 97b8 1bba 66ba
00000070: 373a 483a 44ba a938 423a 47b9 6b39 dbb9
00000080: d0b8 eeb8 8c39 c6b9 5cb9 9a38 0ab9 573a
00000090: af38 20b9 563a 85ba c1ba 63ba 383a bf3a
000000a0: a839 5539 3aba 883a b83a b5b9 5fba 47ba
000000b0: bd38 533a df39 49ba 87b9 1339 2eb7 9cb9
000000c0: c039 05b9 643a acb9 2fb9 bb36 33b9 323a
000000d0: 613a aeb8 b4ba 213a cc3a 873a 6339 40b9
000000e0: af39 e7b9 733a 9bba d7ba 15ba 8a39 a23a
000000f0: 213a cd3a 513a f8b9 e4b8 2238 55ba 25ba
00000100: e2b9 14ba 65ba d338 353a 0cb9 0aba 19ba
00000110: bc39 42ba c0b8 c9b9 88b9 0eba af37 003b
00000120: bf37 253a 183a a7b9 b339 50ba b139 20ba
00000130: ac39 433a f339 bcb9 9bb9 9eb9 b639 31ba
00000140: 75ba 2bba 9c39 f639 4aba 2d3a 203a 2f3a
00000150: 1cba 893a 6b3a 5db9 6fba 97b9 5d38 41ba
00000160: bf38 c9b9 d739 b039 07b9 503a 2eba 16ba
00000170: a6b9 06ba a639 c9b8 1138 01b9 7fba 0aba
00000180: 0f3a 4bba 02bb 9339 f73a 863a d737 2eb9
00000190: 7a39 79ba 81ba adb7 7b3a 08ba 2cba 7e39
000001a0: 08ba 84ba bb3a 2cba 5dba 75ba ee39 2539
000001b0: 9139 2c3a dc3a b4ba e1ba 5eba b935 5bb8
000001c0: 4c3a 613a 503a 5ab9 06b9 35ba 173a 8f3a
000001d0: dcb9 8fb9 64ba 8d3a b93a 5bb9 6cba 1a3a
000001e0: efb9 37ba bdb9 813a 61b8 283a e339 6f39
000001f0: da39 493a 383a e939 2aba c539 99b9 89b9

base_model.model.transformer.h.1.attn.c_attn.lora_A.weight bf16 [8, 768]
0.02319336 0.020629883 -0.026245117 0.008117676 -0.033691406 0.021606445 -0.01953125 -0.010559082
-0.029052734 0.032226562 0.03564453 0.009155273 -0.00075149536 -0.0014038086 0.020507812 0.021850586
-0.010620117 0.004760742 -0.0078125 0.025024414 0.011108398 -0.021118164 -0.01977539 0.016113281
0.013427734 -0.010803223 -0.0072021484 -0.010070801 -0.01928711 0.009521484 0.025634766 -0.014709473
0.011352539 -0.020751953 0.014404297 0.0050964355 0.009155273 -0.008117676 0.033935547 -0.024658203
0.008178711 -0.033447266 0.028930664 0.011047363 -0.004760742 0.035888672 -0.020263672 0.029541016
0.0054626465 0.016235352 0.014404297 -0.015991211 0.006134033 -0.021972656 -0.016479492 0.021850586
0.017211914 -0.035888672 0.014343262 0.025390625 0.0014419556 -0.008361816 0.00491333 0.0025024414
-0.012329102 0.015014648 0.025390625 0.03100586 -0.024047852 -0.008483887 0.03540039 0.01586914
-0.021362305 0.00023460388 0.017944336 -0.015197754 -0.03173828 0.013916016 -0.02368164 -0.019042969
0.01574707 -0.004272461 -0.0078125 0.0071411133 -0.021728516 -0.020263672 -0.0048217773 0.030029297
0.023803711 0.009887695 -0.0018539429 -0.007751465 0.0024108887 0.00592041 0.0065612793 -0.034423828
0.019897461 -0.002319336 0.018554688 0.03466797 0.03100586 0.017333984 -0.0036621094 -0.029174805
0.03564453 0.0078125 0.019897461 0.011291504 0.024047852 -0.024658203 -0.024047852 -0.0018615723
-0.034423828 -0.00039482117 -0.030517578 -0.012329102 -0.030273438 -0.010437012 0.023803711 -0.005340576
0.009399414 -0.0037841797 -0.0074157715 -0.030151367 -0.025268555 -0.025146484 0.017089844 0.0038452148
0.034423828 0.0043029785 -0.024169922 0.020751953 -0.01977539 -0.028930664 -0.015258789 0.03125
0.012084961 0.03540039 -0.030151367 0.01171875 -0.032470703 0.01940918 0.026123047 -0.013366699
0.022827148 0.015197754 0.0115356445 -0.021972656 0.01550293 -0.013793945 0.013366699 -0.014465332
0.023071289 0.013244629 -0.02355957 0.03515625 0.00390625 0.006072998 -0.036132812 0.017089844
0.02709961 -0.02319336 -0.020385742 -0.007598877 -0.017578125 -0.011413574 0.006713867 0.032226562
-0.006652832 -0.03173828 0.011108398 0.02319336 -0.032958984 0.016479492 0.032226562 -0.005279541
-0.021972656 -0.0038452148 -0.033447266 -0.01184082 -0.013366699 -0.021972656 -0.033447266 -0.028930664
0.0066223145 -0.0001707077 0.005859375 0.02355957 -0.017456055 -0.014831543 0.014099121 0.0016479492
0.033691406 -0.029296875 -0.004180908 0.015380859 0.0064697266 0.010986328 0.011779785 -0.032714844
0.032958984 0.0234375 -0.02355957 0.024902344 0.012451172 -0.012329102 0.0072631836 -0.00079345703
-0.00390625 0.011779785 0.025634766 0.03112793 -0.00012874603 0.011352539 0.01928711 0.01928711
-0.022460938 0.0049743652 0.03491211 0.03149414 0.018066406 0.008972168 0.021728516 0.033447266
0.0012588501 0.028442383 0.030883789 -0.01574707 0.00023937225 0.0146484375 -0.010864258 0.026611328
-0.027954102 -0.021484375 0.03515625 -0.02368164 0.028320312 0.032226562 0.015014648 0.008300781
-0.0068359375 -0.0039367676 0.0038452148 -0.008422852 0.002532959 0.010986328 0.016357422 0.027954102
0.014953613 0.027709961 0.008361816 0.0087890625 0.0234375 0.004180908 -0.024169922 -0.019897461
00000000: be3c a93c d7bc 053c 0abd b13c a0bc 2dbc
00000010: eebc 043d 123d 163c 45ba b8ba a83c b33c
00000020: 2ebc 9c3b 00bc cd3c 363c adbc a2bc 843c
00000030: 5c3c 31bc ecbb 25bc 9ebc 1c3c d23c 71bc
00000040: 3a3c aabc 6c3c a73b 163c 05bc 0b3d cabc
00000050: 063c 09bd ed3c 353c 9cbb 133d a6bc f23c
00000060: b33b 853c 6c3c 83bc c93b b4bc 87bc b33c
00000070: 8d3c 13bd 6b3c d03c bd3a 09bc a13b 243b
00000080: 4abc 763c d03c fe3c c5bc 0bbc 113d 823c
00000090: afbc 7639 933c 79bc 02bd 643c c2bc 9cbc
000000a0: 813c 8cbb 00bc ea3b b2bc a6bc 9ebb f63c
000000b0: c33c 223c f3ba febb 1e3b c23b d73b 0dbd
000000c0: a33c 18bb 983c 0e3d fe3c 8e3c 70bb efbc
000000d0: 123d 003c a33c 393c c53c cabc c5bc f4ba
000000e0: 0dbd cfb9 fabc 4abc f8bc 2bbc c33c afbb
000000f0: 1a3c 78bb f3bb f7bc cfbc cebc 8c3c 7c3b
00000100: 0d3d 8d3b c6bc aa3c a2bc edbc 7abc 003d
00000110: 463c 113d f7bc 403c 05bd 9f3c d63c 5bbc
00000120: bb3c 793c 3d3c b4bc 7e3c 62bc 5b3c 6dbc
00000130: bd3c 593c c1bc 103d 803b c73b 14bd 8c3c
00000140: de3c bebc a7bc f9bb 90bc 3bbc dc3b 043d
00000150: dabb 02bd 363c be3c 07bd 873c 043d adbb
00000160: b4bc 7cbb 09bd 42bc 5bbc b4bc 09bd edbc
00000170: d93b 33b9 c03b c13c 8fbc 73bc 673c d83a
00000180: 0a3d f0bc 89bb 7c3c d43b 343c 413c 06bd
00000190: 073d c03c c1bc cc3c 4c3c 4abc ee3b 50ba
000001a0: 80bb 413c d23c ff3c 07b9 3a3c 9e3c 9e3c
000001b0: b8bc a33b 0f3d 013d 943c 133c b23c 093d
000001c0: a53a e93c fd3c 81bc 7b39 703c 32bc da3c
000001d0: e5bc b0bc 103d c2bc e83c 043d 763c 083c
000001e0: e0bb 81bb 7c3b 0abc 263b 343c 863c e53c
000001f0: 753c e33c 093c 103c c03c 893b c6bc a3bc

base_model.model.transformer.h.1.attn.c_attn.lora_B.weight bf16 [2304, 8]
-0.0001296997 -0.0013885498 -0.0007324219 -0.0005340576 -0.00060272217 -0.0012588501 -3.695488e-05 -0.0005645752
7.200241e-05 0.0015335083 0.0012817383 0.0011749268 0.0011520386 0.0008735657 0.00077056885 0.0016708374
-0.0008125305 -0.0006713867 0.0015487671 0.00075531006 0.00078582764 -0.0007972717 0.00048828125 0.00015068054
-0.00043678284 -1.7166138e-05 0.000957489 0.0005950928 0.0010070801 0.0001411438 0.0010375977 0.0011672974
0.0004711151 0.00041770935 -0.0008201599 -0.0001745224 -0.0005455017 -0.00051116943 -0.0010375977 0.00037765503
-0.0012512207 -0.00039291382 0.0004825592 0.0006828308 -0.00036621094 -0.00061798096 -0.0004196167 0.00030326843
-0.00016403198 -0.0010910034 -0.00089263916 -0.0007286072 -0.0009460449 -0.00088500977 -0.00017356873 3.695488e-05
0.00017738342 -0.001159668 -0.00043296814 -0.0013198853 -0.0008049011 -0.00019454956 -0.00037765503 -0.0014572144
0.0010147095 0.0001745224 -0.00050735474 -0.00024795532 -0.00044441223 0.00010919571 -3.7908554e-05 -0.0010147095
0.0007362366 0.0007362366 -0.00022888184 0.0007133484 0.0005722046 0.0008430481 0.00023365021 0.00075149536
-0.0002746582 0.0009841919 0.0014266968 0.0008277893 0.0011672974 0.0011367798 0.0008010864 0.0010528564
0.0011978149 0.00051498413 -0.0012054443 -0.0009498596 -0.00078582764 0.00015830994 -0.0006942749 -0.0009727478
0.00079345703 0.00025558472 -0.0016708374 -0.00088882446 -0.0013885498 -0.00051498413 -0.001083374 -0.00092315674
-0.00013637543 -0.00015544891 0.0001373291 -2.3841858e-05 0.00012493134 -0.00025177002 0.000579834 0.00038909912
4.082918e-06 -0.00045013428 0.00018024445 0.00039482117 0.0001373291 -0.00019359589 0.00019168854 0.00045013428
-0.00065612793 0.00039291382 0.00060653687 0.00061416626 0.0005455017 -4.196167e-05 -5.6743622e-05 0.0008163452
0.00038146973 4.9591064e-05 -0.00089645386 0.00013542175 0.000579834 6.246567e-05 -0.000289917 6.389618e-05
0.000869751 0.0005607605 -0.0016555786 -0.00091171265 -0.0014266968 -0.0005683899 -0.0005760193 -0.0008773804
-0.00046157837 0.0012512207 0.001449585 0.0014877319 0.0013656616 0.001663208 0.0008773804 0.0016021729
-0.0002975464 -0.0007972717 0.00016403198 -0.00023365021 0.0008049011 0.00023460388 0.0001783371 0.00063705444
-0.0010223389 -0.0011138916 0.00046730042 -0.00031661987 -0.00078201294 -0.00089263916 0.00088882446 -0.00077819824
-0.0007095337 -5.7697296e-05 -0.00037574768 -0.00038719177 -0.0003604889 -0.0003452301 -0.00039291382 -0.00022411346
-0.0015106201 -0.00075149536 0.00019168854 -0.00028038025 -0.00048828125 -0.0004119873 -0.0007362366 -0.00042915344
0.00065612793 5.888939e-05 -0.0011291504 -0.00092697144 -0.0013961792 -7.104874e-05 0.00018119812 -0.0003528595
-0.0007209778 0.0007324219 0.0006752014 0.0006828308 0.0006904602 -3.6001205e-05 -0.00059890747 0.0013580322
-0.0001206398 -0.0010147095 -0.0007247925 -0.00076675415 -0.0006599426 -0.0012054443 -5.531311e-05 -0.0009918213
0.0005493164 0.0008506775 0.0008277893 0.0005302429 0.0010757446 0.00074005127 0.00088119507 0.0007247925
-0.0007171631 -6.055832e-05 0.0011978149 -7.104874e-05 -0.00028038025 -0.0004043579 0.00092315674 -0.00015449524
-1.0251999e-05 0.0012207031 0.00043678284 0.0007171631 0.0016479492 0.0015792847 0.00025749207 0.0018005371
0.0010757446 0.0007362366 0.0004272461 0.00018596649 0.00059890747 0.00088119507 0.0002117157 0.0005302429
-0.001121521 -0.00039863586 0.0012588501 0.0011749268 0.00035476685 0.00037384033 0.00018119812 0.00013256073
5.698204e-05 -0.0001206398 0.00027275085 -9.393692e-05 0.0003490448 0.00037384033 0.00065612793 0.00059890747
00000000: 08b9 b6ba 40ba 0cba 1eba a5ba 1bb8 14ba
00000010: 9738 c93a a83a 9a3a 973a 653a 4a3a db3a
00000020: 55ba 30ba cb3a 463a 4e3a 51ba 003a 1e39
00000030: e5b9 90b7 7b3a 1c3a 843a 1439 883a 993a
00000040: f739 db39 57ba 37b9 0fba 06ba 88ba c639
00000050: a4ba ceb9 fd39 333a c0b9 22ba dcb9 9f39
00000060: 2cb9 8fba 6aba 3fba 78ba 68ba 36b9 1b38
00000070: 3a39 98ba e3b9 adba 53ba 4cb9 c6b9 bfba
00000080: 853a 3739 05ba 82b9 e9b9 e538 1fb8 85ba
00000090: 413a 413a 70b9 3b3a 163a 5d3a 7539 453a
000000a0: 90b9 813a bb3a 593a 993a 953a 523a 8a3a
000000b0: 9d3a 073a 9eba 79ba 4eba 2639 36ba 7fba
000000c0: 503a 8639 dbba 69ba b6ba 07ba 8eba 72ba
000000d0: 0fb9 23b9 1039 c8b7 0339 84b9 183a cc39
000000e0: 8936 ecb9 3d39 cf39 1039 4bb9 4939 ec39
000000f0: 2cba ce39 1f3a 213a 0f3a 30b8 6eb8 563a
00000100: c839 5038 6bba 0e39 183a 8338 98b9 8638
00000110: 643a 133a d9ba 6fba bbba 15ba 17ba 66ba
00000120: f2b9 a43a be3a c33a b33a da3a 663a d23a
00000130: 9cb9 51ba 2c39 75b9 533a 7639 3b39 273a
00000140: 86ba 92ba f539 a6b9 4dba 6aba 693a 4cba
00000150: 3aba 72b8 c5b9 cbb9 bdb9 b5b9 ceb9 6bb9
00000160: c6ba 45ba 4939 93b9 00ba d8b9 41ba e1b9
00000170: 2c3a 7738 94ba 73ba b7ba 95b8 3e39 b9b9
00000180: 3dba 403a 313a 333a 353a 17b8 1dba b23a
00000190: fdb8 85ba 3eba 49ba 2dba 9eba 68b8 82ba
000001a0: 103a 5f3a 593a 0b3a 8d3a 423a 673a 3e3a
000001b0: 3cba 7eb8 9d3a 95b8 93b9 d4b9 723a 22b9
000001c0: 2cb7 a03a e539 3c3a d83a cf3a 8739 ec3a
000001d0: 8d3a 413a e039 4339 1d3a 673a 5e39 0b3a
000001e0: 93ba d1b9 a53a 9a3a ba39 c439 3e39 0b39
000001f0: 6f38 fdb8 8f39 c5b8 b739 c439 2c3a 1d3a

base_model.model.transformer.h.10.attn.c_attn.lora_A.weight bf16 [8, 768]
-0.014770508 -0.030273438 0.017578125 0.0126953125 0.006713867 -0.0071411133 -0.03564453 -0.020507812
-0.011230469 0.020629883 -0.002319336 -0.0078125 -0.0051879883 -0.0008468628 -0.0021362305 -0.022216797
-0.032714844 0.021972656 -0.028564453 -0.00032615662 0.0027923584 -0.0078125 0.026611328 -0.025878906
-0.034179688 -0.004699707 0.023925781 0.018798828 0.014587402 0.010620117 0.013916016 0.0069274902
0.03125 -0.018188477 0.006500244 0.033935547 -0.026977539 -0.014343262 -0.018676758 0.032714844
-0.033691406 -0.020507812 -0.032470703 -0.0052490234 0.0015487671 0.020019531 0.024047852 -0.011413574
0.017700195 0.022338867 -0.017578125 -0.028808594 0.02722168 0.013916016 0.029541016 -0.022216797
-0.023071289 -0.008178711 -0.0134887695 0.02758789 -0.0072631836 -0.021606445 -0.016235352 0.03466797
0.014221191 -0.03540039 0.0068969727 -0.030761719 -0.017578125 -0.026000977 -0.022216797 0.01965332
0.0067443848 -0.020507812 0.03466797 -0.0077819824 0.004058838 0.016113281 0.01586914 -0.01940918
-0.004638672 -0.012390137 0.007751465 0.02355957 -0.013793945 -0.026977539 0.018920898 0.0055236816
0.02734375 0.01965332 0.033935547 0.009338379 -0.020019531 -0.025024414 0.0023040771 0.013977051
0.032470703 0.023071289 -0.033691406 -0.0138549805 0.01953125 0.026489258 0.020263672 0.002166748
0.0008163452 -0.021484375 -0.030395508 -0.012817383 0.030517578 -0.0046691895 -0.021484375 0.0077819824
0.0058898926 -0.018066406 0.016479492 -0.013061523 -0.020263672 0.0011138916 0.033203125 0.0056152344
0.028930664 -0.03100586 -0.032470703 0.0052490234 0.007507324 -0.026367188 -0.025634766 -0.025024414
0.017944336 -0.013305664 -0.033935547 -0.003829956 -0.03515625 0.0025177002 0.03491211 -0.013305664
-0.009765625 0.032470703 -0.022949219 -0.010314941 0.02355957 0.01574707 0.035888672 0.0056152344
-0.022460938 0.021972656 0.031982422 -0.0069274902 -0.020874023 -0.018188477 -0.032714844 -0.0047302246
-0.018066406 0.026977539 0.024414062 -0.028442383 0.02758789 0.028930664 0.030029297 0.0071105957
0.011047363 0.0004119873 -0.011230469 0.0078125 -0.016845703 -0.024780273 0.012756348 0.026855469
0.012817383 -0.0047302246 0.0039367676 0.021972656 -0.03515625 0.025024414 0.0078125 -0.008728027
0.007232666 0.03491211 0.013061523 0.030151367 0.0025482178 0.020019531 -0.009460449 -0.023071289
-0.0043945312 0.009460449 0.009460449 0.0057373047 0.007598877 0.0043029785 0.011108398 0.0095825195
0.033203125 -0.036132812 0.03540039 0.013977051 0.012268066 0.01940918 -0.014404297 0.008728027
0.018066406 0.009399414 0.0024108887 -0.029785156 0.015258789 -0.033935547 -0.022460938 -0.029052734
-0.0015029907 -0.03100586 -0.0047302246 0.0026550293 0.03100586 0.021606445 0.010070801 0.000415802
-0.0050354004 0.028442383 -0.012084961 -0.02368164 -0.018798828 -0.028564453 -0.0068359375 0.0078125
-0.03466797 -0.020141602 0.017211914 0.030273438 0.01159668 -0.02709961 0.028442383 0.029174805
-0.028076172 -0.0078125 0.014404297 -0.0078125 -0.016479492 -0.03491211 -0.020385742 -0.028076172
-0.01373291 -0.025512695 -0.013427734 -0.0078125 0.004486084 -0.010437012 0.016479492 0.0234375
-0.028320312 -0.020751953 0.020507812 -0.021362305 -0.03149414 0.015258789 -0.026489258 -0.0043945312
00000000: 72bc f8bc 903c 503c dc3b eabb 12bd a8bc
00000010: 38bc a93c 18bb 00bc aabb 5eba 0cbb b6bc
00000020: 06bd b43c eabc abb9 373b 00bc da3c d4bc
00000030: 0cbd 9abb c43c 9a3c 6f3c 2e3c 643c e33b
00000040: 003d 95bc d53b 0b3d ddbc 6bbc 99bc 063d
00000050: 0abd a8bc 05bd acbb cb3a a43c c53c 3bbc
00000060: 913c b73c 90bc ecbc df3c 643c f23c b6bc
00000070: bdbc 06bc 5dbc e23c eebb b1bc 85bc 0e3d
00000080: 693c 11bd e23b fcbc 90bc d5bc b6bc a13c
00000090: dd3b a8bc 0e3d ffbb 853b 843c 823c 9fbc
000000a0: 98bb 4bbc fe3b c13c 62bc ddbc 9b3c b53b
000000b0: e03c a13c 0b3d 193c a4bc cdbc 173b 653c
000000c0: 053d bd3c 0abd 63bc a03c d93c a63c 0e3b
000000d0: 563a b0bc f9bc 52bc fa3c 99bb b0bc ff3b
000000e0: c13b 94bc 873c 56bc a6bc 923a 083d b83b
000000f0: ed3c febc 05bd ac3b f63b d8bc d2bc cdbc
00000100: 933c 5abc 0bbd 7bbb 10bd 253b 0f3d 5abc
00000110: 20bc 053d bcbc 29bc c13c 813c 133d b83b
00000120: b8bc b43c 033d e3bb abbc 95bc 06bd 9bbb
00000130: 94bc dd3c c83c e9bc e23c ed3c f63c e93b
00000140: 353c d839 38bc 003c 8abc cbbc 513c dc3c
00000150: 523c 9bbb 813b b43c 10bd cd3c 003c 0fbc
00000160: ed3b 0f3d 563c f73c 273b a43c 1bbc bdbc
00000170: 90bb 1b3c 1b3c bc3b f93b 8d3b 363c 1d3c
00000180: 083d 14bd 113d 653c 493c 9f3c 6cbc 0f3c
00000190: 943c 1a3c 1e3b f4bc 7a3c 0bbd b8bc eebc
000001a0: c5ba febc 9bbb 2e3b fe3c b13c 253c da39
000001b0: a5bb e93c 46bc c2bc 9abc eabc e0bb 003c
000001c0: 0ebd a5bc 8d3c f83c 3e3c debc e93c ef3c
000001d0: e6bc 00bc 6c3c 00bc 87bc 0fbd a7bc e6bc
000001e0: 61bc d1bc 5cbc 00bc 933b 2bbc 873c c03c
000001f0: e8bc aabc a83c afbc 01bd 7a3c d9bc 90bb

base_model.model.transformer.h.10.attn.c_attn.lora_B.weight bf16 [2304, 8]
0.0018692017 -0.0027923584 0.0012664795 0.0024871826 0.0021362305 -0.002670288 0.002746582 -0.0018234253
1.8954277e-05 -0.001953125 0.00045204163 0.00079345703 0.0013961792 -0.0014343262 0.00037574768 -0.00076675415
-0.0012893677 0.0024719238 -0.00048828125 -0.0029449463 -0.0023498535 0.002670288 -0.0018692017 0.00093078613
-0.0008277893 0.0017623901 -0.0019683838 -0.0013275146 -0.0019836426 0.00088882446 -0.0017547607 0.0011749268
0.0005378723 -0.00014972687 -0.00016880035 -0.00061798096 -8.535385e-05 -0.00045013428 -0.00045394897 -0.0009384155
-0.0019454956 0.0024261475 -0.0030059814 -0.0034942627 -0.0023956299 0.003768921 -0.0032348633 0.0028839111
-0.0017166138 0.001953125 -0.0023498535 -0.001953125 -0.0022735596 0.0002193451 -0.0022277832 0.0015869141
0.0014953613 -0.0021820068 0.0008163452 0.002105713 0.0012741089 -0.0030975342 0.0023956299 -0.0005760193
0.0017623901 -0.0022125244 0.0018615723 0.0027313232 0.0021209717 -0.0022277832 0.0024414062 -0.001335144
0.0019683838 -0.0028381348 0.0026245117 0.0029449463 0.0030059814 -0.0027160645 0.0031738281 -0.0026245117
-0.0018692017 0.002243042 -0.0015640259 -0.002960205 -0.0027313232 0.0031585693 -0.0029296875 0.002380371
0.0014877319 -0.0024719238 0.0023651123 0.002670288 0.0027160645 -0.0024414062 0.0027160645 -0.0024719238
0.001373291 -0.0018081665 0.00018501282 0.0022277832 0.001914978 -0.0015487671 0.0021972656 -0.0008049011
-0.00090408325 0.00077438354 -0.00074768066 -0.0023498535 -0.001411438 0.0016937256 -0.0021972656 0.0019378662
-0.0019836426 0.0021514893 -0.0027313232 -0.0032196045 -0.0026855469 0.0029907227 -0.0031280518 0.0026855469
0.0020599365 -0.003036499 0.0026855469 0.00390625 0.0038757324 -0.0029296875 0.00390625 -0.0033721924
0.0008010864 -0.002243042 0.002105713 0.0026550293 0.0020446777 -0.002090454 0.002029419 -0.0010757446
-0.0019073486 0.0022277832 -0.0025787354 -0.0026550293 -0.0023651123 0.0020599365 -0.002746582 0.0024414062
0.0010147095 -0.0013580322 0.0018157959 0.0009918213 0.0013504028 -0.001045227 0.0014572144 -0.0016708374
0.00091552734 -0.00010442734 -0.0007324219 0.0011901855 0.000113487244 -0.00039672852 0.0010757446 0.00025367737
0.0019989014 -0.0026550293 0.0034332275 0.0036773682 0.0029296875 -0.0026245117 0.0035552979 -0.003189087
0.0013122559 -0.0016479492 0.001335144 0.0022277832 0.0025177002 -0.00088500977 0.002456665 -0.0015563965
0.00041770935 -0.0008049011 -0.00024032593 0.0008430481 0.0018692017 0.0003490448 0.0008544922 -0.0005950928
0.0012435913 -0.0020751953 0.0018997192 0.0019226074 0.0022583008 -0.001449585 0.0017166138 -0.0012512207
-0.0020599365 0.001159668 -0.00031661987 -0.0025177002 -0.0014190674 0.0016326904 -0.0021209717 0.00065612793
0.0009498596 -0.0018997192 0.0021514893 0.0019989014 0.0021972656 -0.001663208 0.0021209717 -0.0022125244
0.00044441223 0.00022029877 -0.00037956238 -0.00015926361 -0.0008430481 -0.0005187988 0.00017166138 0.00077819824
-0.002090454 0.0026245117 -0.0028686523 -0.00340271 -0.0024108887 0.0028686523 -0.0037384033 0.0025177002
8.2969666e-05 0.0006980896 -0.0018157959 0.00039482117 -0.00033569336 -0.0014419556 -0.00024795532 0.00035858154
5.531311e-05 -0.0002975464 -0.00075531006 -0.00011301041 1.9550323e-05 3.361702e-05 -0.00013065338 0.00023937225
0.0019683838 -0.0021820068 0.0027770996 0.00390625 0.0031433105 -0.002822876 0.00340271 -0.002670288
-0.0015106201 0.0020141602 -0.0023040771 -0.0025787354 -0.0023040771 0.0018844604 -0.0028686523 0.0022583008
00000000: f53a 37bb a63a 233b 0c3b 2fbb 343b efba
00000010: 9f37 00bb ed39 503a b73a bcba c539 49ba
00000020: a9ba 223b 00ba 41bb 1abb 2f3b f5ba 743a
00000030: 59ba e73a 01bb aeba 02bb 693a e6ba 9a3a
00000040: 0d3a 1db9 31b9 22ba b3b8 ecb9 eeb9 76ba
00000050: ffba 1f3b 45bb 65bb 1dbb 773b 54bb 3d3b
00000060: e1ba 003b 1abb 00bb 15bb 6639 12bb d03a
00000070: c43a 0fbb 563a 0a3b a73a 4bbb 1d3b 17ba
00000080: e73a 11bb f43a 333b 0b3b 12bb 203b afba
00000090: 013b 3abb 2c3b 413b 453b 32bb 503b 2cbb
000000a0: f5ba 133b cdba 42bb 33bb 4f3b 40bb 1c3b
000000b0: c33a 22bb 1b3b 2f3b 323b 20bb 323b 22bb
000000c0: b43a edba 4239 123b fb3a cbba 103b 53ba
000000d0: 6dba 4b3a 44ba 1abb b9ba de3a 10bb fe3a
000000e0: 02bb 0d3b 33bb 53bb 30bb 443b 4dbb 303b
000000f0: 073b 47bb 303b 803b 7e3b 40bb 803b 5dbb
00000100: 523a 13bb 0a3b 2e3b 063b 09bb 053b 8dba
00000110: faba 123b 29bb 2ebb 1bbb 073b 34bb 203b
00000120: 853a b2ba ee3a 823a b13a 89ba bf3a dbba
00000130: 703a dbb8 40ba 9c3a ee38 d0b9 8d3a 8539
00000140: 033b 2ebb 613b 713b 403b 2cbb 693b 51bb
00000150: ac3a d8ba af3a 123b 253b 68ba 213b ccba
00000160: db39 53ba 7cb9 5d3a f53a b739 603a 1cba
00000170: a33a 08bb f93a fc3a 143b beba e13a a4ba
00000180: 07bb 983a a6b9 25bb baba d63a 0bbb 2c3a
00000190: 793a f9ba 0d3b 033b 103b daba 0b3b 11bb
000001a0: e939 6739 c7b9 27b9 5dba 08ba 3439 4c3a
000001b0: 09bb 2c3b 3cbb 5fbb 1ebb 3c3b 75bb 253b
000001c0: ae38 373a eeba cf39 b0b9 bdba 82b9 bc39
000001d0: 6838 9cb9 46ba edb8 a437 0d38 09b9 7b39
000001e0: 013b 0fbb 363b 803b 4e3b 39bb 5f3b 2fbb
000001f0: c6ba 043b 17bb 29bb 17bb f73a 3cbb 143b

base_model.model.transformer.h.11.attn.c_attn.lora_A.weight bf16 [8, 768]
0.03564453 0.008728027 0.008605957 -0.015197754 -0.014099121 -0.026000977 0.0014190674 0.0078125
-0.017333984 0.0077819824 0.018676758 -0.010009766 0.006866455 -0.020141602 -0.0068359375 0.020263672
-0.0234375 -0.020019531 -0.004119873 -0.033447266 0.018554688 0.007751465 0.0040893555 -0.008178711
-0.032226562 0.0078125 -0.02709961 0.029907227 -0.004058838 -0.020629883 -0.015380859 0.013671875
0.033203125 -0.03173828 -0.003967285 0.024902344 0.026611328 0.022216797 0.0012664795 -0.02746582
-0.0013504028 -0.024047852 -0.032714844 -0.028564453 -0.018920898 0.027709961 -0.025146484 -0.005126953
0.022216797 -0.03515625 0.017700195 -0.020263672 -0.0078125 0.0017471313 -0.013183594 0.014160156
0.004211426 0.032714844 -0.010009766 0.027954102 0.026489258 0.0154418945 -0.014770508 0.026245117
0.013916016 -0.022949219 0.032226562 0.008911133 0.02368164 0.021362305 0.01940918 0.004699707
0.006011963 0.01965332 -0.01171875 0.033691406 -0.0063171387 -0.02746582 -0.004425049 0.030395508
-0.03564453 0.004211426 -0.021240234 0.02722168 0.014953613 0.017089844 0.0078125 -0.008361816
0.026611328 0.02758789 -0.00390625 0.0078125 0.034423828 0.0068359375 -0.030029297 0.0014572144
-0.03112793 0.024047852 0.029541016 -0.008117676 -0.004211426 -0.03466797 -0.02746582 0.021362305
-0.024169922 -0.017578125 -0.015075684 -0.005584717 0.017089844 0.032958984 -0.029907227 0.01574707
-0.014282227 -0.005218506 0.015991211 -0.01965332 -0.028442383 -0.009216309 0.007873535 -0.019897461
0.008911133 -0.032226562 0.006713867 0.01928711 0.012145996 -0.026123047 -0.0115356445 -0.021850586
-0.018920898 -0.014404297 -0.007659912 0.009765625 -0.0078125 0.015991211 0.010681152 0.009033203
0.018920898 0.021850586 0.010620117 0.030273438 -0.02331543 -0.010498047 0.014221191 -0.019897461
0.0078125 -0.011108398 0.02722168 0.005004883 -0.010192871 0.0073547363 -0.03515625 0.026367188
0.012939453 -0.029296875 0.029541016 0.035888672 0.0234375 -0.0099487305 -0.017333984 -0.03564453
-0.020019531 0.02746582 -0.035888672 0.020141602 -0.03564453 0.018676758 -0.00091552734 0.02758789
0.0078125 0.03515625 0.004333496 -0.014526367 0.022460938 -0.004699707 -0.025268555 -0.011352539
-0.0042419434 -0.026123047 -0.024414062 0.014709473 0.02355957 0.014282227 0.022827148 -0.018066406
0.010009766 -0.0078125 0.004272461 -0.01953125 -0.028930664 0.024902344 -0.0014877319 -0.010498047
-0.028930664 -0.02709961 0.03515625 -0.03466797 0.020996094 0.030517578 0.0038604736 -0.009887695
0.0087890625 0.008911133 0.015625 -0.02319336 -0.015991211 -0.025878906 -0.0054626465 -0.008056641
-0.0038757324 0.018188477 -0.024414062 0.032226562 -0.026611328 0.018066406 -0.03491211 -0.0052490234
0.03564453 0.030761719 0.020141602 -0.004119873 0.01953125 0.012268066 -0.024780273 0.017456055
0.016113281 0.019897461 0.0015335083 0.011352539 0.020996094 0.028808594 -0.032470703 0.01965332
-0.029296875 -0.03100586 0.013000488 -0.016601562 -0.0038604736 0.003967285 -0.012573242 0.02331543
0.012451172 -0.020629883 0.017578125 -0.015319824 -0.0056152344 0.03100586 -0.017822266 0.024658203
-0.0078125 -0.034423828 -0.029418945 -0.009887695 0.02331543 -0.0042419434 -0.0066833496 -0.0032196045
00000000: 123d 0f3c 0d3c 79bc 67bc d5bc ba3a 003c
00000010: 8ebc ff3b 993c 24bc e13b a5bc e0bb a63c
00000020: c0bc a4bc 87bb 09bd 983c fe3b 863b 06bc
00000030: 04bd 003c debc f53c 85bb a9bc 7cbc 603c
00000040: 083d 02bd 82bb cc3c da3c b63c a63a e1bc
00000050: b1ba c5bc 06bd eabc 9bbc e33c cebc a8bb
00000060: b63c 10bd 913c a6bc 00bc e53a 58bc 683c
00000070: 8a3b 063d 24bc e53c d93c 7d3c 72bc d73c
00000080: 643c bcbc 043d 123c c23c af3c 9f3c 9a3b
00000090: c53b a13c 40bc 0a3d cfbb e1bc 91bb f93c
000000a0: 12bd 8a3b aebc df3c 753c 8c3c 003c 09bc
000000b0: da3c e23c 80bb 003c 0d3d e03b f6bc bf3a
000000c0: ffbc c53c f23c 05bc 8abb 0ebd e1bc af3c
000000d0: c6bc 90bc 77bc b7bb 8c3c 073d f5bc 813c
000000e0: 6abc abbb 833c a1bc e9bc 17bc 013c a3bc
000000f0: 123c 04bd dc3b 9e3c 473c d6bc 3dbc b3bc
00000100: 9bbc 6cbc fbbb 203c 00bc 833c 2f3c 143c
00000110: 9b3c b33c 2e3c f83c bfbc 2cbc 693c a3bc
00000120: 003c 36bc df3c a43b 27bc f13b 10bd d83c
00000130: 543c f0bc f23c 133d c03c 23bc 8ebc 12bd
00000140: a4bc e13c 13bd a53c 12bd 993c 70ba e23c
00000150: 003c 103d 8e3b 6ebc b83c 9abb cfbc 3abc
00000160: 8bbb d6bc c8bc 713c c13c 6a3c bb3c 94bc
00000170: 243c 00bc 8c3b a0bc edbc cc3c c3ba 2cbc
00000180: edbc debc 103d 0ebd ac3c fa3c 7d3b 22bc
00000190: 103c 123c 803c bebc 83bc d4bc b3bb 04bc
000001a0: 7ebb 953c c8bc 043d dabc 943c 0fbd acbb
000001b0: 123d fc3c a53c 87bb a03c 493c cbbc 8f3c
000001c0: 843c a33c c93a 3a3c ac3c ec3c 05bd a13c
000001d0: f0bc febc 553c 88bc 7dbb 823b 4ebc bf3c
000001e0: 4c3c a9bc 903c 7bbc b8bb fe3c 92bc ca3c
000001f0: 00bc 0dbd f1bc 22bc bf3c 8bbb dbbb 53bb

base_model.model.transformer.h.11.attn.c_attn.lora_B.weight bf16 [2304, 8]
-0.001373291 -0.001953125 0.0023498535 8.2969666e-05 -0.00046920776 -0.0015945435 -0.0023956299 0.002456665
-0.0014648438 -0.0016937256 0.002090454 0.0007133484 -0.00038146973 -0.0020446777 -0.0020446777 0.0017852783
-0.001083374 -0.0005531311 0.0014038086 -0.0011978149 0.0011062622 7.867813e-06 -0.001953125 0.0013580322
0.0011444092 -0.00075912476 -0.0021209717 -0.0006599426 -0.0014419556 0.0012359619 0.0013198853 -0.0023498535
0.000957489 -0.00019931793 -0.0009994507 -0.0002784729 -0.0011901855 -0.00023937225 0.0014648438 -0.00088882446
-0.001083374 0.0025787354 -0.0012741089 -9.10759e-05 0.0019378662 0.001953125 0.00088500977 -0.0018157959
-0.00390625 -0.00046539307 0.004180908 0.00051116943 0.0029907227 -0.0016021729 -0.00390625 0.00390625
-0.0013961792 -0.0002746582 0.0009651184 -0.00015163422 -0.00024604797 -0.0005455017 -0.0015258789 0.0012283325
-0.0014648438 -0.0015258789 0.0022888184 0.0003681183 -0.00035858154 -0.0010223389 -0.0025634766 0.0023956299
-0.0018615723 0.0013656616 0.0010223389 -0.0005722046 0.0022583008 0.00062561035 -0.00090789795 0.00030899048
-6.6280365e-05 -0.0005874634 0.00031089783 0.00092315674 -0.00023078918 -1.4305115e-05 1.0311604e-05 0.0008392334
0.0023651123 0.0019302368 -0.00390625 -0.00092315674 -0.0020141602 0.0027160645 0.0025482178 -0.0038909912
0.0028686523 -0.0012054443 -0.0023345947 0.0005302429 -0.0030822754 -0.00031280518 0.001953125 -0.0013198853
0.0010299683 -0.0018005371 0.00062942505 0.0017776489 -0.0011367798 -0.00077056885 -0.00014591217 0.0007972717
0.0034637451 0.00013256073 -0.0039978027 -0.00022411346 -0.0028533936 0.00092315674 0.00390625 -0.0029754639
-0.0010375977 0.00093078613 0.00044441223 1.2516975e-05 0.00042533875 0.0010528564 -3.71933e-05 -0.0002975464
0.0010375977 -0.0021362305 -0.00051498413 2.18153e-05 -0.0020141602 -3.385544e-05 0.0010070801 3.838539e-05
-0.0009765625 -4.863739e-05 -3.5762787e-05 -0.00026130676 0.00079345703 0.00049209595 -0.00050735474 0.00041007996
0.0011672974 -0.0014877319 -0.0012817383 -0.000541687 -0.00042152405 -0.0004043579 0.001335144 -0.0004119873
-0.0021820068 0.001159668 0.0024261475 0.0005493164 0.0023956299 -0.00051498413 -0.0020141602 0.0021362305
0.0029144287 0.002029419 -0.004119873 -0.0015411377 -0.0012817383 0.0025177002 0.004058838 -0.0036315918
0.0009460449 -0.0021209717 0.00028419495 0.0007171631 -0.0018844604 -0.0019989014 1.6450882e-05 0.00090026855
-0.001953125 0.0002593994 0.002105713 -0.00020694733 0.0022583008 -0.0012435913 -0.001373291 0.001625061
-0.0039367676 -0.00038337708 0.004119873 0.00060272217 0.0030517578 -0.0018844604 -0.003967285 0.004058838
-0.0027770996 0.0014877319 0.001914978 -0.0005264282 0.0032196045 0.0008468628 -0.0012969971 0.00064468384
-0.0005683899 0.00032806396 0.0013961792 8.72612e-05 0.0012969971 0.00012493134 -0.001335144 0.00065612793
0.00033950806 0.00017642975 -0.0017089844 -0.0005531311 0.000869751 2.1338463e-05 0.0012130737 -0.001121521
-0.0030212402 0.00048828125 0.0035552979 0.0007286072 0.0025787354 -0.0007362366 -0.0029754639 0.0025024414
-0.002456665 0.0012130737 0.0026397705 -0.00049209595 0.0025024414 0.00051498413 -0.002670288 0.0017547607
0.0011978149 0.0002117157 -0.0015106201 -0.00028038025 -0.0019378662 0.0008201599 0.0009651184 -0.0010986328
0.0026550293 -0.00022315979 -0.00340271 -0.00089263916 -0.0025787354 0.0009384155 0.0031585693 -0.0027923584
-0.0030517578 -0.0016021729 0.0040283203 0.0012817383 0.0027618408 -0.0024871826 -0.00390625 0.00390625
00000000: b4ba 00bb 1a3b ae38 f6b9 d1ba 1dbb 213b
00000010: c0ba deba 093b 3b3a c8b9 06bb 06bb ea3a
00000020: 8eba 11ba b83a 9dba 913a 0437 00bb b23a
00000030: 963a 47ba 0bbb 2dba bdba a23a ad3a 1abb
00000040: 7b3a 51b9 83ba 92b9 9cba 7bb9 c03a 69ba
00000050: 8eba 293b a7ba bfb8 fe3a 003b 683a eeba
00000060: 80bb f4b9 893b 063a 443b d2ba 80bb 803b
00000070: b7ba 90b9 7d3a 1fb9 81b9 0fba c8ba a13a
00000080: c0ba c8ba 163b c139 bcb9 86ba 28bb 1d3b
00000090: f4ba b33a 863a 16ba 143b 243a 6eba a239
000000a0: 8bb8 1aba a339 723a 72b9 70b7 2d37 5c3a
000000b0: 1b3b fd3a 80bb 72ba 04bb 323b 273b 7fbb
000000c0: 3c3b 9eba 19bb 0b3a 4abb a4b9 003b adba
000000d0: 873a ecba 253a e93a 95ba 4aba 19b9 513a
000000e0: 633b 0b39 83bb 6bb9 3bbb 723a 803b 43bb
000000f0: 88ba 743a e939 5237 df39 8a3a 1cb8 9cb9
00000100: 883a 0cbb 07ba b737 04bb 0eb8 843a 2138
00000110: 80ba 4cb8 16b8 89b9 503a 013a 05ba d739
00000120: 993a c3ba a8ba 0eba ddb9 d4b9 af3a d8b9
00000130: 0fbb 983a 1f3b 103a 1d3b 07ba 04bb 0c3b
00000140: 3f3b 053b 87bb caba a8ba 253b 853b 6ebb
00000150: 783a 0bbb 9539 3c3a f7ba 03bb 8a37 6c3a
00000160: 00bb 8839 0a3b 59b9 143b a3ba b4ba d53a
00000170: 81bb c9b9 873b 1e3a 483b f7ba 82bb 853b
00000180: 36bb c33a fb3a 0aba 533b 5e3a aaba 293a
00000190: 15ba ac39 b73a b738 aa3a 0339 afba 2c3a
000001a0: b239 3939 e0ba 11ba 643a b337 9f3a 93ba
000001b0: 46bb 003a 693b 3f3a 293b 41ba 43bb 243b
000001c0: 21bb 9f3a 2d3b 01ba 243b 073a 2fbb e63a
000001d0: 9d3a 5e39 c6ba 93b9 feba 573a 7d3a 90ba
000001e0: 2e3b 6ab9 5fbb 6aba 29bb 763a 4f3b 37bb
000001f0: 48bb d2ba 843b a83a 353b 23bb 80bb 803b

base_model.model.transformer.h.2.attn.c_attn.lora_A.weight bf16 [8, 768]
-0.024291992 -0.017211914 0.016113281 -0.02355957 0.032714844 0.00592041 -0.01586914 -0.016357422
0.01184082 0.007080078 -0.02355957 0.017578125 -0.012878418 0.021606445 -0.012573242 0.017211914
-0.024780273 0.02709961 0.013000488 -0.003112793 0.016113281 0.014099121 0.021362305 -0.0010147095
0.0234375 0.01965332 -0.014099121 -0.024169922 0.032226562 -0.011291504 0.032958984 -0.022338867
0.01361084 0.0048217773 0.033203125 0.002960205 0.031982422 0.013366699 -0.0017471313 0.02722168
-0.015625 0.022705078 0.016479492 -0.032958984 0.000541687 -0.006652832 -0.0046081543 -0.03149414
-0.029052734 -0.015075684 0.024658203 0.025512695 -0.03100586 0.03149414 -0.00044441223 0.022216797
-0.017578125 -0.00038337708 -0.016601562 0.005554199 -0.007873535 0.030517578 -0.024536133 -0.009521484
0.0078125 0.013244629 0.026977539 -0.021850586 0.021484375 0.00037002563 -0.020996094 0.028076172
-0.007873535 0.014770508 0.033691406 0.004333496 -0.030517578 0.012451172 -0.0005187988 -0.017944336
0.026611328 0.01361084 -0.01574707 -0.013671875 -0.027832031 0.024169922 0.028930664 -0.005218506
0.013427734 -0.01171875 -0.020263672 -0.025390625 -0.025146484 0.013916016 -0.03466797 0.032958984
-0.0022583008 -0.033203125 -0.035888672 -0.032470703 -0.030151367 -0.0234375 0.018310547 -0.020874023
-0.021728516 -0.0078125 0.014953613 0.033691406 0.02319336 -0.03564453 -0.007232666 -0.007507324
0.022949219 0.019165039 -0.012145996 0.016235352 -0.022094727 -0.0020599365 -0.030029297 -0.03173828
0.018432617 0.033935547 0.00037956238 -0.024902344 0.0045776367 0.016113281 -0.0079956055 0.033203125
-0.010498047 -0.030029297 -0.008483887 -0.013244629 0.0048217773 -0.029663086 0.009399414 0.025756836
-0.033691406 -0.0078125 -0.020751953 -0.016479492 -0.016235352 -0.029541016 0.013305664 -0.0051574707
-0.017089844 -0.0064697266 0.016845703 0.028686523 0.00982666 0.004058838 0.014892578 -0.020629883
-0.010620117 0.0041503906 0.021484375 0.023925781 -0.028442383 -0.01940918 0.019165039 -7.05719e-05
-0.032714844 -0.016967773 0.024780273 -0.033935547 -0.009033203 -0.020751953 -0.010009766 -0.033935547
0.026855469 0.0065307617 0.033935547 -0.031982422 -0.02734375 -0.03564453 -0.029785156 -0.024291992
-0.010009766 0.0099487305 0.01953125 0.023071289 -0.018798828 0.028686523 -0.004119873 -0.032714844
-0.008178711 0.011352539 0.021118164 0.011108398 -0.0030517578 -0.024902344 0.004699707 0.034179688
-0.0234375 -0.013977051 -0.022338867 -0.03149414 0.03100586 -0.02319336 0.005554199 -0.0027008057
-0.0005226135 -0.025634766 8.392334e-05 -0.015136719 -0.008178711 0.030151367 -0.017700195 -0.009338379
-0.001953125 0.032714844 -0.03564453 0.006958008 0.032714844 0.026123047 -0.00048828125 -0.025268555
0.03564453 -0.012817383 0.020263672 0.009399414 -0.03173828 0.020874023 -0.011779785 -0.0038909912
0.004333496 0.032958984 0.02709961 0.029785156 0.025512695 0.007751465 -0.032470703 -0.028930664
0.004211426 -0.03466797 8.869171e-05 0.0014801025 0.026367188 -0.029174805 -0.03540039 -0.020996094
0.03149414 0.014282227 -0.016357422 0.033203125 -0.022827148 0.021362305 -0.0071411133 -0.020629883
-0.013061523 -0.009887695 -0.014221191 0.030639648 0.023925781 -0.02734375 -0.0078125 -0.002822876
00000000: c7bc 8dbc 843c c1bc 063d c23b 82bc 86bc
00000010: 423c e83b c1bc 903c 53bc b13c 4ebc 8d3c
00000020: cbbc de3c 553c 4cbb 843c 673c af3c 85ba
00000030: c03c a13c 67bc c6bc 043d 39bc 073d b7bc
00000040: 5f3c 9e3b 083d 423b 033d 5b3c e5ba df3c
00000050: 80bc ba3c 873c 07bd 0e3a dabb 97bb 01bd
00000060: eebc 77bc ca3c d13c febc 013d e9b9 b63c
00000070: 90bc c9b9 88bc b63b 01bc fa3c c9bc 1cbc
00000080: 003c 593c dd3c b3bc b03c c239 acbc e63c
00000090: 01bc 723c 0a3d 8e3b fabc 4c3c 08ba 93bc
000000a0: da3c 5f3c 81bc 60bc e4bc c63c ed3c abbb
000000b0: 5c3c 40bc a6bc d0bc cebc 643c 0ebd 073d
000000c0: 14bb 08bd 13bd 05bd f7bc c0bc 963c abbc
000000d0: b2bc 00bc 753c 0a3d be3c 12bd edbb f6bb
000000e0: bc3c 9d3c 47bc 853c b5bc 07bb f6bc 02bd
000000f0: 973c 0b3d c739 ccbc 963b 843c 03bc 083d
00000100: 2cbc f6bc 0bbc 59bc 9e3b f3bc 1a3c d33c
00000110: 0abd 00bc aabc 87bc 85bc f2bc 5a3c a9bb
00000120: 8cbc d4bb 8a3c eb3c 213c 853b 743c a9bc
00000130: 2ebc 883b b03c c43c e9bc 9fbc 9d3c 94b8
00000140: 06bd 8bbc cb3c 0bbd 14bc aabc 24bc 0bbd
00000150: dc3c d63b 0b3d 03bd e0bc 12bd f4bc c7bc
00000160: 24bc 233c a03c bd3c 9abc eb3c 87bb 06bd
00000170: 06bc 3a3c ad3c 363c 48bb ccbc 9a3b 0c3d
00000180: c0bc 65bc b7bc 01bd fe3c bebc b63b 31bb
00000190: 09ba d2bc b038 78bc 06bc f73c 91bc 19bc
000001a0: 00bb 063d 12bd e43b 063d d63c 00ba cfbc
000001b0: 123d 52bc a63c 1a3c 02bd ab3c 41bc 7fbb
000001c0: 8e3b 073d de3c f43c d13c fe3b 05bd edbc
000001d0: 8a3b 0ebd ba38 c23a d83c efbc 11bd acbc
000001e0: 013d 6a3c 86bc 083d bbbc af3c eabb a9bc
000001f0: 56bc 22bc 69bc fb3c c43c e0bc 00bc 39bb
