examples/research_projects/stack_llama/scripts/gpt2_peft_stack-exchange-paired_rmts__100000_2e-05/checkpoint-1000/adapter_model.safetensors (safetensors, 594496 bytes, 25 tensors)

base_model.model.score.weight bf16 [1, 768]
000000 f0 3c bf 3b 9e 3c 01 3d 22 3c f9 bc a3 bb 3c 3c
       0.029296875 0.0058288574 0.01928711 0.03149414 0.009887695 -0.030395508 -0.0049743652 0.011474609
000010 c5 3b 3a bc 32 3c 38 bc 45 3c 43 3d 09 3d 89 bc
       0.006011963 -0.011352539 0.010864258 -0.011230469 0.012023926 0.047607422 0.033447266 -0.016723633
000020 25 bc 27 bc 0f bc e0 3c 5c bc 25 bb 93 3c db bc
       -0.010070801 -0.010192871 -0.008728027 0.02734375 -0.013427734 -0.0025177002 0.017944336 -0.026733398
000030 7b 3c bc 3c 3c bc 9e 3c 27 3d 38 3c ce 3a 65 bc
       0.015319824 0.022949219 -0.011474609 0.01928711 0.040771484 0.011230469 0.0015716553 -0.013977051
000040 1a bc e4 bc e3 3c 49 bc 72 3d 56 3c de bc f3 bc
       -0.009399414 -0.027832031 0.027709961 -0.012268066 0.05908203 0.013061523 -0.02709961 -0.029663086
000050 a2 3c c3 3c 25 bd 03 bd 9e bc 38 3c 60 bc 76 bc
       0.01977539 0.023803711 -0.040283203 -0.031982422 -0.01928711 0.011230469 -0.013671875 -0.015014648
000060 97 3c f3 3b 23 3c e8 bc b1 ba 03 3d c2 3b 20 bc
       0.018432617 0.0074157715 0.0099487305 -0.028320312 -0.0013504028 0.031982422 0.00592041 -0.009765625
000070 90 3c e7 bc 00 3b 91 bc 9e ba 0d 3b ba bc 87 3b
       0.017578125 -0.028198242 0.001953125 -0.017700195 -0.0012054443 0.0021514893 -0.022705078 0.004119873
000080 9a 3c 03 3c 29 3c b1 3c 0b bc e9 bc 3e bc 4d 3c
       0.018798828 0.0079956055 0.010314941 0.021606445 -0.008483887 -0.028442383 -0.01159668 0.012512207
000090 d1 3c a4 bb 17 bb 1d 3c b5 3c 44 bb 00 3c aa 3c
       0.025512695 -0.005004883 -0.0023040771 0.0095825195 0.022094727 -0.0029907227 0.0078125 0.020751953
0000a0 ac 3c 05 bc b5 bc d8 ba d5 bb 98 bc 95 bc 69 bc
       0.020996094 -0.008117676 -0.022094727 -0.0016479492 -0.006500244 -0.018554688 -0.018188477 -0.014221191
0000b0 c8 3c c7 3b c6 3b 40 bb 64 bc 20 3d be 3c 89 3a
       0.024414062 0.006072998 0.0060424805 -0.0029296875 -0.013916016 0.0390625 0.02319336 0.001045227
0000c0 c1 3a a0 3c 99 3a 27 3c ba bc e9 3c 92 bc 25 3c
       0.0014724731 0.01953125 0.0011672974 0.010192871 -0.022705078 0.028442383 -0.017822266 0.010070801
0000d0 d0 3c 02 3b 5f bc bc 3c 03 3b 07 bc 22 ba 0b bd
       0.025390625 0.0019836426 -0.01361084 0.022949219 0.0019989014 -0.008239746 -0.00061798096 -0.033935547
0000e0 8a 3c 3e 3c 29 bd 87 bc 52 bc 24 3c 75 3c 86 bb
       0.016845703 0.01159668 -0.041259766 -0.016479492 -0.012817383 0.010009766 0.014953613 -0.0040893555
0000f0 2e 3c ed bc 5a bc 9f 3b b6 3c c8 3c 1f 3d 03 3d
       0.010620117 -0.028930664 -0.013305664 0.004852295 0.022216797 0.024414062 0.03881836 0.031982422
000100 1f bc 95 3c b8 bc f1 3b b7 bc 9c bc d6 38 36 3c
       -0.00970459 0.018188477 -0.022460938 0.0073547363 -0.022338867 -0.019042969 0.00010204315 0.011108398
000110 e4 bc b5 3c c8 bc 92 3c d5 3c 06 bb f8 3a 98 3c
       -0.027832031 0.022094727 -0.024414062 0.017822266 0.026000977 -0.0020446777 0.0018920898 0.018554688
000120 0b bd 2d 3c c2 bb d9 bc f3 3c 80 bb 02 3b c9 bc
       -0.033935547 0.010559082 -0.00592041 -0.026489258 0.029663086 -0.00390625 0.0019836426 -0.024536133
000130 47 3c 99 3c 2e bd 40 bb 9a 3c bf bc 7e 3b 8f 3b
       0.012145996 0.018676758 -0.04248047 -0.0029296875 0.018798828 -0.02331543 0.0038757324 0.0043640137
000140 71 3c 59 bc 3b 3c 5e 3c 95 bc 03 3d 1a 3c 9e 3b
       0.014709473 -0.013244629 0.011413574 0.013549805 -0.018188477 0.031982422 0.009399414 0.0048217773
000150 55 bc f5 bb d6 bc 1a 3d 65 bc 3c 3c 73 3c f5 3c
       -0.013000488 -0.0074768066 -0.026123047 0.037597656 -0.013977051 0.011474609 0.014831543 0.029907227
000160 2d 3c 86 bb 88 3b 90 bb 47 bc 45 3c b3 3b 0c ba
       0.010559082 -0.0040893555 0.0041503906 -0.0043945312 -0.012145996 0.012023926 0.0054626465 -0.0005340576
000170 02 3d 28 3c 8c 3b 90 bc f6 3a 86 3c 80 3b 84 bb
       0.03173828 0.010253906 0.004272461 -0.017578125 0.001876831 0.016357422 0.00390625 -0.0040283203
000180 43 bc b3 3c 02 3d b5 bc 02 3d 71 bc 1b 3c 07 bc
       -0.0119018555 0.021850586 0.03173828 -0.022094727 0.03173828 -0.014709473 0.009460449 -0.008239746
000190 04 3b 82 3b 41 3b c5 3c f3 bc 08 3c 7c 3b 58 3b
       0.0020141602 0.003967285 0.0029449463 0.024047852 -0.029663086 0.008300781 0.0038452148 0.0032958984
0001a0 05 bb a7 ba e1 3b 59 3b 7b 3c 9e bc 0a 3d 73 3b
       -0.002029419 -0.0012741089 0.006866455 0.0033111572 0.015319824 -0.01928711 0.033691406 0.0037078857
0001b0 36 bc 85 3c 7b bb 9d 3c cb 3b 9d 3c 59 3b 57 bd
       -0.011108398 0.016235352 -0.003829956 0.019165039 0.0061950684 0.019165039 0.0033111572 -0.052490234
0001c0 07 bc be 3c 44 bd 60 bc 00 bd a8 bc 8d 3c c5 3b
       -0.008239746 0.02319336 -0.047851562 -0.013671875 -0.03125 -0.020507812 0.017211914 0.006011963
0001d0 38 bd 1d 3c 05 bd 43 bc 91 bc 1e 3c 47 3c 7e bc
       -0.044921875 0.0095825195 -0.032470703 -0.0119018555 -0.017700195 0.009643555 0.012145996 -0.01550293
0001e0 bf bc 90 3c b5 3c b3 3c 05 bd 8e ba 5f 3c 71 3c
       -0.02331543 0.017578125 0.022094727 0.021850586 -0.032470703 -0.001083374 0.01361084 0.014709473
0001f0 bc bc 6d bc 8b bb 8b bb b6 3b 90 3c ca bc 67 3c
       -0.022949219 -0.014465332 -0.0042419434 -0.0042419434 0.005554199 0.017578125 -0.024658203 0.014099121

base_model.model.transformer.h.0.attn.c_attn.lora_A.weight bf16 [8, 768]
000000 d6 bc e5 3c e7 bc 29 bb 0a 3d 90 3c 8e bb 83 3c
       -0.026123047 0.027954102 -0.028198242 -0.0025787354 0.033691406 0.017578125 -0.004333496 0.015991211
000010 10 3c 36 bc 1a bc 32 bc 08 bd c0 bc 82 3b 9d 3c
       0.0087890625 -0.011108398 -0.009399414 -0.010864258 -0.033203125 -0.0234375 0.003967285 0.019165039
000020 ed bc d5 3c 04 3d a5 bc 7f 3c c6 3c 94 bc 92 3c
       -0.028930664 0.026000977 0.032226562 -0.020141602 0.015563965 0.024169922 -0.018066406 0.017822266
000030 06 3d df 3c 0a bd 30 3b a6 bb 87 3c 9a 3b b2 bc
       0.032714844 0.02722168 -0.033691406 0.0026855469 -0.005065918 0.016479492 0.004699707 -0.021728516
000040 08 bd 1a bc 28 3b c4 bc 60 3c 3c bc 39 bc 9a bc
       -0.033203125 -0.009399414 0.0025634766 -0.023925781 0.013671875 -0.011474609 -0.011291504 -0.018798828
000050 c5 bc bf 3c e3 3c 80 3b 99 bc 3f ba ff bb 86 3c
       -0.024047852 0.02331543 0.027709961 0.00390625 -0.018676758 -0.0007286072 -0.0077819824 0.016357422
000060 04 bc a0 bc bc 3c 2f bc db 3c 8f 3b ac 3c 10 3a
       -0.008056641 -0.01953125 0.022949219 -0.010681152 0.026733398 0.0043640137 0.020996094 0.0005493164
000070 07 bc 68 bb c3 3a af 3b 14 bb 86 3c f7 3a a8 bb
       -0.008239746 -0.003540039 0.0014877319 0.005340576 -0.0022583008 0.016357422 0.0018844604 -0.005126953
000080 8b 3b 9a 3b 09 3d 20 3c 02 3d 73 3c cc 3c cc bc
       0.0042419434 0.004699707 0.033447266 0.009765625 0.03173828 0.014831543 0.024902344 -0.024902344
000090 d1 3c a0 bc 86 3b 02 3d 22 3b 9d 3c b7 bb cc bc
       0.025512695 -0.01953125 0.0040893555 0.03173828 0.0024719238 0.019165039 -0.005584717 -0.024902344
0000a0 e7 3c a5 bc 10 3d b6 bb 78 bc f6 bc af 3c f0 bc
       0.028198242 -0.020141602 0.03515625 -0.005554199 -0.015136719 -0.030029297 0.021362305 -0.029296875
0000b0 a5 bb 5b 39 6b 3c 79 bc 12 3c d7 bc 70 3c 28 bc
       -0.0050354004 0.00020885468 0.014343262 -0.015197754 0.008911133 -0.026245117 0.0146484375 -0.010253906
0000c0 a6 3c 04 3d 04 3d d2 bc 03 bd 52 3c bf bc d3 bb
       0.020263672 0.032226562 0.032226562 -0.025634766 -0.031982422 0.012817383 -0.02331543 -0.006439209
0000d0 87 3c a2 3c 00 bc bb 3c 84 bc 85 bb a3 3c d8 3b
       0.016479492 0.01977539 -0.0078125 0.022827148 -0.016113281 -0.004058838 0.019897461 0.006591797
0000e0 04 3d 9e 3c db 3c 20 3c 47 3a 03 bc e8 3c 0e bb
       0.032226562 0.01928711 0.026733398 0.009765625 0.00075912476 -0.0079956055 0.028320312 -0.002166748
0000f0 87 3b bd bc b3 3a bb 3a 1b 3c 97 3c 6b 3c 0d bd
       0.004119873 -0.023071289 0.0013656616 0.0014266968 0.009460449 0.018432617 0.014343262 -0.034423828
000100 f4 bc ca 3c 0e bd 9a 3c 1e 3b 53 3c dc bc 42 3c
       -0.029785156 0.024658203 -0.03466797 0.018798828 0.0024108887 0.012878418 -0.026855469 0.01184082
000110 94 bc 12 3d 6a bc 00 bc 3c ba 1c 3c 7c bc 04 3d
       -0.018066406 0.03564453 -0.014282227 -0.0078125 -0.0007171631 0.009521484 -0.015380859 0.032226562
000120 a8 bc 1e 3b 3a 3c 10 bd f1 bc b6 3c 11 3d 92 3c
       -0.020507812 0.0024108887 0.011352539 -0.03515625 -0.029418945 0.022216797 0.03540039 0.017822266
000130 a5 bc 09 3c 0e bd 98 3b d3 bc 32 bc b6 3c 05 3d
       -0.020141602 0.008361816 -0.03466797 0.004638672 -0.025756836 -0.010864258 0.022216797 0.032470703
000140 4b bc c8 3c 07 bd 8b 3b 71 3c af bc ad 3c e6 3c
       -0.012390137 0.024414062 -0.032958984 0.0042419434 0.014709473 -0.021362305 0.021118164 0.028076172
000150 cd 3b a7 3c f3 3c 09 3c 91 3c d4 bb 80 bb 3b 3c
       0.0062561035 0.020385742 0.029663086 0.008361816 0.017700195 -0.0064697266 -0.00390625 0.011413574
000160 0c 3d f2 bc e2 3c 15 3c a9 bc 7c 3c e8 ba 36 bc
       0.034179688 -0.029541016 0.02758789 0.009094238 -0.020629883 0.015380859 -0.0017700195 -0.011108398
000170 07 3d f5 3b e9 bc fb 3c 7f bc b9 3c b0 3c db bb
       0.032958984 0.0074768066 -0.028442383 0.030639648 -0.015563965 0.022583008 0.021484375 -0.0066833496
000180 08 3d 4c 3b cf 3c aa 3c b0 bc d3 3c 14 bc bc bb
       0.033203125 0.003112793 0.025268555 0.020751953 -0.021484375 0.025756836 -0.009033203 -0.0057373047
000190 a8 3c 27 3c 11 3d c7 3c 92 3b 10 3d 4c bc dc bc
       0.020507812 0.010192871 0.03540039 0.024291992 0.0044555664 0.03515625 -0.012451172 -0.026855469
0001a0 66 bc ad bc 25 38 62 bc ea bc 88 3b 88 bc 60 bb
       -0.014038086 -0.021118164 3.9339066e-05 -0.013793945 -0.028564453 0.0041503906 -0.016601562 -0.0034179688
0001b0 4a bc 91 bc 11 3d b4 3b 72 bb f0 bb f4 3c e2 bc
       -0.012329102 -0.017700195 0.03540039 0.005493164 -0.003692627 -0.0073242188 0.029785156 -0.02758789
0001c0 d9 3c 13 3d 4e bc 9e bc 81 3c 03 3d 8a bb f9 3c
       0.026489258 0.035888672 -0.012573242 -0.01928711 0.01574707 0.031982422 -0.004211426 0.030395508
0001d0 14 bc 11 bd 93 3c 0d 3d 19 bc e6 bb 03 3c 05 3d
       -0.009033203 -0.03540039 0.017944336 0.034423828 -0.009338379 -0.007019043 0.0079956055 0.032470703
0001e0 04 3d ad bc d7 3c 88 bc 26 bc f4 3b d9 3c a8 bc
       0.032226562 -0.021118164 0.026245117 -0.016601562 -0.010131836 0.007446289 0.026489258 -0.020507812
0001f0 3e 3b bb bc 02 bd 94 bc 28 bc c7 bc de bc 00 bc
       0.00289917 -0.022827148 -0.03173828 -0.018066406 -0.010253906 -0.024291992 -0.02709961 -0.0078125

base_model.model.transformer.h.0.attn.c_attn.lora_B.weight bf16 [2304, 8]
000000 19 b9 b8 b9 41 39 5d b9 c6 39 ae 39 a3 38 64 3a
       -0.00014591217 -0.00035095215 0.00018405914 -0.00021076202 0.00037765503 0.00033187866 7.772446e-05 0.000869751
000010 71 b9 d2 39 24 37 6b 3a 0b 39 e8 38 79 b9 0e 39
       -0.00022983551 0.0004005432 9.775162e-06 0.00089645386 0.00013256073 0.00011062622 -0.0002374649 0.00013542175
000020 9f ba 2a 3a 68 39 ff 39 36 b9 2c ba ad ba 57 ba
       -0.0012130737 0.00064849854 0.00022125244 0.0004863739 -0.00017356873 -0.00065612793 -0.0013198853 -0.0008201599
000030 39 b9 36 3a 4e b8 95 3a ca 39 ca 39 2f ba c9 ba
       -0.00017642975 0.0006942749 -4.9114227e-05 0.0011367798 0.00038528442 0.00038528442 -0.000667572 -0.0015335083
000040 2b ba 9a 39 43 39 d8 39 80 39 b1 38 c9 b9 1d 39
       -0.00065231323 0.0002937317 0.00018596649 0.0004119873 0.00024414062 8.440018e-05 -0.00038337708 0.00014972687
000050 01 ba d5 b5 46 3a 10 39 eb ba 8b ba 08 3a 2e ba
       -0.00049209595 -1.5869737e-06 0.00075531006 0.0001373291 -0.0017929077 -0.0010604858 0.0005187988 -0.0006637573
000060 a4 39 05 3a a4 b9 a2 3a 6f 39 46 39 4e ba e2 ba
       0.00031280518 0.00050735474 -0.00031280518 0.0012359619 0.00022792816 0.00018882751 -0.00078582764 -0.0017242432
000070 8a 39 eb 39 44 b9 99 3a 71 39 ae 3a 42 b9 c6 b9
       0.0002632141 0.00044822693 -0.00018692017 0.0011672974 0.00022983551 0.0013275146 -0.00018501282 -0.00037765503
000080 59 3a ae b9 53 ba b1 b8 7e 3a 52 38 0d 36 74 3a
       0.0008277893 -0.00033187866 -0.0008049011 -8.440018e-05 0.0009689331 5.00679e-05 2.1010637e-06 0.00093078613
000090 4c ba 40 ba b1 3a 9d ba a3 ba 23 b6 7e 39 8d 3a
       -0.00077819824 -0.0007324219 0.0013504028 -0.0011978149 -0.0012435913 -2.4288893e-06 0.00024223328 0.0010757446
0000a0 91 39 2a b7 f5 b9 31 3a 78 39 ec 39 97 b9 95 ba
       0.00027656555 -1.013279e-05 -0.00046730042 0.0006752014 0.00023651123 0.00045013428 -0.00028800964 -0.0011367798
0000b0 fb 38 5f 3a 8e b9 4b 3a 05 39 2f b8 ea b9 85 ba
       0.00011968613 0.0008506775 -0.0002708435 0.00077438354 0.00012683868 -4.172325e-05 -0.00044631958 -0.0010147095
0000c0 ea 39 bb 3a 91 b9 e1 39 61 b8 c3 39 77 b9 b4 ba
       0.00044631958 0.0014266968 -0.00027656555 0.00042915344 -5.364418e-05 0.00037193298 -0.00023555756 -0.001373291
0000d0 c1 39 84 38 18 ba a7 39 75 3a ca 39 c2 b9 93 3a
       0.0003681183 6.2942505e-05 -0.000579834 0.00031852722 0.00093460083 0.00038528442 -0.00037002563 0.001121521
0000e0 bd b8 bd 38 f6 b9 a1 b9 3a ba 49 39 93 3a 7a 3a
       -9.012222e-05 9.012222e-05 -0.00046920776 -0.00030708313 -0.0007095337 0.00019168854 0.001121521 0.0009536743
0000f0 33 ba 35 3a 14 3a 13 37 82 ba 92 ba bc b9 54 ba
       -0.0006828308 0.0006904602 0.0005645752 8.761883e-06 -0.0009918213 -0.0011138916 -0.00035858154 -0.0008087158
000100 76 3a 3e ba 44 ba 85 b9 97 3a 52 b9 ca b9 09 b9
       0.0009384155 -0.0007247925 -0.00074768066 -0.00025367737 0.0011520386 -0.0002002716 -0.00038528442 -0.00013065338
000110 a3 b8 16 b9 f5 b8 ec b9 dd b8 1d 3a b4 b9 11 ba
       -7.772446e-05 -0.00014305115 -0.000116825104 -0.00045013428 -0.00010538101 0.00059890747 -0.00034332275 -0.0005531311
000120 69 ba e7 39 53 3a 3b 3a 61 ba a3 ba 53 ba 8a ba
       -0.00088882446 0.00044059753 0.0008049011 0.0007133484 -0.0008583069 -0.0012435913 -0.0008049011 -0.0010528564
000130 59 38 a0 b6 aa 39 15 39 3c 39 8c b9 a3 ba 69 ba
       5.173683e-05 -4.7683716e-06 0.00032424927 0.00014209747 0.00017929077 -0.0002670288 -0.0012435913 -0.00088882446
000140 31 3a 78 ba c2 36 9b ba 8c 37 81 b9 b2 3a c6 3a
       0.0006752014 -0.0009460449 5.7816505e-06 -0.0011825562 1.66893e-05 -0.00024604797 0.0013580322 0.0015106201
000150 64 ba ae b9 41 3a 32 ba 28 ba 2f b7 a8 38 a2 ba
       -0.000869751 -0.00033187866 0.0007362366 -0.0006790161 -0.00064086914 -1.0430813e-05 8.010864e-05 -0.0012359619
000160 da 38 03 3a 94 b9 98 3a 23 3a 75 3a 54 b9 bc ba
       0.0001039505 0.00049972534 -0.0002822876 0.001159668 0.00062179565 0.00093460083 -0.00020217896 -0.0014343262
000170 40 3a f2 38 1b ba 13 ba 77 3a f3 b9 f3 b9 24 39
       0.0007324219 0.00011539459 -0.0005912781 -0.0005607605 0.0009422302 -0.00046348572 -0.00046348572 0.00015640259
000180 d8 b9 0d 3a d0 b9 8a b9 19 3a eb 39 43 ba 62 b9
       -0.0004119873 0.0005378723 -0.00039672852 -0.0002632141 0.0005836487 0.00044822693 -0.00074386597 -0.0002155304
000190 3e ba 9c b8 7e 39 43 ba 88 ba 71 ba 54 3a d7 38
       -0.0007247925 -7.43866e-05 0.00024223328 -0.00074386597 -0.0010375977 -0.00091934204 0.0008087158 0.00010251999
0001a0 35 38 29 3a 98 39 33 ba 1c ba a6 39 9e 38 8d 39
       4.3153763e-05 0.00064468384 0.000289917 -0.0006828308 -0.0005950928 0.00031661987 7.534027e-05 0.00026893616
0001b0 3a ba 6a 39 6b 3a 91 b8 be ba 9c ba f7 38 b6 ba
       -0.0007095337 0.00022315979 0.00089645386 -6.914139e-05 -0.001449585 -0.0011901855 0.00011777878 -0.0013885498
0001c0 a1 b9 4b 3a 39 b9 29 3a cf 38 f6 b9 49 ba e7 b9
       -0.00030708313 0.00077438354 -0.00017642975 0.00064468384 9.870529e-05 -0.00046920776 -0.00076675415 -0.00044059753
0001d0 13 3a 41 b7 dc b9 4e 3a 65 3a 4d 3a 53 3a 99 39
       0.0005607605 -1.1503696e-05 -0.0004196167 0.00078582764 0.0008735657 0.00078201294 0.0008049011 0.00029182434
0001e0 e4 39 b0 ba 25 ba 1f ba 04 3a 74 39 84 3a d4 3a
       0.0004348755 -0.0013427734 -0.00062942505 -0.00060653687 0.00050354004 0.00023269653 0.0010070801 0.0016174316
0001f0 78 39 e4 39 a4 39 db 39 8e 39 34 3a 1c ba e3 b9
       0.00023651123 0.0004348755 0.00031280518 0.00041770935 0.0002708435 0.0006866455 -0.0005950928 -0.00043296814

base_model.model.transformer.h.1.attn.c_attn.lora_A.weight bf16 [8, 768]
000000 be 3c a9 3c d7 bc 05 3c 0a bd b1 3c a0 bc 2d bc
       0.02319336 0.020629883 -0.026245117 0.008117676 -0.033691406 0.021606445 -0.01953125 -0.010559082
000010 ee bc 04 3d 12 3d 16 3c 3d bb 29 bb a8 3c b3 3c
       -0.029052734 0.032226562 0.03564453 0.009155273 -0.0028839111 -0.0025787354 0.020507812 0.021850586
000020 2e bc 98 3a 00 bc cd 3c 36 3c ad bc a2 bc 84 3c
       -0.010620117 0.001159668 -0.0078125 0.025024414 0.011108398 -0.021118164 -0.01977539 0.016113281
000030 5d 3c 31 bc fb bb 25 bc 9e bc 1c 3c d2 3c 71 bc
       0.0134887695 -0.010803223 -0.007659912 -0.010070801 -0.01928711 0.009521484 0.025634766 -0.014709473
000040 3a 3c aa bc 6c 3c dd b8 16 3c 05 bc 0b 3d ca bc
       0.011352539 -0.020751953 0.014404297 -0.00010538101 0.009155273 -0.008117676 0.033935547 -0.024658203
000050 06 3c 09 bd ed 3c 35 3c 91 bb 13 3d a6 bc f2 3c
       0.008178711 -0.033447266 0.028930664 0.011047363 -0.004425049 0.035888672 -0.020263672 0.029541016
000060 ba 3b 85 3c 6c 3c 83 bc bc 3b b4 bc 87 bc b3 3c
       0.0056762695 0.016235352 0.014404297 -0.015991211 0.0057373047 -0.021972656 -0.016479492 0.021850586
000070 8d 3c 13 bd 6b 3c d0 3c 13 3b 09 bc 84 3b fd 3a
       0.017211914 -0.035888672 0.014343262 0.025390625 0.002243042 -0.008361816 0.0040283203 0.0019302368
000080 4a bc 76 3c d0 3c fe 3c c5 bc 0b bc 11 3d 82 3c
       -0.012329102 0.015014648 0.025390625 0.03100586 -0.024047852 -0.008483887 0.03540039 0.01586914
000090 af bc c7 ba 93 3c 79 bc 02 bd 65 3c c2 bc 9c bc
       -0.021362305 -0.0015182495 0.017944336 -0.015197754 -0.03173828 0.013977051 -0.02368164 -0.019042969
0000a0 81 3c 86 bb 00 bc d5 3b b2 bc a6 bc 89 bb f6 3c
       0.01574707 -0.0040893555 -0.0078125 0.006500244 -0.021728516 -0.020263672 -0.004180908 0.030029297
0000b0 c3 3c 22 3c 47 bb fb bb 16 3b c5 3b c5 3b 0d bd
       0.023803711 0.009887695 -0.003036499 -0.007659912 0.0022888184 0.006011963 0.006011963 -0.034423828
0000c0 a3 3c 31 bb 98 3c 0e 3d fe 3c 8e 3c 83 bb ef bc
       0.019897461 -0.0027008057 0.018554688 0.03466797 0.03100586 0.017333984 -0.0039978027 -0.029174805
0000d0 12 3d 00 3c a3 3c 39 3c c5 3c ca bc c5 bc ec ba
       0.03564453 0.0078125 0.019897461 0.011291504 0.024047852 -0.024658203 -0.024047852 -0.0018005371
0000e0 0d bd 17 bb fa bc 4a bc f8 bc 2b bc c3 3c 88 bb
       -0.034423828 -0.0023040771 -0.030517578 -0.012329102 -0.030273438 -0.010437012 0.023803711 -0.0041503906
0000f0 1a 3c 5b bb fd bb f7 bc cf bc ce bc 8c 3c 34 3b
       0.009399414 -0.0033416748 -0.0077209473 -0.030151367 -0.025268555 -0.025146484 0.017089844 0.002746582
000100 0d 3d 91 3b c6 bc aa 3c a2 bc ed bc 7a bc 00 3d
       0.034423828 0.004425049 -0.024169922 0.020751953 -0.01977539 -0.028930664 -0.015258789 0.03125
000110 46 3c 11 3d f7 bc 40 3c 05 bd 9f 3c d6 3c 5b bc
       0.012084961 0.03540039 -0.030151367 0.01171875 -0.032470703 0.01940918 0.026123047 -0.013366699
000120 bb 3c 79 3c 3b 3c b4 bc 7e 3c 62 bc 5b 3c 6d bc
       0.022827148 0.015197754 0.011413574 -0.021972656 0.01550293 -0.013793945 0.013366699 -0.014465332
000130 bd 3c 59 3c c1 bc 10 3d 80 3b c1 3b 14 bd 8c 3c
       0.023071289 0.013244629 -0.02355957 0.03515625 0.00390625 0.0058898926 -0.036132812 0.017089844
000140 de 3c be bc a7 bc 00 bc 90 bc 3b bc c2 3b 04 3d
       0.02709961 -0.02319336 -0.020385742 -0.0078125 -0.017578125 -0.011413574 0.00592041 0.032226562
000150 d3 bb 02 bd 36 3c be 3c 07 bd 87 3c 04 3d d6 bb
       -0.006439209 -0.03173828 0.011108398 0.02319336 -0.032958984 0.016479492 0.032226562 -0.0065307617
000160 b4 bc 83 bb 09 bd 42 bc 5b bc b4 bc 09 bd ed bc
       -0.021972656 -0.0039978027 -0.033447266 -0.01184082 -0.013366699 -0.021972656 -0.033447266 -0.028930664
000170 d1 3b 96 b8 be 3b c1 3c 8f bc 73 bc 67 3c ae ba
       0.006378174 -7.1525574e-05 0.00579834 0.02355957 -0.017456055 -0.014831543 0.014099121 -0.0013275146
000180 0a 3d f0 bc 84 bb 7c 3c cb 3b 34 3c 41 3c 06 bd
       0.033691406 -0.029296875 -0.0040283203 0.015380859 0.0061950684 0.010986328 0.011779785 -0.032714844
000190 07 3d c0 3c c1 bc cc 3c 4c 3c 4a bc 00 3c 8c 3a
       0.032958984 0.0234375 -0.02355957 0.024902344 0.012451172 -0.012329102 0.0078125 0.0010681152
0001a0 7a bb 41 3c d2 3c ff 3c 4f 36 3a 3c 9e 3c 9e 3c
       -0.0038146973 0.011779785 0.025634766 0.03112793 3.0845404e-06 0.011352539 0.01928711 0.01928711
0001b0 b8 bc 9f 3b 0f 3d 01 3d 94 3c 11 3c b2 3c 09 3d
       -0.022460938 0.004852295 0.03491211 0.03149414 0.018066406 0.008850098 0.021728516 0.033447266
0001c0 c7 3a e9 3c fd 3c 81 bc fb ba 70 3c 32 bc da 3c
       0.0015182495 0.028442383 0.030883789 -0.01574707 -0.001914978 0.0146484375 -0.010864258 0.026611328
0001d0 e5 bc b0 bc 10 3d c2 bc e8 3c 04 3d 76 3c 08 3c
       -0.027954102 -0.021484375 0.03515625 -0.02368164 0.028320312 0.032226562 0.015014648 0.008300781
0001e0 00 bc 8b bb 80 3b 0a bc 87 3b 34 3c 86 3c e5 3c
       -0.0078125 -0.0042419434 0.00390625 -0.008422852 0.004119873 0.010986328 0.016357422 0.027954102
0001f0 75 3c e3 3c 09 3c 10 3c c0 3c b9 3b c6 bc a3 bc
       0.014953613 0.027709961 0.008361816 0.0087890625 0.0234375 0.005645752 -0.024169922 -0.019897461

base_model.model.transformer.h.1.attn.c_attn.lora_B.weight bf16 [2304, 8]
000000 16 ba b0 ba c6 b8 2a ba 61 ba 84 ba 21 b9 97 ba
       -0.0005722046 -0.0013427734 -9.441376e-05 -0.00064849854 -0.0008583069 -0.0010070801 -0.00015354156 -0.0011520386
000010 51 3a f4 3a ea b9 99 39 93 3a bc 3a 11 ba 02 3b
       0.0007972717 0.0018615723 -0.00044631958 0.00029182434 0.001121521 0.0014343262 -0.0005531311 0.0019836426
000020 5e ba aa ba 3a 3a 85 ba d2 38 3f b9 b6 b9 7d ba
       -0.0008468628 -0.0012969971 0.0007095337 -0.0010147095 0.0001001358 -0.0001821518 -0.00034713745 -0.0009651184
000030 cb 38 a1 3a 43 3a 28 3a 00 3b ea 3a 19 ba f4 3a
       9.679794e-05 0.0012283325 0.00074386597 0.00064086914 0.001953125 0.0017852783 -0.0005836487 0.0018615723
000040 19 39 0b 3a 85 b8 15 b9 bb ba de b7 cd b9 39 ba
       0.00014591217 0.0005302429 -6.341934e-05 -0.00014209747 -0.0014266968 -2.6464462e-05 -0.00039100647 -0.000705719
000050 61 ba 90 ba 7c 3a 42 b8 ff 39 8d 39 96 ba 2e b9
       -0.0008583069 -0.0010986328 0.0009613037 -4.6253204e-05 0.0004863739 0.00026893616 -0.0011444092 -0.00016593933
000060 af b7 a0 ba 42 b9 52 ba 53 39 ab ba 02 38 4e b9
       -2.0861626e-05 -0.0012207031 -0.00018501282 -0.0008010864 0.00020122528 -0.0013046265 3.0994415e-05 -0.00019645691
000070 1b 39 5b ba 0b ba c2 ba 94 ba 23 ba 82 39 6d ba
       0.00014781952 -0.0008354187 -0.0005302429 -0.0014801025 -0.0011291504 -0.00062179565 0.00024795532 -0.00090408325
000080 12 ba 81 ba a7 39 58 39 90 ba 9e ba 04 b9 f3 ba
       -0.0005569458 -0.0009841919 0.00031852722 0.00020599365 -0.0010986328 -0.0012054443 -0.00012588501 -0.0018539429
000090 98 b9 93 38 b3 38 92 39 fd 39 25 37 a0 39 cb b9
       -0.000289917 7.009506e-05 8.535385e-05 0.0002784729 0.0004825592 9.834766e-06 0.00030517578 -0.00038719177
0000a0 6c 39 c9 3a 3d 3a 69 3a 13 3b fe 3a 11 39 00 3b
       0.00022506714 0.0015335083 0.0007209778 0.00088882446 0.002243042 0.0019378662 0.00013828278 0.001953125
0000b0 b0 b9 88 ba 89 b9 01 b9 ca ba b8 ba 12 3a d2 ba
       -0.00033569336 -0.0010375977 -0.00026130676 -0.00012302399 -0.0015411377 -0.0014038086 0.0005569458 -0.0016021729
0000c0 ec 38 69 ba f1 b9 48 39 f9 ba d2 ba 79 3a e5 ba
       0.00011253357 -0.00088882446 -0.00045967102 0.00019073486 -0.0018997192 -0.0016021729 0.0009498596 -0.0017471313
0000d0 4c 39 62 3a 94 39 d3 b8 cb 3a cd 3a fa b8 8a 3a
       0.00019454956 0.0008621216 0.0002822876 -0.00010061264 0.0015487671 0.0015640259 -0.00011920929 0.0010528564
0000e0 25 ba 84 39 a8 39 18 3a 03 3b 8d 3a 81 ba aa 3a
       -0.00062942505 0.00025177002 0.00032043457 0.000579834 0.0019989014 0.0010757446 -0.0009841919 0.0012969971
0000f0 98 39 37 37 76 b9 8a 39 19 b9 2f ba 9a b9 77 38
       0.000289917 1.090765e-05 -0.00023460388 0.0002632141 -0.00014591217 -0.000667572 -0.0002937317 5.888939e-05
000100 da 38 13 b9 61 b9 44 3a 48 3a 6c b9 b9 39 b1 b9
       0.0001039505 -0.00014019012 -0.00021457672 0.00074768066 0.00076293945 -0.00022506714 0.0003528595 -0.0003376007
000110 20 b9 29 ba 35 39 b5 39 10 ba 8d ba e1 39 cb ba
       -0.00015258789 -0.00064468384 0.00017261505 0.0003452301 -0.0005493164 -0.0010757446 0.00042915344 -0.0015487671
000120 14 3a de 3a 4a 39 1d 3a fe 3a ef 3a f6 b9 00 3b
       0.0005645752 0.0016937256 0.00019264221 0.00059890747 0.0019378662 0.0018234253 -0.00046920776 0.001953125
000130 9b 39 8b 3a 2f 3a 9b 39 fb 3a b3 3a 69 ba 00 3b
       0.00029563904 0.0010604858 0.000667572 0.00029563904 0.001914978 0.0013656616 -0.00088882446 0.001953125
000140 17 b9 08 b9 a8 39 10 ba 77 3a 1b 3a 87 ba 3d 3a
       -0.00014400482 -0.0001296997 0.00032043457 -0.0005493164 0.0009422302 0.0005912781 -0.0010299683 0.0007209778
000150 b4 ba c5 ba 83 3a ca b8 2f ba aa ba b4 b9 c3 b9
       -0.001373291 -0.0015029907 0.0009994507 -9.6321106e-05 -0.000667572 -0.0012969971 -0.00034332275 -0.00037193298
000160 c9 ba 8e ba cc 39 0a ba 3c ba 27 39 19 38 9d ba
       -0.0015335083 -0.001083374 0.00038909912 -0.0005264282 -0.0007171631 0.00015926361 3.6478043e-05 -0.0011978149
000170 65 b9 4c ba d9 b8 0c 3a 69 ba 97 ba 3f 3a 99 ba
       -0.00021839142 -0.00077819824 -0.00010347366 0.0005340576 -0.00088882446 -0.0011520386 0.0007286072 -0.0011672974
000180 50 3a a1 3a 83 39 1f 3a ae 3a 8a 3a 17 ba fe 3a
       0.00079345703 0.0012283325 0.00024986267 0.00060653687 0.0013275146 0.0010528564 -0.0005760193 0.0019378662
000190 ea b9 44 ba 30 3a dd 38 62 39 48 ba 02 ba 75 39
       -0.00044631958 -0.00074768066 0.0006713867 0.00010538101 0.0002155304 -0.00076293945 -0.00049591064 0.00023365021
0001a0 46 39 17 3a 0e 38 18 3a 09 3b de 3a 95 38 e0 39
       0.00018882751 0.0005760193 3.385544e-05 0.000579834 0.002090454 0.0016937256 7.104874e-05 0.0004272461
0001b0 e9 b9 48 3a 64 3a 9c b9 e2 37 64 3a 05 ba a1 3a
       -0.00044441223 0.00076293945 0.000869751 -0.0002975464 2.69413e-05 0.000869751 -0.00050735474 0.0012283325
0001c0 b6 b8 a1 3a f2 39 a9 3a c9 3a bf 3a c5 b9 b1 3a
       -8.678436e-05 0.0012283325 0.00046157837 0.0012893677 0.0015335083 0.0014572144 -0.00037574768 0.0013504028
0001d0 92 3a cd 3a e6 38 ba 38 f7 3a 97 3a 34 3a ee 3a
       0.0011138916 0.0015640259 0.00010967255 8.869171e-05 0.0018844604 0.0011520386 0.0006866455 0.0018157959
0001e0 cf 39 84 3a 2f b9 38 39 11 3a 7a 3a 54 b9 9d 3a
       0.00039482117 0.0010070801 -0.000166893 0.00017547607 0.0005531311 0.0009536743 -0.00020217896 0.0011978149
0001f0 9f 38 fe 38 db b9 c5 b9 89 3a b5 39 4d ba 90 3a
       7.581711e-05 0.00012111664 -0.00041770935 -0.00037574768 0.001045227 0.0003452301 -0.00078201294 0.0010986328

base_model.model.transformer.h.10.attn.c_attn.lora_A.weight bf16 [8, 768]
000000 7a bc f8 bc 90 3c 55 3c 82 bb 00 bc 12 bd a8 bc
       -0.015258789 -0.030273438 0.017578125 0.013000488 -0.003967285 -0.0078125 -0.03564453 -0.020507812
000010 38 bc a9 3c 89 bb 88 bb ef 3b f3 3b 00 3c b6 bc
       -0.011230469 0.020629883 -0.004180908 -0.0041503906 0.007293701 0.0074157715 0.0078125 -0.022216797
000020 06 bd b4 3c ea bc c2 3b 00 bc 84 bb da 3c d4 bc
       -0.032714844 0.021972656 -0.028564453 0.00592041 -0.0078125 -0.0040283203 0.026611328 -0.025878906
000030 0c bd 9c 3b c4 3c 9a 3c 5b 3c 18 3c 67 3c 80 bb
       -0.034179688 0.004760742 0.023925781 0.018798828 0.013366699 0.009277344 0.014099121 -0.00390625
000040 00 3d 95 bc 0d 3c 0b 3d dd bc 71 bc 99 bc 06 3d
       0.03125 -0.018188477 0.008605957 0.033935547 -0.026977539 -0.014709473 -0.018676758 0.032714844
000050 0a bd a8 bc 05 bd cb 3b 00 3c a4 3c c5 3c 3b bc
       -0.033691406 -0.020507812 -0.032470703 0.0061950684 0.0078125 0.020019531 0.024047852 -0.011413574
000060 91 3c b7 3c 90 bc ec bc df 3c 64 3c f2 3c b6 bc
       0.017700195 0.022338867 -0.017578125 -0.028808594 0.02722168 0.013916016 0.029541016 -0.022216797
000070 bd bc 06 bc 44 bc e2 3c 0f bc b1 bc 85 bc 0e 3d
       -0.023071289 -0.008178711 -0.011962891 0.02758789 -0.008728027 -0.021606445 -0.016235352 0.03466797
000080 80 3c 11 bd ca 3b fc bc 90 bc d5 bc b6 bc a1 3c
       0.015625 -0.03540039 0.006164551 -0.030761719 -0.017578125 -0.026000977 -0.022216797 0.01965332
000090 9a bb a8 bc 0e 3d b5 3b 00 bc 84 3c 82 3c 9f bc
       -0.004699707 -0.020507812 0.03466797 0.0055236816 -0.0078125 0.016113281 0.01586914 -0.01940918
0000a0 ff 3b 43 bc d5 3b c1 3c 62 bc dd bc 9b 3c 0a bb
       0.0077819824 -0.0119018555 0.006500244 0.02355957 -0.013793945 -0.026977539 0.018920898 -0.002105713
0000b0 e0 3c a1 3c 0b 3d 19 3c a4 bc cd bc 8a 3a 71 3c
       0.02734375 0.01965332 0.033935547 0.009338379 -0.020019531 -0.025024414 0.0010528564 0.014709473
0000c0 05 3d bd 3c 0a bd 63 bc a0 3c d9 3c a6 3c 80 bb
       0.032470703 0.023071289 -0.033691406 -0.0138549805 0.01953125 0.026489258 0.020263672 -0.00390625
0000d0 15 bb b0 bc f9 bc 80 bc fa 3c c8 3b b0 bc 9a 3b
       -0.0022735596 -0.021484375 -0.030395508 -0.015625 0.030517578 0.0061035156 -0.021484375 0.004699707
0000e0 bc b9 94 bc 87 3c 56 bc a6 bc 96 bb 08 3d 00 bc
       -0.00035858154 -0.018066406 0.016479492 -0.013061523 -0.020263672 -0.0045776367 0.033203125 -0.0078125
0000f0 ed 3c fe bc 05 bd 81 3b 00 3c d8 bc d2 bc cd bc
       0.028930664 -0.03100586 -0.032470703 0.0039367676 0.0078125 -0.026367188 -0.025634766 -0.025024414
000100 93 3c 5f bc 0b bd 23 bc 10 bd 8f 3b 0f 3d 5e bc
       0.017944336 -0.01361084 -0.033935547 -0.0099487305 -0.03515625 0.0043640137 0.03491211 -0.013549805
000110 20 bc 05 3d bc bc 29 bc c1 3c 81 3c 13 3d 24 ba
       -0.009765625 0.032470703 -0.022949219 -0.010314941 0.02355957 0.01574707 0.035888672 -0.00062561035
000120 b8 bc b4 3c 03 3d 87 3b ab bc 95 bc 06 bd 02 bc
       -0.022460938 0.021972656 0.031982422 0.004119873 -0.020874023 -0.018188477 -0.032714844 -0.00793457
000130 94 bc dd 3c c8 3c e9 bc e2 3c ed 3c f6 3c 00 3c
       -0.018066406 0.026977539 0.024414062 -0.028442383 0.02758789 0.028930664 0.030029297 0.0078125
000140 18 3c 01 3c 30 bc 00 3c 8a bc cb bc 39 3c dc 3c
       0.009277344 0.007873535 -0.0107421875 0.0078125 -0.016845703 -0.024780273 0.011291504 0.026855469
000150 52 3c 8f 3b 63 ba b4 3c 10 bd cd 3c 00 3c 10 bc
       0.012817383 0.0043640137 -0.0008659363 0.021972656 -0.03515625 0.025024414 0.0078125 -0.0087890625
000160 00 bc 0f 3d 35 3c f7 3c 00 bc a4 3c 1b bc bd bc
       -0.0078125 0.03491211 0.011047363 0.030151367 -0.0078125 0.020019531 -0.009460449 -0.023071289
000170 00 3c 1a 3c 1b 3c 08 3c 83 bb 97 bb 36 3c 22 3c
       0.0078125 0.009399414 0.009460449 0.008300781 -0.0039978027 -0.0046081543 0.011108398 0.009887695
000180 08 3d 14 bd 11 3d 65 3c 48 3c 9f 3c 6c bc 11 3c
       0.033203125 -0.036132812 0.03540039 0.013977051 0.012207031 0.01940918 -0.014404297 0.008850098
000190 94 3c 1a 3c 46 bb f4 bc 80 3c 0b bd b8 bc ee bc
       0.018066406 0.009399414 -0.0030212402 -0.029785156 0.015625 -0.033935547 -0.022460938 -0.029052734
0001a0 aa bb fe bc 32 3a 00 bc fe 3c b1 3c 30 3c 00 bc
       -0.0051879883 -0.03100586 0.0006790161 -0.0078125 0.03100586 0.021606445 0.0107421875 -0.0078125
0001b0 83 3b e9 3c 47 bc c2 bc 9a bc ea bc ae 3b d5 bb
       0.0039978027 0.028442383 -0.012145996 -0.02368164 -0.018798828 -0.028564453 0.0053100586 -0.006500244
0001c0 0e bd a5 bc 8d 3c f8 3c 3e 3c de bc e9 3c ef 3c
       -0.03466797 -0.020141602 0.017211914 0.030273438 0.01159668 -0.02709961 0.028442383 0.029174805
0001d0 e6 bc 99 3b 75 3c bd 3b 87 bc 0f bd a7 bc e6 bc
       -0.028076172 0.0046691895 0.014953613 0.0057678223 -0.016479492 -0.03491211 -0.020385742 -0.028076172
0001e0 61 bc d1 bc 78 bc 44 bb 00 bc 2e bc 87 3c c0 3c
       -0.01373291 -0.025512695 -0.015136719 -0.0029907227 -0.0078125 -0.010620117 0.016479492 0.0234375
0001f0 e8 bc aa bc a8 3c af bc 01 bd 67 3c d9 bc 3d bc
       -0.028320312 -0.020751953 0.020507812 -0.021362305 -0.03149414 0.014099121 -0.026489258 -0.0115356445

base_model.model.transformer.h.10.attn.c_attn.lora_B.weight bf16 [2304, 8]
000000 49 bb 16 bb c2 3a 2c 3b 09 3b 26 bb 24 3b 11 bb
       -0.0030670166 -0.0022888184 0.0014801025 0.0026245117 0.002090454 -0.002532959 0.0025024414 -0.0022125244
000010 98 ba 92 ba 91 3a 1d 3a c0 3a b0 ba 8f 3a a6 ba
       -0.001159668 -0.0011138916 0.0011062622 0.00059890747 0.0014648438 -0.0013427734 0.0010910034 -0.0012664795
000020 10 3b 19 3b 06 bb 4c bb 40 bb 48 3b 57 bb 39 3b
       0.0021972656 0.0023345947 -0.0020446777 -0.003112793 -0.0029296875 0.0030517578 -0.0032806396 0.002822876
000030 12 3b 12 3b 2b bb 15 bb 0b bb 00 3b 17 bb e5 3a
       0.0022277832 0.0022277832 -0.002609253 -0.0022735596 -0.0021209717 0.001953125 -0.0023040771 0.0017471313
000040 d6 39 be 39 13 ba 47 ba 37 3a 26 3a d9 b8 b9 3a
       0.0004081726 0.00036239624 -0.0005607605 -0.00075912476 0.0006980896 0.00063323975 -0.00010347366 0.001411438
000050 80 3b 62 3b 80 bb 83 bb 4c bb 79 3b 80 bb 80 3b
       0.00390625 0.0034484863 -0.00390625 -0.0039978027 -0.003112793 0.0037994385 -0.00390625 0.00390625
000060 7a 3a ae 3a 09 bb 0d ba 0d bb 30 39 81 ba 27 3a
       0.0009536743 0.0013275146 -0.002090454 -0.0005378723 -0.0021514893 0.00016784668 -0.0009841919 0.00063705444
000070 01 bb da ba 61 3a 00 3b ec 3a 23 bb 00 3b 1d bb
       -0.0019683838 -0.001663208 0.0008583069 0.001953125 0.0018005371 -0.0024871826 0.001953125 -0.0023956299
000080 29 bb 03 bb 15 3b 0b 3b 21 3b 16 bb 17 3b 17 bb
       -0.0025787354 -0.0019989014 0.0022735596 0.0021209717 0.002456665 -0.0022888184 0.0023040771 -0.0023040771
000090 4d bb 5e bb 54 3b 74 3b 65 3b 58 bb 69 3b 63 bb
       -0.0031280518 -0.0033874512 0.0032348633 0.0037231445 0.0034942627 -0.0032958984 0.0035552979 -0.0034637451
0000a0 fa 3a d0 3a a3 ba 33 bb 12 bb 13 3b 48 bb 08 3b
       0.0019073486 0.0015869141 -0.0012435913 -0.0027313232 -0.0022277832 0.002243042 -0.0030517578 0.0020751953
0000b0 30 bb 4c bb 4e 3b 61 3b 3c 3b 45 bb 37 3b 33 bb
       -0.0026855469 -0.003112793 0.0031433105 0.0034332275 0.0028686523 -0.0030059814 0.0027923584 -0.0027313232
0000c0 b3 ba b0 ba c8 3a 0d 3b eb 3a 12 bb ec 3a 88 ba
       -0.0013656616 -0.0013427734 0.0015258789 0.0021514893 0.0017929077 -0.0022277832 0.0018005371 -0.0010375977
0000d0 1a 3b 17 3b f6 ba 33 bb 19 bb 2d 3b 23 bb 2c 3b
       0.0023498535 0.0023040771 -0.001876831 -0.0027313232 -0.0023345947 0.0026397705 -0.0024871826 0.0026245117
0000e0 5e 3b 52 3b 80 bb 80 bb 2b bb 4a 3b 2a bb 40 3b
       0.0033874512 0.0032043457 -0.00390625 -0.00390625 -0.002609253 0.0030822754 -0.0025939941 0.0029296875
0000f0 58 bb 50 bb 80 3b 80 3b 3d 3b 6c bb 80 3b 80 bb
       -0.0032958984 -0.0031738281 0.00390625 0.00390625 0.0028839111 -0.0036010742 0.00390625 -0.00390625
000100 2c bb 12 bb 13 3b 19 3b 14 3b 17 bb 17 3b 00 bb
       -0.0026245117 -0.0022277832 0.002243042 0.0023345947 0.0022583008 -0.0023040771 0.0023040771 -0.001953125
000110 22 3b 49 3b 70 bb 7c bb 3a bb 55 3b 31 bb 4c 3b
       0.0024719238 0.0030670166 -0.0036621094 -0.0038452148 -0.0028381348 0.003250122 -0.0027008057 0.003112793
000120 15 bb 06 bb 7c 3b 22 3b 17 3b 17 bb 0c 3b 22 bb
       -0.0022735596 -0.0020446777 0.0038452148 0.0024719238 0.0023040771 -0.0023040771 0.0021362305 -0.0024719238
000130 7b 3a 7a 3a 1c bb 82 ba e3 b9 3a 3a 6f ba 4c 3a
       0.000957489 0.0009536743 -0.002380371 -0.0009918213 -0.00043296814 0.0007095337 -0.00091171265 0.00077819824
000140 5d bb 49 bb 80 3b 80 3b 33 3b 66 bb 2f 3b 3f bb
       -0.0033721924 -0.0030670166 0.00390625 0.00390625 0.0027313232 -0.0035095215 0.002670288 -0.0029144287
000150 9e ba ef ba c8 3a 02 3b 12 3b 07 bb 19 3b 06 bb
       -0.0012054443 -0.0018234253 0.0015258789 0.0019836426 0.0022277832 -0.0020599365 0.0023345947 -0.0020446777
000160 fd ba 18 bb 0a 3b ed 3a 3a 3b 10 bb 0f 3b 0a bb
       -0.0019302368 -0.002319336 0.002105713 0.0018081665 0.0028381348 -0.0021972656 0.0021820068 -0.002105713
000170 08 bb 04 bb 0a 3b 02 3b 0d 3b d4 ba ff 3a 03 bb
       -0.0020751953 -0.0020141602 0.002105713 0.0019836426 0.0021514893 -0.0016174316 0.0019454956 -0.0019989014
000180 00 bb 26 bb 15 3b 51 3a 80 39 43 ba 8c 35 5f b9
       -0.001953125 -0.002532959 0.0022735596 0.0007972717 0.00024414062 -0.00074386597 1.0430813e-06 -0.00021266937
000190 e4 ba d5 ba 0c 3b 19 3b 13 3b 1e bb 03 3b 05 bb
       -0.001739502 -0.001625061 0.0021362305 0.0023345947 0.002243042 -0.0024108887 0.0019989014 -0.002029419
0001a0 04 3a 27 ba 93 b6 3b 3a 25 3a 82 ba 53 3a 73 ba
       0.00050354004 -0.00063705444 -4.3809414e-06 0.0007133484 0.00062942505 -0.0009918213 0.0008049011 -0.00092697144
0001b0 39 3b 11 3b 53 bb 51 bb 3c bb 4b 3b 60 bb 61 3b
       0.002822876 0.0022125244 -0.0032196045 -0.003189087 -0.0028686523 0.0030975342 -0.0034179688 0.0034332275
0001c0 8f 3a 31 3a 09 bb 0e b9 96 38 2d ba 16 39 aa 39
       0.0010910034 0.0006752014 -0.002090454 -0.00013542175 7.1525574e-05 -0.0006599426 0.00014305115 0.00032424927
0001d0 4a 3a 0d 38 db ba 82 ba 1a ba 4f 38 69 39 17 39
       0.00077056885 3.361702e-05 -0.0016708374 -0.0009918213 -0.0005874634 4.9352646e-05 0.00022220612 0.00014400482
0001e0 41 bb 2f bb 80 3b 80 3b 66 3b 80 bb 80 3b 63 bb
       -0.0029449463 -0.002670288 0.00390625 0.00390625 0.0035095215 -0.00390625 0.00390625 -0.0034637451
0001f0 04 3b 24 3b 41 bb 43 bb 3e bb 47 3b 30 bb 2c 3b
       0.0020141602 0.0025024414 -0.0029449463 -0.0029754639 -0.00289917 0.003036499 -0.0026855469 0.0026245117

base_model.model.transformer.h.11.attn.c_attn.lora_A.weight bf16 [8, 768]
000000 12 3d 0d 3c 0d 3c 77 bc 66 bc d5 bc 80 bb 04 3c
       0.03564453 0.008605957 0.008605957 -0.015075684 -0.014038086 -0.026000977 -0.00390625 0.008056641
000010 8e bc 00 3c 99 3c 25 bc 00 3c a5 bc 05 bc a6 3c
       -0.017333984 0.0078125 0.018676758 -0.010070801 0.0078125 -0.020141602 -0.008117676 0.020263672
000020 c0 bc a4 bc 83 bb 09 bd 98 3c fd 3b 82 3b 06 bc
       -0.0234375 -0.020019531 -0.0039978027 -0.033447266 0.018554688 0.0077209473 0.003967285 -0.008178711
000030 04 bd 00 3c de bc f5 3c 7f bb a9 bc 7c bc 60 3c
       -0.032226562 0.0078125 -0.02709961 0.029907227 -0.0038909912 -0.020629883 -0.015380859 0.013671875
000040 08 3d 02 bd 7d bb cc 3c da 3c b6 3c 92 ba e1 bc
       0.033203125 -0.03173828 -0.0038604736 0.024902344 0.026611328 0.022216797 -0.0011138916 -0.02746582
000050 cd 3a c5 bc 06 bd ea bc 9b bc e3 3c ce bc 0a bc
       0.0015640259 -0.024047852 -0.032714844 -0.028564453 -0.018920898 0.027709961 -0.025146484 -0.008422852
000060 b6 3c 10 bd 91 3c a6 bc 00 bc e1 3a 56 bc 6a 3c
       0.022216797 -0.03515625 0.017700195 -0.020263672 -0.0078125 0.0017166138 -0.013061523 0.014282227
000070 9b 3b 06 3d 24 bc e5 3c d9 3c 7d 3c 72 bc d7 3c
       0.0047302246 0.032714844 -0.010009766 0.027954102 0.026489258 0.0154418945 -0.014770508 0.026245117
000080 69 3c bc bc 04 3d 10 3c c2 3c af 3c 9f 3c a3 3b
       0.014221191 -0.022949219 0.032226562 0.0087890625 0.02368164 0.021362305 0.01940918 0.0049743652
000090 a4 3b a1 3c 3f bc 0a 3d d3 bb e1 bc 8c bb f9 3c
       0.005004883 0.01965332 -0.011657715 0.033691406 -0.006439209 -0.02746582 -0.004272461 0.030395508
0000a0 12 bd 8b 3b ae bc df 3c 75 3c 8c 3c 00 3c 09 bc
       -0.03564453 0.0042419434 -0.021240234 0.02722168 0.014953613 0.017089844 0.0078125 -0.008361816
0000b0 da 3c e2 3c 80 bb e8 3b 0d 3d cc 3b f6 bc a0 3a
       0.026611328 0.02758789 -0.00390625 0.007080078 0.034423828 0.006225586 -0.030029297 0.0012207031
0000c0 ff bc c5 3c f2 3c 05 bc 8e bb 0e bd e1 bc af 3c
       -0.03112793 0.024047852 0.029541016 -0.008117676 -0.004333496 -0.03466797 -0.02746582 0.021362305
0000d0 c6 bc 90 bc 77 bc 00 bc 8c 3c 07 3d f5 bc 81 3c
       -0.024169922 -0.017578125 -0.015075684 -0.0078125 0.017089844 0.032958984 -0.029907227 0.01574707
0000e0 6a bc cb bb 83 3c a1 bc e9 bc 17 bc 00 3c a3 bc
       -0.014282227 -0.0061950684 0.015991211 -0.01965332 -0.028442383 -0.009216309 0.0078125 -0.019897461
0000f0 12 3c 04 bd c5 3b 9e 3c 47 3c d6 bc 3d bc b3 bc
       0.008911133 -0.032226562 0.006011963 0.01928711 0.012145996 -0.026123047 -0.0115356445 -0.021850586
000100 9b bc 6c bc 00 bc 20 3c 02 bc 83 3c 2f 3c 14 3c
       -0.018920898 -0.014404297 -0.0078125 0.009765625 -0.00793457 0.015991211 0.010681152 0.009033203
000110 9b 3c b3 3c 32 3c f8 3c bf bc 2c bc 6d 3c a3 bc
       0.018920898 0.021850586 0.010864258 0.030273438 -0.02331543 -0.010498047 0.014465332 -0.019897461
000120 00 3c 36 bc df 3c ad 3b 32 bc d9 3b 10 bd d8 3c
       0.0078125 -0.011108398 0.02722168 0.005279541 -0.010864258 0.0066223145 -0.03515625 0.026367188
000130 55 3c f0 bc f2 3c 13 3d c0 3c 22 bc 8e bc 12 bd
       0.013000488 -0.029296875 0.029541016 0.035888672 0.0234375 -0.009887695 -0.017333984 -0.03564453
000140 a4 bc e1 3c 13 bd a5 3c 12 bd 99 3c 73 bb e2 3c
       -0.020019531 0.02746582 -0.035888672 0.020141602 -0.03564453 0.018676758 -0.0037078857 0.02758789
000150 00 3c 10 3d 8a 3b 6e bc b8 3c 91 bb cf bc 3a bc
       0.0078125 0.03515625 0.004211426 -0.014526367 0.022460938 -0.004425049 -0.025268555 -0.011352539
000160 9b bb d6 bc c8 bc 71 3c c1 3c 6f 3c bb 3c 94 bc
       -0.0047302246 -0.026123047 -0.024414062 0.014709473 0.02355957 0.014587402 0.022827148 -0.018066406
000170 31 3c 00 bc 0d 3b a0 bc ed bc cc 3c 05 bb 2c bc
       0.010803223 -0.0078125 0.0021514893 -0.01953125 -0.028930664 0.024902344 -0.002029419 -0.010498047
000180 ed bc de bc 10 3d 0e bd ac 3c fa 3c 5d 3b 22 bc
       -0.028930664 -0.02709961 0.03515625 -0.03466797 0.020996094 0.030517578 0.0033721924 -0.009887695
000190 10 3c 12 3c 80 3c be bc 83 bc d4 bc bb bb 04 bc
       0.0087890625 0.008911133 0.015625 -0.02319336 -0.015991211 -0.025878906 -0.005706787 -0.008056641
0001a0 ab ba 95 3c c8 bc 04 3d da bc 94 3c 0f bd d6 bb
       -0.0013046265 0.018188477 -0.024414062 0.032226562 -0.026611328 0.018066406 -0.03491211 -0.0065307617
0001b0 12 3d fc 3c a5 3c 92 bb a0 3c 49 3c cb bc 8f 3c
       0.03564453 0.030761719 0.020141602 -0.0044555664 0.01953125 0.012268066 -0.024780273 0.017456055
0001c0 84 3c a3 3c 84 3b 36 3c ac 3c ec 3c 05 bd a1 3c
       0.016113281 0.019897461 0.0040283203 0.011108398 0.020996094 0.028808594 -0.032470703 0.01965332
0001d0 f0 bc fe bc 55 3c 88 bc 5b bb 83 3b 4e bc bf 3c
       -0.029296875 -0.03100586 0.013000488 -0.016601562 -0.0033416748 0.0039978027 -0.012573242 0.02331543
0001e0 4c 3c a9 bc 90 3c 79 bc cf bb fe 3c 92 bc ca 3c
       0.012451172 -0.020629883 0.017578125 -0.015197754 -0.0063171387 0.03100586 -0.017822266 0.024658203
0001f0 00 bc 0d bd f1 bc 23 bc bf 3c 82 bb 00 bc 56 bb
       -0.0078125 -0.034423828 -0.029418945 -0.0099487305 0.02331543 -0.003967285 -0.0078125 -0.0032653809

base_model.model.transformer.h.11.attn.c_attn.lora_B.weight bf16 [2304, 8]
000000 cf ba a1 ba 1f 3b 0d 3b 2c 3a d7 ba 07 bb 26 3b
       -0.0015792847 -0.0012283325 0.0024261475 0.0021514893 0.00065612793 -0.0016403198 -0.0020599365 0.002532959
000010 15 bb 1d bb 2e 3b 33 3b 8d 39 34 bb 2c bb 1c 3b
       -0.0022735596 -0.0023956299 0.0026550293 0.0027313232 0.00026893616 -0.002746582 -0.0026245117 0.002380371
000020 03 ba 5a b8 a6 39 10 ba b1 b9 95 39 a2 39 dc 37
       -0.00049972534 -5.197525e-05 0.00031661987 -0.0005493164 -0.0003376007 0.00028419495 0.00030899048 2.6226044e-05
000030 e0 3a a0 39 e8 ba 92 ba 59 ba b6 3a ad 3a f4 ba
       0.0017089844 0.00030517578 -0.0017700195 -0.0011138916 -0.0008277893 0.0013885498 0.0013198853 -0.0018615723
000040 de 3a 57 3a 4c ba 10 3a 3e ba e3 b9 c9 38 61 ba
       0.0016937256 0.0008201599 -0.00077819824 0.0005493164 -0.0007247925 -0.00043296814 9.584427e-05 -0.0008583069
000050 6a 3a 80 3b 1f bb 2f bb 5f 3a 80 3b 1a 3b 24 bb
       0.00089263916 0.00390625 -0.0024261475 -0.002670288 0.0008506775 0.00390625 0.0023498535 -0.0025024414
000060 84 bb b2 ba 84 3b 7a 3b 3b 3b 25 bb 84 bb 89 3b
       -0.0040283203 -0.0013580322 0.0040283203 0.0038146973 0.0028533936 -0.0025177002 -0.0040283203 0.004180908
000070 df ba ee b9 fe 3a 78 3a ee 38 a6 ba 18 bb f5 3a
       -0.001701355 -0.00045394897 0.0019378662 0.0009460449 0.000113487244 -0.0012664795 -0.002319336 0.0018692017
000080 7b ba 96 ba 11 3b 96 3a b6 39 83 ba 36 bb cc 3a
       -0.000957489 -0.0011444092 0.0022125244 0.0011444092 0.00034713745 -0.0009994507 -0.0027770996 0.0015563965
000090 16 bb 28 3b a7 3a 02 b9 07 3b d2 3a b5 ba 70 3a
       -0.0022888184 0.0025634766 0.0012741089 -0.00012397766 0.0020599365 0.0016021729 -0.0013809204 0.00091552734
0000a0 86 ba 81 3a 69 3a b0 39 84 b8 8f b9 90 ba 23 3a
       -0.0010223389 0.0009841919 0.00088882446 0.00033569336 -6.2942505e-05 -0.00027275085 -0.0010986328 0.00062179565
0000b0 71 3b 4b 3b 80 bb 55 bb 08 bb 81 3b 80 3b 80 bb
       0.0036773682 0.0030975342 -0.00390625 -0.003250122 -0.0020751953 0.0039367676 0.00390625 -0.00390625
0000c0 81 3b 53 ba 71 bb a4 ba 3d bb d2 b9 62 3b 48 bb
       0.0039367676 -0.0008049011 -0.0036773682 -0.0012512207 -0.0028839111 -0.0004005432 0.0034484863 -0.0030517578
0000d0 95 b9 48 ba a0 3a 7d 3a 1e b8 07 ba d1 ba 82 3a
       -0.00028419495 -0.00076293945 0.0012207031 0.0009651184 -3.7670135e-05 -0.00051498413 -0.0015945435 0.0009918213
0000e0 83 3b bc 3a 84 bb 36 bb 4f bb 1e 3b 84 3b 83 bb
       0.0039978027 0.0014343262 -0.0040283203 -0.0027770996 -0.0031585693 0.0024108887 0.0040283203 -0.0039978027
0000f0 40 ba 2b 3b b1 b9 49 ba 3b 3a 2a 3b 0a b9 67 ba
       -0.0007324219 0.002609253 -0.0003376007 -0.00076675415 0.0007133484 0.0025939941 -0.00013160706 -0.00088119507
000100 f6 3a 92 ba c6 ba 77 ba c3 ba 34 ba 98 3a c5 ba
       0.001876831 -0.0011138916 -0.0015106201 -0.0009422302 -0.0014877319 -0.0006866455 0.001159668 -0.0015029907
000110 44 ba a4 ba 0f 3a 0a b9 d3 b9 28 ba bd b9 b0 35
       -0.00074768066 -0.0012512207 0.0005455017 -0.00013160706 -0.00040245056 -0.00064086914 -0.0003604889 1.3113022e-06
000120 b0 3a 13 ba 71 ba f9 b8 e5 b8 25 b9 bc 39 10 ba
       0.0013427734 -0.0005607605 -0.00091934204 -0.00011873245 -0.00010919571 -0.00015735626 0.00035858154 -0.0005493164
000130 1f bb 0a b9 1f 3b b4 3a cc 3a 8e ba 08 bb 1a 3b
       -0.0024261475 -0.00013160706 0.0024261475 0.001373291 0.0015563965 -0.001083374 -0.0020751953 0.0023498535
000140 43 3b 3d 3b 83 bb 77 bb 00 bb 83 3b 85 3b 80 bb
       0.0029754639 0.0028839111 -0.0039978027 -0.003768921 -0.001953125 0.0039978027 0.004058838 -0.00390625
000150 64 3b 94 ba 1b bb aa ba 2f bb ed 38 43 3b 19 bb
       0.003479004 -0.0011291504 -0.0023651123 -0.0012969971 -0.002670288 0.00011301041 0.0029754639 -0.0023345947
000160 3e bb c6 ba 27 3b a4 3a 09 3b a2 ba 02 bb 10 3b
       -0.00289917 -0.0015106201 0.0025482178 0.0012512207 0.002090454 -0.0012359619 -0.0019836426 0.0021972656
000170 82 bb 54 ba 81 3b 47 3b 57 3b 12 bb 82 bb 83 3b
       -0.003967285 -0.0008087158 0.0039367676 0.003036499 0.0032806396 -0.0022277832 -0.003967285 0.0039978027
000180 71 bb fe 3a 25 3b 03 39 0e 3b 92 3a 1a bb 1d 3b
       -0.0036773682 0.0019378662 0.0025177002 0.00012493134 0.002166748 0.0011138916 -0.0023498535 0.0023956299
000190 2d bb 57 3a 35 3b e6 3a 03 3b 1b ba 41 bb 15 3b
       -0.0026397705 0.0008201599 0.0027618408 0.0017547607 0.0019989014 -0.0005912781 -0.0029449463 0.0022735596
0001a0 99 37 01 3a b0 ba 19 ba 28 ba 38 3a 1e 3a 50 ba
       1.8239021e-05 0.00049209595 -0.0013427734 -0.0005836487 -0.00064086914 0.0007019043 0.00060272217 -0.00079345703
0001b0 62 bb f5 39 80 3b 00 3b 13 3b fe b9 60 bb 49 3b
       -0.0034484863 0.00046730042 0.00390625 0.001953125 0.002243042 -0.00048446655 -0.0034179688 0.0030670166
0001c0 26 bb 8a 3a 1a 3b 88 3a 0f 3b c6 39 0b bb 0c 3b
       -0.002532959 0.0010528564 0.0023498535 0.0010375977 0.0021820068 0.00037765503 -0.0021209717 0.0021362305
0001d0 c7 3a dd b9 9a ba 8b ba ea b8 6d 3a 80 3a 79 ba
       0.0015182495 -0.00042152405 -0.0011749268 -0.0010604858 -0.000111579895 0.00090408325 0.0009765625 -0.0009498596
0001e0 76 3b 9e 39 80 bb 1b bb 01 bb a7 3a 77 3b 7a bb
       0.003753662 0.00030136108 -0.00390625 -0.0023651123 -0.0019683838 0.0012741089 0.003768921 -0.0038146973
0001f0 80 bb 30 bb 8c 3b 81 3b 25 3b 7d bb 81 bb 86 3b
       -0.00390625 -0.0026855469 0.004272461 0.0039367676 0.0025177002 -0.0038604736 -0.0039367676 0.0040893555
