examples/research_projects/stack_llama/scripts/gpt2_peft_stack-exchange-paired_rmts__100000_2e-05/checkpoint-2000/adapter_model.safetensors (safetensors, 594496 bytes, 25 tensors)

base_model.model.score.weight bf16 [1, 768]
0.029296875 0.005645752 0.01928711 0.03149414 0.009887695 -0.030395508 -0.0053710938 0.011474609
0.006286621 -0.011352539 0.010864258 -0.011230469 0.012023926 0.047607422 0.033447266 -0.016723633
-0.010070801 -0.010192871 -0.008728027 0.02734375 -0.013427734 -0.0033569336 0.017944336 -0.026733398
0.015319824 0.022949219 -0.011474609 0.01928711 0.040771484 0.011230469 0.0006599426 -0.013977051
-0.009399414 -0.027832031 0.027709961 -0.012268066 0.05908203 0.013061523 -0.02709961 -0.029663086
0.01977539 0.023803711 -0.040283203 -0.031982422 -0.01928711 0.011230469 -0.013671875 -0.015014648
0.018432617 0.0073547363 0.0099487305 -0.028320312 0.00017166138 0.031982422 0.006225586 -0.009765625
0.017578125 -0.028198242 0.0020599365 -0.017700195 -0.002319336 0.0024414062 -0.022705078 0.0043640137
0.018798828 0.0079956055 0.010314941 0.021606445 -0.008483887 -0.028442383 -0.01159668 0.012512207
0.025512695 -0.005340576 -0.001373291 0.0095825195 0.022094727 -0.0021514893 0.0078125 0.020751953
0.020996094 -0.008117676 -0.022094727 5.173683e-05 -0.0063476562 -0.018554688 -0.018188477 -0.014221191
0.024414062 0.0060424805 0.005706787 -0.0038146973 -0.013916016 0.0390625 0.02319336 -0.00014686584
0.0008735657 0.01953125 -0.0012512207 0.010192871 -0.022705078 0.028442383 -0.017822266 0.010070801
0.025390625 0.0026245117 -0.01361084 0.022949219 0.002746582 -0.008239746 -0.00040245056 -0.033935547
0.016845703 0.01159668 -0.041259766 -0.016479492 -0.012817383 0.010009766 0.014953613 -0.0042419434
0.010620117 -0.028930664 -0.013305664 0.0046691895 0.022216797 0.024414062 0.03881836 0.031982422
-0.00970459 0.018188477 -0.022460938 0.007293701 -0.022338867 -0.019042969 -0.00030708313 0.011108398
-0.027832031 0.022094727 -0.024414062 0.017822266 0.026000977 -0.0028533936 0.0026855469 0.018554688
-0.033935547 0.010559082 -0.006378174 -0.026489258 0.029663086 -0.004180908 0.00390625 -0.024536133
0.012145996 0.018676758 -0.04248047 -0.001914978 0.018798828 -0.02331543 0.00390625 0.004272461
0.014709473 -0.013244629 0.011413574 0.013549805 -0.018188477 0.031982422 0.009399414 0.0045166016
-0.013000488 -0.0072631836 -0.026123047 0.037597656 -0.013977051 0.011474609 0.014831543 0.029907227
0.010559082 -0.0039978027 0.003967285 -0.004699707 -0.012145996 0.012023926 0.0054016113 -0.0002632141
0.03173828 0.010253906 0.004058838 -0.017578125 0.0015640259 0.016357422 0.00390625 -0.003753662
-0.0119018555 0.021850586 0.03173828 -0.022094727 0.03173828 -0.014709473 0.009460449 -0.008239746
0.0020446777 0.00390625 0.0023651123 0.024047852 -0.029663086 0.008300781 0.0038909912 0.0038604736
-0.0004272461 -0.0016098022 0.006591797 0.003768921 0.015319824 -0.01928711 0.033691406 0.003967285
-0.011108398 0.016235352 -0.0038757324 0.019165039 0.005859375 0.019165039 0.0025634766 -0.052490234
-0.008239746 0.02319336 -0.047851562 -0.013671875 -0.03125 -0.020507812 0.017211914 0.0065612793
-0.044921875 0.0095825195 -0.032470703 -0.0119018555 -0.017700195 0.009643555 0.012145996 -0.01550293
-0.02331543 0.017578125 0.022094727 0.021850586 -0.032470703 -0.0013885498 0.01361084 0.014709473
-0.022949219 -0.014465332 -0.004058838 -0.00390625 0.0053100586 0.017578125 -0.024658203 0.014099121
00000000: f03c b93b 9e3c 013d 223c f9bc b0bb 3c3c
00000010: ce3b 3abc 323c 38bc 453c 433d 093d 89bc
00000020: 25bc 27bc 0fbc e03c 5cbc 5cbb 933c dbbc
00000030: 7b3c bc3c 3cbc 9e3c 273d 383c 2d3a 65bc
00000040: 1abc e4bc e33c 49bc 723d 563c debc f3bc
00000050: a23c c33c 25bd 03bd 9ebc 383c 60bc 76bc
00000060: 973c f13b 233c e8bc 3439 033d cc3b 20bc
00000070: 903c e7bc 073b 91bc 18bb 203b babc 8f3b
00000080: 9a3c 033c 293c b13c 0bbc e9bc 3ebc 4d3c
00000090: d13c afbb b4ba 1d3c b53c 0dbb 003c aa3c
000000a0: ac3c 05bc b5bc 5938 d0bb 98bc 95bc 69bc
000000b0: c83c c63b bb3b 7abb 64bc 203d be3c 1ab9
000000c0: 653a a03c a4ba 273c babc e93c 92bc 253c
000000d0: d03c 2c3b 5fbc bc3c 343b 07bc d3b9 0bbd
000000e0: 8a3c 3e3c 29bd 87bc 52bc 243c 753c 8bbb
000000f0: 2e3c edbc 5abc 993b b63c c83c 1f3d 033d
00000100: 1fbc 953c b8bc ef3b b7bc 9cbc a1b9 363c
00000110: e4bc b53c c8bc 923c d53c 3bbb 303b 983c
00000120: 0bbd 2d3c d1bb d9bc f33c 89bb 803b c9bc
00000130: 473c 993c 2ebd fbba 9a3c bfbc 803b 8c3b
00000140: 713c 59bc 3b3c 5e3c 95bc 033d 1a3c 943b
00000150: 55bc eebb d6bc 1a3d 65bc 3c3c 733c f53c
00000160: 2d3c 83bb 823b 9abb 47bc 453c b13b 8ab9
00000170: 023d 283c 853b 90bc cd3a 863c 803b 76bb
00000180: 43bc b33c 023d b5bc 023d 71bc 1b3c 07bc
00000190: 063b 803b 1b3b c53c f3bc 083c 7f3b 7d3b
000001a0: e0b9 d3ba d83b 773b 7b3c 9ebc 0a3d 823b
000001b0: 36bc 853c 7ebb 9d3c c03b 9d3c 283b 57bd
000001c0: 07bc be3c 44bd 60bc 00bd a8bc 8d3c d73b
000001d0: 38bd 1d3c 05bd 43bc 91bc 1e3c 473c 7ebc
000001e0: bfbc 903c b53c b33c 05bd b6ba 5f3c 713c
000001f0: bcbc 6dbc 85bb 80bb ae3b 903c cabc 673c

base_model.model.transformer.h.0.attn.c_attn.lora_A.weight bf16 [8, 768]
-0.026123047 0.027954102 -0.028198242 -0.0022735596 0.033691406 0.017578125 -0.0053100586 0.015991211
0.0087890625 -0.011108398 -0.009399414 -0.010925293 -0.033203125 -0.0234375 0.004058838 0.019165039
-0.028930664 0.026000977 0.032226562 -0.020141602 0.015563965 0.024169922 -0.018066406 0.017822266
0.032714844 0.02722168 -0.033691406 0.0008430481 -0.004119873 0.016479492 0.0043640137 -0.021728516
-0.033203125 -0.009399414 0.0031280518 -0.023925781 0.013671875 -0.011413574 -0.011291504 -0.018798828
-0.024047852 0.02331543 0.027709961 0.0039978027 -0.018676758 0.0023040771 -0.0073242188 0.016357422
-0.008056641 -0.01953125 0.022949219 -0.010681152 0.026733398 0.004180908 0.020996094 -0.00037193298
-0.008239746 -0.00390625 -0.0041503906 0.00390625 -0.0008201599 0.016357422 0.0021972656 -0.0039978027
0.0043945312 0.0051879883 0.033447266 0.009765625 0.03173828 0.014831543 0.024902344 -0.024902344
0.025512695 -0.01953125 0.0039367676 0.03173828 0.0019989014 0.019165039 -0.004211426 -0.024902344
0.028198242 -0.020141602 0.03515625 -0.00491333 -0.015136719 -0.030029297 0.021362305 -0.029296875
-0.0049743652 -0.000667572 0.014343262 -0.015197754 0.008911133 -0.026245117 0.0146484375 -0.010253906
0.020263672 0.032226562 0.032226562 -0.025634766 -0.031982422 0.012817383 -0.02331543 -0.005706787
0.016479492 0.01977539 -0.0068969727 0.022827148 -0.016113281 -0.0063171387 0.019897461 0.0063476562
0.032226562 0.01928711 0.026733398 0.009765625 0.0019683838 -0.0079956055 0.028320312 -0.0004787445
0.0039367676 -0.023071289 0.0005607605 0.0032653809 0.009460449 0.018432617 0.014343262 -0.034423828
-0.029785156 0.024658203 -0.03466797 0.018798828 0.0005950928 0.012878418 -0.026855469 0.01184082
-0.018066406 0.03564453 -0.014282227 -0.007080078 0.0018234253 0.009521484 -0.015380859 0.032226562
-0.020507812 -0.0008087158 0.011352539 -0.03515625 -0.029418945 0.022216797 0.03540039 0.017822266
-0.020141602 0.008361816 -0.03466797 0.00390625 -0.025756836 -0.010864258 0.022216797 0.032470703
-0.012390137 0.024414062 -0.032958984 0.0043029785 0.014709473 -0.021362305 0.021118164 0.028076172
0.006225586 0.020385742 0.029663086 0.008361816 0.017700195 -0.0046081543 -0.003326416 0.011413574
0.034179688 -0.029541016 0.02758789 0.009094238 -0.020629883 0.015380859 -0.0026245117 -0.011108398
0.032958984 0.0076904297 -0.028442383 0.030639648 -0.015563965 0.022583008 0.021484375 -0.007019043
0.033203125 0.0030975342 0.025268555 0.020751953 -0.021484375 0.025756836 -0.009033203 -0.005493164
0.020507812 0.010192871 0.03540039 0.024291992 0.003967285 0.03515625 -0.012451172 -0.026855469
-0.014038086 -0.021118164 0.00062561035 -0.0138549805 -0.028564453 0.0040283203 -0.016601562 -0.0005340576
-0.012329102 -0.017700195 0.03540039 0.0053100586 -0.0046081543 -0.0068359375 0.029785156 -0.02758789
0.026489258 0.035888672 -0.012573242 -0.01928711 0.01574707 0.031982422 -0.0039367676 0.030395508
-0.009033203 -0.03540039 0.017944336 0.034423828 -0.009338379 -0.007659912 0.0079956055 0.032470703
0.032226562 -0.021118164 0.026245117 -0.016601562 -0.010131836 0.0073242188 0.026489258 -0.020507812
0.0046081543 -0.022827148 -0.03173828 -0.018066406 -0.010253906 -0.024291992 -0.02709961 -0.0078125
00000000: d6bc e53c e7bc 15bb 0a3d 903c aebb 833c
00000010: 103c 36bc 1abc 33bc 08bd c0bc 853b 9d3c
00000020: edbc d53c 043d a5bc 7f3c c63c 94bc 923c
00000030: 063d df3c 0abd 5d3a 87bb 873c 8f3b b2bc
00000040: 08bd 1abc 4d3b c4bc 603c 3bbc 39bc 9abc
00000050: c5bc bf3c e33c 833b 99bc 173b f0bb 863c
00000060: 04bc a0bc bc3c 2fbc db3c 893b ac3c c3b9
00000070: 07bc 80bb 88bb 803b 57ba 863c 103b 83bb
00000080: 903b aa3b 093d 203c 023d 733c cc3c ccbc
00000090: d13c a0bc 813b 023d 033b 9d3c 8abb ccbc
000000a0: e73c a5bc 103d a1bb 78bc f6bc af3c f0bc
000000b0: a3bb 2fba 6b3c 79bc 123c d7bc 703c 28bc
000000c0: a63c 043d 043d d2bc 03bd 523c bfbc bbbb
000000d0: 873c a23c e2bb bb3c 84bc cfbb a33c d03b
000000e0: 043d 9e3c db3c 203c 013b 03bc e83c fbb9
000000f0: 813b bdbc 133a 563b 1b3c 973c 6b3c 0dbd
00000100: f4bc ca3c 0ebd 9a3c 1c3a 533c dcbc 423c
00000110: 94bc 123d 6abc e8bb ef3a 1c3c 7cbc 043d
00000120: a8bc 54ba 3a3c 10bd f1bc b63c 113d 923c
00000130: a5bc 093c 0ebd 803b d3bc 32bc b63c 053d
00000140: 4bbc c83c 07bd 8d3b 713c afbc ad3c e63c
00000150: cc3b a73c f33c 093c 913c 97bb 5abb 3b3c
00000160: 0c3d f2bc e23c 153c a9bc 7c3c 2cbb 36bc
00000170: 073d fc3b e9bc fb3c 7fbc b93c b03c e6bb
00000180: 083d 4b3b cf3c aa3c b0bc d33c 14bc b4bb
00000190: a83c 273c 113d c73c 823b 103d 4cbc dcbc
000001a0: 66bc adbc 243a 63bc eabc 843b 88bc 0cba
000001b0: 4abc 91bc 113d ae3b 97bb e0bb f43c e2bc
000001c0: d93c 133d 4ebc 9ebc 813c 033d 81bb f93c
000001d0: 14bc 11bd 933c 0d3d 19bc fbbb 033c 053d
000001e0: 043d adbc d73c 88bc 26bc f03b d93c a8bc
000001f0: 973b bbbc 02bd 94bc 28bc c7bc debc 00bc

base_model.model.transformer.h.0.attn.c_attn.lora_B.weight bf16 [2304, 8]
-0.000579834 -0.0006713867 0.00038146973 0.00035095215 -0.0004348755 -0.00091552734 0.00024986267 0.0007286072
-0.0009918213 0.00018024445 -0.0012969971 0.0018005371 0.0010681152 5.6028366e-05 -0.00064468384 -0.0008583069
0.0010070801 0.00045585632 5.38826e-05 -0.00033569336 0.0012741089 6.866455e-05 -0.00062561035 -0.0008430481
0.0012817383 0.0004787445 -0.0018692017 0.0015869141 0.0022277832 6.914139e-05 -0.0018157959 -0.001045227
-0.0014953613 -0.00024795532 0.0010528564 -0.0019683838 -0.0011520386 -0.0010299683 0.00074386597 0.00019741058
0.00012874603 0.00021743774 -0.00034713745 -0.0010223389 0.00012683868 -7.772446e-05 0.0005569458 -7.009506e-05
0.0009918213 0.0012512207 -0.00062179565 0.00021457672 0.00045013428 1.4066696e-05 -0.00045776367 -0.00091552734
0.0008583069 0.001045227 -0.0012435913 0.00075531006 0.0013198853 -0.0002746582 -1.8000603e-05 -0.001449585
-0.00065612793 0.00020122528 0.00032043457 -0.0003376007 2.69413e-05 0.00018501282 -0.00016975403 0.0009918213
4.005432e-05 9.584427e-05 0.0011291504 -0.0019683838 -0.0017776489 -0.0013961792 0.0006942749 0.0017318726
8.916855e-05 0.00012302399 -0.0013885498 0.0017471313 0.0018539429 -0.0004272461 -0.0015258789 -0.0012207031
0.000667572 0.0006713867 4.220009e-05 -0.00031852722 0.00022125244 -5.3167343e-05 -0.00051116943 -0.00027656555
0.0010375977 -0.0004863739 -4.7922134e-05 0.0003299713 0.00093078613 0.0002861023 -0.00089645386 -0.00018882751
0.0010604858 0.00022506714 -0.0011291504 2.5749207e-05 0.0016784668 1.244247e-06 -0.00017261505 -0.0006790161
-0.0008354187 -0.0011444092 0.000102996826 -0.0002822876 -0.0017852783 6.771088e-05 0.0010299683 0.001083374
0.0011901855 0.0013427734 7.6293945e-05 -0.00013637543 9.346008e-05 0.00049591064 -0.00045585632 -0.00041007996
-0.0008583069 -0.0003414154 -0.00051116943 0.00076675415 0.0009384155 -0.00043296814 -0.00089645386 -0.0009536743
-0.00010204315 -0.0012741089 -0.00040626526 -0.0003566742 -1.835823e-05 -6.484985e-05 0.0001001358 0.0014343262
0.00092697144 0.00061035156 0.00077819824 -0.0010681152 -0.00013065338 -0.0010375977 0.00031089783 -0.00010442734
0.00089645386 0.0010070801 0.0011672974 -0.001083374 -0.0013809204 -0.00091552734 0.0011367798 -0.0008544922
-0.0011672974 -0.00049972534 0.00061035156 0.0008049011 -0.0009651184 0.00075149536 0.0009765625 0.00092697144
0.00020313263 0.0008125305 -0.00013065338 0.00033950806 -0.00033950806 0.00049209595 -6.444752e-07 -0.00036239624
-0.00037956238 -0.0014801025 -0.00026893616 0.0014572144 2.9206276e-05 0.000957489 -0.00039863586 -0.0013046265
-0.00036621094 0.00051116943 0.00091934204 0.00019168854 -0.00039863586 -8.106232e-05 -0.0010375977 -0.00075531006
0.00090026855 -0.0001206398 -0.0016937256 -0.00045967102 0.0013580322 0.00091552734 0.00031280518 -0.00061035156
-0.0003528595 -0.0013885498 -0.0019378662 0.0007324219 0.0012741089 1.9192696e-05 -0.0007095337 0.0003490448
-0.00037384033 -0.0010375977 0.0014190674 -0.00011587143 -0.00039863586 -0.0007972717 0.000111579895 0.00011444092
0.0006904602 -5.4359436e-05 0.0008239746 -0.0008354187 -0.0008354187 -0.0003566742 5.030632e-05 -0.0007133484
0.001449585 0.0012207031 0.00090026855 -0.00035476685 -0.00064468384 -0.0006980896 0.0012207031 0.0015869141
-0.00091552734 -3.7908554e-05 -0.00047302246 0.0012283325 0.00089263916 -0.00078582764 -0.00030326843 0.0012512207
-0.00093460083 -0.00028419495 0.00048065186 0.00043296814 -0.0005378723 0.0006828308 0.0004386902 0.00093078613
0.0011062622 8.9645386e-05 0.00045204163 0.0009613037 -0.00035858154 0.0004005432 -0.0008163452 -0.00021839142
00000000: 18ba 30ba c839 b839 e4b9 70ba 8339 3f3a
00000010: 82ba 3d39 aaba ec3a 8c3a 6b38 29ba 61ba
00000020: 843a ef39 6238 b0b9 a73a 9038 24ba 5dba
00000030: a83a fb39 f5ba d03a 123b 9138 eeba 89ba
00000040: c4ba 82b9 8a3a 01bb 97ba 87ba 433a 4f39
00000050: 0739 6439 b6b9 86ba 0539 a3b8 123a 93b8
00000060: 823a a43a 23ba 6139 ec39 6c37 f0b9 70ba
00000070: 613a 893a a3ba 463a ad3a 90b9 97b7 beba
00000080: 2cba 5339 a839 b1b9 e237 4239 32b9 823a
00000090: 2838 c938 943a 01bb e9ba b7ba 363a e33a
000000a0: bb38 0139 b6ba e53a f33a e0b9 c8ba a0ba
000000b0: 2f3a 303a 3138 a7b9 6839 5fb8 06ba 91b9
000000c0: 883a ffb9 49b8 ad39 743a 9639 6bba 46b9
000000d0: 8b3a 6c39 94ba d837 dc3a a735 35b9 32ba
000000e0: 5bba 96ba d838 94b9 eaba 8e38 873a 8e3a
000000f0: 9c3a b03a a038 0fb9 c438 023a efb9 d7b9
00000100: 61ba b3b9 06ba 493a 763a e3b9 6bba 7aba
00000110: d6b8 a7ba d5b9 bbb9 9ab7 88b8 d238 bc3a
00000120: 733a 203a 4c3a 8cba 09b9 88ba a339 dbb8
00000130: 6b3a 843a 993a 8eba b5ba 70ba 953a 60ba
00000140: 99ba 03ba 203a 533a 7dba 453a 803a 733a
00000150: 5539 553a 09b9 b239 b2b9 013a 2db5 beb9
00000160: c7b9 c2ba 8db9 bf3a f537 7b3a d1b9 abba
00000170: c0b9 063a 713a 4939 d1b9 aab8 88ba 46ba
00000180: 6c3a fdb8 deba f1b9 b23a 703a a439 20ba
00000190: b9b9 b6ba feba 403a a73a a137 3aba b739
000001a0: c4b9 88ba ba3a f3b8 d1b9 51ba ea38 f038
000001b0: 353a 64b8 583a 5bba 5bba bbb9 5338 3bba
000001c0: be3a a03a 6c3a bab9 29ba 37ba a03a d03a
000001d0: 70ba 1fb8 f8b9 a13a 6a3a 4eba 9fb9 a43a
000001e0: 75ba 95b9 fc39 e339 0dba 333a e639 743a
000001f0: 913a bc38 ed39 7c3a bcb9 d239 56ba 65b9

base_model.model.transformer.h.1.attn.c_attn.lora_A.weight bf16 [8, 768]
0.02319336 0.020629883 -0.026245117 0.008117676 -0.033691406 0.021606445 -0.01953125 -0.010559082
-0.029052734 0.032226562 0.03564453 0.009155273 -0.002105713 -0.0026550293 0.020507812 0.021850586
-0.010620117 0.0046691895 -0.0078125 0.025024414 0.011108398 -0.021118164 -0.01977539 0.016113281
0.013427734 -0.010803223 -0.0073547363 -0.010070801 -0.01928711 0.009521484 0.025634766 -0.014709473
0.011352539 -0.020751953 0.014404297 0.0050964355 0.009155273 -0.008117676 0.033935547 -0.024658203
0.008178711 -0.033447266 0.028930664 0.011047363 -0.0048217773 0.035888672 -0.020263672 0.029541016
0.0055236816 0.016235352 0.014404297 -0.015991211 0.006134033 -0.021972656 -0.016479492 0.021850586
0.017211914 -0.035888672 0.014343262 0.025390625 0.0010681152 -0.008361816 0.0050964355 0.0030822754
-0.012329102 0.015014648 0.025390625 0.03100586 -0.024047852 -0.008483887 0.03540039 0.01586914
-0.021362305 -0.00012779236 0.017944336 -0.015197754 -0.03173828 0.013916016 -0.02368164 -0.019042969
0.01574707 -0.004486084 -0.0078125 0.007171631 -0.021728516 -0.020263672 -0.0049743652 0.030029297
0.023803711 0.009887695 -0.001373291 -0.0078125 0.0035552979 0.00592041 0.006439209 -0.034423828
0.019897461 -0.002456665 0.018554688 0.03466797 0.03100586 0.017333984 -0.0038146973 -0.029174805
0.03564453 0.0077819824 0.019897461 0.011108398 0.024047852 -0.024658203 -0.024047852 -0.0022277832
-0.034423828 -0.00026512146 -0.030517578 -0.012268066 -0.030273438 -0.010437012 0.023803711 -0.005493164
0.009399414 -0.004211426 -0.0073242188 -0.030151367 -0.025268555 -0.025146484 0.017089844 0.0038452148
0.034423828 0.004333496 -0.024169922 0.020751953 -0.01977539 -0.028930664 -0.015258789 0.03125
0.012084961 0.03540039 -0.030151367 0.01171875 -0.032470703 0.01940918 0.026123047 -0.013366699
0.022827148 0.0154418945 0.0115356445 -0.021972656 0.01550293 -0.013793945 0.013366699 -0.014465332
0.023071289 0.013244629 -0.02355957 0.03515625 0.0038909912 0.0057678223 -0.036132812 0.017089844
0.02709961 -0.02319336 -0.020385742 -0.007659912 -0.017578125 -0.011413574 0.0067749023 0.032226562
-0.0065612793 -0.03173828 0.011108398 0.02319336 -0.032958984 0.016479492 0.032226562 -0.0053100586
-0.021972656 -0.0027770996 -0.033447266 -0.01184082 -0.013366699 -0.021972656 -0.033447266 -0.028930664
0.0066223145 0.0006790161 0.0057678223 0.02355957 -0.017456055 -0.014831543 0.014099121 0.0007209778
0.033691406 -0.029296875 -0.004119873 0.015380859 0.0062561035 0.010986328 0.011779785 -0.032714844
0.032958984 0.0234375 -0.02355957 0.024902344 0.012329102 -0.012329102 0.0076293945 8.583069e-05
-0.0036315918 0.011779785 0.025634766 0.03112793 0.0004310608 0.011352539 0.01928711 0.01928711
-0.022460938 0.0046081543 0.03491211 0.03149414 0.018066406 0.008972168 0.021728516 0.033447266
0.002105713 0.028442383 0.030883789 -0.01574707 -0.0017318726 0.0146484375 -0.010986328 0.026611328
-0.027954102 -0.021484375 0.03515625 -0.02368164 0.028320312 0.032226562 0.015014648 0.008483887
-0.0069885254 -0.00390625 0.0038146973 -0.008422852 0.0019989014 0.010986328 0.016357422 0.027954102
0.014953613 0.027709961 0.008361816 0.0087890625 0.0234375 0.0040283203 -0.024169922 -0.019897461
00000000: be3c a93c d7bc 053c 0abd b13c a0bc 2dbc
00000010: eebc 043d 123d 163c 0abb 2ebb a83c b33c
00000020: 2ebc 993b 00bc cd3c 363c adbc a2bc 843c
00000030: 5c3c 31bc f1bb 25bc 9ebc 1c3c d23c 71bc
00000040: 3a3c aabc 6c3c a73b 163c 05bc 0b3d cabc
00000050: 063c 09bd ed3c 353c 9ebb 133d a6bc f23c
00000060: b53b 853c 6c3c 83bc c93b b4bc 87bc b33c
00000070: 8d3c 13bd 6b3c d03c 8c3a 09bc a73b 4a3b
00000080: 4abc 763c d03c fe3c c5bc 0bbc 113d 823c
00000090: afbc 06b9 933c 79bc 02bd 643c c2bc 9cbc
000000a0: 813c 93bb 00bc eb3b b2bc a6bc a3bb f63c
000000b0: c33c 223c b4ba 00bc 693b c23b d33b 0dbd
000000c0: a33c 21bb 983c 0e3d fe3c 8e3c 7abb efbc
000000d0: 123d ff3b a33c 363c c53c cabc c5bc 12bb
000000e0: 0dbd 8bb9 fabc 49bc f8bc 2bbc c33c b4bb
000000f0: 1a3c 8abb f0bb f7bc cfbc cebc 8c3c 7c3b
00000100: 0d3d 8e3b c6bc aa3c a2bc edbc 7abc 003d
00000110: 463c 113d f7bc 403c 05bd 9f3c d63c 5bbc
00000120: bb3c 7d3c 3d3c b4bc 7e3c 62bc 5b3c 6dbc
00000130: bd3c 593c c1bc 103d 7f3b bd3b 14bd 8c3c
00000140: de3c bebc a7bc fbbb 90bc 3bbc de3b 043d
00000150: d7bb 02bd 363c be3c 07bd 873c 043d aebb
00000160: b4bc 36bb 09bd 42bc 5bbc b4bc 09bd edbc
00000170: d93b 323a bd3b c13c 8fbc 73bc 673c 3d3a
00000180: 0a3d f0bc 87bb 7c3c cd3b 343c 413c 06bd
00000190: 073d c03c c1bc cc3c 4a3c 4abc fa3b b438
000001a0: 6ebb 413c d23c ff3c e239 3a3c 9e3c 9e3c
000001b0: b8bc 973b 0f3d 013d 943c 133c b23c 093d
000001c0: 0a3b e93c fd3c 81bc e3ba 703c 34bc da3c
000001d0: e5bc b0bc 103d c2bc e83c 043d 763c 0b3c
000001e0: e5bb 80bb 7a3b 0abc 033b 343c 863c e53c
000001f0: 753c e33c 093c 103c c03c 843b c6bc a3bc

base_model.model.transformer.h.1.attn.c_attn.lora_B.weight bf16 [2304, 8]
-3.2901764e-05 -0.0015563965 -0.0010604858 -0.0011062622 -0.0011978149 -0.0017242432 -0.00045585632 -0.00040245056
0.0005722046 0.0015716553 0.001373291 0.0014038086 0.0012893677 0.0012435913 0.0010910034 0.0019836426
-0.0009536743 -0.0008201599 0.001914978 0.0005607605 0.0010299683 -0.0007171631 0.0007095337 -0.0003376007
-0.00090789795 0.0002937317 0.0014343262 0.0009994507 0.001373291 0.00040245056 0.001159668 0.0018463135
0.0013046265 0.0012283325 -0.0011978149 -0.00049972534 -0.0005607605 3.0398369e-05 -0.0015106201 0.0011520386
-0.0013504028 -5.9127808e-05 0.0012817383 0.00093078613 0.0002784729 -0.00010681152 -0.00038146973 0.0002632141
-0.000869751 -0.0016860962 -0.0014572144 -0.00091552734 -0.0012054443 -0.0018310547 -0.0007171631 0.0004787445
0.00030326843 -0.0015487671 -0.00015640259 -0.0016937256 -0.0004081726 -0.00010442734 6.2942505e-05 -0.0015792847
0.001159668 -0.00024604797 -0.0005302429 -0.00032234192 -0.0005760193 -0.00012683868 -0.00028038025 -0.0011138916
0.0005187988 0.0009460449 -9.727478e-05 0.0015487671 0.0011978149 0.0015029907 0.00017929077 0.000869751
-0.0005722046 0.0010681152 0.001953125 0.0013198853 0.0015716553 0.0014266968 0.001411438 0.0015411377
0.0015792847 0.00032234192 -0.0016708374 -0.0013504028 -0.0011520386 7.581711e-05 -0.00091171265 -0.0014877319
0.001045227 5.173683e-05 -0.0020141602 -0.0011749268 -0.0016326904 -0.0008773804 -0.0016479492 -0.0014953613
-0.00020599365 -2.69413e-05 9.059906e-05 -0.00031661987 0.00024986267 -0.0003376007 0.00064849854 0.00062942505
-0.00022411346 9.012222e-05 0.00029563904 0.0005836487 0.00061035156 -0.0002193451 -7.009506e-05 0.00076675415
-0.0006713867 0.0004310608 0.00038146973 0.001121521 0.0001783371 8.6307526e-05 -0.00014400482 0.0006790161
0.00037765503 0.00022411346 -0.00051498413 0.0006713867 0.0015106201 0.00014972687 -0.0006904602 0.00033187866
0.0004711151 0.00024223328 -0.0018844604 -0.0008239746 -0.0014724731 -0.00050354004 -0.00060272217 -0.0012435913
-0.0002784729 0.0018920898 0.0014877319 0.0014419556 0.0015563965 0.0021972656 0.0010528564 0.001876831
-0.0011291504 -0.001449585 0.0004749298 -5.6028366e-05 0.0012817383 -0.00049591064 -0.00041770935 0.0009918213
-0.0014572144 -0.0019073486 0.0008621216 -0.00038528442 -0.00064468384 -0.0017166138 0.0009727478 1.5735626e-05
-0.00074386597 -0.00033569336 -0.00063323975 -0.00038146973 -0.0005493164 -0.0007171631 -0.00041389465 -0.0005340576
-0.0015411377 -0.0011672974 -7.390976e-05 -0.0006713867 -0.0008735657 -0.0005912781 -0.00046539307 -0.00077819824
0.00088119507 -0.00012302399 -0.0016479492 -0.0011825562 -0.001914978 -4.1246414e-05 -1.7285347e-05 -0.0003604889
-0.0005836487 0.002243042 0.0009651184 0.0014724731 0.0017929077 0.0012588501 -0.0008430481 0.002105713
-0.0008163452 -0.0013656616 -0.0009689331 -0.001045227 -0.0010528564 -0.0015258789 -0.00011253357 -0.001159668
0.00023269653 0.0008010864 0.001876831 0.0015487671 0.0015487671 0.0011520386 0.0015716553 0.0008010864
-0.00022506714 0.00022315979 0.0006637573 -0.00089645386 -0.00092315674 -0.0004005432 0.0009460449 -0.0002822876
0.00011873245 0.0016021729 0.00046157837 0.0007133484 0.0019836426 0.0014953613 0.0005874634 0.002105713
0.00076293945 0.00090789795 0.0010986328 0.00079345703 0.001045227 0.0011138916 0.000869751 0.0012588501
-0.000705719 0.0013580322 0.0019378662 0.0018081665 0.001335144 0.001625061 0.00062942505 0.0014419556
-0.0010299683 -0.0007972717 0.0008125305 0.00013828278 -5.030632e-05 -0.00031280518 0.00049972534 0.0011291504
00000000: 0ab8 ccba 8bba 91ba 9dba e2ba efb9 d3b9
00000010: 163a ce3a b43a b83a a93a a33a 8f3a 023b
00000020: 7aba 57ba fb3a 133a 873a 3cba 3a3a b1b9
00000030: 6eba 9a39 bc3a 833a b43a d339 983a f23a
00000040: ab3a a13a 9dba 03ba 13ba ff37 c6ba 973a
00000050: b1ba 78b8 a83a 743a 9239 e0b8 c8b9 8a39
00000060: 64ba ddba bfba 70ba 9eba f0ba 3cba fb39
00000070: 9f39 cbba 24b9 deba d6b9 dbb8 8438 cfba
00000080: 983a 81b9 0bba a9b9 17ba 05b9 93b9 92ba
00000090: 083a 783a ccb8 cb3a 9d3a c53a 3c39 643a
000000a0: 16ba 8c3a 003b ad3a ce3a bb3a b93a ca3a
000000b0: cf3a a939 dbba b1ba 97ba 9f38 6fba c3ba
000000c0: 893a 5938 04bb 9aba d6ba 66ba d8ba c4ba
000000d0: 58b9 e2b7 be38 a6b9 8339 b1b9 2a3a 253a
000000e0: 6bb9 bd38 9b39 193a 203a 66b9 93b8 493a
000000f0: 30ba e239 c839 933a 3b39 b538 17b9 323a
00000100: c639 6b39 07ba 303a c63a 1d39 35ba ae39
00000110: f739 7e39 f7ba 58ba c1ba 04ba 1eba a3ba
00000120: 92b9 f83a c33a bd3a cc3a 103b 8a3a f63a
00000130: 94ba beba f939 6bb8 a83a 02ba dbb9 823a
00000140: bfba faba 623a cab9 29ba e1ba 7f3a 8437
00000150: 43ba b0b9 26ba c8b9 10ba 3cba d9b9 0cba
00000160: caba 99ba 9bb8 30ba 65ba 1bba f4b9 4cba
00000170: 673a 01b9 d8ba 9bba fbba 2db8 91b7 bdb9
00000180: 19ba 133b 7d3a c13a eb3a a53a 5dba 0a3b
00000190: 56ba b3ba 7eba 89ba 8aba c8ba ecb8 98ba
000001a0: 7439 523a f63a cb3a cb3a 973a ce3a 523a
000001b0: 6cb9 6a39 2e3a 6bba 72ba d2b9 783a 94b9
000001c0: f938 d23a f239 3b3a 023b c43a 1a3a 0a3b
000001d0: 483a 6e3a 903a 503a 893a 923a 643a a53a
000001e0: 39ba b23a fe3a ed3a af3a d53a 253a bd3a
000001f0: 87ba 51ba 553a 1139 53b8 a4b9 033a 943a

base_model.model.transformer.h.10.attn.c_attn.lora_A.weight bf16 [8, 768]
-0.014770508 -0.030273438 0.017578125 0.0126953125 0.0067749023 -0.007171631 -0.03564453 -0.020507812
-0.011230469 0.020629883 -0.00390625 -0.0078125 -0.005279541 -0.00390625 -0.0031433105 -0.022216797
-0.032714844 0.021972656 -0.028564453 -0.0023956299 0.0039367676 -0.0078125 0.026611328 -0.025878906
-0.034179688 -0.004852295 0.023925781 0.018798828 0.014587402 0.010620117 0.013916016 0.0075683594
0.03125 -0.018188477 0.0065612793 0.033935547 -0.026977539 -0.014343262 -0.018676758 0.032714844
-0.033691406 -0.020507812 -0.032470703 -0.005218506 0.0009841919 0.020019531 0.024047852 -0.011413574
0.017700195 0.022338867 -0.017578125 -0.028808594 0.02722168 0.013916016 0.029541016 -0.022216797
-0.023071289 -0.008178711 -0.0134887695 0.02758789 -0.007537842 -0.021606445 -0.016235352 0.03466797
0.014221191 -0.03540039 0.0070495605 -0.030761719 -0.017578125 -0.026000977 -0.022216797 0.01965332
0.0070495605 -0.020507812 0.03466797 -0.0078125 0.004211426 0.016113281 0.01586914 -0.01940918
-0.0047302246 -0.012390137 0.0078125 0.02355957 -0.013793945 -0.026977539 0.018920898 0.005493164
0.02734375 0.01965332 0.033935547 0.009338379 -0.020019531 -0.025024414 0.00390625 0.013977051
0.032470703 0.023071289 -0.033691406 -0.0138549805 0.01953125 0.026489258 0.020263672 0.0019989014
-0.00059890747 -0.021484375 -0.030395508 -0.012817383 0.030517578 -0.004760742 -0.021484375 0.0077209473
0.0056762695 -0.018066406 0.016479492 -0.013061523 -0.020263672 0.0032806396 0.033203125 0.005554199
0.028930664 -0.03100586 -0.032470703 0.005340576 0.0076293945 -0.026367188 -0.025634766 -0.025024414
0.017944336 -0.013305664 -0.033935547 -0.0026855469 -0.03515625 0.0008659363 0.03491211 -0.013305664
-0.009765625 0.032470703 -0.022949219 -0.010314941 0.02355957 0.01574707 0.035888672 0.005584717
-0.022460938 0.021972656 0.031982422 -0.006958008 -0.020874023 -0.018188477 -0.032714844 -0.004211426
-0.018066406 0.026977539 0.024414062 -0.028442383 0.02758789 0.028930664 0.030029297 0.007080078
0.011047363 0.00041770935 -0.011230469 0.0078125 -0.016845703 -0.024780273 0.012756348 0.026855469
0.012817383 -0.005126953 0.00390625 0.021972656 -0.03515625 0.025024414 0.0078125 -0.008728027
0.007537842 0.03491211 0.013061523 0.030151367 0.0037231445 0.020019531 -0.009460449 -0.023071289
-0.0051879883 0.009460449 0.009460449 0.0053100586 0.007751465 0.004333496 0.011108398 0.0095825195
0.033203125 -0.036132812 0.03540039 0.013977051 0.012268066 0.01940918 -0.014404297 0.008728027
0.018066406 0.009399414 0.0025482178 -0.029785156 0.015258789 -0.033935547 -0.022460938 -0.029052734
0.001449585 -0.03100586 -0.0050964355 0.003753662 0.03100586 0.021606445 0.010070801 0.0010299683
-0.005065918 0.028442383 -0.012084961 -0.02368164 -0.018798828 -0.028564453 -0.007293701 0.0078125
-0.03466797 -0.020141602 0.017211914 0.030273438 0.01159668 -0.02709961 0.028442383 0.029174805
-0.028076172 -0.0078125 0.014404297 -0.0078125 -0.016479492 -0.03491211 -0.020385742 -0.028076172
-0.01373291 -0.025512695 -0.013427734 -0.0078125 0.0049438477 -0.010437012 0.016479492 0.0234375
-0.028320312 -0.020751953 0.020507812 -0.021362305 -0.03149414 0.015258789 -0.026489258 -0.004425049
00000000: 72bc f8bc 903c 503c de3b ebbb 12bd a8bc
00000010: 38bc a93c 80bb 00bc adbb 80bb 4ebb b6bc
00000020: 06bd b43c eabc 1dbb 813b 00bc da3c d4bc
00000030: 0cbd 9fbb c43c 9a3c 6f3c 2e3c 643c f83b
00000040: 003d 95bc d73b 0b3d ddbc 6bbc 99bc 063d
00000050: 0abd a8bc 05bd abbb 813a a43c c53c 3bbc
00000060: 913c b73c 90bc ecbc df3c 643c f23c b6bc
00000070: bdbc 06bc 5dbc e23c f7bb b1bc 85bc 0e3d
00000080: 693c 11bd e73b fcbc 90bc d5bc b6bc a13c
00000090: e73b a8bc 0e3d 00bc 8a3b 843c 823c 9fbc
000000a0: 9bbb 4bbc 003c c13c 62bc ddbc 9b3c b43b
000000b0: e03c a13c 0b3d 193c a4bc cdbc 803b 653c
000000c0: 053d bd3c 0abd 63bc a03c d93c a63c 033b
000000d0: 1dba b0bc f9bc 52bc fa3c 9cbb b0bc fd3b
000000e0: ba3b 94bc 873c 56bc a6bc 573b 083d b63b
000000f0: ed3c febc 05bd af3b fa3b d8bc d2bc cdbc
00000100: 933c 5abc 0bbd 30bb 10bd 633a 0f3d 5abc
00000110: 20bc 053d bcbc 29bc c13c 813c 133d b73b
00000120: b8bc b43c 033d e4bb abbc 95bc 06bd 8abb
00000130: 94bc dd3c c83c e9bc e23c ed3c f63c e83b
00000140: 353c db39 38bc 003c 8abc cbbc 513c dc3c
00000150: 523c a8bb 803b b43c 10bd cd3c 003c 0fbc
00000160: f73b 0f3d 563c f73c 743b a43c 1bbc bdbc
00000170: aabb 1b3c 1b3c ae3b fe3b 8e3b 363c 1d3c
00000180: 083d 14bd 113d 653c 493c 9f3c 6cbc 0f3c
00000190: 943c 1a3c 273b f4bc 7a3c 0bbd b8bc eebc
000001a0: be3a febc a7bb 763b fe3c b13c 253c 873a
000001b0: a6bb e93c 46bc c2bc 9abc eabc efbb 003c
000001c0: 0ebd a5bc 8d3c f83c 3e3c debc e93c ef3c
000001d0: e6bc 00bc 6c3c 00bc 87bc 0fbd a7bc e6bc
000001e0: 61bc d1bc 5cbc 00bc a23b 2bbc 873c c03c
000001f0: e8bc aabc a83c afbc 01bd 7a3c d9bc 91bb

base_model.model.transformer.h.10.attn.c_attn.lora_B.weight bf16 [2304, 8]
0.0016174316 -0.002319336 0.0019989014 0.0024414062 0.0022277832 -0.0029296875 0.0029754639 -0.002243042
0.0002002716 -0.0022277832 0.0013122559 0.0011291504 0.0019836426 -0.0015411377 0.0004825592 -0.001876831
-0.001953125 0.0025787354 -0.0012969971 -0.0031433105 -0.0027618408 0.0030517578 -0.0022735596 0.001876831
-0.0011520386 0.0019836426 -0.002319336 -0.0018463135 -0.0021209717 0.0014724731 -0.0019683838 0.0015945435
0.0008163452 0.0005950928 -0.00049209595 -0.00046539307 -0.0009536743 0.00049591064 -0.0008621216 -0.00037956238
-0.0022583008 0.0026855469 -0.00390625 -0.0038452148 -0.0026855469 0.0039367676 -0.003768921 0.00390625
-0.0018386841 0.0024108887 -0.0027008057 -0.0020446777 -0.002380371 0.0010147095 -0.0025482178 0.0020446777
0.0015258789 -0.001876831 0.00088882446 0.001953125 0.0011291504 -0.0030975342 0.0024871826 -0.0010147095
0.0025024414 -0.002380371 0.0026245117 0.003112793 0.0023956299 -0.0030212402 0.0031280518 -0.0019836426
0.002532959 -0.003326416 0.0038604736 0.0033721924 0.0032196045 -0.0034942627 0.0036010742 -0.0038757324
-0.0023345947 0.0023498535 -0.0022583008 -0.0029754639 -0.0031433105 0.0035705566 -0.003540039 0.0031585693
0.0019683838 -0.0027008057 0.0027618408 0.0027008057 0.0027160645 -0.002609253 0.002746582 -0.0028686523
0.0015258789 -0.0016708374 0.0015335083 0.0023651123 0.002105713 -0.0018844604 0.0023651123 -0.0017089844
-0.0005340576 0.0004234314 -0.0008773804 -0.002105713 -0.0013427734 0.0019454956 -0.002243042 0.0021972656
-0.0024871826 0.0024719238 -0.0034179688 -0.0032653809 -0.002746582 0.0034942627 -0.003250122 0.003479004
0.0025482178 -0.0033416748 0.0035705566 0.00390625 0.0038452148 -0.0037231445 0.00390625 -0.003967285
0.0005264282 -0.0024871826 0.0029907227 0.0027618408 0.0023651123 -0.0025787354 0.0021820068 -0.0020751953
-0.002029419 0.0024871826 -0.0030059814 -0.002746582 -0.0024871826 0.0023956299 -0.0029449463 0.0029296875
0.0018234253 -0.0018157959 0.0023040771 0.0019454956 0.0018844604 -0.0016021729 0.0021514893 -0.002166748
0.0015792847 0.00059890747 -0.0012588501 0.0018463135 9.679794e-05 -0.0004348755 0.0013427734 -0.00013828278
0.0024108887 -0.0030059814 0.00390625 0.0038604736 0.0030059814 -0.0035095215 0.0038909912 -0.003692627
0.002090454 -0.001953125 0.002456665 0.0028686523 0.002822876 -0.0020751953 0.0029144287 -0.0026245117
0.00060653687 -0.00079345703 -0.00089263916 0.00074005127 0.001953125 0.00031089783 0.00089645386 -0.0004310608
0.002105713 -0.002609253 0.0020751953 0.0027160645 0.0021820068 -0.0021209717 0.0025787354 -0.001914978
-0.002380371 0.0011444092 -0.00088119507 -0.0029449463 -0.0020599365 0.0019836426 -0.0023651123 0.0017929077
0.0019302368 -0.0020751953 0.0025939941 0.002243042 0.0020141602 -0.0020751953 0.0024261475 -0.0027008057
0.0007972717 -0.00063705444 0.00042915344 0.0011825562 -0.00014400482 -0.0011138916 0.00065612793 -0.00044250488
-0.0026550293 0.0033721924 -0.0037994385 -0.00390625 -0.0027770996 0.00390625 -0.0038909912 0.0033111572
-0.00044822693 0.0013809204 -0.001914978 -0.00012683868 -0.00037765503 -0.0011520386 -0.0005760193 0.00038909912
-0.00044822693 -0.00049209595 -0.00060653687 -0.0005760193 0.00014686584 0.00020313263 -0.00030517578 0.00038528442
0.0024871826 -0.00289917 0.00390625 0.00390625 0.0036468506 -0.00390625 0.0039367676 -0.0037994385
-0.0022735596 0.0025177002 -0.0032043457 -0.0029754639 -0.0027008057 0.0030059814 -0.0032043457 0.003189087
00000000: d43a 18bb 033b 203b 123b 40bb 433b 13bb
00000010: 5239 12bb ac3a 943a 023b caba fd39 f6ba
00000020: 00bb 293b aaba 4ebb 35bb 483b 15bb f63a
00000030: 97ba 023b 18bb f2ba 0bbb c13a 01bb d13a
00000040: 563a 1c3a 01ba f4b9 7aba 023a 62ba c7b9
00000050: 14bb 303b 80bb 7cbb 30bb 813b 77bb 803b
00000060: f1ba 1e3b 31bb 06bb 1cbb 853a 27bb 063b
00000070: c83a f6ba 693a 003b 943a 4bbb 233b 85ba
00000080: 243b 1cbb 2c3b 4c3b 1d3b 46bb 4d3b 02bb
00000090: 263b 5abb 7d3b 5d3b 533b 65bb 6c3b 7ebb
000000a0: 19bb 1a3b 14bb 43bb 4ebb 6a3b 68bb 4f3b
000000b0: 013b 31bb 353b 313b 323b 2bbb 343b 3cbb
000000c0: c83a dbba c93a 1b3b 0a3b f7ba 1b3b e0ba
000000d0: 0cba de39 66ba 0abb b0ba ff3a 13bb 103b
000000e0: 23bb 223b 60bb 56bb 34bb 653b 55bb 643b
000000f0: 273b 5bbb 6a3b 803b 7c3b 74bb 803b 82bb
00000100: 0a3a 23bb 443b 353b 1b3b 29bb 0f3b 08bb
00000110: 05bb 233b 45bb 34bb 23bb 1d3b 41bb 403b
00000120: ef3a eeba 173b ff3a f73a d2ba 0d3b 0ebb
00000130: cf3a 1d3a a5ba f23a cb38 e4b9 b03a 11b9
00000140: 1e3b 45bb 803b 7d3b 453b 66bb 7f3b 72bb
00000150: 093b 00bb 213b 3c3b 393b 08bb 3f3b 2cbb
00000160: 1f3a 50ba 6aba 423a 003b a339 6b3a e2b9
00000170: 0a3b 2bbb 083b 323b 0f3b 0bbb 293b fbba
00000180: 1cbb 963a 67ba 41bb 07bb 023b 1bbb eb3a
00000190: fd3a 08bb 2a3b 133b 043b 08bb 1f3b 31bb
000001a0: 513a 27ba e139 9b3a 17b9 92ba 2c3a e8b9
000001b0: 2ebb 5d3b 79bb 80bb 36bb 803b 7fbb 593b
000001c0: ebb9 b53a fbba 05b9 c6b9 97ba 17ba cc39
000001d0: ebb9 01ba 1fba 17ba 1a39 5539 a0b9 ca39
000001e0: 233b 3ebb 803b 803b 6f3b 80bb 813b 79bb
000001f0: 15bb 253b 52bb 43bb 31bb 453b 52bb 513b

base_model.model.transformer.h.11.attn.c_attn.lora_A.weight bf16 [8, 768]
0.03564453 0.008728027 0.008605957 -0.015197754 -0.014099121 -0.026000977 -0.0019226074 0.0078125
-0.017333984 0.0078125 0.018676758 -0.010009766 0.0068969727 -0.020141602 -0.0067749023 0.020263672
-0.0234375 -0.020019531 -0.004119873 -0.033447266 0.018554688 0.0078125 0.004119873 -0.008178711
-0.032226562 0.0078125 -0.02709961 0.029907227 -0.004333496 -0.020629883 -0.015380859 0.013671875
0.033203125 -0.03173828 -0.004058838 0.024902344 0.026611328 0.022216797 0.0005950928 -0.02746582
-0.0019226074 -0.024047852 -0.032714844 -0.028564453 -0.018920898 0.027709961 -0.025146484 -0.005065918
0.022216797 -0.03515625 0.017700195 -0.020263672 -0.0077819824 0.002380371 -0.013183594 0.014160156
0.0043640137 0.032714844 -0.010009766 0.027954102 0.026489258 0.0154418945 -0.014770508 0.026245117
0.013916016 -0.022949219 0.032226562 0.008911133 0.02368164 0.021362305 0.01940918 0.004699707
0.006011963 0.01965332 -0.01171875 0.033691406 -0.0063476562 -0.02746582 -0.004760742 0.030395508
-0.03564453 0.0043640137 -0.021240234 0.02722168 0.014953613 0.017089844 0.0078125 -0.008361816
0.026611328 0.02758789 -0.0039367676 0.0078125 0.034423828 0.0069274902 -0.030029297 0.0032043457
-0.03112793 0.024047852 0.029541016 -0.008117676 -0.004211426 -0.03466797 -0.02746582 0.021362305
-0.024169922 -0.017578125 -0.015075684 -0.0057678223 0.017089844 0.032958984 -0.029907227 0.01574707
-0.014282227 -0.0052490234 0.015991211 -0.01965332 -0.028442383 -0.009216309 0.007873535 -0.019897461
0.008911133 -0.032226562 0.006713867 0.01928711 0.012145996 -0.026123047 -0.0115356445 -0.021850586
-0.018920898 -0.014404297 -0.0078125 0.009765625 -0.0078125 0.015991211 0.010681152 0.009033203
0.018920898 0.021850586 0.010620117 0.030273438 -0.02331543 -0.010498047 0.014221191 -0.019897461
0.0078125 -0.011108398 0.02722168 0.005004883 -0.010192871 0.0073547363 -0.03515625 0.026367188
0.012939453 -0.029296875 0.029541016 0.035888672 0.0234375 -0.0099487305 -0.017333984 -0.03564453
-0.020019531 0.02746582 -0.035888672 0.020141602 -0.03564453 0.018676758 -0.0033721924 0.02758789
0.0077819824 0.03515625 0.004333496 -0.014526367 0.022460938 -0.004699707 -0.025268555 -0.011352539
-0.0044555664 -0.026123047 -0.024414062 0.014709473 0.02355957 0.014282227 0.022827148 -0.018066406
0.010009766 -0.0078125 0.002670288 -0.01953125 -0.028930664 0.024902344 -0.0030212402 -0.010498047
-0.028930664 -0.02709961 0.03515625 -0.03466797 0.020996094 0.030517578 0.00390625 -0.009887695
0.0087890625 0.008911133 0.015625 -0.02319336 -0.015991211 -0.025878906 -0.0054626465 -0.008056641
-0.0039367676 0.018188477 -0.024414062 0.032226562 -0.026611328 0.018066406 -0.03491211 -0.0054626465
0.03564453 0.030761719 0.020141602 -0.004333496 0.01953125 0.012268066 -0.024780273 0.017456055
0.016113281 0.019897461 -0.00010681152 0.011352539 0.020996094 0.028808594 -0.032470703 0.01965332
-0.029296875 -0.03100586 0.013000488 -0.016601562 -0.0040893555 0.0039367676 -0.012573242 0.02331543
0.012451172 -0.020629883 0.017578125 -0.015319824 -0.005706787 0.03100586 -0.017822266 0.024658203
-0.0078125 -0.034423828 -0.029418945 -0.009887695 0.02331543 -0.004333496 -0.006713867 -0.0038909912
00000000: 123d 0f3c 0d3c 79bc 67bc d5bc fcba 003c
00000010: 8ebc 003c 993c 24bc e23b a5bc debb a63c
00000020: c0bc a4bc 87bb 09bd 983c 003c 873b 06bc
00000030: 04bd 003c debc f53c 8ebb a9bc 7cbc 603c
00000040: 083d 02bd 85bb cc3c da3c b63c 1c3a e1bc
00000050: fcba c5bc 06bd eabc 9bbc e33c cebc a6bb
00000060: b63c 10bd 913c a6bc ffbb 1c3b 58bc 683c
00000070: 8f3b 063d 24bc e53c d93c 7d3c 72bc d73c
00000080: 643c bcbc 043d 123c c23c af3c 9f3c 9a3b
00000090: c53b a13c 40bc 0a3d d0bb e1bc 9cbb f93c
000000a0: 12bd 8f3b aebc df3c 753c 8c3c 003c 09bc
000000b0: da3c e23c 81bb 003c 0d3d e33b f6bc 523b
000000c0: ffbc c53c f23c 05bc 8abb 0ebd e1bc af3c
000000d0: c6bc 90bc 77bc bdbb 8c3c 073d f5bc 813c
000000e0: 6abc acbb 833c a1bc e9bc 17bc 013c a3bc
000000f0: 123c 04bd dc3b 9e3c 473c d6bc 3dbc b3bc
00000100: 9bbc 6cbc 00bc 203c 00bc 833c 2f3c 143c
00000110: 9b3c b33c 2e3c f83c bfbc 2cbc 693c a3bc
00000120: 003c 36bc df3c a43b 27bc f13b 10bd d83c
00000130: 543c f0bc f23c 133d c03c 23bc 8ebc 12bd
00000140: a4bc e13c 13bd a53c 12bd 993c 5dbb e23c
00000150: ff3b 103d 8e3b 6ebc b83c 9abb cfbc 3abc
00000160: 92bb d6bc c8bc 713c c13c 6a3c bb3c 94bc
00000170: 243c 00bc 2f3b a0bc edbc cc3c 46bb 2cbc
00000180: edbc debc 103d 0ebd ac3c fa3c 803b 22bc
00000190: 103c 123c 803c bebc 83bc d4bc b3bb 04bc
000001a0: 81bb 953c c8bc 043d dabc 943c 0fbd b3bb
000001b0: 123d fc3c a53c 8ebb a03c 493c cbbc 8f3c
000001c0: 843c a33c e0b8 3a3c ac3c ec3c 05bd a13c
000001d0: f0bc febc 553c 88bc 86bb 813b 4ebc bf3c
000001e0: 4c3c a9bc 903c 7bbc bbbb fe3c 92bc ca3c
000001f0: 00bc 0dbd f1bc 22bc bf3c 8ebb dcbb 7fbb

base_model.model.transformer.h.11.attn.c_attn.lora_B.weight bf16 [2304, 8]
-0.0013198853 -0.0023040771 0.0027770996 0.001953125 -0.0008201599 -0.00289917 -0.0024871826 0.002746582
-0.0016098022 -0.0023956299 0.0026855469 0.0026397705 -0.00048828125 -0.003250122 -0.0025787354 0.0028076172
-0.001953125 -0.0008506775 0.0016403198 -0.0014877319 0.00092697144 0.00018024445 -0.0024871826 0.0016326904
0.0016403198 -0.0011444092 -0.0018539429 -0.00045776367 -0.0016021729 0.001121521 0.001701355 -0.0022583008
0.0016174316 0.00014305115 -0.002090454 -0.0013046265 -0.001953125 0.0014877319 0.0022888184 -0.002029419
-0.0013275146 0.00390625 -0.0018463135 -0.002380371 0.0027923584 0.0030822754 0.0014343262 -0.002746582
-0.0040893555 0.00013637543 0.0043029785 0.0009651184 0.0037384033 -0.0029754639 -0.00390625 0.003967285
-0.0018844604 -0.0014801025 0.002090454 0.0012283325 0.00039291382 -0.002166748 -0.0023651123 0.002380371
-0.0022125244 -0.002532959 0.0032653809 0.0024414062 -8.773804e-05 -0.002822876 -0.0030975342 0.0036621094
-0.0019683838 0.0024414062 0.0009384155 -0.0023651123 0.0022277832 0.0022735596 -0.001159668 -0.0004310608
-0.000415802 0.00015449524 0.001045227 0.0009994507 0.0007171631 0.0005187988 -0.00019359589 0.0011749268
0.003326416 0.0022125244 -0.0039367676 -0.0017471313 -0.0020751953 0.003540039 0.0036315918 -0.0039978027
0.0035705566 -0.0030975342 -0.00289917 0.0023345947 -0.0036621094 -0.0012969971 0.0031433105 -0.0014801025
0.0005226135 -0.0018844604 0.0018310547 0.002380371 -0.0012283325 -0.0014953613 -0.00021076202 0.0016326904
0.0041503906 9.357929e-06 -0.0043640137 -0.0013122559 -0.003616333 0.002380371 0.004119873 -0.0039978027
-0.0012969971 0.0025482178 0.0007209778 -0.00061798096 0.0008621216 0.0017547607 -0.00026130676 -0.00030899048
0.0022125244 -0.0024108887 -0.0023345947 -0.00040626526 -0.0025634766 0.00047683716 0.0023651123 -0.0012817383
-0.0008392334 0.000101566315 -0.000289917 -0.0006980896 0.00089645386 0.00074768066 -0.0005264282 0.00033950806
0.0016326904 -0.0013427734 -0.0016708374 -0.00075912476 -0.0011978149 -0.000579834 0.0016479492 -0.00031471252
-0.0025787354 0.0006980896 0.0026397705 0.0010528564 0.0027770996 -0.0013198853 -0.0032043457 0.0028076172
0.0038757324 0.0029296875 -0.004211426 -0.00390625 -0.0018463135 0.00390625 0.004119873 -0.0038452148
0.0022583008 -0.0027160645 -0.00050354004 0.0018920898 -0.00289917 -0.0022735596 0.001335144 0.0010223389
-0.0028839111 0.0007324219 0.002532959 -0.0005455017 0.0025634766 -0.0015869141 -0.002380371 0.0025177002
-0.004211426 -0.00019359589 0.004180908 0.0018081665 0.00390625 -0.0027160645 -0.0040283203 0.004058838
-0.0031585693 0.0028686523 0.001739502 -0.002532959 0.00390625 0.0020751953 -0.002029419 -1.0251999e-05
-0.001914978 0.0013275146 0.0027160645 8.583069e-05 0.0024261475 -0.00016593933 -0.0022277832 0.0015563965
0.0009384155 0.0010757446 -0.0033721924 -0.0019989014 0.0003376007 0.0014266968 0.002380371 -0.0027770996
-0.0035858154 0.0013885498 0.0039978027 0.0011901855 0.0034484863 -0.0018157959 -0.003967285 0.0036010742
-0.0030517578 0.0021972656 0.002746582 -0.0015869141 0.0027770996 0.00076293945 -0.0034484863 0.001953125
0.0016555786 -0.0004081726 -0.0018615723 -0.00044250488 -0.001914978 0.0008049011 0.0016937256 -0.0014953613
0.00390625 -0.0007972717 -0.00390625 -0.00061416626 -0.003326416 0.0018234253 0.003967285 -0.003967285
-0.00390625 -0.0019073486 0.004119873 0.0027008057 0.003540039 -0.00390625 -0.0040893555 0.003967285
00000000: adba 17bb 363b 003b 57ba 3ebb 23bb 343b
00000010: d3ba 1dbb 303b 2d3b 00ba 55bb 29bb 383b
00000020: 00bb 5fba d73a c3ba 733a 3d39 23bb d63a
00000030: d73a 96ba f3ba f0b9 d2ba 933a df3a 14bb
00000040: d43a 1639 09bb abba 00bb c33a 163b 05bb
00000050: aeba 803b f2ba 1cbb 373b 4a3b bc3a 34bb
00000060: 86bb 0f39 8d3b 7d3a 753b 43bb 80bb 823b
00000070: f7ba c2ba 093b a13a ce39 0ebb 1bbb 1c3b
00000080: 11bb 26bb 563b 203b b8b8 39bb 4bbb 703b
00000090: 01bb 203b 763a 1bbb 123b 153b 98ba e2b9
000000a0: dab9 2239 893a 833a 3c3a 083a 4bb9 9a3a
000000b0: 5a3b 113b 81bb e5ba 08bb 683b 6e3b 83bb
000000c0: 6a3b 4bbb 3ebb 193b 70bb aaba 4e3b c2ba
000000d0: 093a f7ba f03a 1c3b a1ba c4ba 5db9 d63a
000000e0: 883b 1d37 8fbb acba 6dbb 1c3b 873b 83bb
000000f0: aaba 273b 3d3a 22ba 623a e63a 89b9 a2b9
00000100: 113b 1ebb 19bb d5b9 28bb fa39 1b3b a8ba
00000110: 5cba d538 98b9 37ba 6b3a 443a 0aba b239
00000120: d63a b0ba dbba 47ba 9dba 18ba d83a a5b9
00000130: 29bb 373a 2d3b 8a3a 363b adba 52bb 383b
00000140: 7e3b 403b 8abb 80bb f2ba 803b 873b 7cbb
00000150: 143b 32bb 04ba f83a 3ebb 15bb af3a 863a
00000160: 3dbb 403a 263b 0fba 283b d0ba 1cbb 253b
00000170: 8abb 4bb9 893b ed3a 803b 32bb 84bb 853b
00000180: 4fbb 3c3b e43a 26bb 803b 083b 05bb 2cb7
00000190: fbba ae3a 323b b438 1f3b 2eb9 12bb cc3a
000001a0: 763a 8d3a 5dbb 03bb b139 bb3a 1c3b 36bb
000001b0: 6bbb b63a 833b 9c3a 623b eeba 82bb 6c3b
000001c0: 48bb 103b 343b d0ba 363b 483a 62bb 003b
000001d0: d93a d6b9 f4ba e8b9 fbba 533a de3a c4ba
000001e0: 803b 51ba 80bb 21ba 5abb ef3a 823b 82bb
000001f0: 80bb faba 873b 313b 683b 80bb 86bb 823b

base_model.model.transformer.h.2.attn.c_attn.lora_A.weight bf16 [8, 768]
-0.024291992 -0.017211914 0.016113281 -0.02355957 0.032714844 0.0058898926 -0.01586914 -0.016357422
0.01184082 0.007171631 -0.02355957 0.017578125 -0.012878418 0.021606445 -0.012573242 0.017211914
-0.024780273 0.02709961 0.013000488 -0.00390625 0.016113281 0.014099121 0.021362305 -0.0013580322
0.0234375 0.01965332 -0.014099121 -0.024169922 0.032226562 -0.011291504 0.032958984 -0.022338867
0.01361084 0.0051574707 0.033203125 0.00390625 0.031982422 0.01361084 -0.0011367798 0.02722168
-0.015625 0.022705078 0.016479492 -0.032958984 0.00051498413 -0.0066833496 -0.0046081543 -0.03149414
-0.029052734 -0.015075684 0.024658203 0.025512695 -0.03100586 0.03149414 -0.00024223328 0.022216797
-0.017578125 0.00035095215 -0.016601562 0.005554199 -0.007873535 0.030517578 -0.024536133 -0.009521484
0.0078125 0.013244629 0.026977539 -0.021850586 0.021484375 0.0004272461 -0.020996094 0.028076172
-0.007873535 0.014770508 0.033691406 0.0039367676 -0.030517578 0.012451172 -0.0011291504 -0.017944336
0.026611328 0.01361084 -0.01574707 -0.013671875 -0.027832031 0.024169922 0.028930664 -0.005340576
0.013427734 -0.01171875 -0.020263672 -0.025390625 -0.025146484 0.013916016 -0.03466797 0.032958984
-0.002960205 -0.033203125 -0.035888672 -0.032470703 -0.030151367 -0.0234375 0.018310547 -0.020874023
-0.021728516 -0.0078125 0.014953613 0.033691406 0.02319336 -0.03564453 -0.007232666 -0.007507324
0.022949219 0.019165039 -0.012145996 0.016235352 -0.022094727 -0.002822876 -0.030029297 -0.03173828
0.018432617 0.033935547 0.0015335083 -0.024902344 0.0046081543 0.016113281 -0.0079956055 0.033203125
-0.010498047 -0.030029297 -0.008483887 -0.013244629 0.004760742 -0.029663086 0.009399414 0.025756836
-0.033691406 -0.0077209473 -0.020751953 -0.016479492 -0.016235352 -0.029541016 0.013305664 -0.005218506
-0.017089844 -0.0062561035 0.016845703 0.028686523 0.00982666 0.0039367676 0.014892578 -0.020629883
-0.010620117 0.0045166016 0.021484375 0.023925781 -0.028442383 -0.01940918 0.019165039 0.0009841919
-0.032714844 -0.016967773 0.024780273 -0.033935547 -0.009033203 -0.020751953 -0.010009766 -0.033935547
0.026855469 0.006713867 0.033935547 -0.031982422 -0.02734375 -0.03564453 -0.029785156 -0.024291992
-0.010009766 0.0099487305 0.01953125 0.023071289 -0.018798828 0.028686523 -0.004180908 -0.032714844
-0.008178711 0.011352539 0.021118164 0.011108398 -0.003753662 -0.024902344 0.004699707 0.034179688
-0.0234375 -0.013977051 -0.022338867 -0.03149414 0.03100586 -0.02319336 0.0054016113 -0.0011291504
-0.0012435913 -0.025634766 -0.0007209778 -0.015136719 -0.008178711 0.030151367 -0.017700195 -0.009338379
-0.0020446777 0.032714844 -0.03564453 0.006958008 0.032714844 0.026123047 0.00045967102 -0.025268555
0.03564453 -0.012817383 0.020263672 0.009399414 -0.03173828 0.020874023 -0.011779785 -0.00390625
0.0043029785 0.032958984 0.02709961 0.029785156 0.025512695 0.0078125 -0.032470703 -0.028930664
0.0041503906 -0.03466797 -0.00047302246 0.0034484863 0.026367188 -0.029174805 -0.03540039 -0.020996094
0.03149414 0.014282227 -0.016357422 0.033203125 -0.022827148 0.021362305 -0.0074157715 -0.020629883
-0.013061523 -0.009887695 -0.014221191 0.030639648 0.023925781 -0.02734375 -0.0078125 -0.00390625
00000000: c7bc 8dbc 843c c1bc 063d c13b 82bc 86bc
00000010: 423c eb3b c1bc 903c 53bc b13c 4ebc 8d3c
00000020: cbbc de3c 553c 80bb 843c 673c af3c b2ba
00000030: c03c a13c 67bc c6bc 043d 39bc 073d b7bc
00000040: 5f3c a93b 083d 803b 033d 5f3c 95ba df3c
00000050: 80bc ba3c 873c 07bd 073a dbbb 97bb 01bd
00000060: eebc 77bc ca3c d13c febc 013d 7eb9 b63c
00000070: 90bc b839 88bc b63b 01bc fa3c c9bc 1cbc
00000080: 003c 593c dd3c b3bc b03c e039 acbc e63c
00000090: 01bc 723c 0a3d 813b fabc 4c3c 94ba 93bc
000000a0: da3c 5f3c 81bc 60bc e4bc c63c ed3c afbb
000000b0: 5c3c 40bc a6bc d0bc cebc 643c 0ebd 073d
000000c0: 42bb 08bd 13bd 05bd f7bc c0bc 963c abbc
000000d0: b2bc 00bc 753c 0a3d be3c 12bd edbb f6bb
000000e0: bc3c 9d3c 47bc 853c b5bc 39bb f6bc 02bd
000000f0: 973c 0b3d c93a ccbc 973b 843c 03bc 083d
00000100: 2cbc f6bc 0bbc 59bc 9c3b f3bc 1a3c d33c
00000110: 0abd fdbb aabc 87bc 85bc f2bc 5a3c abbb
00000120: 8cbc cdbb 8a3c eb3c 213c 813b 743c a9bc
00000130: 2ebc 943b b03c c43c e9bc 9fbc 9d3c 813a
00000140: 06bd 8bbc cb3c 0bbd 14bc aabc 24bc 0bbd
00000150: dc3c dc3b 0b3d 03bd e0bc 12bd f4bc c7bc
00000160: 24bc 233c a03c bd3c 9abc eb3c 89bb 06bd
00000170: 06bc 3a3c ad3c 363c 76bb ccbc 9a3b 0c3d
00000180: c0bc 65bc b7bc 01bd fe3c bebc b13b 94ba
00000190: a3ba d2bc 3dba 78bc 06bc f73c 91bc 19bc
000001a0: 06bb 063d 12bd e43b 063d d63c f139 cfbc
000001b0: 123d 52bc a63c 1a3c 02bd ab3c 41bc 80bb
000001c0: 8d3b 073d de3c f43c d13c 003c 05bd edbc
000001d0: 883b 0ebd f8b9 623b d83c efbc 11bd acbc
000001e0: 013d 6a3c 86bc 083d bbbc af3c f3bb a9bc
000001f0: 56bc 22bc 69bc fb3c c43c e0bc 00bc 80bb
