examples/research_projects/stack_llama_2/scripts/results/checkpoint_43/pytorch_model.bin (torch, 9724 bytes, 1 tensors)

v_head.summary.weight bf16 [1, 4096]
0	0xbb33	-0.0027313232
1	0xbc3a	-0.011352539
2	0x3cb7	0.022338867
3	0x3b8e	0.004333496
4	0x3b71	0.0036773682
5	0x3bc7	0.006072998
6	0xbb63	-0.0034637451
7	0x3b64	0.003479004
8	0xbbb6	-0.005554199
9	0xbb3f	-0.0029144287
10	0xbae9	-0.0017776489
11	0xba6c	-0.00090026855
12	0x3a9b	0.0011825562
13	0xba79	-0.0009498596
14	0x3c75	0.014953613
15	0xbc23	-0.0099487305
16	0xbc33	-0.010925293
17	0xbb92	-0.0044555664
18	0xbc9a	-0.018798828
19	0xbb9d	-0.0047912598
20	0xbc8b	-0.016967773
21	0x3a2e	0.0006637573
22	0x3c44	0.011962891
23	0xbb8d	-0.0043029785
24	0x3b40	0.0029296875
25	0xba9d	-0.0011978149
26	0x3bca	0.006164551
27	0xbc33	-0.010925293
28	0x3a73	0.00092697144
29	0x3be5	0.0069885254
30	0xbb9e	-0.0048217773
31	0x3c23	0.0099487305
32	0xbaa2	-0.0012359619
33	0x3997	0.00028800964
34	0x3b03	0.0019989014
35	0x3a88	0.0010375977
36	0xbb28	-0.0025634766
37	0xb996	-0.0002861023
38	0xbc9c	-0.019042969
39	0x3c89	0.016723633
40	0x3c0c	0.008544922
41	0xbc83	-0.015991211
42	0x3c1c	0.009521484
43	0x3c11	0.008850098
44	0xbc22	-0.009887695
45	0xbba2	-0.0049438477
46	0xba0e	-0.000541687
47	0x3c32	0.010864258
48	0x3c64	0.013916016
49	0x3b94	0.0045166016
50	0xbbd5	-0.006500244
51	0xbb9d	-0.0047912598
52	0xb8a1	-7.677078e-05
53	0x3c0f	0.008728027
54	0xbc4c	-0.012451172
55	0xbc93	-0.017944336
56	0x3bba	0.0056762695
57	0x3be1	0.006866455
58	0xbc8e	-0.017333984
59	0x38f3	0.00011587143
60	0x3c12	0.008911133
61	0x3b31	0.0027008057
62	0xbbf6	-0.007507324
63	0x3c24	0.010009766
64	0x3bdd	0.0067443848
65	0x3c44	0.011962891
66	0xbb7f	-0.0038909912
67	0xbbe5	-0.0069885254
68	0xbbda	-0.006652832
69	0x3cca	0.024658203
70	0xbbeb	-0.007171631
71	0x3ca7	0.020385742
72	0x3c39	0.011291504
73	0xbb24	-0.0025024414
74	0xbbec	-0.0072021484
75	0xbc75	-0.014953613
76	0x3c4d	0.012512207
77	0x3b84	0.0040283203
78	0x3aa1	0.0012283325
79	0xbba4	-0.005004883
80	0x39a3	0.00031089783
81	0xbbe6	-0.007019043
82	0xbc57	-0.013122559
83	0x3a71	0.00091934204
84	0xbc3b	-0.011413574
85	0x3bb6	0.005554199
86	0xbc4d	-0.012512207
87	0xbbc3	-0.0059509277
88	0x3b62	0.0034484863
89	0x3b3e	0.00289917
90	0xbba8	-0.005126953
91	0x3952	0.0002002716
92	0xbbd0	-0.0063476562
93	0x3ac3	0.0014877319
94	0x3b93	0.004486084
95	0xbc34	-0.010986328
96	0xbc22	-0.009887695
97	0x3996	0.0002861023
98	0xbc85	-0.016235352
99	0xbc53	-0.012878418
100	0xbc40	-0.01171875
101	0xbc04	-0.008056641
102	0xba90	-0.0010986328
103	0x3c2e	0.010620117
104	0xbbba	-0.0056762695
105	0xbc87	-0.016479492
106	0x3acd	0.0015640259
107	0xbb95	-0.004547119
108	0x3c03	0.0079956055
109	0x3c60	0.013671875
110	0x3aa9	0.0012893677
111	0xbb06	-0.0020446777
112	0x3b58	0.0032958984
113	0xbc93	-0.017944336
114	0xbc0f	-0.008728027
115	0x3c0f	0.008728027
116	0xbb8d	-0.0043029785
117	0xbc12	-0.008911133
118	0x3c53	0.012878418
119	0x3adb	0.0016708374
120	0x3a91	0.0011062622
121	0xbc11	-0.008850098
122	0xbb5b	-0.0033416748
123	0xbb93	-0.004486084
124	0x3bf8	0.0075683594
125	0xbb4e	-0.0031433105
126	0x3b8c	0.004272461
127	0xbbcb	-0.0061950684
128	0xba9a	-0.0011749268
129	0x3c5b	0.013366699
130	0xbbed	-0.007232666
131	0x3c29	0.010314941
132	0x3a7a	0.0009536743
133	0x3b80	0.00390625
134	0xbbf5	-0.0074768066
135	0x3c05	0.008117676
136	0xbbf9	-0.007598877
137	0xbc34	-0.010986328
138	0xbb4f	-0.0031585693
139	0xb94e	-0.00019645691
140	0xbc0f	-0.008728027
141	0xbca5	-0.020141602
142	0xbb99	-0.0046691895
143	0xbb13	-0.002243042
144	0xbb52	-0.0032043457
145	0xbc91	-0.017700195
146	0x3af8	0.0018920898
147	0xbc14	-0.009033203
148	0xbb84	-0.0040283203
149	0xbc00	-0.0078125
150	0x3b22	0.0024719238
151	0xbbcc	-0.006225586
152	0x3b44	0.0029907227
153	0x3bc2	0.00592041
154	0xbc17	-0.009216309
155	0x3c0e	0.008666992
156	0xbb2b	-0.002609253
157	0xbad9	-0.0016555786
158	0xbb40	-0.0029296875
159	0xbb20	-0.0024414062
160	0xbb4c	-0.003112793
161	0x3c39	0.011291504
162	0xbb29	-0.0025787354
163	0x3bdf	0.00680542
164	0xb9c1	-0.0003681183
165	0x3c9d	0.019165039
166	0x3bac	0.0052490234
167	0x3c34	0.010986328
168	0xbbaf	-0.005340576
169	0x3aee	0.0018157959
170	0x3b06	0.0020446777
171	0xbb8c	-0.004272461
172	0x3a04	0.00050354004
173	0x3b86	0.0040893555
174	0x3c54	0.012939453
175	0x3b69	0.0035552979
176	0x3ae0	0.0017089844
177	0xbb96	-0.0045776367
178	0x3b70	0.0036621094
179	0xbc21	-0.00982666
180	0x3b93	0.004486084
181	0xbc5a	-0.013305664
182	0xbb83	-0.0039978027
183	0x3a2e	0.0006637573
184	0x3a2b	0.00065231323
185	0x3bb8	0.0056152344
186	0xbb9b	-0.0047302246
187	0xbb8e	-0.004333496
188	0xbb8f	-0.0043640137
189	0xbc24	-0.010009766
190	0xbb93	-0.004486084
191	0x3ba2	0.0049438477
192	0x3ada	0.001663208
193	0xbc4a	-0.012329102
194	0xbbd2	-0.0064086914
195	0x3c23	0.0099487305
196	0x3c25	0.010070801
197	0xbb03	-0.0019989014
198	0xbb29	-0.0025787354
199	0xbb8b	-0.0042419434
200	0xbb17	-0.0023040771
201	0x3b7e	0.0038757324
202	0x3c26	0.010131836
203	0x3b78	0.0037841797
204	0x3c12	0.008911133
205	0xbc1f	-0.00970459
206	0x3c22	0.009887695
207	0x3c20	0.009765625
208	0xbc07	-0.008239746
209	0xbaaf	-0.001335144
210	0x3b62	0.0034484863
211	0xbc14	-0.009033203
212	0x3be3	0.0069274902
213	0x3bb5	0.0055236816
214	0xbba7	-0.0050964355
215	0xbc73	-0.014831543
216	0xbc2e	-0.010620117
217	0x3b5b	0.0033416748
218	0x3be4	0.006958008
219	0xbc9b	-0.018920898
220	0xba43	-0.00074386597
221	0xbcb9	-0.022583008
222	0xbab8	-0.0014038086
223	0x3bb9	0.005645752
224	0x3b1f	0.0024261475
225	0x3bfc	0.0076904297
226	0xbcc2	-0.02368164
227	0xbbbe	-0.00579834
228	0xbbe2	-0.0068969727
229	0x3c6d	0.014465332
230	0x3bc2	0.00592041
231	0xbb27	-0.0025482178
232	0xbbac	-0.0052490234
233	0x3adc	0.0016784668
234	0xbc25	-0.010070801
235	0x3bbf	0.0058288574
236	0x3c01	0.007873535
237	0x3c94	0.018066406
238	0xbc12	-0.008911133
239	0xbb18	-0.002319336
240	0xbb31	-0.0027008057
241	0x3ac2	0.0014801025
242	0x3bf5	0.0074768066
243	0xbbcc	-0.006225586
244	0x3bd2	0.0064086914
245	0x3c0b	0.008483887
246	0x3bcd	0.0062561035
247	0x3c91	0.017700195
248	0x3ac8	0.0015258789
249	0x3bdd	0.0067443848
250	0xbc7e	-0.01550293
251	0xbb82	-0.003967285
252	0x3c34	0.010986328
253	0x3a72	0.00092315674
254	0xbc1b	-0.009460449
255	0xbaaf	-0.001335144
