examples/research_projects/stack_llama/scripts/gpt2_peft_stack-exchange-paired_rmts__100000_2e-05/checkpoint-10000/adapter_model.safetensors (safetensors, 594496 bytes, 25 tensors)

base_model.model.score.weight bf16 [1, 768]
0	0x3cf0	0.029296875
1	0x3bb9	0.005645752
2	0x3c9e	0.01928711
3	0x3d01	0.03149414
4	0x3c22	0.009887695
5	0xbcf9	-0.030395508
6	0xbbb0	-0.0053710938
7	0x3c3c	0.011474609
8	0x3bce	0.006286621
9	0xbc3a	-0.011352539
10	0x3c32	0.010864258
11	0xbc38	-0.011230469
12	0x3c45	0.012023926
13	0x3d43	0.047607422
14	0x3d09	0.033447266
15	0xbc89	-0.016723633
16	0xbc25	-0.010070801
17	0xbc27	-0.010192871
18	0xbc0f	-0.008728027
19	0x3ce0	0.02734375
20	0xbc5c	-0.013427734
21	0xbb80	-0.00390625
22	0x3c93	0.017944336
23	0xbcdb	-0.026733398
24	0x3c7b	0.015319824
25	0x3cbc	0.022949219
26	0xbc3c	-0.011474609
27	0x3c9e	0.01928711
28	0x3d27	0.040771484
29	0x3c38	0.011230469
30	0xbb37	-0.0027923584
31	0xbc65	-0.013977051
32	0xbc1a	-0.009399414
33	0xbce4	-0.027832031
34	0x3ce3	0.027709961
35	0xbc49	-0.012268066
36	0x3d72	0.05908203
37	0x3c56	0.013061523
38	0xbcde	-0.02709961
39	0xbcf3	-0.029663086
40	0x3ca2	0.01977539
41	0x3cc3	0.023803711
42	0xbd25	-0.040283203
43	0xbd03	-0.031982422
44	0xbc9e	-0.01928711
45	0x3c38	0.011230469
46	0xbc60	-0.013671875
47	0xbc76	-0.015014648
48	0x3c97	0.018432617
49	0x3bf1	0.0073547363
50	0x3c23	0.0099487305
51	0xbce8	-0.028320312
52	0x3b09	0.002090454
53	0x3d03	0.031982422
54	0x3bcb	0.0061950684
55	0xbc20	-0.009765625
56	0x3c90	0.017578125
57	0xbce7	-0.028198242
58	0x3b3b	0.0028533936
59	0xbc91	-0.017700195
60	0x3b03	0.0019989014
61	0x3b7f	0.0038909912
62	0xbcba	-0.022705078
63	0x3b8f	0.0043640137
64	0x3c9a	0.018798828
65	0x3c03	0.0079956055
66	0x3c29	0.010314941
67	0x3cb1	0.021606445
68	0xbc0b	-0.008483887
69	0xbce9	-0.028442383
70	0xbc3e	-0.01159668
71	0x3c4d	0.012512207
72	0x3cd1	0.025512695
73	0xbbae	-0.0053100586
74	0x3ab1	0.0013504028
75	0x3c1d	0.0095825195
76	0x3cb5	0.022094727
77	0xbab2	-0.0013580322
78	0x3c00	0.0078125
79	0x3caa	0.020751953
80	0x3cac	0.020996094
81	0xbc05	-0.008117676
82	0xbcb5	-0.022094727
83	0xbb09	-0.002090454
84	0xbbd0	-0.0063476562
85	0xbc98	-0.018554688
86	0xbc95	-0.018188477
87	0xbc69	-0.014221191
88	0x3cc8	0.024414062
89	0x3bc6	0.0060424805
90	0x3bbb	0.005706787
91	0xbb80	-0.00390625
92	0xbc64	-0.013916016
93	0x3d20	0.0390625
94	0x3cbe	0.02319336
95	0x3abc	0.0014343262
96	0x3b34	0.002746582
97	0x3ca0	0.01953125
98	0xbb01	-0.0019683838
99	0x3c27	0.010192871
100	0xbcba	-0.022705078
101	0x3ce9	0.028442383
102	0xbc92	-0.017822266
103	0x3c25	0.010070801
104	0x3cd0	0.025390625
105	0x3b1c	0.002380371
106	0xbc5f	-0.01361084
107	0x3cbc	0.022949219
108	0x3b62	0.0034484863
109	0xbc07	-0.008239746
110	0x3a10	0.0005493164
111	0xbd0b	-0.033935547
112	0x3c8a	0.016845703
113	0x3c3e	0.01159668
114	0xbd29	-0.041259766
115	0xbc87	-0.016479492
116	0xbc52	-0.012817383
117	0x3c24	0.010009766
118	0x3c75	0.014953613
119	0xbb8b	-0.0042419434
120	0x3c2e	0.010620117
121	0xbced	-0.028930664
122	0xbc5a	-0.013305664
123	0x3b99	0.0046691895
124	0x3cb6	0.022216797
125	0x3cc8	0.024414062
126	0x3d1f	0.03881836
127	0x3d03	0.031982422
128	0xbc1f	-0.00970459
129	0x3c95	0.018188477
130	0xbcb8	-0.022460938
131	0x3bef	0.007293701
132	0xbcb7	-0.022338867
133	0xbc9c	-0.019042969
134	0xbb0c	-0.0021362305
135	0x3c36	0.011108398
136	0xbce4	-0.027832031
137	0x3cb5	0.022094727
138	0xbcc8	-0.024414062
139	0x3c92	0.017822266
140	0x3cd5	0.026000977
141	0xbb60	-0.0034179688
142	0x3b4c	0.003112793
143	0x3c98	0.018554688
144	0xbd0b	-0.033935547
145	0x3c2d	0.010559082
146	0xbbd1	-0.006378174
147	0xbcd9	-0.026489258
148	0x3cf3	0.029663086
149	0xbb89	-0.004180908
150	0x3b80	0.00390625
151	0xbcc9	-0.024536133
152	0x3c47	0.012145996
153	0x3c99	0.018676758
154	0xbd2e	-0.04248047
155	0xbb58	-0.0032958984
156	0x3c9a	0.018798828
157	0xbcbf	-0.02331543
158	0x3b80	0.00390625
159	0x3b8c	0.004272461
160	0x3c71	0.014709473
161	0xbc59	-0.013244629
162	0x3c3b	0.011413574
163	0x3c5e	0.013549805
164	0xbc95	-0.018188477
165	0x3d03	0.031982422
166	0x3c1a	0.009399414
167	0x3b94	0.0045166016
168	0xbc55	-0.013000488
169	0xbbee	-0.0072631836
170	0xbcd6	-0.026123047
171	0x3d1a	0.037597656
172	0xbc65	-0.013977051
173	0x3c3c	0.011474609
174	0x3c73	0.014831543
175	0x3cf5	0.029907227
176	0x3c2d	0.010559082
177	0xbb82	-0.003967285
178	0x3b82	0.003967285
179	0xbb9a	-0.004699707
180	0xbc47	-0.012145996
181	0x3c45	0.012023926
182	0x3bb1	0.0054016113
183	0x3841	4.6014786e-05
184	0x3d02	0.03173828
185	0x3c28	0.010253906
186	0x3b85	0.004058838
187	0xbc90	-0.017578125
188	0x3a69	0.00088882446
189	0x3c86	0.016357422
190	0x3b80	0.00390625
191	0xbb80	-0.00390625
192	0xbc43	-0.0119018555
193	0x3cb3	0.021850586
194	0x3d02	0.03173828
195	0xbcb5	-0.022094727
196	0x3d02	0.03173828
197	0xbc71	-0.014709473
198	0x3c1b	0.009460449
199	0xbc07	-0.008239746
200	0x3b43	0.0029754639
201	0x3b80	0.00390625
202	0x3b32	0.0027160645
203	0x3cc5	0.024047852
204	0xbcf3	-0.029663086
205	0x3c08	0.008300781
206	0x3b6f	0.0036468506
207	0x3b75	0.0037384033
208	0x3b1d	0.0023956299
209	0xbb13	-0.002243042
210	0x3bd6	0.0065307617
211	0x3b7d	0.0038604736
212	0x3c7b	0.015319824
213	0xbc9e	-0.01928711
214	0x3d0a	0.033691406
215	0x3b82	0.003967285
216	0xbc36	-0.011108398
217	0x3c85	0.016235352
218	0xbb83	-0.0039978027
219	0x3c9d	0.019165039
220	0x3bc0	0.005859375
221	0x3c9d	0.019165039
222	0x3b3e	0.00289917
223	0xbd57	-0.052490234
224	0xbc07	-0.008239746
225	0x3cbe	0.02319336
226	0xbd44	-0.047851562
227	0xbc60	-0.013671875
228	0xbd00	-0.03125
229	0xbca8	-0.020507812
230	0x3c8d	0.017211914
231	0x3bd7	0.0065612793
232	0xbd38	-0.044921875
233	0x3c1d	0.0095825195
234	0xbd05	-0.032470703
235	0xbc43	-0.0119018555
236	0xbc91	-0.017700195
237	0x3c1e	0.009643555
238	0x3c47	0.012145996
239	0xbc7e	-0.01550293
240	0xbcbf	-0.02331543
241	0x3c90	0.017578125
242	0x3cb5	0.022094727
243	0x3cb3	0.021850586
244	0xbd05	-0.032470703
245	0xbab6	-0.0013885498
246	0x3c5f	0.01361084
247	0x3c71	0.014709473
248	0xbcbc	-0.022949219
249	0xbc6d	-0.014465332
250	0xbb85	-0.004058838
251	0xbb80	-0.00390625
252	0x3bae	0.0053100586
253	0x3c90	0.017578125
254	0xbcca	-0.024658203
255	0x3c67	0.014099121

base_model.model.transformer.h.0.attn.c_attn.lora_A.weight bf16 [8, 768]
0	0xbcd6	-0.026123047
1	0x3ce5	0.027954102
2	0xbce7	-0.028198242
3	0xbb80	-0.00390625
4	0x3d0a	0.033691406
5	0x3c90	0.017578125
6	0xbbab	-0.005218506
7	0x3c83	0.015991211
8	0x3c10	0.0087890625
9	0xbc36	-0.011108398
10	0xbc1a	-0.009399414
11	0xbc33	-0.010925293
12	0xbd08	-0.033203125
13	0xbcc0	-0.0234375
14	0x3b8b	0.0042419434
15	0x3c9d	0.019165039
16	0xbced	-0.028930664
17	0x3cd5	0.026000977
18	0x3d04	0.032226562
19	0xbca5	-0.020141602
20	0x3c7f	0.015563965
21	0x3cc6	0.024169922
22	0xbc94	-0.018066406
23	0x3c92	0.017822266
24	0x3d06	0.032714844
25	0x3cdf	0.02722168
26	0xbd0a	-0.033691406
27	0x3b7f	0.0038909912
28	0xbb8f	-0.0043640137
29	0x3c87	0.016479492
30	0x3b8f	0.0043640137
31	0xbcb2	-0.021728516
32	0xbd08	-0.033203125
33	0xbc1a	-0.009399414
34	0x3b7a	0.0038146973
35	0xbcc4	-0.023925781
36	0x3c60	0.013671875
37	0xbc3b	-0.011413574
38	0xbc39	-0.011291504
39	0xbc9a	-0.018798828
40	0xbcc5	-0.024047852
41	0x3cbf	0.02331543
42	0x3ce3	0.027709961
43	0x3b92	0.0044555664
44	0xbc99	-0.018676758
45	0x3a6c	0.00090026855
46	0xbbf3	-0.0074157715
47	0x3c86	0.016357422
48	0xbc04	-0.008056641
49	0xbca0	-0.01953125
50	0x3cbc	0.022949219
51	0xbc2f	-0.010681152
52	0x3cdb	0.026733398
53	0x3b8e	0.004333496
54	0x3cac	0.020996094
55	0x3b25	0.0025177002
56	0xbc07	-0.008239746
57	0xbb80	-0.00390625
58	0xbb87	-0.004119873
59	0x3b80	0.00390625
60	0xbb82	-0.003967285
61	0x3c86	0.016357422
62	0x3b15	0.0022735596
63	0xbb7e	-0.0038757324
64	0x3b95	0.004547119
65	0x3ba5	0.0050354004
66	0x3d09	0.033447266
67	0x3c20	0.009765625
68	0x3d02	0.03173828
69	0x3c73	0.014831543
70	0x3ccc	0.024902344
71	0xbccc	-0.024902344
72	0x3cd1	0.025512695
73	0xbca0	-0.01953125
74	0x3b6c	0.0036010742
75	0x3d02	0.03173828
76	0x3b70	0.0036621094
77	0x3c9d	0.019165039
78	0xbb8a	-0.004211426
79	0xbccc	-0.024902344
80	0x3ce7	0.028198242
81	0xbca5	-0.020141602
82	0x3d10	0.03515625
83	0xbba2	-0.0049438477
84	0xbc78	-0.015136719
85	0xbcf6	-0.030029297
86	0x3caf	0.021362305
87	0xbcf0	-0.029296875
88	0xbba4	-0.005004883
89	0x3b00	0.001953125
90	0x3c6b	0.014343262
91	0xbc79	-0.015197754
92	0x3c12	0.008911133
93	0xbcd7	-0.026245117
94	0x3c70	0.0146484375
95	0xbc28	-0.010253906
96	0x3ca6	0.020263672
97	0x3d04	0.032226562
98	0x3d04	0.032226562
99	0xbcd2	-0.025634766
100	0xbd03	-0.031982422
101	0x3c52	0.012817383
102	0xbcbf	-0.02331543
103	0xbbbb	-0.005706787
104	0x3c87	0.016479492
105	0x3ca2	0.01977539
106	0xbbe5	-0.0069885254
107	0x3cbb	0.022827148
108	0xbc84	-0.016113281
109	0xbbcd	-0.0062561035
110	0x3ca3	0.019897461
111	0x3bd1	0.006378174
112	0x3d04	0.032226562
113	0x3c9e	0.01928711
114	0x3cdb	0.026733398
115	0x3c20	0.009765625
116	0x3b80	0.00390625
117	0xbc03	-0.0079956055
118	0x3ce8	0.028320312
119	0xbb74	-0.0037231445
120	0x3b84	0.0040283203
121	0xbcbd	-0.023071289
122	0x3b23	0.0024871826
123	0x3b69	0.0035552979
124	0x3c1b	0.009460449
125	0x3c97	0.018432617
126	0x3c6b	0.014343262
127	0xbd0d	-0.034423828
128	0xbcf4	-0.029785156
129	0x3cca	0.024658203
130	0xbd0e	-0.03466797
131	0x3c9a	0.018798828
132	0x3aa6	0.0012664795
133	0x3c53	0.012878418
134	0xbcdc	-0.026855469
135	0x3c42	0.01184082
136	0xbc94	-0.018066406
137	0x3d12	0.03564453
138	0xbc6a	-0.014282227
139	0xbbe7	-0.0070495605
140	0xbaea	-0.0017852783
141	0x3c1c	0.009521484
142	0xbc7c	-0.015380859
143	0x3d04	0.032226562
144	0xbca8	-0.020507812
145	0x3b7e	0.0038757324
146	0x3c3a	0.011352539
147	0xbd10	-0.03515625
148	0xbcf1	-0.029418945
149	0x3cb6	0.022216797
150	0x3d11	0.03540039
151	0x3c92	0.017822266
152	0xbca5	-0.020141602
153	0x3c09	0.008361816
154	0xbd0e	-0.03466797
155	0x3b81	0.0039367676
156	0xbcd3	-0.025756836
157	0xbc32	-0.010864258
158	0x3cb6	0.022216797
159	0x3d05	0.032470703
160	0xbc4b	-0.012390137
161	0x3cc8	0.024414062
162	0xbd07	-0.032958984
163	0x3b90	0.0043945312
164	0x3c71	0.014709473
165	0xbcaf	-0.021362305
166	0x3cad	0.021118164
167	0x3ce6	0.028076172
168	0x3bcc	0.006225586
169	0x3ca7	0.020385742
170	0x3cf3	0.029663086
171	0x3c09	0.008361816
172	0x3c91	0.017700195
173	0xbb9a	-0.004699707
174	0xbb82	-0.003967285
175	0x3c3b	0.011413574
176	0x3d0c	0.034179688
177	0xbcf2	-0.029541016
178	0x3ce2	0.02758789
179	0x3c15	0.009094238
180	0xbca9	-0.020629883
181	0x3c7c	0.015380859
182	0xbb80	-0.00390625
183	0xbc36	-0.011108398
184	0x3d07	0.032958984
185	0x3bfd	0.0077209473
186	0xbce9	-0.028442383
187	0x3cfb	0.030639648
188	0xbc7f	-0.015563965
189	0x3cb9	0.022583008
190	0x3cb0	0.021484375
191	0xbbe8	-0.007080078
192	0x3d08	0.033203125
193	0x3b82	0.003967285
194	0x3ccf	0.025268555
195	0x3caa	0.020751953
196	0xbcb0	-0.021484375
197	0x3cd3	0.025756836
198	0xbc14	-0.009033203
199	0xbbb4	-0.005493164
200	0x3ca8	0.020507812
201	0x3c27	0.010192871
202	0x3d11	0.03540039
203	0x3cc7	0.024291992
204	0x3b82	0.003967285
205	0x3d10	0.03515625
206	0xbc4c	-0.012451172
207	0xbcdc	-0.026855469
208	0xbc66	-0.014038086
209	0xbcad	-0.021118164
210	0x3b58	0.0032958984
211	0xbc63	-0.0138549805
212	0xbcea	-0.028564453
213	0x3b85	0.004058838
214	0xbc88	-0.016601562
215	0xbb2f	-0.002670288
216	0xbc4a	-0.012329102
217	0xbc91	-0.017700195
218	0x3d11	0.03540039
219	0x3bb2	0.005432129
220	0xbb97	-0.0046081543
221	0xbbe8	-0.007080078
222	0x3cf4	0.029785156
223	0xbce2	-0.02758789
224	0x3cd9	0.026489258
225	0x3d13	0.035888672
226	0xbc4e	-0.012573242
227	0xbc9e	-0.01928711
228	0x3c81	0.01574707
229	0x3d03	0.031982422
230	0xbb82	-0.003967285
231	0x3cf9	0.030395508
232	0xbc14	-0.009033203
233	0xbd11	-0.03540039
234	0x3c93	0.017944336
235	0x3d0d	0.034423828
236	0xbc19	-0.009338379
237	0xbbfb	-0.007659912
238	0x3c03	0.0079956055
239	0x3d05	0.032470703
240	0x3d04	0.032226562
241	0xbcad	-0.021118164
242	0x3cd7	0.026245117
243	0xbc88	-0.016601562
244	0xbc26	-0.010131836
245	0x3bf1	0.0073547363
246	0x3cd9	0.026489258
247	0xbca8	-0.020507812
248	0x3b95	0.004547119
249	0xbcbb	-0.022827148
250	0xbd02	-0.03173828
251	0xbc94	-0.018066406
252	0xbc28	-0.010253906
253	0xbcc7	-0.024291992
254	0xbcde	-0.02709961
255	0xbc00	-0.0078125

base_model.model.transformer.h.0.attn.c_attn.lora_B.weight bf16 [2304, 8]
0	0xbab6	-0.0013885498
1	0xbaaa	-0.0012969971
2	0x3973	0.00023174286
3	0x3968	0.00022125244
4	0xba89	-0.001045227
5	0xbacf	-0.0015792847
6	0x3adf	0.001701355
7	0x3ae2	0.0017242432
8	0xbae1	-0.0017166138
9	0xba50	-0.00079345703
10	0x38bc	8.9645386e-05
11	0x3b09	0.002090454
12	0xb89d	-7.4863434e-05
13	0xbae6	-0.0017547607
14	0xba86	-0.0010223389
15	0x3a8d	0.0010757446
16	0x3aef	0.0018234253
17	0x3b11	0.0022125244
18	0x3ad2	0.0016021729
19	0x39fb	0.0004787445
20	0x3b04	0.0020141602
21	0x3aae	0.0013275146
22	0xbaf6	-0.001876831
23	0xbabe	-0.001449585
24	0x3b01	0.0019683838
25	0x3aae	0.0013275146
26	0xba44	-0.00074768066
27	0x3aff	0.0019454956
28	0x3b06	0.0020446777
29	0x3a1e	0.00060272217
30	0xbadc	-0.0016784668
31	0xbab5	-0.0013809204
32	0xba8f	-0.0010910034
33	0x3737	1.090765e-05
34	0x3a47	0.00075912476
35	0xbacc	-0.0015563965
36	0x3949	0.00019168854
37	0x3a3b	0.0007133484
38	0x3a91	0.0011062622
39	0x39c1	0.0003681183
40	0xb8fa	-0.00011920929
41	0x3af2	0.0018463135
42	0x3a45	0.00075149536
43	0x39ee	0.00045394897
44	0xb94c	-0.00019454956
45	0xba53	-0.0008049011
46	0xbac4	-0.0014953613
47	0xba7c	-0.0009613037
48	0x3a6e	0.00090789795
49	0x3acb	0.0015487671
50	0x3a45	0.00075149536
51	0x3a4e	0.00078582764
52	0xba37	-0.0006980896
53	0xba44	-0.00074768066
54	0xba26	-0.00063323975
55	0xbad8	-0.0016479492
56	0x3956	0.0002040863
57	0xba73	-0.00092697144
58	0xb86d	-5.6505203e-05
59	0x39b3	0.0003414154
60	0xb941	-0.00018405914
61	0xba9a	-0.0011749268
62	0x3a4b	0.00077438354
63	0x398b	0.00026512146
64	0xbacf	-0.0015792847
65	0xba8b	-0.0010604858
66	0x3a02	0.00049591064
67	0x3a77	0.0009422302
68	0x3a12	0.0005569458
69	0xb990	-0.0002746582
70	0x39d2	0.0004005432
71	0xba8d	-0.0010757446
72	0x39ce	0.00039291382
73	0xb975	-0.00023365021
74	0x362a	2.5331974e-06
75	0xbae8	-0.0017700195
76	0xba58	-0.0008239746
77	0xb984	-0.00025177002
78	0x37fe	3.027916e-05
79	0x3a0c	0.0005340576
80	0x39f1	0.00045967102
81	0xbae9	-0.0017776489
82	0xbb02	-0.0019836426
83	0x3b08	0.0020751953
84	0x3ac6	0.0015106201
85	0xba52	-0.0008010864
86	0xbaf0	-0.0018310547
87	0xbaeb	-0.0017929077
88	0x3916	0.00014305115
89	0x393d	0.00018024445
90	0x3a6a	0.00089263916
91	0x3a96	0.0011444092
92	0xbaae	-0.0013275146
93	0xba06	-0.00051116943
94	0x3977	0.00023555756
95	0x3a36	0.0006942749
96	0x3a99	0.0011672974
97	0xba69	-0.00088882446
98	0x380c	3.33786e-05
99	0x3a2c	0.00065612793
100	0x3ae0	0.0017089844
101	0x3a54	0.0008087158
102	0xba8f	-0.0010910034
103	0xba3f	-0.0007286072
104	0x3aa0	0.0012207031
105	0x3af4	0.0018615723
106	0xba29	-0.00064468384
107	0xb944	-0.00018692017
108	0x3ac5	0.0015029907
109	0x3a99	0.0011672974
110	0xba54	-0.0008087158
111	0xba0f	-0.0005455017
112	0xbab6	-0.0013885498
113	0xbb01	-0.0019683838
114	0xbb01	-0.0019683838
115	0x3aac	0.0013122559
116	0xba62	-0.0008621216
117	0xb812	-3.4809113e-05
118	0x3ab6	0.0013885498
119	0xba8a	-0.0010528564
120	0x3a40	0.0007324219
121	0x3afc	0.0019226074
122	0x3b16	0.0022888184
123	0xba2f	-0.000667572
124	0xbae1	-0.0017166138
125	0xba10	-0.0005493164
126	0xb9b6	-0.00034713745
127	0x3a28	0.00064086914
128	0xb9b1	-0.0003376007
129	0xb9ef	-0.00045585632
130	0x3966	0.0002193451
131	0xb9a5	-0.00031471252
132	0x3a9d	0.0011978149
133	0x3a45	0.00075149536
134	0xba8e	-0.001083374
135	0xba82	-0.0009918213
136	0xba9c	-0.0011901855
137	0xbb0d	-0.0021514893
138	0xba88	-0.0010375977
139	0xbaad	-0.0013198853
140	0x3814	3.528595e-05
141	0xb924	-0.00015640259
142	0x3abc	0.0014343262
143	0x3aae	0.0013275146
144	0x3829	4.029274e-05
145	0x3ab0	0.0013427734
146	0x3b06	0.0020446777
147	0xbad2	-0.0016021729
148	0xbafe	-0.0019378662
149	0xbb01	-0.0019683838
150	0x39ca	0.00038528442
151	0x3afa	0.0019073486
152	0x3a8f	0.0010910034
153	0x3ada	0.001663208
154	0x3b01	0.0019683838
155	0xbaf5	-0.0018692017
156	0xbac8	-0.0015258789
157	0xbae6	-0.0017547607
158	0x3a82	0.0009918213
159	0xba29	-0.00064468384
160	0xbafc	-0.0019226074
161	0xbb0c	-0.0021362305
162	0xba74	-0.00093078613
163	0xba68	-0.00088500977
164	0xba06	-0.00051116943
165	0xb943	-0.00018596649
166	0x3ad3	0.0016098022
167	0x3aa8	0.0012817383
168	0x390e	0.00013542175
169	0xba60	-0.0008544922
170	0x387b	5.9843063e-05
171	0xba89	-0.001045227
172	0xbaf3	-0.0018539429
173	0xbaaa	-0.0012969971
174	0x3aea	0.0017852783
175	0xb96f	-0.00022792816
176	0xba89	-0.001045227
177	0xbb0f	-0.0021820068
178	0x3a8c	0.0010681152
179	0x3ad3	0.0016098022
180	0xbaa7	-0.0012741089
181	0xb9af	-0.000333786
182	0x3ad5	0.001625061
183	0xb704	-7.867813e-06
184	0x39bb	0.0003566742
185	0x3a6c	0.00090026855
186	0x3acb	0.0015487671
187	0xb957	-0.00020503998
188	0xb83f	-4.553795e-05
189	0xb9f5	-0.00046730042
190	0xbaa9	-0.0012893677
191	0xbaa7	-0.0012741089
192	0x3aed	0.0018081665
193	0x3b08	0.0020751953
194	0xbb01	-0.0019683838
195	0xbaae	-0.0013275146
196	0x3add	0.0016860962
197	0x3ac8	0.0015258789
198	0xba30	-0.0006713867
199	0xb9e9	-0.00044441223
200	0x38e2	0.0001077652
201	0xbaf9	-0.0018997192
202	0xbb15	-0.0022735596
203	0xb96d	-0.00022602081
204	0x3a8b	0.0010604858
205	0xba9b	-0.0011825562
206	0x3a18	0.000579834
207	0x39fc	0.00048065186
208	0x3a1e	0.00060272217
209	0x39dc	0.0004196167
210	0x3adb	0.0016708374
211	0xba1c	-0.0005950928
212	0x3830	4.196167e-05
213	0xb9e0	-0.0004272461
214	0xb88f	-6.818771e-05
215	0xb9a8	-0.00032043457
216	0x39da	0.000415802
217	0xba6d	-0.00090408325
218	0x3af6	0.001876831
219	0xb9ba	-0.00035476685
220	0xbaff	-0.0019454956
221	0xba98	-0.001159668
222	0xb9be	-0.00036239624
223	0xba9b	-0.0011825562
224	0x3ad6	0.0016326904
225	0x3aa7	0.0012741089
226	0x3a1e	0.00060272217
227	0xba7b	-0.000957489
228	0xba85	-0.0010147095
229	0xba80	-0.0009765625
230	0x3aeb	0.0017929077
231	0x3afc	0.0019226074
232	0xba3d	-0.0007209778
233	0xba80	-0.0009765625
234	0xbae9	-0.0017776489
235	0x3ae1	0.0017166138
236	0x3aaf	0.001335144
237	0xbaca	-0.0015411377
238	0x3a60	0.0008544922
239	0x3a92	0.0011138916
240	0xb9ef	-0.00045585632
241	0xba99	-0.0011672974
242	0xba98	-0.001159668
243	0xba84	-0.0010070801
244	0x3a6d	0.00090408325
245	0x3aed	0.0018081665
246	0x3aaf	0.001335144
247	0x3a45	0.00075149536
248	0x3ab1	0.0013504028
249	0xba14	-0.0005645752
250	0x3a89	0.001045227
251	0x3aff	0.0019454956
252	0xba28	-0.00064086914
253	0x3a23	0.00062179565
254	0xba8a	-0.0010528564
255	0xba26	-0.00063323975

base_model.model.transformer.h.1.attn.c_attn.lora_A.weight bf16 [8, 768]
0	0x3cbe	0.02319336
1	0x3ca9	0.020629883
2	0xbcd7	-0.026245117
3	0x3c05	0.008117676
4	0xbd0a	-0.033691406
5	0x3cb1	0.021606445
6	0xbca0	-0.01953125
7	0xbc2d	-0.010559082
8	0xbcee	-0.029052734
9	0x3d04	0.032226562
10	0x3d12	0.03564453
11	0x3c16	0.009155273
12	0xbb7e	-0.0038757324
13	0xbb85	-0.004058838
14	0x3ca8	0.020507812
15	0x3cb3	0.021850586
16	0xbc2e	-0.010620117
17	0x3b99	0.0046691895
18	0xbc00	-0.0078125
19	0x3ccd	0.025024414
20	0x3c36	0.011108398
21	0xbcad	-0.021118164
22	0xbca2	-0.01977539
23	0x3c84	0.016113281
24	0x3c5a	0.013305664
25	0xbc30	-0.0107421875
26	0xbbf7	-0.007537842
27	0xbc25	-0.010070801
28	0xbc9e	-0.01928711
29	0x3c1d	0.0095825195
30	0x3cd2	0.025634766
31	0xbc71	-0.014709473
32	0x3c39	0.011291504
33	0xbcaa	-0.020751953
34	0x3c6c	0.014404297
35	0x3ba1	0.00491333
36	0x3c16	0.009155273
37	0xbc05	-0.008117676
38	0x3d0b	0.033935547
39	0xbcca	-0.024658203
40	0x3c06	0.008178711
41	0xbd09	-0.033447266
42	0x3ced	0.028930664
43	0x3c34	0.010986328
44	0xbba0	-0.0048828125
45	0x3d13	0.035888672
46	0xbca6	-0.020263672
47	0x3cf2	0.029541016
48	0x3bbb	0.005706787
49	0x3c85	0.016235352
50	0x3c6d	0.014465332
51	0xbc83	-0.015991211
52	0x3bd1	0.006378174
53	0xbcb4	-0.021972656
54	0xbc87	-0.016479492
55	0x3cb3	0.021850586
56	0x3c8d	0.017211914
57	0xbd13	-0.035888672
58	0x3c6b	0.014343262
59	0x3cd0	0.025390625
60	0x3b30	0.0026855469
61	0xbc09	-0.008361816
62	0x3ba8	0.005126953
63	0x3b66	0.0035095215
64	0xbc4a	-0.012329102
65	0x3c79	0.015197754
66	0x3cd0	0.025390625
67	0x3cfe	0.03100586
68	0xbcc5	-0.024047852
69	0xbc0b	-0.008483887
70	0x3d11	0.03540039
71	0x3c82	0.01586914
72	0xbcaf	-0.021362305
73	0xbb38	-0.0028076172
74	0x3c93	0.017944336
75	0xbc79	-0.015197754
76	0xbd02	-0.03173828
77	0x3c64	0.013916016
78	0xbcc2	-0.02368164
79	0xbc9c	-0.019042969
80	0x3c81	0.01574707
81	0xbb9f	-0.004852295
82	0xbc00	-0.0078125
83	0x3beb	0.007171631
84	0xbcb2	-0.021728516
85	0xbca6	-0.020263672
86	0xbb9a	-0.004699707
87	0x3cf6	0.030029297
88	0x3cc3	0.023803711
89	0x3c22	0.009887695
90	0xbafb	-0.001914978
91	0xbc00	-0.0078125
92	0x3b85	0.004058838
93	0x3bb7	0.005584717
94	0x3bcd	0.0062561035
95	0xbd0d	-0.034423828
96	0x3ca3	0.019897461
97	0xbb63	-0.0034637451
98	0x3c98	0.018554688
99	0x3d0e	0.03466797
100	0x3cfe	0.03100586
101	0x3c8e	0.017333984
102	0xbb80	-0.00390625
103	0xbcef	-0.029174805
104	0x3d12	0.03564453
105	0x3c00	0.0078125
106	0x3ca3	0.019897461
107	0x3c36	0.011108398
108	0x3cc5	0.024047852
109	0xbcca	-0.024658203
110	0xbcc5	-0.024047852
111	0xbb64	-0.003479004
112	0xbd0d	-0.034423828
113	0xb873	-5.7935715e-05
114	0xbcfa	-0.030517578
115	0xbc49	-0.012268066
116	0xbcf8	-0.030273438
117	0xbc2b	-0.010437012
118	0x3cc3	0.023803711
119	0xbbb1	-0.0054016113
120	0x3c1a	0.009399414
121	0xbb95	-0.004547119
122	0xbbf6	-0.007507324
123	0xbcf7	-0.030151367
124	0xbccf	-0.025268555
125	0xbcce	-0.025146484
126	0x3c8c	0.017089844
127	0x3b71	0.0036773682
128	0x3d0d	0.034423828
129	0x3b8a	0.004211426
130	0xbcc6	-0.024169922
131	0x3caa	0.020751953
132	0xbca2	-0.01977539
133	0xbced	-0.028930664
134	0xbc7a	-0.015258789
135	0x3d00	0.03125
136	0x3c46	0.012084961
137	0x3d11	0.03540039
138	0xbcf7	-0.030151367
139	0x3c40	0.01171875
140	0xbd05	-0.032470703
141	0x3c9f	0.01940918
142	0x3cd6	0.026123047
143	0xbc5b	-0.013366699
144	0x3cbb	0.022827148
145	0x3c7d	0.0154418945
146	0x3c3a	0.011352539
147	0xbcb4	-0.021972656
148	0x3c7e	0.01550293
149	0xbc5f	-0.01361084
150	0x3c5d	0.0134887695
151	0xbc6b	-0.014343262
152	0x3cbd	0.023071289
153	0x3c59	0.013244629
154	0xbcc1	-0.02355957
155	0x3d10	0.03515625
156	0x3b89	0.004180908
157	0x3bb9	0.005645752
158	0xbd14	-0.036132812
159	0x3c8c	0.017089844
160	0x3cde	0.02709961
161	0xbcbe	-0.02319336
162	0xbca7	-0.020385742
163	0xbbf9	-0.007598877
164	0xbc90	-0.017578125
165	0xbc3b	-0.011413574
166	0x3bdf	0.00680542
167	0x3d04	0.032226562
168	0xbbd3	-0.006439209
169	0xbd02	-0.03173828
170	0x3c37	0.011169434
171	0x3cbe	0.02319336
172	0xbd07	-0.032958984
173	0x3c87	0.016479492
174	0x3d04	0.032226562
175	0xbbaf	-0.005340576
176	0xbcb4	-0.021972656
177	0x3ac0	0.0014648438
178	0xbd09	-0.033447266
179	0xbc42	-0.01184082
180	0xbc5b	-0.013366699
181	0xbcb4	-0.021972656
182	0xbd09	-0.033447266
183	0xbced	-0.028930664
184	0x3bd0	0.0063476562
185	0x3b1d	0.0023956299
186	0x3bbd	0.0057678223
187	0x3cc1	0.02355957
188	0xbc8f	-0.017456055
189	0xbc73	-0.014831543
190	0x3c67	0.014099121
191	0xba2a	-0.00064849854
192	0x3d0a	0.033691406
193	0xbcf0	-0.029296875
194	0xbb80	-0.00390625
195	0x3c7c	0.015380859
196	0x3bcc	0.006225586
197	0x3c34	0.010986328
198	0x3c46	0.012084961
199	0xbd06	-0.032714844
200	0x3d07	0.032958984
201	0x3cc0	0.0234375
202	0xbcc1	-0.02355957
203	0x3ccc	0.024902344
204	0x3c4a	0.012329102
205	0xbc4a	-0.012329102
206	0x3c00	0.0078125
207	0x3b62	0.0034484863
208	0xbb8a	-0.004211426
209	0x3c44	0.011962891
210	0x3cd2	0.025634766
211	0x3cff	0.03112793
212	0xba2b	-0.00065231323
213	0x3c3a	0.011352539
214	0x3c9e	0.01928711
215	0x3c9e	0.01928711
216	0xbcb8	-0.022460938
217	0x3b97	0.0046081543
218	0x3d0f	0.03491211
219	0x3d01	0.03149414
220	0x3c94	0.018066406
221	0x3c17	0.009216309
222	0x3cb2	0.021728516
223	0x3d09	0.033447266
224	0x3b51	0.003189087
225	0x3ce9	0.028442383
226	0x3cfd	0.030883789
227	0xbc81	-0.01574707
228	0xbb80	-0.00390625
229	0x3c70	0.0146484375
230	0xbc33	-0.010925293
231	0x3cda	0.026611328
232	0xbce5	-0.027954102
233	0xbcb0	-0.021484375
234	0x3d10	0.03515625
235	0xbcc2	-0.02368164
236	0x3ce8	0.028320312
237	0x3d04	0.032226562
238	0x3c76	0.015014648
239	0x3c0b	0.008483887
240	0xbbe6	-0.007019043
241	0xbb80	-0.00390625
242	0x3b7e	0.0038757324
243	0xbc0a	-0.008422852
244	0x3af0	0.0018310547
245	0x3c34	0.010986328
246	0x3c86	0.016357422
247	0x3ce5	0.027954102
248	0x3c75	0.014953613
249	0x3ce3	0.027709961
250	0x3c09	0.008361816
251	0x3c11	0.008850098
252	0x3cc0	0.0234375
253	0x3b8d	0.0043029785
254	0xbcc6	-0.024169922
255	0xbca3	-0.019897461

base_model.model.transformer.h.1.attn.c_attn.lora_B.weight bf16 [2304, 8]
0	0xba6f	-0.00091171265
1	0xbab8	-0.0014038086
2	0xba8c	-0.0010681152
3	0xba3f	-0.0007286072
4	0xbab3	-0.0013656616
5	0xba93	-0.001121521
6	0xba5f	-0.0008506775
7	0xbab1	-0.0013504028
8	0x3a95	0.0011367798
9	0x3af1	0.0018386841
10	0x3ab5	0.0013809204
11	0x3a79	0.0009498596
12	0x3a9b	0.0011825562
13	0xb970	-0.00022888184
14	0x3a86	0.0010223389
15	0x3afc	0.0019226074
16	0xba84	-0.0010070801
17	0xbb00	-0.001953125
18	0x3a50	0.00079345703
19	0xbac4	-0.0014953613
20	0x38e9	0.00011110306
21	0xbaff	-0.0019454956
22	0x3a68	0.00088500977
23	0xbaa5	-0.0012588501
24	0xb93a	-0.00017738342
25	0xba27	-0.00063705444
26	0x3a8c	0.0010681152
27	0x3a26	0.00063323975
28	0x3ace	0.0015716553
29	0xb88f	-6.818771e-05
30	0x39bb	0.0003566742
31	0x3ae5	0.0017471313
32	0x3990	0.0002746582
33	0x3ac5	0.0015029907
34	0xbab9	-0.001411438
35	0xba05	-0.00050735474
36	0xb9f8	-0.00047302246
37	0xbab0	-0.0013427734
38	0xbae1	-0.0017166138
39	0x3a7e	0.0009689331
40	0xba70	-0.00091552734
41	0xba66	-0.0008773804
42	0x3b08	0.0020751953
43	0x3a36	0.0006942749
44	0x3957	0.00020503998
45	0x3a2e	0.0006637573
46	0x3962	0.0002155304
47	0x38a6	7.915497e-05
48	0xba43	-0.00074386597
49	0xbabc	-0.0014343262
50	0xbaa0	-0.0012207031
51	0xba3a	-0.0007095337
52	0xbb00	-0.001953125
53	0xbb0b	-0.0021209717
54	0xba43	-0.00074386597
55	0x3a1e	0.00060272217
56	0x39f0	0.00045776367
57	0xbaee	-0.0018157959
58	0xb914	-0.0001411438
59	0xbb06	-0.0020446777
60	0xba1b	-0.0005912781
61	0xba19	-0.0005836487
62	0x39bf	0.0003643036
63	0xbae2	-0.0017242432
64	0x3ab4	0.001373291
65	0x3a82	0.0009918213
66	0x3912	0.00013923645
67	0xb961	-0.00021457672
68	0xbac9	-0.0015335083
69	0x3a5b	0.0008354187
70	0x3a43	0.00074386597
71	0xbb01	-0.0019683838
72	0x3aaa	0.0012969971
73	0x3b11	0.0022125244
74	0x3a50	0.00079345703
75	0x3b0c	0.0021362305
76	0x3ac3	0.0014877319
77	0x3b06	0.0020446777
78	0x3956	0.0002040863
79	0x3aef	0.0018234253
80	0xb997	-0.00028800964
81	0x391a	0.00014686584
82	0x3ae5	0.0017471313
83	0x39e7	0.00044059753
84	0x3ad4	0.0016174316
85	0x3a90	0.0010986328
86	0x3ab4	0.001373291
87	0x3b02	0.0019836426
88	0x3b02	0.0019836426
89	0x3ad1	0.0015945435
90	0xb9bc	-0.00035858154
91	0x3a85	0.0010147095
92	0x3911	0.00013828278
93	0x3aef	0.0018234253
94	0xba3f	-0.0007286072
95	0xb9f1	-0.00045967102
96	0x3ae1	0.0017166138
97	0x3a92	0.0011138916
98	0xbb0b	-0.0021209717
99	0x38b4	8.583069e-05
100	0xbabc	-0.0014343262
101	0x3a8c	0.0010681152
102	0xba21	-0.00061416626
103	0xba8d	-0.0010757446
104	0x3896	7.1525574e-05
105	0xba0b	-0.0005302429
106	0xb93e	-0.00018119812
107	0xba32	-0.0006790161
108	0x39fe	0.00048446655
109	0xbab5	-0.0013809204
110	0x3aa6	0.0012664795
111	0xb964	-0.00021743774
112	0x3910	0.0001373291
113	0xbad1	-0.0015945435
114	0xba61	-0.0008583069
115	0xba1e	-0.00060272217
116	0x3979	0.0002374649
117	0xbab4	-0.001373291
118	0xba8d	-0.0010757446
119	0x39a3	0.00031089783
120	0xb9ac	-0.00032806396
121	0xba6d	-0.00090408325
122	0xba85	-0.0010147095
123	0xba11	-0.0005531311
124	0xba5e	-0.0008468628
125	0xba20	-0.00061035156
126	0xb976	-0.00023460388
127	0xb9fa	-0.00047683716
128	0x3a90	0.0010986328
129	0xba6f	-0.00091171265
130	0xba4d	-0.00078201294
131	0x3a77	0.0009422302
132	0x3afe	0.0019378662
133	0xba20	-0.00061035156
134	0x39f7	0.0004711151
135	0xba8f	-0.0010910034
136	0x3acb	0.0015487671
137	0x3acf	0.0015792847
138	0xbae0	-0.0017089844
139	0xb969	-0.00022220612
140	0xba79	-0.0009498596
141	0xb80d	-3.361702e-05
142	0x38a8	8.010864e-05
143	0xbab5	-0.0013809204
144	0x39ba	0.00035476685
145	0x3af1	0.0018386841
146	0x3ada	0.001663208
147	0x3abf	0.0014572144
148	0x3aa5	0.0012588501
149	0x3b06	0.0020446777
150	0x3a66	0.0008773804
151	0x3afe	0.0019378662
152	0xba97	-0.0011520386
153	0xbb18	-0.002319336
154	0xba70	-0.00091552734
155	0xba1f	-0.00060653687
156	0x3aa4	0.0012512207
157	0xbad7	-0.0016403198
158	0xbac9	-0.0015335083
159	0x3922	0.00015449524
160	0xba1e	-0.00060272217
161	0xbb1f	-0.0024261475
162	0xba80	-0.0009765625
163	0xbae8	-0.0017700195
164	0xbad5	-0.001625061
165	0xbabc	-0.0014343262
166	0xba0c	-0.0005340576
167	0x3984	0.00025177002
168	0xbaf0	-0.0018310547
169	0xbb04	-0.0020141602
170	0xbaa6	-0.0012664795
171	0xba10	-0.0005493164
172	0xba31	-0.0006752014
173	0xba86	-0.0010223389
174	0xb8ca	-9.6321106e-05
175	0xb9e8	-0.00044250488
176	0xbb02	-0.0019836426
177	0xbb09	-0.002090454
178	0xbae6	-0.0017547607
179	0xbb03	-0.0019989014
180	0xbb09	-0.002090454
181	0xbaaa	-0.0012969971
182	0xbae2	-0.0017242432
183	0xbb01	-0.0019683838
184	0x3a9a	0.0011749268
185	0x3a7b	0.000957489
186	0xbaca	-0.0015411377
187	0xb9c0	-0.00036621094
188	0xbaaf	-0.001335144
189	0x3a79	0.0009498596
190	0xbabb	-0.0014266968
191	0x39bc	0.00035858154
192	0xb81b	-3.695488e-05
193	0x3b19	0.0023345947
194	0x3a57	0.0008201599
195	0x3b03	0.0019989014
196	0x3b09	0.002090454
197	0x3b04	0.0020141602
198	0xbaa1	-0.0012283325
199	0x3b1a	0.0023498535
200	0xbad7	-0.0016403198
201	0xbb04	-0.0020141602
202	0xba0f	-0.0005455017
203	0xb9ed	-0.00045204163
204	0xb8fc	-0.000120162964
205	0xbaea	-0.0017852783
206	0xba64	-0.000869751
207	0xba35	-0.0006904602
208	0x3a71	0.00091934204
209	0xba62	-0.0008621216
210	0x3b06	0.0020446777
211	0x3aa3	0.0012435913
212	0x3b03	0.0019989014
213	0x3869	5.555153e-05
214	0x3aeb	0.0017929077
215	0xb94f	-0.00019741058
216	0xbabc	-0.0014343262
217	0xba44	-0.00074768066
218	0xba4e	-0.00078582764
219	0xbaf5	-0.0018692017
220	0xbaf8	-0.0018920898
221	0xbaec	-0.0018005371
222	0xbab3	-0.0013656616
223	0xba01	-0.00049209595
224	0x3a5d	0.0008430481
225	0x3adf	0.001701355
226	0xb750	-1.2397766e-05
227	0x3839	4.4107437e-05
228	0x3ab1	0.0013504028
229	0x3ac4	0.0014953613
230	0x3a7d	0.0009651184
231	0x3af8	0.0018920898
232	0x3aab	0.0013046265
233	0x3a5b	0.0008354187
234	0x3afa	0.0019073486
235	0x3aca	0.0015411377
236	0x3ab1	0.0013504028
237	0x3a3f	0.0007286072
238	0x3af5	0.0018692017
239	0x3add	0.0016860962
240	0x38d9	0.00010347366
241	0x3af4	0.0018615723
242	0x3ae8	0.0017700195
243	0x3b00	0.001953125
244	0x3b0d	0.0021514893
245	0x3b00	0.001953125
246	0x39bb	0.0003566742
247	0x3b05	0.002029419
248	0xbab4	-0.001373291
249	0xba98	-0.001159668
250	0xb9ba	-0.00035476685
251	0xba36	-0.0006942749
252	0xba15	-0.0005683899
253	0xba4d	-0.00078201294
254	0x381c	3.71933e-05
255	0x38bf	9.10759e-05

base_model.model.transformer.h.10.attn.c_attn.lora_A.weight bf16 [8, 768]
0	0xbc72	-0.014770508
1	0xbcf8	-0.030273438
2	0x3c90	0.017578125
3	0x3c50	0.0126953125
4	0x3bde	0.0067749023
5	0xbbe9	-0.0071105957
6	0xbd12	-0.03564453
7	0xbca8	-0.020507812
8	0xbc38	-0.011230469
9	0x3ca9	0.020629883
10	0xbb83	-0.0039978027
11	0xbc00	-0.0078125
12	0xbbad	-0.005279541
13	0xbb85	-0.004058838
14	0xbb7d	-0.0038604736
15	0xbcb6	-0.022216797
16	0xbd06	-0.032714844
17	0x3cb4	0.021972656
18	0xbcea	-0.028564453
19	0xbb80	-0.00390625
20	0x3b88	0.0041503906
21	0xbc00	-0.0078125
22	0x3cda	0.026611328
23	0xbcd4	-0.025878906
24	0xbd0c	-0.034179688
25	0xbb9f	-0.004852295
26	0x3cc4	0.023925781
27	0x3c9a	0.018798828
28	0x3c6f	0.014587402
29	0x3c2e	0.010620117
30	0x3c64	0.013916016
31	0x3bfc	0.0076904297
32	0x3d00	0.03125
33	0xbc95	-0.018188477
34	0x3bd6	0.0065307617
35	0x3d0b	0.033935547
36	0xbcdd	-0.026977539
37	0xbc6b	-0.014343262
38	0xbc99	-0.018676758
39	0x3d06	0.032714844
40	0xbd0a	-0.033691406
41	0xbca8	-0.020507812
42	0xbd05	-0.032470703
43	0xbbac	-0.0052490234
44	0xbb1d	-0.0023956299
45	0x3ca4	0.020019531
46	0x3cc5	0.024047852
47	0xbc3b	-0.011413574
48	0x3c91	0.017700195
49	0x3cb7	0.022338867
50	0xbc90	-0.017578125
51	0xbcec	-0.028808594
52	0x3cdf	0.02722168
53	0x3c64	0.013916016
54	0x3cf2	0.029541016
55	0xbcb6	-0.022216797
56	0xbcbd	-0.023071289
57	0xbc06	-0.008178711
58	0xbc5d	-0.0134887695
59	0x3ce2	0.02758789
60	0xbbf7	-0.007537842
61	0xbcb1	-0.021606445
62	0xbc85	-0.016235352
63	0x3d0e	0.03466797
64	0x3c69	0.014221191
65	0xbd11	-0.03540039
66	0x3be7	0.0070495605
67	0xbcfc	-0.030761719
68	0xbc90	-0.017578125
69	0xbcd5	-0.026000977
70	0xbcb6	-0.022216797
71	0x3ca1	0.01965332
72	0x3be9	0.0071105957
73	0xbca8	-0.020507812
74	0x3d0e	0.03466797
75	0xbc00	-0.0078125
76	0x3b8a	0.004211426
77	0x3c84	0.016113281
78	0x3c82	0.01586914
79	0xbc9f	-0.01940918
80	0xbb9b	-0.0047302246
81	0xbc4b	-0.012390137
82	0x3bff	0.0077819824
83	0x3cc1	0.02355957
84	0xbc62	-0.013793945
85	0xbcdd	-0.026977539
86	0x3c9b	0.018920898
87	0x3bbb	0.005706787
88	0x3ce0	0.02734375
89	0x3ca1	0.01965332
90	0x3d0b	0.033935547
91	0x3c19	0.009338379
92	0xbca4	-0.020019531
93	0xbccd	-0.025024414
94	0x3b80	0.00390625
95	0x3c65	0.013977051
96	0x3d05	0.032470703
97	0x3cbd	0.023071289
98	0xbd0a	-0.033691406
99	0xbc63	-0.0138549805
100	0x3ca0	0.01953125
101	0x3cd9	0.026489258
102	0x3ca6	0.020263672
103	0x3b16	0.0022888184
104	0xbb1d	-0.0023956299
105	0xbcb0	-0.021484375
106	0xbcf9	-0.030395508
107	0xbc52	-0.012817383
108	0x3cfa	0.030517578
109	0xbb9d	-0.0047912598
110	0xbcb0	-0.021484375
111	0x3bfd	0.0077209473
112	0x3bb9	0.005645752
113	0xbc94	-0.018066406
114	0x3c87	0.016479492
115	0xbc56	-0.013061523
116	0xbca6	-0.020263672
117	0x3b7f	0.0038909912
118	0x3d08	0.033203125
119	0x3bb5	0.0055236816
120	0x3ced	0.028930664
121	0xbcfe	-0.03100586
122	0xbd05	-0.032470703
123	0x3bb0	0.0053710938
124	0x3bf6	0.007507324
125	0xbcd8	-0.026367188
126	0xbcd2	-0.025634766
127	0xbccd	-0.025024414
128	0x3c93	0.017944336
129	0xbc5a	-0.013305664
130	0xbd0b	-0.033935547
131	0x3b0f	0.0021820068
132	0xbd10	-0.03515625
133	0xba74	-0.00093078613
134	0x3d0f	0.03491211
135	0xbc5a	-0.013305664
136	0xbc20	-0.009765625
137	0x3d05	0.032470703
138	0xbcbc	-0.022949219
139	0xbc29	-0.010314941
140	0x3cc1	0.02355957
141	0x3c81	0.01574707
142	0x3d13	0.035888672
143	0x3bb0	0.0053710938
144	0xbcb8	-0.022460938
145	0x3cb4	0.021972656
146	0x3d03	0.031982422
147	0xbbe4	-0.006958008
148	0xbcab	-0.020874023
149	0xbc95	-0.018188477
150	0xbd06	-0.032714844
151	0xbb85	-0.004058838
152	0xbc94	-0.018066406
153	0x3cdd	0.026977539
154	0x3cc8	0.024414062
155	0xbce9	-0.028442383
156	0x3ce2	0.02758789
157	0x3ced	0.028930664
158	0x3cf6	0.030029297
159	0x3be7	0.0070495605
160	0x3c35	0.011047363
161	0xbaa3	-0.0012435913
162	0xbc38	-0.011230469
163	0x3c00	0.0078125
164	0xbc8a	-0.016845703
165	0xbccb	-0.024780273
166	0x3c51	0.012756348
167	0x3cdc	0.026855469
168	0x3c52	0.012817383
169	0xbbaa	-0.0051879883
170	0x3b7c	0.0038452148
171	0x3cb4	0.021972656
172	0xbd10	-0.03515625
173	0x3ccd	0.025024414
174	0x3c00	0.0078125
175	0xbc0f	-0.008728027
176	0x3bff	0.0077819824
177	0x3d0f	0.03491211
178	0x3c56	0.013061523
179	0x3cf7	0.030151367
180	0x3b81	0.0039367676
181	0x3ca4	0.020019531
182	0xbc1b	-0.009460449
183	0xbcbd	-0.023071289
184	0xbbb4	-0.005493164
185	0x3c1b	0.009460449
186	0x3c1b	0.009460449
187	0x3bad	0.005279541
188	0x3c00	0.0078125
189	0x3b8e	0.004333496
190	0x3c36	0.011108398
191	0x3c1d	0.0095825195
192	0x3d08	0.033203125
193	0xbd14	-0.036132812
194	0x3d11	0.03540039
195	0x3c65	0.013977051
196	0x3c49	0.012268066
197	0x3c9f	0.01940918
198	0xbc6c	-0.014404297
199	0x3c0f	0.008728027
200	0x3c94	0.018066406
201	0x3c1a	0.009399414
202	0x3b70	0.0036621094
203	0xbcf4	-0.029785156
204	0x3c7a	0.015258789
205	0xbd0b	-0.033935547
206	0xbcb8	-0.022460938
207	0xbcee	-0.029052734
208	0x3b80	0.00390625
209	0xbcfe	-0.03100586
210	0xbbad	-0.005279541
211	0x3b80	0.00390625
212	0x3cfe	0.03100586
213	0x3cb1	0.021606445
214	0x3c25	0.010070801
215	0x3a83	0.0009994507
216	0xbbab	-0.005218506
217	0x3ce9	0.028442383
218	0xbc46	-0.012084961
219	0xbcc2	-0.02368164
220	0xbc9a	-0.018798828
221	0xbcea	-0.028564453
222	0xbbef	-0.007293701
223	0x3c00	0.0078125
224	0xbd0e	-0.03466797
225	0xbca5	-0.020141602
226	0x3c8d	0.017211914
227	0x3cf8	0.030273438
228	0x3c3e	0.01159668
229	0xbcde	-0.02709961
230	0x3ce9	0.028442383
231	0x3cef	0.029174805
232	0xbce6	-0.028076172
233	0xbc00	-0.0078125
234	0x3c6c	0.014404297
235	0xbc00	-0.0078125
236	0xbc87	-0.016479492
237	0xbd0f	-0.03491211
238	0xbca7	-0.020385742
239	0xbce6	-0.028076172
240	0xbc61	-0.01373291
241	0xbcd1	-0.025512695
242	0xbc5c	-0.013427734
243	0xbc00	-0.0078125
244	0x3bac	0.0052490234
245	0xbc2b	-0.010437012
246	0x3c87	0.016479492
247	0x3cc0	0.0234375
248	0xbce8	-0.028320312
249	0xbcaa	-0.020751953
250	0x3ca8	0.020507812
251	0xbcaf	-0.021362305
252	0xbd01	-0.03149414
253	0x3c7a	0.015258789
254	0xbcd9	-0.026489258
255	0xbb91	-0.004425049

base_model.model.transformer.h.10.attn.c_attn.lora_B.weight bf16 [2304, 8]
0	0x3b18	0.002319336
1	0xbb32	-0.0027160645
2	0x3b08	0.0020751953
3	0x3b4b	0.0030975342
4	0x3b15	0.0022735596
5	0xbb2c	-0.0026245117
6	0x3b66	0.0035095215
7	0xbb0a	-0.002105713
8	0x3b07	0.0020599365
9	0xbb1f	-0.0024261475
10	0x3b10	0.0021972656
11	0x3b06	0.0020446777
12	0x3b33	0.0027313232
13	0xbb01	-0.0019683838
14	0x3b03	0.0019989014
15	0xbb05	-0.002029419
16	0xbb2f	-0.002670288
17	0x3b41	0.0029449463
18	0xbb00	-0.001953125
19	0xbb60	-0.0034179688
20	0xbb46	-0.0030212402
21	0x3b48	0.0030517578
22	0xbb2a	-0.0025939941
23	0x3b07	0.0020599365
24	0xbb06	-0.0020446777
25	0x3b31	0.0027008057
26	0xbb68	-0.003540039
27	0xbb34	-0.002746582
28	0xbb2b	-0.002609253
29	0x3b1e	0.0024108887
30	0xbb28	-0.0025634766
31	0x3b24	0.0025024414
32	0x3ab5	0.0013809204
33	0x3b01	0.0019683838
34	0xbad7	-0.0016403198
35	0xba61	-0.0008583069
36	0xbaca	-0.0015411377
37	0x3aa8	0.0012817383
38	0xba4b	-0.00077438354
39	0x3aee	0.0018157959
40	0xbb3b	-0.0028533936
41	0x3b70	0.0036621094
42	0xbb80	-0.00390625
43	0xbb80	-0.00390625
44	0xbb48	-0.0030517578
45	0x3b81	0.0039367676
46	0xbb80	-0.00390625
47	0x3b80	0.00390625
48	0xbb1e	-0.0024108887
49	0x3b41	0.0029449463
50	0xbb67	-0.0035247803
51	0xbb33	-0.0027313232
52	0xbb41	-0.0029449463
53	0x3b0a	0.002105713
54	0xbb52	-0.0032043457
55	0x3b33	0.0027313232
56	0x3a80	0.0009765625
57	0xbaf1	-0.0018386841
58	0x3a9b	0.0011825562
59	0x3afc	0.0019226074
60	0x3ab7	0.0013961792
61	0xbb36	-0.0027770996
62	0x3b2a	0.0025939941
63	0xbaf2	-0.0018463135
64	0x3b40	0.0029296875
65	0xbb57	-0.0032806396
66	0x3b2c	0.0026245117
67	0x3b5d	0.0033721924
68	0x3b31	0.0027008057
69	0xbb4f	-0.0031585693
70	0x3b64	0.003479004
71	0xbb0c	-0.0021362305
72	0x3b6a	0.0035705566
73	0xbb83	-0.0039978027
74	0x3b80	0.00390625
75	0x3b82	0.003967285
76	0x3b80	0.00390625
77	0xbb80	-0.00390625
78	0x3b83	0.0039978027
79	0xbb80	-0.00390625
80	0xbb78	-0.0037841797
81	0x3b3d	0.0028839111
82	0xbb0c	-0.0021362305
83	0xbb74	-0.0037231445
84	0xbb5b	-0.0033416748
85	0x3b77	0.003768921
86	0xbb80	-0.00390625
87	0x3b52	0.0032043457
88	0x3b2c	0.0026245117
89	0xbb59	-0.0033111572
90	0x3b72	0.003692627
91	0x3b6b	0.0035858154
92	0x3b4a	0.0030822754
93	0xbb45	-0.0030059814
94	0x3b5e	0.0033874512
95	0xbb75	-0.0037384033
96	0x3b0e	0.002166748
97	0xbb0e	-0.002166748
98	0x3b1f	0.0024261475
99	0x3b2b	0.002609253
100	0x3b1c	0.002380371
101	0xbb0d	-0.0021514893
102	0x3b49	0.0030670166
103	0xbb31	-0.0027008057
104	0xbb07	-0.0020599365
105	0x3b02	0.0019836426
106	0xbb11	-0.0022125244
107	0xbb27	-0.0025482178
108	0xbaff	-0.0019454956
109	0x3b23	0.0024871826
110	0xbb2f	-0.002670288
111	0x3b2f	0.002670288
112	0xbb3f	-0.0029144287
113	0x3b60	0.0034179688
114	0xbb80	-0.00390625
115	0xbb80	-0.00390625
116	0xbb52	-0.0032043457
117	0x3b80	0.00390625
118	0xbb80	-0.00390625
119	0x3b80	0.00390625
120	0x3b53	0.0032196045
121	0xbb80	-0.00390625
122	0x3b80	0.00390625
123	0x3b80	0.00390625
124	0x3b80	0.00390625
125	0xbb80	-0.00390625
126	0x3b80	0.00390625
127	0xbb82	-0.003967285
128	0x3b06	0.0020446777
129	0xbb40	-0.0029296875
130	0x3b5d	0.0033721924
131	0x3b67	0.0035247803
132	0x3b20	0.0024414062
133	0xbb54	-0.0032348633
134	0x3b1c	0.002380371
135	0xbb29	-0.0025787354
136	0xbb5d	-0.0033721924
137	0x3b77	0.003768921
138	0xbb80	-0.00390625
139	0xbb80	-0.00390625
140	0xbb4b	-0.0030975342
141	0x3b67	0.0035247803
142	0xbb81	-0.0039367676
143	0x3b80	0.00390625
144	0x3b3c	0.0028686523
145	0xbb61	-0.0034332275
146	0x3b7c	0.0038452148
147	0x3b75	0.0037384033
148	0x3b4b	0.0030975342
149	0xbb5f	-0.00340271
150	0x3b63	0.0034637451
151	0xbb51	-0.003189087
152	0x396a	0.00022315979
153	0x3b0a	0.002105713
154	0xbb3f	-0.0029144287
155	0xbaf3	-0.0018539429
156	0xbb01	-0.0019683838
157	0x3afb	0.001914978
158	0xbae8	-0.0017700195
159	0x3afd	0.0019302368
160	0x3b63	0.0034637451
161	0xbb83	-0.0039978027
162	0x3b80	0.00390625
163	0x3b81	0.0039367676
164	0x3b6b	0.0035858154
165	0xbb80	-0.00390625
166	0x3b80	0.00390625
167	0xbb7c	-0.0038452148
168	0x3b5b	0.0033416748
169	0xbad1	-0.0015945435
170	0x3b1e	0.0024108887
171	0x3b6c	0.0036010742
172	0x3b4e	0.0031433105
173	0xbb01	-0.0019683838
174	0x3b5c	0.0033569336
175	0xbb51	-0.003189087
176	0x3b0a	0.002105713
177	0x3a64	0.000869751
178	0xbb02	-0.0019836426
179	0x3aa1	0.0012283325
180	0x3b0e	0.002166748
181	0x3abe	0.001449585
182	0x3a82	0.0009918213
183	0x3ab6	0.0013885498
184	0x3b30	0.0026855469
185	0xbb5f	-0.00340271
186	0x3b1a	0.0023498535
187	0x3b64	0.003479004
188	0x3b35	0.0027618408
189	0xbb1b	-0.0023651123
190	0x3b80	0.00390625
191	0xbb0f	-0.0021820068
192	0xbb54	-0.0032348633
193	0xba5b	-0.0008354187
194	0x3acb	0.0015487671
195	0xbb34	-0.002746582
196	0x3a4c	0.00077819824
197	0x3aed	0.0018081665
198	0xbb26	-0.002532959
199	0x3b00	0.001953125
200	0x3b27	0.0025482178
201	0xbb2f	-0.002670288
202	0x3b64	0.003479004
203	0x3b61	0.0034332275
204	0x3b21	0.002456665
205	0xbb17	-0.0023040771
206	0x3b64	0.003479004
207	0xbb74	-0.0037231445
208	0x3b12	0.0022277832
209	0xbb00	-0.001953125
210	0x3b01	0.0019683838
211	0x3b00	0.001953125
212	0x3aed	0.0018081665
213	0xbb06	-0.0020446777
214	0x3b00	0.001953125
215	0xbb0a	-0.002105713
216	0xbb80	-0.00390625
217	0x3b80	0.00390625
218	0xbb84	-0.0040283203
219	0xbb84	-0.0040283203
220	0xbb6a	-0.0035705566
221	0x3b80	0.00390625
222	0xbb81	-0.0039367676
223	0x3b80	0.00390625
224	0xb9a1	-0.00030708313
225	0x398e	0.0002708435
226	0xba60	-0.0008544922
227	0xb942	-0.00018501282
228	0xbab3	-0.0013656616
229	0xbae2	-0.0017242432
230	0xba3f	-0.0007286072
231	0x39a3	0.00031089783
232	0x37ac	2.0503998e-05
233	0xbabe	-0.001449585
234	0xbaa7	-0.0012741089
235	0xb9ba	-0.00035476685
236	0xba49	-0.00076675415
237	0x39ee	0.00045394897
238	0xba0d	-0.0005378723
239	0x3aa5	0.0012588501
240	0x3b80	0.00390625
241	0xbb82	-0.003967285
242	0x3b80	0.00390625
243	0x3b82	0.003967285
244	0x3b80	0.00390625
245	0xbb80	-0.00390625
246	0x3b82	0.003967285
247	0xbb83	-0.0039978027
248	0xbb43	-0.0029754639
249	0x3b44	0.0029907227
250	0xbb7f	-0.0038909912
251	0xbb7e	-0.0038757324
252	0xbb3d	-0.0028839111
253	0x3b56	0.0032653809
254	0xbb80	-0.00390625
255	0x3b80	0.00390625

base_model.model.transformer.h.11.attn.c_attn.lora_A.weight bf16 [8, 768]
0	0x3d12	0.03564453
1	0x3c0f	0.008728027
2	0x3c0d	0.008605957
3	0xbc79	-0.015197754
4	0xbc67	-0.014099121
5	0xbcd5	-0.026000977
6	0xbb80	-0.00390625
7	0x3c00	0.0078125
8	0xbc8e	-0.017333984
9	0x3c00	0.0078125
10	0x3c99	0.018676758
11	0xbc24	-0.010009766
12	0x3be3	0.0069274902
13	0xbca5	-0.020141602
14	0xbbdd	-0.0067443848
15	0x3ca6	0.020263672
16	0xbcc0	-0.0234375
17	0xbca4	-0.020019531
18	0xbb87	-0.004119873
19	0xbd09	-0.033447266
20	0x3c98	0.018554688
21	0x3c00	0.0078125
22	0x3b87	0.004119873
23	0xbc06	-0.008178711
24	0xbd04	-0.032226562
25	0x3c00	0.0078125
26	0xbcde	-0.02709961
27	0x3cf5	0.029907227
28	0xbb91	-0.004425049
29	0xbca9	-0.020629883
30	0xbc7c	-0.015380859
31	0x3c60	0.013671875
32	0x3d08	0.033203125
33	0xbd02	-0.03173828
34	0xbb87	-0.004119873
35	0x3ccc	0.024902344
36	0x3cda	0.026611328
37	0x3cb6	0.022216797
38	0xb9a6	-0.00031661987
39	0xbce1	-0.02746582
40	0xbb15	-0.0022735596
41	0xbcc5	-0.024047852
42	0xbd06	-0.032714844
43	0xbcea	-0.028564453
44	0xbc9b	-0.018920898
45	0x3ce3	0.027709961
46	0xbcce	-0.025146484
47	0xbba4	-0.005004883
48	0x3cb6	0.022216797
49	0xbd10	-0.03515625
50	0x3c91	0.017700195
51	0xbca6	-0.020263672
52	0xbc00	-0.0078125
53	0x3b00	0.001953125
54	0xbc58	-0.013183594
55	0x3c68	0.014160156
56	0x3b8f	0.0043640137
57	0x3d06	0.032714844
58	0xbc24	-0.010009766
59	0x3ce5	0.027954102
60	0x3cd9	0.026489258
61	0x3c7d	0.0154418945
62	0xbc72	-0.014770508
63	0x3cd7	0.026245117
64	0x3c64	0.013916016
65	0xbcbc	-0.022949219
66	0x3d04	0.032226562
67	0x3c12	0.008911133
68	0x3cc2	0.02368164
69	0x3caf	0.021362305
70	0x3c9f	0.01940918
71	0x3b9a	0.004699707
72	0x3bc3	0.0059509277
73	0x3ca1	0.01965332
74	0xbc40	-0.01171875
75	0x3d0a	0.033691406
76	0xbbd2	-0.0064086914
77	0xbce1	-0.02746582
78	0xbba4	-0.005004883
79	0x3cf9	0.030395508
80	0xbd12	-0.03564453
81	0x3b91	0.004425049
82	0xbcae	-0.021240234
83	0x3cdf	0.02722168
84	0x3c75	0.014953613
85	0x3c8c	0.017089844
86	0x3c00	0.0078125
87	0xbc09	-0.008361816
88	0x3cda	0.026611328
89	0x3ce2	0.02758789
90	0xbb81	-0.0039367676
91	0x3c00	0.0078125
92	0x3d0d	0.034423828
93	0x3be3	0.0069274902
94	0xbcf6	-0.030029297
95	0x3b80	0.00390625
96	0xbcff	-0.03112793
97	0x3cc5	0.024047852
98	0x3cf2	0.029541016
99	0xbc05	-0.008117676
100	0xbb8a	-0.004211426
101	0xbd0e	-0.03466797
102	0xbce1	-0.02746582
103	0x3caf	0.021362305
104	0xbcc6	-0.024169922
105	0xbc90	-0.017578125
106	0xbc77	-0.015075684
107	0xbbbd	-0.0057678223
108	0x3c8c	0.017089844
109	0x3d07	0.032958984
110	0xbcf5	-0.029907227
111	0x3c81	0.01574707
112	0xbc6a	-0.014282227
113	0xbbac	-0.0052490234
114	0x3c83	0.015991211
115	0xbca1	-0.01965332
116	0xbce9	-0.028442383
117	0xbc17	-0.009216309
118	0x3c01	0.007873535
119	0xbca3	-0.019897461
120	0x3c12	0.008911133
121	0xbd04	-0.032226562
122	0x3bdc	0.006713867
123	0x3c9e	0.01928711
124	0x3c47	0.012145996
125	0xbcd6	-0.026123047
126	0xbc3d	-0.0115356445
127	0xbcb3	-0.021850586
128	0xbc9b	-0.018920898
129	0xbc6c	-0.014404297
130	0xbc00	-0.0078125
131	0x3c20	0.009765625
132	0xbc00	-0.0078125
133	0x3c83	0.015991211
134	0x3c2f	0.010681152
135	0x3c14	0.009033203
136	0x3c9b	0.018920898
137	0x3cb3	0.021850586
138	0x3c2e	0.010620117
139	0x3cf8	0.030273438
140	0xbcbf	-0.02331543
141	0xbc2c	-0.010498047
142	0x3c69	0.014221191
143	0xbca3	-0.019897461
144	0x3c00	0.0078125
145	0xbc36	-0.011108398
146	0x3cdf	0.02722168
147	0x3ba4	0.005004883
148	0xbc27	-0.010192871
149	0x3bf1	0.0073547363
150	0xbd10	-0.03515625
151	0x3cd8	0.026367188
152	0x3c54	0.012939453
153	0xbcf0	-0.029296875
154	0x3cf2	0.029541016
155	0x3d13	0.035888672
156	0x3cc0	0.0234375
157	0xbc23	-0.0099487305
158	0xbc8e	-0.017333984
159	0xbd12	-0.03564453
160	0xbca4	-0.020019531
161	0x3ce1	0.02746582
162	0xbd13	-0.035888672
163	0x3ca5	0.020141602
164	0xbd12	-0.03564453
165	0x3c99	0.018676758
166	0xbb80	-0.00390625
167	0x3ce2	0.02758789
168	0x3bff	0.0077819824
169	0x3d10	0.03515625
170	0x3b8e	0.004333496
171	0xbc6e	-0.014526367
172	0x3cb8	0.022460938
173	0xbb9a	-0.004699707
174	0xbccf	-0.025268555
175	0xbc3a	-0.011352539
176	0xbb93	-0.004486084
177	0xbcd6	-0.026123047
178	0xbcc8	-0.024414062
179	0x3c71	0.014709473
180	0x3cc1	0.02355957
181	0x3c6a	0.014282227
182	0x3cbb	0.022827148
183	0xbc94	-0.018066406
184	0x3c24	0.010009766
185	0xbc00	-0.0078125
186	0xbb49	-0.0030670166
187	0xbca0	-0.01953125
188	0xbced	-0.028930664
189	0x3ccc	0.024902344
190	0xbb7e	-0.0038757324
191	0xbc2c	-0.010498047
192	0xbced	-0.028930664
193	0xbcde	-0.02709961
194	0x3d10	0.03515625
195	0xbd0e	-0.03466797
196	0x3cac	0.020996094
197	0x3cfa	0.030517578
198	0x3b80	0.00390625
199	0xbc22	-0.009887695
200	0x3c10	0.0087890625
201	0x3c12	0.008911133
202	0x3c80	0.015625
203	0xbcbe	-0.02319336
204	0xbc83	-0.015991211
205	0xbcd4	-0.025878906
206	0xbbb3	-0.0054626465
207	0xbc04	-0.008056641
208	0xbb8b	-0.0042419434
209	0x3c95	0.018188477
210	0xbcc8	-0.024414062
211	0x3d04	0.032226562
212	0xbcda	-0.026611328
213	0x3c94	0.018066406
214	0xbd0f	-0.03491211
215	0xbbb3	-0.0054626465
216	0x3d12	0.03564453
217	0x3cfc	0.030761719
218	0x3ca5	0.020141602
219	0xbb90	-0.0043945312
220	0x3ca0	0.01953125
221	0x3c49	0.012268066
222	0xbccb	-0.024780273
223	0x3c8f	0.017456055
224	0x3c84	0.016113281
225	0x3ca3	0.019897461
226	0xbb0f	-0.0021820068
227	0x3c3a	0.011352539
228	0x3cac	0.020996094
229	0x3cec	0.028808594
230	0xbd05	-0.032470703
231	0x3ca1	0.01965332
232	0xbcf0	-0.029296875
233	0xbcfe	-0.03100586
234	0x3c55	0.013000488
235	0xbc88	-0.016601562
236	0xbb86	-0.0040893555
237	0x3b81	0.0039367676
238	0xbc4e	-0.012573242
239	0x3cbf	0.02331543
240	0x3c4c	0.012451172
241	0xbca9	-0.020629883
242	0x3c90	0.017578125
243	0xbc7b	-0.015319824
244	0xbbbb	-0.005706787
245	0x3cfe	0.03100586
246	0xbc92	-0.017822266
247	0x3cca	0.024658203
248	0xbc00	-0.0078125
249	0xbd0d	-0.034423828
250	0xbcf1	-0.029418945
251	0xbc22	-0.009887695
252	0x3cbf	0.02331543
253	0xbb8e	-0.004333496
254	0xbbdc	-0.006713867
255	0xbb80	-0.00390625
