examples/research_projects/stack_llama/scripts/gpt2_peft_stack-exchange-paired_rmts__100000_2e-05/checkpoint-22500/adapter_model.safetensors (safetensors, 594496 bytes, 25 tensors)

base_model.model.score.weight bf16 [1, 768]
0.029296875 0.005645752 0.01928711 0.03149414 0.009887695 -0.030395508 -0.0053710938 0.011474609
0.006286621 -0.011352539 0.010864258 -0.011230469 0.012023926 0.047607422 0.033447266 -0.016723633
-0.010070801 -0.010192871 -0.008728027 0.02734375 -0.013427734 -0.00390625 0.017944336 -0.026733398
0.015319824 0.022949219 -0.011474609 0.01928711 0.040771484 0.011230469 -0.0028533936 -0.013977051
-0.009399414 -0.027832031 0.027709961 -0.012268066 0.05908203 0.013061523 -0.02709961 -0.029663086
0.01977539 0.023803711 -0.040283203 -0.031982422 -0.01928711 0.011230469 -0.013671875 -0.015014648
0.018432617 0.0073547363 0.0099487305 -0.028320312 0.0022888184 0.031982422 0.0061950684 -0.009765625
0.017578125 -0.028198242 0.0030212402 -0.017700195 0.0021209717 0.00390625 -0.022705078 0.0043640137
0.018798828 0.0079956055 0.010314941 0.021606445 -0.008483887 -0.028442383 -0.01159668 0.012512207
0.025512695 -0.0053100586 0.0018310547 0.0095825195 0.022094727 0.0005340576 0.0078125 0.020751953
0.020996094 -0.008117676 -0.022094727 -0.0021514893 -0.0063476562 -0.018554688 -0.018188477 -0.014221191
0.024414062 0.0060424805 0.005706787 -0.00390625 -0.013916016 0.0390625 0.02319336 0.001373291
0.002746582 0.01953125 -0.0020751953 0.010192871 -0.022705078 0.028442383 -0.017822266 0.010070801
0.025390625 0.0023040771 -0.01361084 0.022949219 0.0034179688 -0.008239746 -0.0006866455 -0.033935547
0.016845703 0.01159668 -0.041259766 -0.016479492 -0.012817383 0.010009766 0.014953613 -0.0042419434
0.010620117 -0.028930664 -0.013305664 0.0046691895 0.022216797 0.024414062 0.03881836 0.031982422
-0.00970459 0.018188477 -0.022460938 0.007293701 -0.022338867 -0.019042969 -0.0021514893 0.011108398
-0.027832031 0.022094727 -0.024414062 0.017822266 0.026000977 -0.0034637451 0.003250122 0.018554688
-0.033935547 0.010559082 -0.006378174 -0.026489258 0.029663086 -0.004180908 0.00390625 -0.024536133
0.012145996 0.018676758 -0.04248047 -0.003326416 0.018798828 -0.02331543 0.00390625 0.004272461
0.014709473 -0.013244629 0.011413574 0.013549805 -0.018188477 0.031982422 0.009399414 0.0045166016
-0.013000488 -0.0072631836 -0.026123047 0.037597656 -0.013977051 0.011474609 0.014831543 0.029907227
0.010559082 -0.003967285 0.003967285 -0.004699707 -0.012145996 0.012023926 0.0054016113 0.001953125
0.03173828 0.010253906 0.004058838 -0.017578125 -0.0008277893 0.016357422 0.00390625 -0.00390625
-0.0119018555 0.021850586 0.03173828 -0.022094727 0.03173828 -0.014709473 0.009460449 -0.008239746
0.003112793 0.0038604736 0.0026397705 0.024047852 -0.029663086 0.008300781 0.003616333 0.003753662
0.0025177002 -0.0022277832 0.0065307617 0.003692627 0.015319824 -0.01928711 0.033691406 0.003967285
-0.011108398 0.016235352 -0.0039978027 0.019165039 0.005859375 0.019165039 0.0028381348 -0.052490234
-0.008239746 0.02319336 -0.047851562 -0.013671875 -0.03125 -0.020507812 0.017211914 0.0065612793
-0.044921875 0.0095825195 -0.032470703 -0.0119018555 -0.017700195 0.009643555 0.012145996 -0.01550293
-0.02331543 0.017578125 0.022094727 0.021850586 -0.032470703 -0.0008544922 0.01361084 0.014709473
-0.022949219 -0.014465332 -0.004058838 -0.00390625 0.0053100586 0.017578125 -0.024658203 0.014099121
00000000: f03c b93b 9e3c 013d 223c f9bc b0bb 3c3c
00000010: ce3b 3abc 323c 38bc 453c 433d 093d 89bc
00000020: 25bc 27bc 0fbc e03c 5cbc 80bb 933c dbbc
00000030: 7b3c bc3c 3cbc 9e3c 273d 383c 3bbb 65bc
00000040: 1abc e4bc e33c 49bc 723d 563c debc f3bc
00000050: a23c c33c 25bd 03bd 9ebc 383c 60bc 76bc
00000060: 973c f13b 233c e8bc 163b 033d cb3b 20bc
00000070: 903c e7bc 463b 91bc 0b3b 803b babc 8f3b
00000080: 9a3c 033c 293c b13c 0bbc e9bc 3ebc 4d3c
00000090: d13c aebb f03a 1d3c b53c 0c3a 003c aa3c
000000a0: ac3c 05bc b5bc 0dbb d0bb 98bc 95bc 69bc
000000b0: c83c c63b bb3b 80bb 64bc 203d be3c b43a
000000c0: 343b a03c 08bb 273c babc e93c 92bc 253c
000000d0: d03c 173b 5fbc bc3c 603b 07bc 34ba 0bbd
000000e0: 8a3c 3e3c 29bd 87bc 52bc 243c 753c 8bbb
000000f0: 2e3c edbc 5abc 993b b63c c83c 1f3d 033d
00000100: 1fbc 953c b8bc ef3b b7bc 9cbc 0dbb 363c
00000110: e4bc b53c c8bc 923c d53c 63bb 553b 983c
00000120: 0bbd 2d3c d1bb d9bc f33c 89bb 803b c9bc
00000130: 473c 993c 2ebd 5abb 9a3c bfbc 803b 8c3b
00000140: 713c 59bc 3b3c 5e3c 95bc 033d 1a3c 943b
00000150: 55bc eebb d6bc 1a3d 65bc 3c3c 733c f53c
00000160: 2d3c 82bb 823b 9abb 47bc 453c b13b 003b
00000170: 023d 283c 853b 90bc 59ba 863c 803b 80bb
00000180: 43bc b33c 023d b5bc 023d 71bc 1b3c 07bc
00000190: 4c3b 7d3b 2d3b c53c f3bc 083c 6d3b 763b
000001a0: 253b 12bb d63b 723b 7b3c 9ebc 0a3d 823b
000001b0: 36bc 853c 83bb 9d3c c03b 9d3c 3a3b 57bd
000001c0: 07bc be3c 44bd 60bc 00bd a8bc 8d3c d73b
000001d0: 38bd 1d3c 05bd 43bc 91bc 1e3c 473c 7ebc
000001e0: bfbc 903c b53c b33c 05bd 60ba 5f3c 713c
000001f0: bcbc 6dbc 85bb 80bb ae3b 903c cabc 673c

base_model.model.transformer.h.0.attn.c_attn.lora_A.weight bf16 [8, 768]
-0.026123047 0.027954102 -0.028198242 -0.00390625 0.033691406 0.017578125 -0.005218506 0.015991211
0.0087890625 -0.011108398 -0.009399414 -0.010925293 -0.033203125 -0.0234375 0.0042419434 0.019165039
-0.028930664 0.026000977 0.032226562 -0.020141602 0.015563965 0.024169922 -0.018066406 0.017822266
0.032714844 0.02722168 -0.033691406 0.00390625 -0.0043640137 0.016479492 0.0043640137 -0.021728516
-0.033203125 -0.009399414 0.00390625 -0.023925781 0.013671875 -0.011413574 -0.011291504 -0.018798828
-0.024047852 0.02331543 0.027709961 0.0044555664 -0.018676758 -0.0019302368 -0.0074157715 0.016357422
-0.008056641 -0.01953125 0.022949219 -0.010681152 0.026733398 0.004333496 0.020996094 0.0025939941
-0.008239746 -0.00390625 -0.004119873 0.00390625 -0.003967285 0.016357422 0.0022888184 -0.0037384033
0.004547119 0.0050354004 0.033447266 0.009765625 0.03173828 0.014831543 0.024902344 -0.024902344
0.025512695 -0.01953125 0.0036773682 0.03173828 0.0036773682 0.019165039 -0.004211426 -0.024902344
0.028198242 -0.020141602 0.03515625 -0.0049438477 -0.015136719 -0.030029297 0.021362305 -0.029296875
-0.005004883 0.0021972656 0.014343262 -0.015197754 0.008911133 -0.026245117 0.0146484375 -0.010253906
0.020263672 0.032226562 0.032226562 -0.025634766 -0.031982422 0.012817383 -0.02331543 -0.005706787
0.016479492 0.01977539 -0.0069885254 0.022827148 -0.016113281 -0.0062561035 0.019897461 0.006378174
0.032226562 0.01928711 0.026733398 0.009765625 0.0038604736 -0.0079956055 0.028320312 -0.00390625
0.0040283203 -0.023071289 0.0027160645 0.0035095215 0.009460449 0.018432617 0.014343262 -0.034423828
-0.029785156 0.024658203 -0.03466797 0.018798828 0.0014953613 0.012878418 -0.026855469 0.01184082
-0.018066406 0.03564453 -0.014282227 -0.0070495605 -0.0020599365 0.009521484 -0.015380859 0.032226562
-0.020507812 0.00390625 0.011352539 -0.03515625 -0.029418945 0.022216797 0.03540039 0.017822266
-0.020141602 0.008361816 -0.03466797 0.0039367676 -0.025756836 -0.010864258 0.022216797 0.032470703
-0.012390137 0.024414062 -0.032958984 0.0043945312 0.014709473 -0.021362305 0.021118164 0.028076172
0.006225586 0.020385742 0.029663086 0.008361816 0.017700195 -0.004699707 -0.003967285 0.011413574
0.034179688 -0.029541016 0.02758789 0.009094238 -0.020629883 0.015380859 -0.0038452148 -0.011108398
0.032958984 0.0077209473 -0.028442383 0.030639648 -0.015563965 0.022583008 0.021484375 -0.007080078
0.033203125 0.003967285 0.025268555 0.020751953 -0.021484375 0.025756836 -0.009033203 -0.005493164
0.020507812 0.010192871 0.03540039 0.024291992 0.003967285 0.03515625 -0.012451172 -0.026855469
-0.014038086 -0.021118164 0.0033111572 -0.0138549805 -0.028564453 0.004058838 -0.016601562 -0.0028076172
-0.012329102 -0.017700195 0.03540039 0.005432129 -0.0046081543 -0.007080078 0.029785156 -0.02758789
0.026489258 0.035888672 -0.012573242 -0.01928711 0.01574707 0.031982422 -0.003967285 0.030395508
-0.009033203 -0.03540039 0.017944336 0.034423828 -0.009338379 -0.007659912 0.0079956055 0.032470703
0.032226562 -0.021118164 0.026245117 -0.016601562 -0.010131836 0.0073547363 0.026489258 -0.020507812
0.004547119 -0.022827148 -0.03173828 -0.018066406 -0.010253906 -0.024291992 -0.02709961 -0.0078125
00000000: d6bc e53c e7bc 80bb 0a3d 903c abbb 833c
00000010: 103c 36bc 1abc 33bc 08bd c0bc 8b3b 9d3c
00000020: edbc d53c 043d a5bc 7f3c c63c 94bc 923c
00000030: 063d df3c 0abd 803b 8fbb 873c 8f3b b2bc
00000040: 08bd 1abc 803b c4bc 603c 3bbc 39bc 9abc
00000050: c5bc bf3c e33c 923b 99bc fdba f3bb 863c
00000060: 04bc a0bc bc3c 2fbc db3c 8e3b ac3c 2a3b
00000070: 07bc 80bb 87bb 803b 82bb 863c 163b 75bb
00000080: 953b a53b 093d 203c 023d 733c cc3c ccbc
00000090: d13c a0bc 713b 023d 713b 9d3c 8abb ccbc
000000a0: e73c a5bc 103d a2bb 78bc f6bc af3c f0bc
000000b0: a4bb 103b 6b3c 79bc 123c d7bc 703c 28bc
000000c0: a63c 043d 043d d2bc 03bd 523c bfbc bbbb
000000d0: 873c a23c e5bb bb3c 84bc cdbb a33c d13b
000000e0: 043d 9e3c db3c 203c 7d3b 03bc e83c 80bb
000000f0: 843b bdbc 323b 663b 1b3c 973c 6b3c 0dbd
00000100: f4bc ca3c 0ebd 9a3c c43a 533c dcbc 423c
00000110: 94bc 123d 6abc e7bb 07bb 1c3c 7cbc 043d
00000120: a8bc 803b 3a3c 10bd f1bc b63c 113d 923c
00000130: a5bc 093c 0ebd 813b d3bc 32bc b63c 053d
00000140: 4bbc c83c 07bd 903b 713c afbc ad3c e63c
00000150: cc3b a73c f33c 093c 913c 9abb 82bb 3b3c
00000160: 0c3d f2bc e23c 153c a9bc 7c3c 7cbb 36bc
00000170: 073d fd3b e9bc fb3c 7fbc b93c b03c e8bb
00000180: 083d 823b cf3c aa3c b0bc d33c 14bc b4bb
00000190: a83c 273c 113d c73c 823b 103d 4cbc dcbc
000001a0: 66bc adbc 593b 63bc eabc 853b 88bc 38bb
000001b0: 4abc 91bc 113d b23b 97bb e8bb f43c e2bc
000001c0: d93c 133d 4ebc 9ebc 813c 033d 82bb f93c
000001d0: 14bc 11bd 933c 0d3d 19bc fbbb 033c 053d
000001e0: 043d adbc d73c 88bc 26bc f13b d93c a8bc
000001f0: 953b bbbc 02bd 94bc 28bc c7bc debc 00bc

base_model.model.transformer.h.0.attn.c_attn.lora_B.weight bf16 [2304, 8]
-0.0018615723 -0.0014572144 0.0008621216 0.00038528442 -0.001914978 -0.0016708374 0.001701355 0.0019073486
-0.0019378662 -0.00017166138 0.0008201599 0.0022125244 -0.00032043457 -0.001953125 -0.00031280518 0.001045227
0.0017318726 0.0023040771 0.0017623901 0.00089263916 0.0019989014 0.0014572144 -0.0017852783 -0.0011444092
0.0020141602 0.0010070801 -0.0007286072 0.0019073486 0.0020446777 -0.00037956238 -0.0017471313 -0.0011978149
-0.0014038086 -1.4841557e-05 0.0005874634 -0.0016326904 0.0006599426 0.0014419556 0.0009841919 -0.0006599426
-0.00093078613 0.001953125 0.0014801025 0.0009994507 -0.0010910034 -0.0014419556 -0.001121521 0.0002784729
0.0010681152 0.001449585 0.0012969971 0.0011520386 -0.00031471252 -0.0013122559 -0.0008392334 -0.0015335083
-0.00028419495 0.0010986328 -5.7458878e-05 0.00059890747 2.5868416e-05 -0.0018005371 -0.0005340576 -0.00077819824
-0.0017929077 -0.0014038086 0.00020503998 0.0009727478 0.0007247925 0.00065231323 0.0002593994 -0.0013198853
-0.00015640259 -0.0006752014 0.00092697144 -0.0018539429 -0.0012283325 -0.0007171631 -0.00091171265 0.00045394897
0.0006599426 -0.0019378662 -0.0019226074 0.0020141602 0.0015869141 -5.5789948e-05 -0.001953125 -0.0016784668
-0.0005455017 0.00063705444 0.0005722046 0.0014648438 -0.0019454956 -0.0007324219 0.00026130676 0.0009841919
0.0012054443 0.0006637573 -0.00062179565 0.0013961792 0.0017623901 -0.00043678284 -0.001625061 -0.0010986328
0.0010528564 0.0018463135 0.0009498596 -0.0010681152 0.00024795532 0.0011367798 -0.0011520386 -0.000705719
-0.0015640259 -0.0019836426 -0.0019226074 0.0017852783 0.00031089783 0.0015640259 0.001335144 -0.0005378723
0.0011291504 0.0019073486 0.0020751953 -2.1606684e-06 -0.0019683838 -0.0008277893 -0.0006942749 0.0012741089
-0.0009841919 -0.0005187988 0.0010375977 -0.0009994507 0.00046730042 0.0007286072 -0.0011138916 0.00019264221
-0.0012130737 -0.0021820068 -0.0011138916 -0.0016708374 0.00065231323 0.00031852722 0.0015411377 0.0016708374
-0.0007171631 0.0011367798 0.0017623901 -0.001914978 -0.0019454956 -0.0017166138 0.0005493164 0.0020141602
0.0010299683 0.0017700195 0.002029419 -0.002029419 -0.0017547607 -0.0016098022 0.00049591064 0.0009384155
-0.0018539429 -0.0021362305 -0.001083374 -0.0019302368 -0.0012130737 -0.0009689331 0.002166748 0.0015869141
-0.0012664795 -0.0015945435 0.0010757446 -0.0017929077 -0.0018692017 -0.0008506775 0.001953125 0.0008583069
-0.0010223389 -0.0022125244 0.0010223389 0.0017929077 -0.0015869141 -0.00033187866 0.0020599365 -8.773804e-05
0.00045585632 0.00093460083 0.0016098022 -0.00064086914 0.00010871887 0.0004825592 -0.001045227 -0.0012207031
0.001625061 0.0021362305 -0.0015716553 -0.0018844604 0.0012664795 0.0017852783 -0.0007362366 0.00077438354
-0.00032424927 -0.0018844604 -0.002380371 -0.00093460083 0.0015563965 -0.0015716553 0.0006713867 0.00014972687
0.00075149536 0.0012512207 0.0019836426 0.000333786 -0.00050735474 -0.0006713867 -0.0011138916 -0.0009689331
0.0009765625 -0.00062942505 0.0017089844 0.00061798096 -0.0016860962 -0.0011901855 -0.0011749268 -0.0010375977
0.0015716553 0.0012741089 0.0006942749 -0.0010223389 -0.0018081665 -0.0013809204 0.0016784668 0.0020599365
-0.0011825562 -0.0015182495 -0.0012664795 0.0015335083 0.0011367798 -0.0011367798 0.0010299683 0.0014190674
-6.818771e-05 -0.001449585 -0.0016174316 -0.0013961792 0.0018463135 0.0017242432 0.0012435913 -0.00046730042
0.001373291 -0.0010604858 0.0009765625 0.0017700195 -0.00063705444 -0.00075531006 -0.0012054443 0.00062561035
00000000: f4ba bfba 623a ca39 fbba dbba df3a fa3a
00000010: feba 34b9 573a 113b a8b9 00bb a4b9 893a
00000020: e33a 173b e73a 6a3a 033b bf3a eaba 96ba
00000030: 043b 843a 3fba fa3a 063b c7b9 e5ba 9dba
00000040: b8ba 79b7 1a3a d6ba 2d3a bd3a 813a 2dba
00000050: 74ba 003b c23a 833a 8fba bdba 93ba 9239
00000060: 8c3a be3a aa3a 973a a5b9 acba 5cba c9ba
00000070: 95b9 903a 71b8 1d3a d937 ecba 0cba 4cba
00000080: ebba b8ba 5739 7f3a 3e3a 2b3a 8839 adba
00000090: 24b9 31ba 733a f3ba a1ba 3cba 6fba ee39
000000a0: 2d3a feba fcba 043b d03a 6ab8 00bb dcba
000000b0: 0fba 273a 163a c03a ffba 40ba 8939 813a
000000c0: 9e3a 2e3a 23ba b73a e73a e5b9 d5ba 90ba
000000d0: 8a3a f23a 793a 8cba 8239 953a 97ba 39ba
000000e0: cdba 02bb fcba ea3a a339 cd3a af3a 0dba
000000f0: 943a fa3a 083b 11b6 01bb 59ba 36ba a73a
00000100: 81ba 08ba 883a 83ba f539 3f3a 92ba 4a39
00000110: 9fba 0fbb 92ba dbba 2b3a a739 ca3a db3a
00000120: 3cba 953a e73a fbba ffba e1ba 103a 043b
00000130: 873a e83a 053b 05bb e6ba d3ba 023a 763a
00000140: f3ba 0cbb 8eba fdba 9fba 7eba 0e3b d03a
00000150: a6ba d1ba 8d3a ebba f5ba 5fba 003b 613a
00000160: 86ba 11bb 863a eb3a d0ba aeb9 073b b8b8
00000170: ef39 753a d33a 28ba e438 fd39 89ba a0ba
00000180: d53a 0c3b ceba f7ba a63a ea3a 41ba 4b3a
00000190: aab9 f7ba 1cbb 75ba cc3a ceba 303a 1d39
000001a0: 453a a43a 023b af39 05ba 30ba 92ba 7eba
000001b0: 803a 25ba e03a 223a ddba 9cba 9aba 88ba
000001c0: ce3a a73a 363a 86ba edba b5ba dc3a 073b
000001d0: 9bba c7ba a6ba c93a 953a 95ba 873a ba3a
000001e0: 8fb8 beba d4ba b7ba f23a e23a a33a f5b9
000001f0: b43a 8bba 803a e83a 27ba 46ba 9eba 243a

base_model.model.transformer.h.1.attn.c_attn.lora_A.weight bf16 [8, 768]
0.02319336 0.020629883 -0.026245117 0.008117676 -0.033691406 0.021606445 -0.01953125 -0.010559082
-0.029052734 0.032226562 0.03564453 0.009155273 -0.00390625 -0.004058838 0.020507812 0.021850586
-0.010620117 0.0046081543 -0.0078125 0.025024414 0.011108398 -0.021118164 -0.01977539 0.016113281
0.013305664 -0.0107421875 -0.0075683594 -0.010070801 -0.01928711 0.0095825195 0.025634766 -0.014709473
0.011291504 -0.020751953 0.014404297 0.00491333 0.009155273 -0.008117676 0.033935547 -0.024658203
0.008178711 -0.033447266 0.028930664 0.010986328 -0.00491333 0.035888672 -0.020263672 0.029541016
0.005706787 0.016235352 0.014465332 -0.015991211 0.0064086914 -0.021972656 -0.016479492 0.021850586
0.017211914 -0.035888672 0.014343262 0.025390625 0.0029907227 -0.008361816 0.005126953 0.003326416
-0.012329102 0.015197754 0.025390625 0.03100586 -0.024047852 -0.008483887 0.03540039 0.01586914
-0.021362305 -0.0029144287 0.017944336 -0.015197754 -0.03173828 0.013916016 -0.02368164 -0.019042969
0.01574707 -0.004852295 -0.0078125 0.007171631 -0.021728516 -0.020263672 -0.004699707 0.030029297
0.023803711 0.009887695 -0.001953125 -0.0078125 0.004058838 0.005584717 0.0062561035 -0.034423828
0.019897461 -0.0034332275 0.018554688 0.03466797 0.03100586 0.017333984 -0.0038452148 -0.029174805
0.03564453 0.0078125 0.019897461 0.011108398 0.024047852 -0.024658203 -0.024047852 -0.0036468506
-0.034423828 -0.0010299683 -0.030517578 -0.012268066 -0.030273438 -0.010437012 0.023803711 -0.0054016113
0.009399414 -0.004547119 -0.0075683594 -0.030151367 -0.025268555 -0.025146484 0.017089844 0.0037231445
0.034423828 0.004211426 -0.024169922 0.020751953 -0.01977539 -0.028930664 -0.015258789 0.03125
0.012084961 0.03540039 -0.030151367 0.01171875 -0.032470703 0.01940918 0.026123047 -0.013366699
0.022827148 0.0154418945 0.011352539 -0.021972656 0.01550293 -0.01361084 0.0134887695 -0.014343262
0.023071289 0.013244629 -0.02355957 0.03515625 0.004180908 0.005645752 -0.036132812 0.017089844
0.02709961 -0.02319336 -0.020385742 -0.007659912 -0.017578125 -0.011413574 0.00680542 0.032226562
-0.006439209 -0.03173828 0.011169434 0.02319336 -0.032958984 0.016479492 0.032226562 -0.005340576
-0.021972656 0.0015258789 -0.033447266 -0.01184082 -0.013366699 -0.021972656 -0.033447266 -0.028930664
0.0063476562 0.0025787354 0.0057678223 0.02355957 -0.017456055 -0.014831543 0.014099121 -0.0015869141
0.033691406 -0.029296875 -0.0037078857 0.015380859 0.006225586 0.010986328 0.012084961 -0.032714844
0.032958984 0.0234375 -0.02355957 0.024902344 0.012329102 -0.012329102 0.0078125 0.0035095215
-0.004211426 0.011962891 0.025634766 0.03112793 -0.0014877319 0.011352539 0.01928711 0.01928711
-0.022460938 0.0046081543 0.03491211 0.03149414 0.018066406 0.009216309 0.021728516 0.033447266
0.003326416 0.028442383 0.030883789 -0.01574707 -0.0038604736 0.0146484375 -0.010925293 0.026611328
-0.027954102 -0.021484375 0.03515625 -0.02368164 0.028320312 0.032226562 0.015014648 0.008483887
-0.007019043 -0.0038604736 0.0037994385 -0.008422852 0.0016555786 0.010986328 0.016357422 0.027954102
0.014953613 0.027709961 0.008361816 0.008850098 0.0234375 0.0043029785 -0.024169922 -0.019897461
00000000: be3c a93c d7bc 053c 0abd b13c a0bc 2dbc
00000010: eebc 043d 123d 163c 80bb 85bb a83c b33c
00000020: 2ebc 973b 00bc cd3c 363c adbc a2bc 843c
00000030: 5a3c 30bc f8bb 25bc 9ebc 1d3c d23c 71bc
00000040: 393c aabc 6c3c a13b 163c 05bc 0b3d cabc
00000050: 063c 09bd ed3c 343c a1bb 133d a6bc f23c
00000060: bb3b 853c 6d3c 83bc d23b b4bc 87bc b33c
00000070: 8d3c 13bd 6b3c d03c 443b 09bc a83b 5a3b
00000080: 4abc 793c d03c fe3c c5bc 0bbc 113d 823c
00000090: afbc 3fbb 933c 79bc 02bd 643c c2bc 9cbc
000000a0: 813c 9fbb 00bc eb3b b2bc a6bc 9abb f63c
000000b0: c33c 223c 00bb 00bc 853b b73b cd3b 0dbd
000000c0: a33c 61bb 983c 0e3d fe3c 8e3c 7cbb efbc
000000d0: 123d 003c a33c 363c c53c cabc c5bc 6fbb
000000e0: 0dbd 87ba fabc 49bc f8bc 2bbc c33c b1bb
000000f0: 1a3c 95bb f8bb f7bc cfbc cebc 8c3c 743b
00000100: 0d3d 8a3b c6bc aa3c a2bc edbc 7abc 003d
00000110: 463c 113d f7bc 403c 05bd 9f3c d63c 5bbc
00000120: bb3c 7d3c 3a3c b4bc 7e3c 5fbc 5d3c 6bbc
00000130: bd3c 593c c1bc 103d 893b b93b 14bd 8c3c
00000140: de3c bebc a7bc fbbb 90bc 3bbc df3b 043d
00000150: d3bb 02bd 373c be3c 07bd 873c 043d afbb
00000160: b4bc c83a 09bd 42bc 5bbc b4bc 09bd edbc
00000170: d03b 293b bd3b c13c 8fbc 73bc 673c d0ba
00000180: 0a3d f0bc 73bb 7c3c cc3b 343c 463c 06bd
00000190: 073d c03c c1bc cc3c 4a3c 4abc 003c 663b
000001a0: 8abb 443c d23c ff3c c3ba 3a3c 9e3c 9e3c
000001b0: b8bc 973b 0f3d 013d 943c 173c b23c 093d
000001c0: 5a3b e93c fd3c 81bc 7dbb 703c 33bc da3c
000001d0: e5bc b0bc 103d c2bc e83c 043d 763c 0b3c
000001e0: e6bb 7dbb 793b 0abc d93a 343c 863c e53c
000001f0: 753c e33c 093c 113c c03c 8d3b c6bc a3bc

base_model.model.transformer.h.1.attn.c_attn.lora_B.weight bf16 [2304, 8]
-0.0012817383 -0.0012207031 -4.708767e-06 -0.000111579895 -0.00037574768 -0.0011749268 -0.00065231323 -0.0013504028
0.0011291504 0.0019302368 0.00075149536 -0.00029563904 0.00060653687 -0.0013122559 0.00013446808 0.001953125
-0.0013580322 -0.002029419 0.001159668 -0.0013198853 -0.00064468384 -0.0015792847 0.001045227 -0.0009841919
-0.00078964233 0.0001707077 0.00023078918 -3.3825636e-06 0.0019302368 -0.0008049011 -0.0005836487 0.001953125
-0.00012683868 0.0011520386 -0.0015029907 0.00045776367 0.00037574768 -0.0012054443 -0.0017623901 0.0011062622
-0.00061035156 -0.001045227 0.0021972656 -0.0005645752 -0.0006904602 0.0010147095 0.0016174316 0.00061416626
-0.0010223389 -0.0011978149 -0.0016098022 -0.0008430481 -0.0018844604 -0.0021209717 -0.00088119507 0.0010375977
-0.0003566742 -0.0019302368 -0.00045394897 -0.0019683838 -0.00046157837 -0.0011978149 -0.00063323975 -0.0016937256
0.0012893677 0.00064849854 0.000289917 0.0007247925 -0.0017318726 0.0013275146 -0.00015544891 -0.0021362305
0.0017471313 0.0021972656 0.0011444092 0.0020599365 0.0019226074 0.001953125 0.00037765503 0.0019683838
-0.0007362366 -0.00020217896 0.0019683838 0.0010147095 0.0018920898 0.00016784668 0.0017623901 0.002029419
0.0020141602 0.0017089844 -0.0003299713 0.0010375977 0.0005378723 0.0018997192 -0.0003414154 -0.0017242432
0.0019302368 0.0012054443 -0.002090454 0.00023841858 -0.0018692017 0.0013504028 0.00039863586 -0.0019836426
-0.00064086914 -0.00062942505 -0.00015354156 -0.0008392334 0.0008583069 -0.0015106201 0.0013809204 0.0007095337
0.0004310608 -0.0018310547 -0.0009460449 -0.0011520386 0.0006942749 -0.0009841919 -0.0014266968 0.0013198853
-0.0011138916 -0.0005569458 -0.0006904602 0.00030326843 -0.00031661987 -0.0008392334 -0.0011444092 -0.00030708313
0.0008506775 9.775162e-05 -0.00023651123 0.0017547607 0.0020599365 0.00047302246 0.00037574768 -0.0015258789
0.0012817383 0.0012207031 -0.0018692017 -0.00022029877 -0.0011062622 -0.0003528595 0.0007133484 -0.0018920898
-0.00061035156 0.001953125 0.0019378662 0.0014724731 0.0018005371 0.0020446777 -0.00025558472 0.0019989014
4.7683716e-05 -0.0021209717 -0.0009536743 -0.00091171265 0.0013885498 -0.0011672974 -0.0011444092 0.0014343262
-0.00051116943 -0.0023956299 -0.0010528564 -0.0017547607 -0.0012969971 -0.00049591064 -0.0010299683 0.001701355
-0.0017623901 -0.002090454 -0.0019378662 -0.0013122559 -0.0009460449 -0.0016860962 0.00063323975 -0.0012893677
-0.0019989014 -0.0020751953 -0.0019073486 -0.0021209717 -0.0021972656 -0.001953125 -0.001121521 -0.0021362305
0.0010147095 0.0005569458 -0.001876831 -0.00078964233 -0.0016708374 0.0012741089 -0.001121521 -0.00046920776
0.00090408325 0.0025024414 0.0005836487 0.002029419 0.0021514893 0.0020446777 -0.00063705444 0.0023956299
-0.0017700195 -0.002105713 -0.0012054443 -0.0012359619 -0.0008430481 -0.0013656616 -0.00038337708 -0.0003299713
0.00031661987 -0.00089263916 0.0020599365 0.0012130737 0.0018310547 0.00076675415 0.0020446777 -0.0011444092
-0.0019836426 0.00022697449 -0.00061798096 -0.001335144 -0.0018081665 -0.0019073486 -0.001701355 0.0006713867
0.0009994507 0.0015945435 2.014637e-05 -0.0003681183 0.0007324219 0.0015487671 0.0012893677 0.0015792847
0.0016479492 0.0014877319 0.0018692017 0.0019454956 0.0018692017 0.00061416626 0.0017318726 0.0019683838
0.00042152405 0.0019073486 0.0019836426 0.0017242432 0.002319336 0.0021362305 0.0003414154 0.0021209717
-0.00075531006 -0.00077056885 -0.0005569458 -0.00091171265 -0.00022506714 -0.0010223389 -0.0006866455 0.00043678284
00000000: a8ba a0ba 9eb6 eab8 c5b9 9aba 2bba b1ba
00000010: 943a fd3a 453a 9bb9 1f3a acba 0d39 003b
00000020: b2ba 05bb 983a adba 29ba cfba 893a 81ba
00000030: 4fba 3339 7239 63b6 fd3a 53ba 19ba 003b
00000040: 05b9 973a c5ba f039 c539 9eba e7ba 913a
00000050: 20ba 89ba 103b 14ba 35ba 853a d43a 213a
00000060: 86ba 9dba d3ba 5dba f7ba 0bbb 67ba 883a
00000070: bbb9 fdba eeb9 01bb f2b9 9dba 26ba deba
00000080: a93a 2a3a 9839 3e3a e3ba ae3a 23b9 0cbb
00000090: e53a 103b 963a 073b fc3a 003b c639 013b
000000a0: 41ba 54b9 013b 853a f83a 3039 e73a 053b
000000b0: 043b e03a adb9 883a 0d3a f93a b3b9 e2ba
000000c0: fd3a 9e3a 09bb 7a39 f5ba b13a d139 02bb
000000d0: 28ba 25ba 21b9 5cba 613a c6ba b53a 3a3a
000000e0: e239 f0ba 78ba 97ba 363a 81ba bbba ad3a
000000f0: 92ba 12ba 35ba 9f39 a6b9 5cba 96ba a1b9
00000100: 5f3a cd38 78b9 e63a 073b f839 c539 c8ba
00000110: a83a a03a f5ba 67b9 91ba b9b9 3b3a f8ba
00000120: 20ba 003b fe3a c13a ec3a 063b 86b9 033b
00000130: 4838 0bbb 7aba 6fba b63a 99ba 96ba bc3a
00000140: 06ba 1dbb 8aba e6ba aaba 02ba 87ba df3a
00000150: e7ba 09bb feba acba 78ba ddba 263a a9ba
00000160: 03bb 08bb faba 0bbb 10bb 00bb 93ba 0cbb
00000170: 853a 123a f6ba 4fba dbba a73a 93ba f6b9
00000180: 6d3a 243b 193a 053b 0d3b 063b 27ba 1d3b
00000190: e8ba 0abb 9eba a2ba 5dba b3ba c9b9 adb9
000001a0: a639 6aba 073b 9f3a f03a 493a 063b 96ba
000001b0: 02bb 6e39 22ba afba edba faba dfba 303a
000001c0: 833a d13a a937 c1b9 403a cb3a a93a cf3a
000001d0: d83a c33a f53a ff3a f53a 213a e33a 013b
000001e0: dd39 fa3a 023b e23a 183b 0c3b b339 0b3b
000001f0: 46ba 4aba 12ba 6fba 6cb9 86ba 34ba e539

base_model.model.transformer.h.10.attn.c_attn.lora_A.weight bf16 [8, 768]
-0.014770508 -0.030273438 0.017578125 0.0126953125 0.0067749023 -0.0071105957 -0.03564453 -0.020507812
-0.011230469 0.020629883 -0.0039978027 -0.0078125 -0.005279541 -0.004058838 -0.0038146973 -0.022216797
-0.032714844 0.021972656 -0.028564453 -0.00390625 0.0041503906 -0.0078125 0.026611328 -0.025878906
-0.034179688 -0.004852295 0.023925781 0.018798828 0.014587402 0.010620117 0.013916016 0.0076904297
0.03125 -0.018188477 0.0065307617 0.033935547 -0.026977539 -0.014343262 -0.018676758 0.032714844
-0.033691406 -0.020507812 -0.032470703 -0.0052490234 -0.002609253 0.020019531 0.024047852 -0.011413574
0.017700195 0.022338867 -0.017578125 -0.028808594 0.02722168 0.013916016 0.029541016 -0.022216797
-0.023071289 -0.008178711 -0.0134887695 0.02758789 -0.007537842 -0.021606445 -0.016235352 0.03466797
0.014221191 -0.03540039 0.0070495605 -0.030761719 -0.017578125 -0.026000977 -0.022216797 0.01965332
0.0071105957 -0.020507812 0.03466797 -0.0078125 0.004211426 0.016113281 0.01586914 -0.01940918
-0.0047302246 -0.012390137 0.0077819824 0.02355957 -0.013793945 -0.026977539 0.018920898 0.005706787
0.02734375 0.01965332 0.033935547 0.009338379 -0.020019531 -0.025024414 0.00390625 0.013977051
0.032470703 0.023071289 -0.033691406 -0.0138549805 0.01953125 0.026489258 0.020263672 0.0024261475
-0.002456665 -0.021484375 -0.030395508 -0.012817383 0.030517578 -0.0047912598 -0.021484375 0.0077209473
0.005645752 -0.018066406 0.016479492 -0.013061523 -0.020263672 0.00390625 0.033203125 0.0055236816
0.028930664 -0.03100586 -0.032470703 0.0053710938 0.007507324 -0.026367188 -0.025634766 -0.025024414
0.017944336 -0.013305664 -0.033935547 0.0025024414 -0.03515625 -0.0019683838 0.03491211 -0.013305664
-0.009765625 0.032470703 -0.022949219 -0.010314941 0.02355957 0.01574707 0.035888672 0.0053710938
-0.022460938 0.021972656 0.031982422 -0.006958008 -0.020874023 -0.018188477 -0.032714844 -0.004058838
-0.018066406 0.026977539 0.024414062 -0.028442383 0.02758789 0.028930664 0.030029297 0.0070495605
0.011047363 -0.0008735657 -0.011230469 0.0078125 -0.016845703 -0.024780273 0.012756348 0.026855469
0.012817383 -0.0051879883 0.0038604736 0.021972656 -0.03515625 0.025024414 0.0078125 -0.008728027
0.0077819824 0.03491211 0.013061523 0.030151367 0.0039367676 0.020019531 -0.009460449 -0.023071289
-0.005493164 0.009460449 0.009460449 0.005279541 0.0078125 0.004333496 0.011108398 0.0095825195
0.033203125 -0.036132812 0.03540039 0.013977051 0.012268066 0.01940918 -0.014404297 0.008728027
0.018066406 0.009399414 0.003692627 -0.029785156 0.015258789 -0.033935547 -0.022460938 -0.029052734
0.00390625 -0.03100586 -0.005279541 0.00390625 0.03100586 0.021606445 0.010070801 0.000869751
-0.005218506 0.028442383 -0.012084961 -0.02368164 -0.018798828 -0.028564453 -0.007293701 0.0078125
-0.03466797 -0.020141602 0.017211914 0.030273438 0.01159668 -0.02709961 0.028442383 0.029174805
-0.028076172 -0.0078125 0.014404297 -0.0078125 -0.016479492 -0.03491211 -0.020385742 -0.028076172
-0.01373291 -0.025512695 -0.013427734 -0.0078125 0.0052490234 -0.010437012 0.016479492 0.0234375
-0.028320312 -0.020751953 0.020507812 -0.021362305 -0.03149414 0.015258789 -0.026489258 -0.004425049
00000000: 72bc f8bc 903c 503c de3b e9bb 12bd a8bc
00000010: 38bc a93c 83bb 00bc adbb 85bb 7abb b6bc
00000020: 06bd b43c eabc 80bb 883b 00bc da3c d4bc
00000030: 0cbd 9fbb c43c 9a3c 6f3c 2e3c 643c fc3b
00000040: 003d 95bc d63b 0b3d ddbc 6bbc 99bc 063d
00000050: 0abd a8bc 05bd acbb 2bbb a43c c53c 3bbc
00000060: 913c b73c 90bc ecbc df3c 643c f23c b6bc
00000070: bdbc 06bc 5dbc e23c f7bb b1bc 85bc 0e3d
00000080: 693c 11bd e73b fcbc 90bc d5bc b6bc a13c
00000090: e93b a8bc 0e3d 00bc 8a3b 843c 823c 9fbc
000000a0: 9bbb 4bbc ff3b c13c 62bc ddbc 9b3c bb3b
000000b0: e03c a13c 0b3d 193c a4bc cdbc 803b 653c
000000c0: 053d bd3c 0abd 63bc a03c d93c a63c 1f3b
000000d0: 21bb b0bc f9bc 52bc fa3c 9dbb b0bc fd3b
000000e0: b93b 94bc 873c 56bc a6bc 803b 083d b53b
000000f0: ed3c febc 05bd b03b f63b d8bc d2bc cdbc
00000100: 933c 5abc 0bbd 243b 10bd 01bb 0f3d 5abc
00000110: 20bc 053d bcbc 29bc c13c 813c 133d b03b
00000120: b8bc b43c 033d e4bb abbc 95bc 06bd 85bb
00000130: 94bc dd3c c83c e9bc e23c ed3c f63c e73b
00000140: 353c 65ba 38bc 003c 8abc cbbc 513c dc3c
00000150: 523c aabb 7d3b b43c 10bd cd3c 003c 0fbc
00000160: ff3b 0f3d 563c f73c 813b a43c 1bbc bdbc
00000170: b4bb 1b3c 1b3c ad3b 003c 8e3b 363c 1d3c
00000180: 083d 14bd 113d 653c 493c 9f3c 6cbc 0f3c
00000190: 943c 1a3c 723b f4bc 7a3c 0bbd b8bc eebc
000001a0: 803b febc adbb 803b fe3c b13c 253c 643a
000001b0: abbb e93c 46bc c2bc 9abc eabc efbb 003c
000001c0: 0ebd a5bc 8d3c f83c 3e3c debc e93c ef3c
000001d0: e6bc 00bc 6c3c 00bc 87bc 0fbd a7bc e6bc
000001e0: 61bc d1bc 5cbc 00bc ac3b 2bbc 873c c03c
000001f0: e8bc aabc a83c afbc 01bd 7a3c d9bc 91bb

base_model.model.transformer.h.10.attn.c_attn.lora_B.weight bf16 [2304, 8]
0.0024719238 -0.0027313232 0.0020751953 0.0030975342 0.0022125244 -0.0026245117 0.0034637451 -0.002105713
0.0022125244 -0.002532959 0.0022583008 0.002105713 0.0028076172 -0.0020141602 0.0020446777 -0.0020599365
-0.0028381348 0.0030059814 -0.001953125 -0.0035095215 -0.0030822754 0.0031433105 -0.0026397705 0.0020446777
-0.0021209717 0.002670288 -0.0034942627 -0.002670288 -0.002609253 0.002380371 -0.0025787354 0.0026397705
0.0012817383 0.0019683838 -0.0017471313 -0.0011367798 -0.0014419556 0.0016708374 -0.0012588501 0.0018539429
-0.003036499 0.0037078857 -0.00390625 -0.00390625 -0.0029296875 0.0039367676 -0.0038909912 0.00390625
-0.0026397705 0.0029907227 -0.003540039 -0.0029144287 -0.00289917 0.002105713 -0.0031280518 0.0026855469
0.0013504028 -0.0016403198 0.0012588501 0.0017471313 0.0011520386 -0.002746582 0.0024261475 -0.0019226074
0.0030517578 -0.003250122 0.002822876 0.0033111572 0.0027923584 -0.0032958984 0.0033721924 -0.002105713
0.00390625 -0.0039978027 0.00390625 0.003967285 0.0038757324 -0.00390625 0.0039978027 -0.00390625
-0.00390625 0.0028839111 -0.002029419 -0.0038604736 -0.0032653809 0.003829956 -0.00390625 0.0031433105
0.0028686523 -0.0033569336 0.0037231445 0.0036773682 0.003250122 -0.003036499 0.00340271 -0.0038604736
0.0021972656 -0.0022277832 0.0025482178 0.0026397705 0.0024719238 -0.0021362305 0.003112793 -0.0026855469
-0.002105713 0.0019836426 -0.0022125244 -0.0025787354 -0.0018692017 0.0024871826 -0.0027008057 0.0026550293
-0.0030517578 0.0033874512 -0.00390625 -0.00390625 -0.003189087 0.0038909912 -0.00390625 0.00390625
0.0034637451 -0.0038452148 0.0038757324 0.00390625 0.00390625 -0.00390625 0.00390625 -0.003967285
0.002090454 -0.002960205 0.0033721924 0.0036468506 0.0025482178 -0.0032653809 0.002380371 -0.0025634766
-0.0035858154 0.003692627 -0.00390625 -0.00390625 -0.0032043457 0.003540039 -0.0039367676 0.00390625
0.0028533936 -0.0034637451 0.00390625 0.00390625 0.0030975342 -0.003479004 0.0034637451 -0.0034637451
0.001335144 0.002166748 -0.00289917 -0.0018844604 -0.0018844604 0.0019226074 -0.0019683838 0.0019836426
0.0037078857 -0.0039978027 0.00390625 0.0039367676 0.0036773682 -0.00390625 0.00390625 -0.00390625
0.0035095215 -0.0017166138 0.0025482178 0.0037841797 0.0031585693 -0.002090454 0.0034484863 -0.003326416
0.0022125244 0.0015869141 -0.0021972656 0.0018692017 0.002166748 0.001953125 0.0005226135 0.0013275146
0.0028839111 -0.00340271 0.0023651123 0.0035705566 0.0027770996 -0.0024261475 0.0037841797 -0.0021362305
-0.0033569336 -0.0019073486 0.001953125 -0.0028533936 0.0017547607 0.0019073486 -0.002670288 0.001953125
0.0026397705 -0.002670288 0.003479004 0.0034179688 0.0025939941 -0.0023956299 0.0035705566 -0.0038452148
0.002166748 -0.0019989014 0.0019836426 0.001914978 0.0019073486 -0.0020446777 0.0019836426 -0.0022583008
-0.003967285 0.0038604736 -0.0040283203 -0.0040283203 -0.0035705566 0.00390625 -0.0039367676 0.0038452148
-0.0010681152 0.00061798096 -0.00049591064 -0.00089263916 -0.0015487671 -0.0008277893 -0.0012435913 0.0007247925
0.00050735474 -0.0012969971 -0.0016326904 -0.0010070801 -0.0015945435 -0.00012588501 -0.00037574768 0.0011672974
0.003967285 -0.003967285 0.00390625 0.003967285 0.0038757324 -0.00390625 0.003967285 -0.0039978027
-0.003250122 0.003036499 -0.0038757324 -0.00390625 -0.00289917 0.0031738281 -0.0038452148 0.0038452148
00000000: 223b 33bb 083b 4b3b 113b 2cbb 633b 0abb
00000010: 113b 26bb 143b 0a3b 383b 04bb 063b 07bb
00000020: 3abb 453b 00bb 66bb 4abb 4e3b 2dbb 063b
00000030: 0bbb 2f3b 65bb 2fbb 2bbb 1c3b 29bb 2d3b
00000040: a83a 013b e5ba 95ba bdba db3a a5ba f33a
00000050: 47bb 733b 80bb 80bb 40bb 813b 7fbb 803b
00000060: 2dbb 443b 68bb 3fbb 3ebb 0a3b 4dbb 303b
00000070: b13a d7ba a53a e53a 973a 34bb 1f3b fcba
00000080: 483b 55bb 393b 593b 373b 58bb 5d3b 0abb
00000090: 803b 83bb 803b 823b 7e3b 80bb 833b 80bb
000000a0: 80bb 3d3b 05bb 7dbb 56bb 7b3b 80bb 4e3b
000000b0: 3c3b 5cbb 743b 713b 553b 47bb 5f3b 7dbb
000000c0: 103b 12bb 273b 2d3b 223b 0cbb 4c3b 30bb
000000d0: 0abb 023b 11bb 29bb f5ba 233b 31bb 2e3b
000000e0: 48bb 5e3b 80bb 80bb 51bb 7f3b 80bb 803b
000000f0: 633b 7cbb 7e3b 803b 803b 80bb 803b 82bb
00000100: 093b 42bb 5d3b 6f3b 273b 56bb 1c3b 28bb
00000110: 6bbb 723b 80bb 80bb 52bb 683b 81bb 803b
00000120: 3b3b 63bb 803b 803b 4b3b 64bb 633b 63bb
00000130: af3a 0e3b 3ebb f7ba f7ba fc3a 01bb 023b
00000140: 733b 83bb 803b 813b 713b 80bb 803b 80bb
00000150: 663b e1ba 273b 783b 4f3b 09bb 623b 5abb
00000160: 113b d03a 10bb f53a 0e3b 003b 093a ae3a
00000170: 3d3b 5fbb 1b3b 6a3b 363b 1fbb 783b 0cbb
00000180: 5cbb faba 003b 3bbb e63a fa3a 2fbb 003b
00000190: 2d3b 2fbb 643b 603b 2a3b 1dbb 6a3b 7cbb
000001a0: 0e3b 03bb 023b fb3a fa3a 06bb 023b 14bb
000001b0: 82bb 7d3b 84bb 84bb 6abb 803b 81bb 7c3b
000001c0: 8cba 223a 02ba 6aba cbba 59ba a3ba 3e3a
000001d0: 053a aaba d6ba 84ba d1ba 04b9 c5b9 993a
000001e0: 823b 82bb 803b 823b 7e3b 80bb 823b 83bb
000001f0: 55bb 473b 7ebb 80bb 3ebb 503b 7cbb 7c3b

base_model.model.transformer.h.11.attn.c_attn.lora_A.weight bf16 [8, 768]
0.03564453 0.008728027 0.008605957 -0.015197754 -0.014099121 -0.026000977 -0.00390625 0.0078125
-0.017333984 0.0078125 0.018676758 -0.010009766 0.0069274902 -0.020141602 -0.0067443848 0.020263672
-0.0234375 -0.020019531 -0.004119873 -0.033447266 0.018554688 0.0078125 0.004119873 -0.008178711
-0.032226562 0.0078125 -0.02709961 0.029907227 -0.004425049 -0.020629883 -0.015380859 0.013671875
0.033203125 -0.03173828 -0.004119873 0.024902344 0.026611328 0.022216797 -0.00017642975 -0.02746582
-0.0023040771 -0.024047852 -0.032714844 -0.028564453 -0.018920898 0.027709961 -0.025146484 -0.005004883
0.022216797 -0.03515625 0.017700195 -0.020263672 -0.0078125 0.0020141602 -0.013183594 0.014160156
0.0043640137 0.032714844 -0.010009766 0.027954102 0.026489258 0.0154418945 -0.014770508 0.026245117
0.013916016 -0.022949219 0.032226562 0.008911133 0.02368164 0.021362305 0.01940918 0.004699707
0.0059509277 0.01965332 -0.01171875 0.033691406 -0.0064086914 -0.02746582 -0.005004883 0.030395508
-0.03564453 0.004425049 -0.021240234 0.02722168 0.014953613 0.017089844 0.0078125 -0.008361816
0.026611328 0.02758789 -0.0039367676 0.0078125 0.034423828 0.0069274902 -0.030029297 0.00390625
-0.03112793 0.024047852 0.029541016 -0.008117676 -0.004211426 -0.03466797 -0.02746582 0.021362305
-0.024169922 -0.017578125 -0.015075684 -0.0057678223 0.017089844 0.032958984 -0.029907227 0.01574707
-0.014282227 -0.0052490234 0.015991211 -0.01965332 -0.028442383 -0.009216309 0.007873535 -0.019897461
0.008911133 -0.032226562 0.006713867 0.01928711 0.012145996 -0.026123047 -0.0115356445 -0.021850586
-0.018920898 -0.014404297 -0.0078125 0.009765625 -0.0078125 0.015991211 0.010681152 0.009033203
0.018920898 0.021850586 0.010620117 0.030273438 -0.02331543 -0.010498047 0.014221191 -0.019897461
0.0078125 -0.011108398 0.02722168 0.005004883 -0.010192871 0.0073547363 -0.03515625 0.026367188
0.012939453 -0.029296875 0.029541016 0.035888672 0.0234375 -0.0099487305 -0.017333984 -0.03564453
-0.020019531 0.02746582 -0.035888672 0.020141602 -0.03564453 0.018676758 -0.0038909912 0.02758789
0.0077819824 0.03515625 0.004333496 -0.014526367 0.022460938 -0.004699707 -0.025268555 -0.011352539
-0.004486084 -0.026123047 -0.024414062 0.014709473 0.02355957 0.014282227 0.022827148 -0.018066406
0.010009766 -0.0078125 -0.003250122 -0.01953125 -0.028930664 0.024902344 -0.0038909912 -0.010498047
-0.028930664 -0.02709961 0.03515625 -0.03466797 0.020996094 0.030517578 0.00390625 -0.009887695
0.0087890625 0.008911133 0.015625 -0.02319336 -0.015991211 -0.025878906 -0.0054626465 -0.008056641
-0.0042419434 0.018188477 -0.024414062 0.032226562 -0.026611328 0.018066406 -0.03491211 -0.0054626465
0.03564453 0.030761719 0.020141602 -0.0043945312 0.01953125 0.012268066 -0.024780273 0.017456055
0.016113281 0.019897461 -0.0021820068 0.011352539 0.020996094 0.028808594 -0.032470703 0.01965332
-0.029296875 -0.03100586 0.013000488 -0.016601562 -0.0040893555 0.0039367676 -0.012573242 0.02331543
0.012451172 -0.020629883 0.017578125 -0.015319824 -0.005706787 0.03100586 -0.017822266 0.024658203
-0.0078125 -0.034423828 -0.029418945 -0.009887695 0.02331543 -0.004333496 -0.006713867 -0.00390625
00000000: 123d 0f3c 0d3c 79bc 67bc d5bc 80bb 003c
00000010: 8ebc 003c 993c 24bc e33b a5bc ddbb a63c
00000020: c0bc a4bc 87bb 09bd 983c 003c 873b 06bc
00000030: 04bd 003c debc f53c 91bb a9bc 7cbc 603c
00000040: 083d 02bd 87bb cc3c da3c b63c 39b9 e1bc
00000050: 17bb c5bc 06bd eabc 9bbc e33c cebc a4bb
00000060: b63c 10bd 913c a6bc 00bc 043b 58bc 683c
00000070: 8f3b 063d 24bc e53c d93c 7d3c 72bc d73c
00000080: 643c bcbc 043d 123c c23c af3c 9f3c 9a3b
00000090: c33b a13c 40bc 0a3d d2bb e1bc a4bb f93c
000000a0: 12bd 913b aebc df3c 753c 8c3c 003c 09bc
000000b0: da3c e23c 81bb 003c 0d3d e33b f6bc 803b
000000c0: ffbc c53c f23c 05bc 8abb 0ebd e1bc af3c
000000d0: c6bc 90bc 77bc bdbb 8c3c 073d f5bc 813c
000000e0: 6abc acbb 833c a1bc e9bc 17bc 013c a3bc
000000f0: 123c 04bd dc3b 9e3c 473c d6bc 3dbc b3bc
00000100: 9bbc 6cbc 00bc 203c 00bc 833c 2f3c 143c
00000110: 9b3c b33c 2e3c f83c bfbc 2cbc 693c a3bc
00000120: 003c 36bc df3c a43b 27bc f13b 10bd d83c
00000130: 543c f0bc f23c 133d c03c 23bc 8ebc 12bd
00000140: a4bc e13c 13bd a53c 12bd 993c 7fbb e23c
00000150: ff3b 103d 8e3b 6ebc b83c 9abb cfbc 3abc
00000160: 93bb d6bc c8bc 713c c13c 6a3c bb3c 94bc
00000170: 243c 00bc 55bb a0bc edbc cc3c 7fbb 2cbc
00000180: edbc debc 103d 0ebd ac3c fa3c 803b 22bc
00000190: 103c 123c 803c bebc 83bc d4bc b3bb 04bc
000001a0: 8bbb 953c c8bc 043d dabc 943c 0fbd b3bb
000001b0: 123d fc3c a53c 90bb a03c 493c cbbc 8f3c
000001c0: 843c a33c 0fbb 3a3c ac3c ec3c 05bd a13c
000001d0: f0bc febc 553c 88bc 86bb 813b 4ebc bf3c
000001e0: 4c3c a9bc 903c 7bbc bbbb fe3c 92bc ca3c
000001f0: 00bc 0dbd f1bc 22bc bf3c 8ebb dcbb 80bb

base_model.model.transformer.h.11.attn.c_attn.lora_B.weight bf16 [2304, 8]
-0.0002822876 -0.0030212402 0.003326416 0.0030517578 -0.00024604797 -0.0038909912 -0.0029907227 0.0037078857
-0.002105713 -0.0029449463 0.0030822754 0.0033721924 0.00026893616 -0.00340271 -0.003326416 0.0033416748
-0.0012893677 -0.002243042 0.001914978 -0.0008125305 0.002029419 -0.0012054443 -0.0028076172 0.0015792847
0.0028381348 -0.0022735596 -0.0030212402 -0.0022735596 -0.0020141602 0.002166748 0.0022888184 -0.0033721924
0.0019836426 0.001953125 -0.0027923584 -0.002319336 -0.0024108887 0.0023345947 0.002746582 -0.0025024414
-0.00011396408 0.00390625 -0.0027313232 -0.00390625 0.0033721924 0.00390625 0.0024871826 -0.00390625
-0.0040893555 0.0019302368 0.0043029785 0.002822876 0.00390625 -0.00390625 -0.0039978027 0.003967285
-0.0019836426 -0.0019683838 0.0022735596 0.0019836426 -3.671646e-05 -0.0025024414 -0.0025024414 0.0025634766
0.0011901855 -0.0030212402 0.0032348633 0.0031585693 0.0009765625 -0.0038757324 -0.002960205 0.0033111572
-0.002319336 0.0033569336 0.001953125 -0.0027160645 0.0023651123 0.002670288 -0.0021362305 0.0014801025
0.0006599426 0.0015258789 0.0019302368 0.0016403198 0.0016403198 -0.0010299683 -0.0016860962 0.001953125
0.00390625 0.0037994385 -0.0039367676 -0.0037231445 -0.0024414062 0.0039367676 0.00390625 -0.0039978027
0.00390625 -0.00390625 -0.00390625 0.0028076172 -0.00390625 -0.0014572144 0.00390625 -0.002609253
0.0020751953 -0.0021209717 0.0026245117 0.0033569336 -0.000579834 -0.0030975342 -0.001876831 0.0024719238
0.0041503906 -0.0022888184 -0.0043640137 -0.0028686523 -0.00390625 0.00390625 0.004058838 -0.0039367676
-0.0015487671 0.00390625 -0.001953125 -0.0025482178 0.0019226074 0.0031585693 0.00062561035 -0.0021362305
0.0025939941 -0.0029449463 -0.00289917 -0.0017700195 -0.0025634766 -0.0009841919 0.002960205 -0.0020141602
-0.0016708374 -0.00035095215 -0.0018386841 -0.001953125 -0.0009460449 0.001953125 0.0015182495 -0.0014190674
0.0016326904 -0.0023345947 -0.0020751953 0.00046539307 -0.002319336 -0.0014648438 0.0019836426 -0.0008430481
-0.003540039 0.002090454 0.0030822754 0.0019836426 0.0032806396 -0.0019683838 -0.003768921 0.0036315918
0.003967285 0.0034942627 -0.0043029785 -0.00390625 -0.0027008057 0.0039367676 0.004119873 -0.00390625
0.0028686523 -0.0038604736 -0.0021362305 0.0024414062 -0.0031280518 -0.0022277832 0.0024871826 -0.0019683838
-0.00390625 0.0011367798 0.0036468506 0.001953125 0.0028381348 -0.0020446777 -0.002960205 0.0036468506
-0.004211426 0.0019989014 0.004180908 0.0035552979 0.00390625 -0.00390625 -0.0040283203 0.0040893555
-0.0037994385 0.00390625 0.0022583008 -0.0032653809 0.0038604736 0.0023345947 -0.0025634766 0.0017318726
-0.0021820068 0.0021362305 0.003036499 0.0019226074 0.0029449463 -0.0020599365 -0.0029296875 0.0023345947
-0.001953125 0.0021514893 -0.003479004 -0.002166748 -6.771088e-05 0.0021820068 0.0017623901 -0.0024871826
-0.00390625 0.0024261475 0.0039978027 0.0024261475 0.00390625 -0.0025024414 -0.0039978027 0.00390625
-0.0038757324 0.003479004 0.003189087 -0.002166748 0.0038146973 0.00076293945 -0.00390625 0.002319336
0.0029144287 -0.0010757446 -0.003540039 -0.0023651123 -0.0022125244 0.0021972656 0.003326416 -0.0029754639
0.0038452148 -0.0024108887 -0.00390625 -0.002029419 -0.0035095215 0.0027160645 0.003967285 -0.0040283203
-0.0038604736 -0.0025482178 0.004119873 0.00390625 0.0038909912 -0.0038757324 -0.0040893555 0.0039978027
00000000: 94b9 46bb 5a3b 483b 81b9 7fbb 44bb 733b
00000010: 0abb 41bb 4a3b 5d3b 8d39 5fbb 5abb 5b3b
00000020: a9ba 13bb fb3a 55ba 053b 9eba 38bb cf3a
00000030: 3a3b 15bb 46bb 15bb 04bb 0e3b 163b 5dbb
00000040: 023b 003b 37bb 18bb 1ebb 193b 343b 24bb
00000050: efb8 803b 33bb 80bb 5d3b 803b 233b 80bb
00000060: 86bb fd3a 8d3b 393b 803b 80bb 83bb 823b
00000070: 02bb 01bb 153b 023b 1ab8 24bb 24bb 283b
00000080: 9c3a 46bb 543b 4f3b 803a 7ebb 42bb 593b
00000090: 18bb 5c3b 003b 32bb 1b3b 2f3b 0cbb c23a
000000a0: 2d3a c83a fd3a d73a d73a 87ba ddba 003b
000000b0: 803b 793b 81bb 74bb 20bb 813b 803b 83bb
000000c0: 803b 80bb 80bb 383b 80bb bfba 803b 2bbb
000000d0: 083b 0bbb 2c3b 5c3b 18ba 4bbb f6ba 223b
000000e0: 883b 16bb 8fbb 3cbb 80bb 803b 853b 81bb
000000f0: cbba 803b 00bb 27bb fc3a 4f3b 243a 0cbb
00000100: 2a3b 41bb 3ebb e8ba 28bb 81ba 423b 04bb
00000110: dbba b8b9 f1ba 00bb 78ba 003b c73a baba
00000120: d63a 19bb 08bb f439 18bb c0ba 023b 5dba
00000130: 68bb 093b 4a3b 023b 573b 01bb 77bb 6e3b
00000140: 823b 653b 8dbb 80bb 31bb 813b 873b 80bb
00000150: 3c3b 7dbb 0cbb 203b 4dbb 12bb 233b 01bb
00000160: 80bb 953a 6f3b 003b 3a3b 06bb 42bb 6f3b
00000170: 8abb 033b 893b 693b 803b 80bb 84bb 863b
00000180: 79bb 803b 143b 56bb 7d3b 193b 28bb e33a
00000190: 0fbb 0c3b 473b fc3a 413b 07bb 40bb 193b
000001a0: 00bb 0d3b 64bb 0ebb 8eb8 0f3b e73a 23bb
000001b0: 80bb 1f3b 833b 1f3b 803b 24bb 83bb 803b
000001c0: 7ebb 643b 513b 0ebb 7a3b 483a 80bb 183b
000001d0: 3f3b 8dba 68bb 1bbb 11bb 103b 5a3b 43bb
000001e0: 7c3b 1ebb 80bb 05bb 66bb 323b 823b 84bb
000001f0: 7dbb 27bb 873b 803b 7f3b 7ebb 86bb 833b

base_model.model.transformer.h.2.attn.c_attn.lora_A.weight bf16 [8, 768]
-0.024291992 -0.017211914 0.016113281 -0.02355957 0.032714844 0.005859375 -0.01586914 -0.016357422
0.01184082 0.0072631836 -0.02355957 0.017578125 -0.012878418 0.021606445 -0.012573242 0.017211914
-0.024780273 0.02709961 0.013000488 -0.0038757324 0.016113281 0.014099121 0.021362305 -0.002670288
0.0234375 0.01965332 -0.014099121 -0.024169922 0.032226562 -0.011291504 0.032958984 -0.022338867
0.01361084 0.0051574707 0.033203125 0.00390625 0.031982422 0.01361084 -0.0015411377 0.02722168
-0.015625 0.022705078 0.016479492 -0.032958984 -0.0008010864 -0.006591797 -0.0046081543 -0.03149414
-0.029052734 -0.015075684 0.024658203 0.025512695 -0.03100586 0.03149414 0.0014190674 0.022216797
-0.017578125 0.0019989014 -0.016601562 0.005706787 -0.007873535 0.030517578 -0.024536133 -0.009521484
0.0078125 0.013244629 0.026977539 -0.021850586 0.021484375 -0.0015716553 -0.020996094 0.028076172
-0.007873535 0.014770508 0.033691406 0.0036773682 -0.030517578 0.012451172 -0.0018157959 -0.017944336
0.026611328 0.01361084 -0.01574707 -0.013671875 -0.027832031 0.024169922 0.028930664 -0.005340576
0.013427734 -0.01171875 -0.020263672 -0.025390625 -0.025146484 0.013916016 -0.03466797 0.032958984
-0.00390625 -0.033203125 -0.035888672 -0.032470703 -0.030151367 -0.0234375 0.018310547 -0.020874023
-0.021728516 -0.0078125 0.014953613 0.033691406 0.02319336 -0.03564453 -0.007232666 -0.007507324
0.022949219 0.019165039 -0.012145996 0.016235352 -0.022094727 -0.0038757324 -0.030029297 -0.03173828
0.018432617 0.033935547 0.002166748 -0.024902344 0.0046081543 0.016113281 -0.0079956055 0.033203125
-0.010498047 -0.030029297 -0.008483887 -0.013244629 0.004760742 -0.029663086 0.009399414 0.025756836
-0.033691406 -0.0078125 -0.020751953 -0.016479492 -0.016235352 -0.029541016 0.013305664 -0.0054626465
-0.017089844 -0.006286621 0.016845703 0.028686523 0.00982666 0.003967285 0.014892578 -0.020629883
-0.010620117 0.004547119 0.021484375 0.023925781 -0.028442383 -0.01940918 0.019165039 0.002029419
-0.032714844 -0.016967773 0.024780273 -0.033935547 -0.009033203 -0.020751953 -0.010009766 -0.033935547
0.026855469 0.006713867 0.033935547 -0.031982422 -0.02734375 -0.03564453 -0.029785156 -0.024291992
-0.010009766 0.0099487305 0.01953125 0.023071289 -0.018798828 0.028686523 -0.0041503906 -0.032714844
-0.008178711 0.011352539 0.021118164 0.011108398 -0.00390625 -0.024902344 0.004699707 0.034179688
-0.0234375 -0.013977051 -0.022338867 -0.03149414 0.03100586 -0.02319336 0.005493164 0.0028381348
-0.0027313232 -0.025634766 -0.0026245117 -0.015136719 -0.008178711 0.030151367 -0.017700195 -0.009338379
-0.0026550293 0.032714844 -0.03564453 0.0070495605 0.032714844 0.026123047 0.001914978 -0.025268555
0.03564453 -0.012817383 0.020263672 0.009399414 -0.03173828 0.020874023 -0.011779785 -0.0039367676
0.004272461 0.032958984 0.02709961 0.029785156 0.025512695 0.0078125 -0.032470703 -0.028930664
0.0041503906 -0.03466797 -0.0008659363 0.003967285 0.026367188 -0.029174805 -0.03540039 -0.020996094
0.03149414 0.014282227 -0.016357422 0.033203125 -0.022827148 0.021362305 -0.0074157715 -0.020629883
-0.013061523 -0.009887695 -0.014221191 0.030639648 0.023925781 -0.02734375 -0.0078125 -0.00390625
00000000: c7bc 8dbc 843c c1bc 063d c03b 82bc 86bc
00000010: 423c ee3b c1bc 903c 53bc b13c 4ebc 8d3c
00000020: cbbc de3c 553c 7ebb 843c 673c af3c 2fbb
00000030: c03c a13c 67bc c6bc 043d 39bc 073d b7bc
00000040: 5f3c a93b 083d 803b 033d 5f3c caba df3c
00000050: 80bc ba3c 873c 07bd 52ba d8bb 97bb 01bd
00000060: eebc 77bc ca3c d13c febc 013d ba3a b63c
00000070: 90bc 033b 88bc bb3b 01bc fa3c c9bc 1cbc
00000080: 003c 593c dd3c b3bc b03c ceba acbc e63c
00000090: 01bc 723c 0a3d 713b fabc 4c3c eeba 93bc
000000a0: da3c 5f3c 81bc 60bc e4bc c63c ed3c afbb
000000b0: 5c3c 40bc a6bc d0bc cebc 643c 0ebd 073d
000000c0: 80bb 08bd 13bd 05bd f7bc c0bc 963c abbc
000000d0: b2bc 00bc 753c 0a3d be3c 12bd edbb f6bb
000000e0: bc3c 9d3c 47bc 853c b5bc 7ebb f6bc 02bd
000000f0: 973c 0b3d 0e3b ccbc 973b 843c 03bc 083d
00000100: 2cbc f6bc 0bbc 59bc 9c3b f3bc 1a3c d33c
00000110: 0abd 00bc aabc 87bc 85bc f2bc 5a3c b3bb
00000120: 8cbc cebb 8a3c eb3c 213c 823b 743c a9bc
00000130: 2ebc 953b b03c c43c e9bc 9fbc 9d3c 053b
00000140: 06bd 8bbc cb3c 0bbd 14bc aabc 24bc 0bbd
00000150: dc3c dc3b 0b3d 03bd e0bc 12bd f4bc c7bc
00000160: 24bc 233c a03c bd3c 9abc eb3c 88bb 06bd
00000170: 06bc 3a3c ad3c 363c 80bb ccbc 9a3b 0c3d
00000180: c0bc 65bc b7bc 01bd fe3c bebc b43b 3a3b
00000190: 33bb d2bc 2cbb 78bc 06bc f73c 91bc 19bc
000001a0: 2ebb 063d 12bd e73b 063d d63c fb3a cfbc
000001b0: 123d 52bc a63c 1a3c 02bd ab3c 41bc 81bb
000001c0: 8c3b 073d de3c f43c d13c 003c 05bd edbc
000001d0: 883b 0ebd 63ba 823b d83c efbc 11bd acbc
000001e0: 013d 6a3c 86bc 083d bbbc af3c f3bb a9bc
000001f0: 56bc 22bc 69bc fb3c c43c e0bc 00bc 80bb
