examples/research_projects/stack_llama_2/scripts/results/checkpoint_3/pytorch_model.bin (torch, 17916 bytes, 1 tensors)

v_head.summary.weight f4 [1, 4096]
-0.008319548 0.003028696 -0.0071408125 -0.010743728 -0.008191574 0.013021418 -0.0076195598 0.006824928
-0.014243358 0.013305366 0.006659112 -0.0067336685 0.00767796 -0.00538252 -0.011158233 0.0073895017
1.350151e-05 -0.008689878 -0.010398021 -0.0053357095 -0.012610744 0.0006595401 -0.013683458 0.008840732
-0.0022915925 -0.0001918104 -0.007187225 -0.0019938902 -0.005036407 0.002487326 -0.003259525 0.0063045914
-0.009343801 0.0026913695 0.012878624 0.006515683 0.0022735402 0.0091049755 -0.014182696 -0.0044303187
0.010268222 0.009036115 -0.011850663 -0.014560363 -0.01401221 -0.005043365 -0.010069755 0.011886756
0.006861161 -0.010447204 -0.0023588093 0.013445273 -0.014928971 -0.003306866 -0.00095952186 -0.0026273723
-0.008660508 -0.010069609 0.0073690233 -0.007932764 -0.0105909 0.004135776 0.012765784 -0.0014078596
0.009745965 0.0012819221 0.008810086 -0.01185231 0.010903344 0.005970669 -0.003751763 0.011473499
0.012074307 -0.0071997903 -0.015459641 0.0010283443 0.000847871 0.0015146369 0.013182294 0.0141704315
0.014002694 0.008469236 0.011555408 0.011775043 0.015302892 0.00035388808 0.012318176 0.0069047483
0.010059302 -0.002581906 -0.0073683015 0.0024091247 -0.007455922 -0.00059339026 -0.0049611265 0.009186957
-0.013103815 -0.013460499 0.011305953 0.015787408 -0.005979906 0.013944026 -0.0039859526 0.0116388835
0.014697639 -0.0022325523 0.008312091 0.004433418 0.0014283748 -0.009041373 -0.009311134 0.010979588
-0.007623962 -0.0037152336 0.014026689 -0.008420462 -0.014603868 -0.011951199 -0.0059022475 0.0037497934
0.0049798414 0.00185949 0.00928091 -0.01138841 -0.0076630367 -0.0094899265 -0.0016398568 -0.008625485
-0.0045794495 -0.010901557 0.002788026 -0.0086198095 -0.0020137613 -0.014728013 -0.01359506 -0.008206407
0.0073878337 -0.0044834907 0.005804174 0.0035895882 -0.00080367946 -0.01043982 -0.01037258 -0.012428087
-0.004130883 0.010790495 0.003002499 -0.0019805138 -0.015110852 -0.0062058717 0.0004226697 -0.008409319
-0.008245572 0.0046187458 -0.004994117 0.014408281 0.015541023 -0.008107784 -0.015288014 -0.005902096
-0.015094303 -0.0010032448 -0.012182895 -0.008655995 -0.014043422 0.0058384347 -0.010122273 0.008362562
-0.007331111 0.0031597528 -0.0011941685 0.014859611 0.0031594913 -0.008675754 -0.0012366746 -0.011756371
-0.002910534 -0.0119943395 -0.002102522 -0.010838522 -0.014525938 0.004982528 -0.0006729411 0.0024641668
0.007188748 0.011013376 -0.013332005 -0.0011731131 0.0057348604 0.0022471494 -0.007556142 -0.0141331125
0.005283045 -0.006958837 -0.01561843 -0.006687734 0.0058971317 0.004116766 -0.004487771 0.013242179
0.010767132 0.014692305 0.00568115 0.0051802583 -0.00681366 0.015486076 0.009218283 0.0050466326
-0.001037182 -0.0015592955 -0.0140459845 0.00766501 -0.006227621 0.0028045676 0.0150403185 -0.0015674237
0.012588946 0.011776379 0.009001111 0.0077180564 0.0022027104 0.010814011 -0.0028468417 0.012079553
-0.011243119 0.012781076 0.0012057693 -0.008118764 -0.0049320194 -0.006061193 -0.011451043 0.014532512
0.011979656 -0.015280946 0.0023990574 -0.007217168 0.010610108 0.015099283 0.010134863 0.011047757
-0.010484361 -0.005495447 0.002640219 -0.010408288 -0.008798766 0.00044526457 0.0074711703 0.010790309
0.014469342 -0.014376871 -0.011818579 -0.006819248 -0.0006541024 -0.015613467 -0.014324538 0.00058318174
00000000: b74e 08bc 167d 463b 7afd e9bb 7606 30bc
00000010: f435 06bc c957 553c 80ad f9bb a5a3 df3b
00000020: f95c 69bc c0fe 593c ae34 da3b 1ba6 dcbb
00000030: 6697 fb3b da5f b0bb 05d1 36bc a223 f23b
00000040: 8b84 6237 fd5f 0ebc 765c 2abc 2dd7 aebb
00000050: 4b9d 4ebc fde4 2c3a 9530 60bc b8d8 103c
00000060: 8b2e 16bb b620 49b9 d082 ebbb edab 02bb
00000070: 7208 a5bb 6802 233b c19d 55bb bf96 ce3b
00000080: be16 19bc b061 303b dd00 533c 8381 d53b
00000090: adff 143b 092d 153c 8a5e 68bc 352c 91bb
000000a0: 0b3c 283c 370c 143c 4929 42bc 978e 6ebc
000000b0: 7893 65bc d042 a5bb 9dfb 24bc abc0 423c
000000c0: 97d3 e03b c02a 2bbc 4196 1abb 9049 5c3c
000000d0: a598 74bc 01b8 58bb 6c88 7bba fe2f 2cbb
000000e0: cee4 0dbc 00fb 24bc d977 f13b 6cf8 01bc
000000f0: 7485 2dbc 6785 873b 9427 513c ee87 b8ba
00000100: 8aad 1f3c 2b06 a83a 2e58 103c 3130 42bc
00000110: f0a3 323c 9aa5 c33b 23e0 75bb 58fb 3b3c
00000120: 50d3 453c 38ec ebbb 6f4a 7dbc 82c9 863a
00000130: a943 5e3a c886 c63a 8cfa 573c 192b 683c
00000140: 8e6b 653c 8dc2 0a3c e552 3d3c 1cec 403c
00000150: fbb8 7a3c 0e8a b939 2dd2 493c 3a41 e23b
00000160: c5cf 243c 3235 29bb cb71 f1bb 68e2 1d3b
00000170: cf50 f4bb bf8d 1bba f290 a2bb e484 163c
00000180: 62b1 56bc 6d89 5cbc 9b3c 393c 9854 813c
00000190: 16f3 c3bb 7c75 643c 989c 82bb 04b1 3e3c
000001a0: 5ece 703c 0350 12bb 702f 083c 3546 913b
000001b0: 4e38 bb3a 4422 14bc ba8d 18bc bbe3 333c
000001c0: 6ed2 f9bb 477b 73bb 33d0 653c faf5 09bc
000001d0: 1045 6fbc f6ce 43bc a467 c1bb 18bf 753b
000001e0: f02d a33b 21ba f33a f50e 183c 7496 3abc
000001f0: 361a fbbb a37b 1bbc 77f0 d6ba e851 0dbc
00000200: 350f 96bb 729c 32bc 50b7 363b 1a3a 0dbc
00000210: 4ff9 03bb c44d 71bc d1bd 5ebc 2a74 06bc
00000220: a415 f23b 3fea 92bb f130 be3b 4c3f 6b3b
00000230: 04ae 52ba c70b 2bbc c1f1 29bc 2d9f 4bbc
00000240: 5c5c 87bb 9eca 303c 93c5 443b 82cb 01bb
00000250: 8293 77bc a05a cbbb c499 dd39 3ec7 09bc
00000260: 7018 07bc d958 973b b1a5 a3bb b610 6c3c
00000270: c69f 7e3c 83d6 04bc 947a 7abc 5f66 c1bb
00000280: 184e 77bc 4f7f 83ba c49a 47bc e0d1 0dbc
00000290: 6216 66bc 5750 bf3b e4d7 25bc 2103 093c
000002a0: d139 f0bb db13 4f3b a585 9cba ba75 733c
000002b0: 780f 4f3b c024 0ebc ea17 a2ba cb9d 40bc
000002c0: a8be 3ebb e883 44bc 77ca 09bb 0e94 31bc
000002d0: 33fe 6dbc 7944 a33b 5068 30ba dc7d 213b
000002e0: 978f eb3b 7271 343c 7b6e 5abc 25c3 99ba
000002f0: 7feb bb3b e944 133b 8399 f7bb 928e 67bc
00000300: 651d ad3b f506 e4bb 72e4 7fbc c724 dbbb
00000310: ba3c c13b f0e5 863b 270e 93bb b9f5 583c
00000320: a068 303c feb7 703c f128 ba3b 28bf a93b
00000330: 1f45 dfbb 4fb9 7d3c 4808 173c 395e a53b
00000340: 0ef2 87ba 4661 ccba 2121 66bc c42a fb3b
00000350: 1211 ccbb d6cc 373b ab6b 763c 0372 cdba
00000360: de41 4e3c b7f1 403c 6579 133c c0e7 fc3b
00000370: 595b 103b 402d 313c 1492 3abb 51e9 453c
00000380: 0f35 38bc b867 513c e70a 9e3a 9004 05bc
00000390: c79c a1bb f99c c6bb 289d 3bbc c619 6e3c
000003a0: 5246 443c ef5c 7abc 8139 1d3b fe7d ecbb
000003b0: 05d6 2d3c fc62 773c b20c 263c a701 353c
000003c0: 99c6 2bbc 2713 b4bb 8607 2d3b 8687 2abc
000003d0: b328 10bc 6672 e939 b8d0 f43b d6c9 303c
000003e0: d210 6d3c f88c 6bbc b7a2 41bc 0074 dfbb
000003f0: 1278 2bba a1cf 7fbc 78b1 6abc aae0 183a
