examples/research_projects/stack_llama/scripts/gpt2_peft_stack-exchange-paired_rmts__100000_2e-05/checkpoint-17500/adapter_model.safetensors (safetensors, 594496 bytes, 25 tensors)

base_model.model.score.weight bf16 [1, 768]
0	0x3cf0	0.029296875
1	0x3bb9	0.005645752
2	0x3c9e	0.01928711
3	0x3d01	0.03149414
4	0x3c22	0.009887695
5	0xbcf9	-0.030395508
6	0xbbb0	-0.0053710938
7	0x3c3c	0.011474609
8	0x3bce	0.006286621
9	0xbc3a	-0.011352539
10	0x3c32	0.010864258
11	0xbc38	-0.011230469
12	0x3c45	0.012023926
13	0x3d43	0.047607422
14	0x3d09	0.033447266
15	0xbc89	-0.016723633
16	0xbc25	-0.010070801
17	0xbc27	-0.010192871
18	0xbc0f	-0.008728027
19	0x3ce0	0.02734375
20	0xbc5c	-0.013427734
21	0xbb80	-0.00390625
22	0x3c93	0.017944336
23	0xbcdb	-0.026733398
24	0x3c7b	0.015319824
25	0x3cbc	0.022949219
26	0xbc3c	-0.011474609
27	0x3c9e	0.01928711
28	0x3d27	0.040771484
29	0x3c38	0.011230469
30	0xbb3b	-0.0028533936
31	0xbc65	-0.013977051
32	0xbc1a	-0.009399414
33	0xbce4	-0.027832031
34	0x3ce3	0.027709961
35	0xbc49	-0.012268066
36	0x3d72	0.05908203
37	0x3c56	0.013061523
38	0xbcde	-0.02709961
39	0xbcf3	-0.029663086
40	0x3ca2	0.01977539
41	0x3cc3	0.023803711
42	0xbd25	-0.040283203
43	0xbd03	-0.031982422
44	0xbc9e	-0.01928711
45	0x3c38	0.011230469
46	0xbc60	-0.013671875
47	0xbc76	-0.015014648
48	0x3c97	0.018432617
49	0x3bf1	0.0073547363
50	0x3c23	0.0099487305
51	0xbce8	-0.028320312
52	0x3b16	0.0022888184
53	0x3d03	0.031982422
54	0x3bcb	0.0061950684
55	0xbc20	-0.009765625
56	0x3c90	0.017578125
57	0xbce7	-0.028198242
58	0x3b42	0.002960205
59	0xbc91	-0.017700195
60	0x3b09	0.002090454
61	0x3b80	0.00390625
62	0xbcba	-0.022705078
63	0x3b8f	0.0043640137
64	0x3c9a	0.018798828
65	0x3c03	0.0079956055
66	0x3c29	0.010314941
67	0x3cb1	0.021606445
68	0xbc0b	-0.008483887
69	0xbce9	-0.028442383
70	0xbc3e	-0.01159668
71	0x3c4d	0.012512207
72	0x3cd1	0.025512695
73	0xbbae	-0.0053100586
74	0x3af3	0.0018539429
75	0x3c1d	0.0095825195
76	0x3cb5	0.022094727
77	0x39e2	0.0004310608
78	0x3c00	0.0078125
79	0x3caa	0.020751953
80	0x3cac	0.020996094
81	0xbc05	-0.008117676
82	0xbcb5	-0.022094727
83	0xbb0d	-0.0021514893
84	0xbbd0	-0.0063476562
85	0xbc98	-0.018554688
86	0xbc95	-0.018188477
87	0xbc69	-0.014221191
88	0x3cc8	0.024414062
89	0x3bc6	0.0060424805
90	0x3bbb	0.005706787
91	0xbb80	-0.00390625
92	0xbc64	-0.013916016
93	0x3d20	0.0390625
94	0x3cbe	0.02319336
95	0x3abf	0.0014572144
96	0x3b34	0.002746582
97	0x3ca0	0.01953125
98	0xbb08	-0.0020751953
99	0x3c27	0.010192871
100	0xbcba	-0.022705078
101	0x3ce9	0.028442383
102	0xbc92	-0.017822266
103	0x3c25	0.010070801
104	0x3cd0	0.025390625
105	0x3b17	0.0023040771
106	0xbc5f	-0.01361084
107	0x3cbc	0.022949219
108	0x3b60	0.0034179688
109	0xbc07	-0.008239746
110	0xb962	-0.0002155304
111	0xbd0b	-0.033935547
112	0x3c8a	0.016845703
113	0x3c3e	0.01159668
114	0xbd29	-0.041259766
115	0xbc87	-0.016479492
116	0xbc52	-0.012817383
117	0x3c24	0.010009766
118	0x3c75	0.014953613
119	0xbb8b	-0.0042419434
120	0x3c2e	0.010620117
121	0xbced	-0.028930664
122	0xbc5a	-0.013305664
123	0x3b99	0.0046691895
124	0x3cb6	0.022216797
125	0x3cc8	0.024414062
126	0x3d1f	0.03881836
127	0x3d03	0.031982422
128	0xbc1f	-0.00970459
129	0x3c95	0.018188477
130	0xbcb8	-0.022460938
131	0x3bef	0.007293701
132	0xbcb7	-0.022338867
133	0xbc9c	-0.019042969
134	0xbb0b	-0.0021209717
135	0x3c36	0.011108398
136	0xbce4	-0.027832031
137	0x3cb5	0.022094727
138	0xbcc8	-0.024414062
139	0x3c92	0.017822266
140	0x3cd5	0.026000977
141	0xbb63	-0.0034637451
142	0x3b55	0.003250122
143	0x3c98	0.018554688
144	0xbd0b	-0.033935547
145	0x3c2d	0.010559082
146	0xbbd1	-0.006378174
147	0xbcd9	-0.026489258
148	0x3cf3	0.029663086
149	0xbb89	-0.004180908
150	0x3b80	0.00390625
151	0xbcc9	-0.024536133
152	0x3c47	0.012145996
153	0x3c99	0.018676758
154	0xbd2e	-0.04248047
155	0xbb5b	-0.0033416748
156	0x3c9a	0.018798828
157	0xbcbf	-0.02331543
158	0x3b80	0.00390625
159	0x3b8c	0.004272461
160	0x3c71	0.014709473
161	0xbc59	-0.013244629
162	0x3c3b	0.011413574
163	0x3c5e	0.013549805
164	0xbc95	-0.018188477
165	0x3d03	0.031982422
166	0x3c1a	0.009399414
167	0x3b94	0.0045166016
168	0xbc55	-0.013000488
169	0xbbee	-0.0072631836
170	0xbcd6	-0.026123047
171	0x3d1a	0.037597656
172	0xbc65	-0.013977051
173	0x3c3c	0.011474609
174	0x3c73	0.014831543
175	0x3cf5	0.029907227
176	0x3c2d	0.010559082
177	0xbb82	-0.003967285
178	0x3b82	0.003967285
179	0xbb9a	-0.004699707
180	0xbc47	-0.012145996
181	0x3c45	0.012023926
182	0x3bb1	0.0054016113
183	0x3ae4	0.001739502
184	0x3d02	0.03173828
185	0x3c28	0.010253906
186	0x3b85	0.004058838
187	0xbc90	-0.017578125
188	0xba0e	-0.000541687
189	0x3c86	0.016357422
190	0x3b80	0.00390625
191	0xbb7f	-0.0038909912
192	0xbc43	-0.0119018555
193	0x3cb3	0.021850586
194	0x3d02	0.03173828
195	0xbcb5	-0.022094727
196	0x3d02	0.03173828
197	0xbc71	-0.014709473
198	0x3c1b	0.009460449
199	0xbc07	-0.008239746
200	0x3b4c	0.003112793
201	0x3b7d	0.0038604736
202	0x3b2d	0.0026397705
203	0x3cc5	0.024047852
204	0xbcf3	-0.029663086
205	0x3c08	0.008300781
206	0x3b6d	0.003616333
207	0x3b76	0.003753662
208	0x3b1f	0.0024261475
209	0xbb12	-0.0022277832
210	0x3bd6	0.0065307617
211	0x3b72	0.003692627
212	0x3c7b	0.015319824
213	0xbc9e	-0.01928711
214	0x3d0a	0.033691406
215	0x3b82	0.003967285
216	0xbc36	-0.011108398
217	0x3c85	0.016235352
218	0xbb83	-0.0039978027
219	0x3c9d	0.019165039
220	0x3bc0	0.005859375
221	0x3c9d	0.019165039
222	0x3b3a	0.0028381348
223	0xbd57	-0.052490234
224	0xbc07	-0.008239746
225	0x3cbe	0.02319336
226	0xbd44	-0.047851562
227	0xbc60	-0.013671875
228	0xbd00	-0.03125
229	0xbca8	-0.020507812
230	0x3c8d	0.017211914
231	0x3bd7	0.0065612793
232	0xbd38	-0.044921875
233	0x3c1d	0.0095825195
234	0xbd05	-0.032470703
235	0xbc43	-0.0119018555
236	0xbc91	-0.017700195
237	0x3c1e	0.009643555
238	0x3c47	0.012145996
239	0xbc7e	-0.01550293
240	0xbcbf	-0.02331543
241	0x3c90	0.017578125
242	0x3cb5	0.022094727
243	0x3cb3	0.021850586
244	0xbd05	-0.032470703
245	0xba85	-0.0010147095
246	0x3c5f	0.01361084
247	0x3c71	0.014709473
248	0xbcbc	-0.022949219
249	0xbc6d	-0.014465332
250	0xbb85	-0.004058838
251	0xbb80	-0.00390625
252	0x3bae	0.0053100586
253	0x3c90	0.017578125
254	0xbcca	-0.024658203
255	0x3c67	0.014099121

base_model.model.transformer.h.0.attn.c_attn.lora_A.weight bf16 [8, 768]
0	0xbcd6	-0.026123047
1	0x3ce5	0.027954102
2	0xbce7	-0.028198242
3	0xbb80	-0.00390625
4	0x3d0a	0.033691406
5	0x3c90	0.017578125
6	0xbbab	-0.005218506
7	0x3c83	0.015991211
8	0x3c10	0.0087890625
9	0xbc36	-0.011108398
10	0xbc1a	-0.009399414
11	0xbc33	-0.010925293
12	0xbd08	-0.033203125
13	0xbcc0	-0.0234375
14	0x3b8b	0.0042419434
15	0x3c9d	0.019165039
16	0xbced	-0.028930664
17	0x3cd5	0.026000977
18	0x3d04	0.032226562
19	0xbca5	-0.020141602
20	0x3c7f	0.015563965
21	0x3cc6	0.024169922
22	0xbc94	-0.018066406
23	0x3c92	0.017822266
24	0x3d06	0.032714844
25	0x3cdf	0.02722168
26	0xbd0a	-0.033691406
27	0x3b80	0.00390625
28	0xbb8f	-0.0043640137
29	0x3c87	0.016479492
30	0x3b8f	0.0043640137
31	0xbcb2	-0.021728516
32	0xbd08	-0.033203125
33	0xbc1a	-0.009399414
34	0x3b80	0.00390625
35	0xbcc4	-0.023925781
36	0x3c60	0.013671875
37	0xbc3b	-0.011413574
38	0xbc39	-0.011291504
39	0xbc9a	-0.018798828
40	0xbcc5	-0.024047852
41	0x3cbf	0.02331543
42	0x3ce3	0.027709961
43	0x3b92	0.0044555664
44	0xbc99	-0.018676758
45	0xbaa6	-0.0012664795
46	0xbbf3	-0.0074157715
47	0x3c86	0.016357422
48	0xbc04	-0.008056641
49	0xbca0	-0.01953125
50	0x3cbc	0.022949219
51	0xbc2f	-0.010681152
52	0x3cdb	0.026733398
53	0x3b8e	0.004333496
54	0x3cac	0.020996094
55	0x3b2a	0.0025939941
56	0xbc07	-0.008239746
57	0xbb80	-0.00390625
58	0xbb87	-0.004119873
59	0x3b80	0.00390625
60	0xbb82	-0.003967285
61	0x3c86	0.016357422
62	0x3b16	0.0022888184
63	0xbb73	-0.0037078857
64	0x3b95	0.004547119
65	0x3ba5	0.0050354004
66	0x3d09	0.033447266
67	0x3c20	0.009765625
68	0x3d02	0.03173828
69	0x3c73	0.014831543
70	0x3ccc	0.024902344
71	0xbccc	-0.024902344
72	0x3cd1	0.025512695
73	0xbca0	-0.01953125
74	0x3b70	0.0036621094
75	0x3d02	0.03173828
76	0x3b71	0.0036773682
77	0x3c9d	0.019165039
78	0xbb8a	-0.004211426
79	0xbccc	-0.024902344
80	0x3ce7	0.028198242
81	0xbca5	-0.020141602
82	0x3d10	0.03515625
83	0xbba2	-0.0049438477
84	0xbc78	-0.015136719
85	0xbcf6	-0.030029297
86	0x3caf	0.021362305
87	0xbcf0	-0.029296875
88	0xbba4	-0.005004883
89	0x3b10	0.0021972656
90	0x3c6b	0.014343262
91	0xbc79	-0.015197754
92	0x3c12	0.008911133
93	0xbcd7	-0.026245117
94	0x3c70	0.0146484375
95	0xbc28	-0.010253906
96	0x3ca6	0.020263672
97	0x3d04	0.032226562
98	0x3d04	0.032226562
99	0xbcd2	-0.025634766
100	0xbd03	-0.031982422
101	0x3c52	0.012817383
102	0xbcbf	-0.02331543
103	0xbbbb	-0.005706787
104	0x3c87	0.016479492
105	0x3ca2	0.01977539
106	0xbbe5	-0.0069885254
107	0x3cbb	0.022827148
108	0xbc84	-0.016113281
109	0xbbcd	-0.0062561035
110	0x3ca3	0.019897461
111	0x3bd1	0.006378174
112	0x3d04	0.032226562
113	0x3c9e	0.01928711
114	0x3cdb	0.026733398
115	0x3c20	0.009765625
116	0x3b80	0.00390625
117	0xbc03	-0.0079956055
118	0x3ce8	0.028320312
119	0xbb80	-0.00390625
120	0x3b84	0.0040283203
121	0xbcbd	-0.023071289
122	0x3b32	0.0027160645
123	0x3b68	0.003540039
124	0x3c1b	0.009460449
125	0x3c97	0.018432617
126	0x3c6b	0.014343262
127	0xbd0d	-0.034423828
128	0xbcf4	-0.029785156
129	0x3cca	0.024658203
130	0xbd0e	-0.03466797
131	0x3c9a	0.018798828
132	0x3aa1	0.0012283325
133	0x3c53	0.012878418
134	0xbcdc	-0.026855469
135	0x3c42	0.01184082
136	0xbc94	-0.018066406
137	0x3d12	0.03564453
138	0xbc6a	-0.014282227
139	0xbbe7	-0.0070495605
140	0xbb07	-0.0020599365
141	0x3c1c	0.009521484
142	0xbc7c	-0.015380859
143	0x3d04	0.032226562
144	0xbca8	-0.020507812
145	0x3b80	0.00390625
146	0x3c3a	0.011352539
147	0xbd10	-0.03515625
148	0xbcf1	-0.029418945
149	0x3cb6	0.022216797
150	0x3d11	0.03540039
151	0x3c92	0.017822266
152	0xbca5	-0.020141602
153	0x3c09	0.008361816
154	0xbd0e	-0.03466797
155	0x3b81	0.0039367676
156	0xbcd3	-0.025756836
157	0xbc32	-0.010864258
158	0x3cb6	0.022216797
159	0x3d05	0.032470703
160	0xbc4b	-0.012390137
161	0x3cc8	0.024414062
162	0xbd07	-0.032958984
163	0x3b90	0.0043945312
164	0x3c71	0.014709473
165	0xbcaf	-0.021362305
166	0x3cad	0.021118164
167	0x3ce6	0.028076172
168	0x3bcc	0.006225586
169	0x3ca7	0.020385742
170	0x3cf3	0.029663086
171	0x3c09	0.008361816
172	0x3c91	0.017700195
173	0xbb9a	-0.004699707
174	0xbb82	-0.003967285
175	0x3c3b	0.011413574
176	0x3d0c	0.034179688
177	0xbcf2	-0.029541016
178	0x3ce2	0.02758789
179	0x3c15	0.009094238
180	0xbca9	-0.020629883
181	0x3c7c	0.015380859
182	0xbb7f	-0.0038909912
183	0xbc36	-0.011108398
184	0x3d07	0.032958984
185	0x3bfd	0.0077209473
186	0xbce9	-0.028442383
187	0x3cfb	0.030639648
188	0xbc7f	-0.015563965
189	0x3cb9	0.022583008
190	0x3cb0	0.021484375
191	0xbbe8	-0.007080078
192	0x3d08	0.033203125
193	0x3b82	0.003967285
194	0x3ccf	0.025268555
195	0x3caa	0.020751953
196	0xbcb0	-0.021484375
197	0x3cd3	0.025756836
198	0xbc14	-0.009033203
199	0xbbb4	-0.005493164
200	0x3ca8	0.020507812
201	0x3c27	0.010192871
202	0x3d11	0.03540039
203	0x3cc7	0.024291992
204	0x3b82	0.003967285
205	0x3d10	0.03515625
206	0xbc4c	-0.012451172
207	0xbcdc	-0.026855469
208	0xbc66	-0.014038086
209	0xbcad	-0.021118164
210	0x3b59	0.0033111572
211	0xbc63	-0.0138549805
212	0xbcea	-0.028564453
213	0x3b85	0.004058838
214	0xbc88	-0.016601562
215	0xbb36	-0.0027770996
216	0xbc4a	-0.012329102
217	0xbc91	-0.017700195
218	0x3d11	0.03540039
219	0x3bb2	0.005432129
220	0xbb97	-0.0046081543
221	0xbbe8	-0.007080078
222	0x3cf4	0.029785156
223	0xbce2	-0.02758789
224	0x3cd9	0.026489258
225	0x3d13	0.035888672
226	0xbc4e	-0.012573242
227	0xbc9e	-0.01928711
228	0x3c81	0.01574707
229	0x3d03	0.031982422
230	0xbb82	-0.003967285
231	0x3cf9	0.030395508
232	0xbc14	-0.009033203
233	0xbd11	-0.03540039
234	0x3c93	0.017944336
235	0x3d0d	0.034423828
236	0xbc19	-0.009338379
237	0xbbfb	-0.007659912
238	0x3c03	0.0079956055
239	0x3d05	0.032470703
240	0x3d04	0.032226562
241	0xbcad	-0.021118164
242	0x3cd7	0.026245117
243	0xbc88	-0.016601562
244	0xbc26	-0.010131836
245	0x3bf1	0.0073547363
246	0x3cd9	0.026489258
247	0xbca8	-0.020507812
248	0x3b95	0.004547119
249	0xbcbb	-0.022827148
250	0xbd02	-0.03173828
251	0xbc94	-0.018066406
252	0xbc28	-0.010253906
253	0xbcc7	-0.024291992
254	0xbcde	-0.02709961
255	0xbc00	-0.0078125

base_model.model.transformer.h.0.attn.c_attn.lora_B.weight bf16 [2304, 8]
0	0xbae6	-0.0017547607
1	0xbaba	-0.0014190674
2	0x3a19	0.0005836487
3	0xb92f	-0.000166893
4	0xbac3	-0.0014877319
5	0xbade	-0.0016937256
6	0x3ac3	0.0014877319
7	0x3ae1	0.0017166138
8	0xbafc	-0.0019226074
9	0xb9cd	-0.00039100647
10	0x3a5b	0.0008354187
11	0x3b0c	0.0021362305
12	0xba0c	-0.0005340576
13	0xbb00	-0.001953125
14	0xba93	-0.001121521
15	0x3a8a	0.0010528564
16	0x3ae3	0.0017318726
17	0x3b16	0.0022888184
18	0x3ae6	0.0017547607
19	0x3aba	0.0014190674
20	0x3b03	0.0019989014
21	0x3ac9	0.0015335083
22	0xbae3	-0.0017318726
23	0xba93	-0.001121521
24	0x3b04	0.0020141602
25	0x3a90	0.0010986328
26	0xba71	-0.00091934204
27	0x3af0	0.0018310547
28	0x3b06	0.0020446777
29	0x3538	6.854534e-07
30	0xbad1	-0.0015945435
31	0xba96	-0.0011444092
32	0xbac3	-0.0014877319
33	0xb9b0	-0.00033569336
34	0x3a18	0.000579834
35	0xbac3	-0.0014877319
36	0x3a46	0.00075531006
37	0x3aa8	0.0012817383
38	0x3a6c	0.00090026855
39	0xb972	-0.00023078918
40	0xba43	-0.00074386597
41	0x3af7	0.0018844604
42	0x3aa4	0.0012512207
43	0x3a9b	0.0011825562
44	0xba81	-0.0009841919
45	0xbaa1	-0.0012283325
46	0xbab6	-0.0013885498
47	0xb805	-3.170967e-05
48	0x3a02	0.00049591064
49	0x3ae0	0.0017089844
50	0x3a88	0.0010375977
51	0x3aa0	0.0012207031
52	0xba67	-0.00088119507
53	0xba91	-0.0011062622
54	0xb957	-0.00020503998
55	0xbab6	-0.0013885498
56	0xba88	-0.0010375977
57	0x3a7f	0.0009727478
58	0xb9df	-0.00042533875
59	0x3a4a	0.00077056885
60	0xb90b	-0.00013256073
61	0xbae1	-0.0017166138
62	0xb69c	-4.6491623e-06
63	0xba58	-0.0008239746
64	0xbafe	-0.0019378662
65	0xbabb	-0.0014266968
66	0x39a6	0.00031661987
67	0x3a4f	0.00078964233
68	0x38e4	0.00010871887
69	0xb934	-0.00017166138
70	0x3a59	0.0008277893
71	0xbaa8	-0.0012817383
72	0x39cb	0.00038719177
73	0xb9bb	-0.0003566742
74	0x3a69	0.00088882446
75	0xbae3	-0.0017318726
76	0xba8a	-0.0010528564
77	0xb987	-0.00025749207
78	0xba5c	-0.0008392334
79	0x3a1a	0.0005874634
80	0x39c9	0.00038337708
81	0xbafa	-0.0019073486
82	0xbafb	-0.001914978
83	0x3b05	0.002029419
84	0x3ab4	0.001373291
85	0xb99c	-0.0002975464
86	0xbae5	-0.0017471313
87	0xbacf	-0.0015792847
88	0xba80	-0.0009765625
89	0x3955	0.00020313263
90	0x3a8f	0.0010910034
91	0x3aab	0.0013046265
92	0xbaf9	-0.0018997192
93	0xba45	-0.00075149536
94	0x3908	0.0001296997
95	0x3a87	0.0010299683
96	0x3a7d	0.0009651184
97	0xb8c5	-9.393692e-05
98	0xb9e9	-0.00044441223
99	0x3aa3	0.0012435913
100	0x3af8	0.0018920898
101	0xb9ab	-0.00032615662
102	0xba9b	-0.0011825562
103	0xba80	-0.0009765625
104	0x3a88	0.0010375977
105	0x3ae4	0.001739502
106	0xb993	-0.00028038025
107	0xb9c2	-0.00037002563
108	0x3a9b	0.0011825562
109	0x3aa0	0.0012207031
110	0xba24	-0.00062561035
111	0xb9a3	-0.00031089783
112	0xbae6	-0.0017547607
113	0xbb02	-0.0019836426
114	0xbaf7	-0.0018844604
115	0x3aa7	0.0012741089
116	0xb930	-0.00016784668
117	0x3a9d	0.0011978149
118	0x3aba	0.0014190674
119	0xb9cd	-0.00039100647
120	0x3a0e	0.000541687
121	0x3af9	0.0018997192
122	0x3b0c	0.0021362305
123	0xb8b4	-8.583069e-05
124	0xbaef	-0.0018234253
125	0xba7b	-0.000957489
126	0x39ae	0.00033187866
127	0x3a9a	0.0011749268
128	0xba92	-0.0011138916
129	0xb9b8	-0.00035095215
130	0x3a0a	0.0005264282
131	0xba27	-0.00063705444
132	0x3a0f	0.0005455017
133	0x3a52	0.0008010864
134	0xba95	-0.0011367798
135	0xba57	-0.0008201599
136	0xba9b	-0.0011825562
137	0xbb0f	-0.0021820068
138	0xba80	-0.0009765625
139	0xbad8	-0.0016479492
140	0xb8a5	-7.867813e-05
141	0xb9bb	-0.0003566742
142	0x3aeb	0.0017929077
143	0x3ae7	0.0017623901
144	0xb9c1	-0.0003681183
145	0x3a9b	0.0011825562
146	0x3adb	0.0016708374
147	0xbad5	-0.001625061
148	0xbae3	-0.0017318726
149	0xbad7	-0.0016403198
150	0x3a8e	0.001083374
151	0x3b02	0.0019836426
152	0x3a2a	0.00064849854
153	0x3af3	0.0018539429
154	0x3b01	0.0019683838
155	0xbb04	-0.0020141602
156	0xbae8	-0.0017700195
157	0xbad1	-0.0015945435
158	0x3a67	0.00088119507
159	0x375a	1.2993813e-05
160	0xbae1	-0.0017166138
161	0xbb0a	-0.002105713
162	0xba47	-0.00075912476
163	0xbae0	-0.0017089844
164	0xba95	-0.0011367798
165	0xba0f	-0.0005455017
166	0x3b04	0.0020141602
167	0x3aa4	0.0012512207
168	0xbaaa	-0.0012969971
169	0xbab7	-0.0013961792
170	0x3a7e	0.0009689331
171	0xbaf8	-0.0018920898
172	0xbafd	-0.0019302368
173	0xbaae	-0.0013275146
174	0x3af8	0.0018920898
175	0x3a2e	0.0006637573
176	0xba95	-0.0011367798
177	0xbb11	-0.0022125244
178	0x3a92	0.0011138916
179	0x3ada	0.001663208
180	0xbade	-0.0016937256
181	0xba7c	-0.0009613037
182	0x3b07	0.0020599365
183	0xb8d6	-0.00010204315
184	0x3996	0.0002861023
185	0x3a05	0.00050735474
186	0x3ac6	0.0015106201
187	0xba1a	-0.0005874634
188	0xb998	-0.000289917
189	0xba0c	-0.0005340576
190	0xba8e	-0.001083374
191	0xbab4	-0.001373291
192	0x3ade	0.0016937256
193	0x3b0c	0.0021362305
194	0xbae5	-0.0017471313
195	0xbae6	-0.0017547607
196	0x3abc	0.0014343262
197	0x3b00	0.001953125
198	0xba3e	-0.0007247925
199	0x3a01	0.00049209595
200	0xb9c0	-0.00036621094
201	0xbaf8	-0.0018920898
202	0xbb1c	-0.002380371
203	0xb8a3	-7.772446e-05
204	0x3ac8	0.0015258789
205	0xbaa1	-0.0012283325
206	0x3a1c	0.0005950928
207	0x36a8	5.00679e-06
208	0x39e8	0.00044250488
209	0x3a96	0.0011444092
210	0x3aee	0.0018157959
211	0x39b4	0.00034332275
212	0xb916	-0.00014305115
213	0xb9f0	-0.00045776367
214	0xb9ee	-0.00045394897
215	0xb9b8	-0.00035095215
216	0x38e8	0.00011062622
217	0xba35	-0.0006904602
218	0x3af4	0.0018615723
219	0x3883	6.246567e-05
220	0xbb00	-0.001953125
221	0xba91	-0.0011062622
222	0xb9e5	-0.00043678284
223	0xba9f	-0.0012130737
224	0x3ad5	0.001625061
225	0x3aa4	0.0012512207
226	0x3a8f	0.0010910034
227	0xba98	-0.001159668
228	0xbafa	-0.0019073486
229	0xba96	-0.0011444092
230	0x3ad7	0.0016403198
231	0x3b09	0.002090454
232	0xba86	-0.0010223389
233	0xbaaf	-0.001335144
234	0xbaa3	-0.0012435913
235	0x3abe	0.001449585
236	0x3a9f	0.0012130737
237	0xbac1	-0.0014724731
238	0x3a87	0.0010299683
239	0x3acb	0.0015487671
240	0x3a30	0.0006713867
241	0xbac0	-0.0014648438
242	0xbab4	-0.001373291
243	0xbaaa	-0.0012969971
244	0x3add	0.0016860962
245	0x3b00	0.001953125
246	0x3a60	0.0008544922
247	0xb72f	-1.0430813e-05
248	0x3a9d	0.0011978149
249	0xba20	-0.00061035156
250	0x3a96	0.0011444092
251	0x3abb	0.0014266968
252	0xba09	-0.0005226135
253	0xba52	-0.0008010864
254	0xba41	-0.0007362366
255	0x3903	0.00012493134

base_model.model.transformer.h.1.attn.c_attn.lora_A.weight bf16 [8, 768]
0	0x3cbe	0.02319336
1	0x3ca9	0.020629883
2	0xbcd7	-0.026245117
3	0x3c05	0.008117676
4	0xbd0a	-0.033691406
5	0x3cb1	0.021606445
6	0xbca0	-0.01953125
7	0xbc2d	-0.010559082
8	0xbcee	-0.029052734
9	0x3d04	0.032226562
10	0x3d12	0.03564453
11	0x3c16	0.009155273
12	0xbb80	-0.00390625
13	0xbb85	-0.004058838
14	0x3ca8	0.020507812
15	0x3cb3	0.021850586
16	0xbc2e	-0.010620117
17	0x3b97	0.0046081543
18	0xbc00	-0.0078125
19	0x3ccd	0.025024414
20	0x3c36	0.011108398
21	0xbcad	-0.021118164
22	0xbca2	-0.01977539
23	0x3c84	0.016113281
24	0x3c5a	0.013305664
25	0xbc30	-0.0107421875
26	0xbbf8	-0.0075683594
27	0xbc25	-0.010070801
28	0xbc9e	-0.01928711
29	0x3c1d	0.0095825195
30	0x3cd2	0.025634766
31	0xbc71	-0.014709473
32	0x3c39	0.011291504
33	0xbcaa	-0.020751953
34	0x3c6c	0.014404297
35	0x3ba1	0.00491333
36	0x3c16	0.009155273
37	0xbc05	-0.008117676
38	0x3d0b	0.033935547
39	0xbcca	-0.024658203
40	0x3c06	0.008178711
41	0xbd09	-0.033447266
42	0x3ced	0.028930664
43	0x3c34	0.010986328
44	0xbba1	-0.00491333
45	0x3d13	0.035888672
46	0xbca6	-0.020263672
47	0x3cf2	0.029541016
48	0x3bbb	0.005706787
49	0x3c85	0.016235352
50	0x3c6d	0.014465332
51	0xbc83	-0.015991211
52	0x3bd2	0.0064086914
53	0xbcb4	-0.021972656
54	0xbc87	-0.016479492
55	0x3cb3	0.021850586
56	0x3c8d	0.017211914
57	0xbd13	-0.035888672
58	0x3c6b	0.014343262
59	0x3cd0	0.025390625
60	0x3b40	0.0029296875
61	0xbc09	-0.008361816
62	0x3ba8	0.005126953
63	0x3b60	0.0034179688
64	0xbc4a	-0.012329102
65	0x3c79	0.015197754
66	0x3cd0	0.025390625
67	0x3cfe	0.03100586
68	0xbcc5	-0.024047852
69	0xbc0b	-0.008483887
70	0x3d11	0.03540039
71	0x3c82	0.01586914
72	0xbcaf	-0.021362305
73	0xbb3f	-0.0029144287
74	0x3c93	0.017944336
75	0xbc79	-0.015197754
76	0xbd02	-0.03173828
77	0x3c64	0.013916016
78	0xbcc2	-0.02368164
79	0xbc9c	-0.019042969
80	0x3c81	0.01574707
81	0xbb9f	-0.004852295
82	0xbc00	-0.0078125
83	0x3beb	0.007171631
84	0xbcb2	-0.021728516
85	0xbca6	-0.020263672
86	0xbb9a	-0.004699707
87	0x3cf6	0.030029297
88	0x3cc3	0.023803711
89	0x3c22	0.009887695
90	0xbafe	-0.0019378662
91	0xbc00	-0.0078125
92	0x3b85	0.004058838
93	0x3bb7	0.005584717
94	0x3bcd	0.0062561035
95	0xbd0d	-0.034423828
96	0x3ca3	0.019897461
97	0xbb62	-0.0034484863
98	0x3c98	0.018554688
99	0x3d0e	0.03466797
100	0x3cfe	0.03100586
101	0x3c8e	0.017333984
102	0xbb7c	-0.0038452148
103	0xbcef	-0.029174805
104	0x3d12	0.03564453
105	0x3c00	0.0078125
106	0x3ca3	0.019897461
107	0x3c36	0.011108398
108	0x3cc5	0.024047852
109	0xbcca	-0.024658203
110	0xbcc5	-0.024047852
111	0xbb6f	-0.0036468506
112	0xbd0d	-0.034423828
113	0xb8d2	-0.0001001358
114	0xbcfa	-0.030517578
115	0xbc49	-0.012268066
116	0xbcf8	-0.030273438
117	0xbc2b	-0.010437012
118	0x3cc3	0.023803711
119	0xbbb1	-0.0054016113
120	0x3c1a	0.009399414
121	0xbb95	-0.004547119
122	0xbbf8	-0.0075683594
123	0xbcf7	-0.030151367
124	0xbccf	-0.025268555
125	0xbcce	-0.025146484
126	0x3c8c	0.017089844
127	0x3b75	0.0037384033
128	0x3d0d	0.034423828
129	0x3b8a	0.004211426
130	0xbcc6	-0.024169922
131	0x3caa	0.020751953
132	0xbca2	-0.01977539
133	0xbced	-0.028930664
134	0xbc7a	-0.015258789
135	0x3d00	0.03125
136	0x3c46	0.012084961
137	0x3d11	0.03540039
138	0xbcf7	-0.030151367
139	0x3c40	0.01171875
140	0xbd05	-0.032470703
141	0x3c9f	0.01940918
142	0x3cd6	0.026123047
143	0xbc5b	-0.013366699
144	0x3cbb	0.022827148
145	0x3c7d	0.0154418945
146	0x3c3a	0.011352539
147	0xbcb4	-0.021972656
148	0x3c7e	0.01550293
149	0xbc5f	-0.01361084
150	0x3c5d	0.0134887695
151	0xbc6b	-0.014343262
152	0x3cbd	0.023071289
153	0x3c59	0.013244629
154	0xbcc1	-0.02355957
155	0x3d10	0.03515625
156	0x3b89	0.004180908
157	0x3bb9	0.005645752
158	0xbd14	-0.036132812
159	0x3c8c	0.017089844
160	0x3cde	0.02709961
161	0xbcbe	-0.02319336
162	0xbca7	-0.020385742
163	0xbbfb	-0.007659912
164	0xbc90	-0.017578125
165	0xbc3b	-0.011413574
166	0x3bdf	0.00680542
167	0x3d04	0.032226562
168	0xbbd3	-0.006439209
169	0xbd02	-0.03173828
170	0x3c37	0.011169434
171	0x3cbe	0.02319336
172	0xbd07	-0.032958984
173	0x3c87	0.016479492
174	0x3d04	0.032226562
175	0xbbaf	-0.005340576
176	0xbcb4	-0.021972656
177	0x3aff	0.0019454956
178	0xbd09	-0.033447266
179	0xbc42	-0.01184082
180	0xbc5b	-0.013366699
181	0xbcb4	-0.021972656
182	0xbd09	-0.033447266
183	0xbced	-0.028930664
184	0x3bd0	0.0063476562
185	0x3b2b	0.002609253
186	0x3bbd	0.0057678223
187	0x3cc1	0.02355957
188	0xbc8f	-0.017456055
189	0xbc73	-0.014831543
190	0x3c67	0.014099121
191	0xbaa1	-0.0012283325
192	0x3d0a	0.033691406
193	0xbcf0	-0.029296875
194	0xbb73	-0.0037078857
195	0x3c7c	0.015380859
196	0x3bcc	0.006225586
197	0x3c34	0.010986328
198	0x3c46	0.012084961
199	0xbd06	-0.032714844
200	0x3d07	0.032958984
201	0x3cc0	0.0234375
202	0xbcc1	-0.02355957
203	0x3ccc	0.024902344
204	0x3c4a	0.012329102
205	0xbc4a	-0.012329102
206	0x3c00	0.0078125
207	0x3b69	0.0035552979
208	0xbb8a	-0.004211426
209	0x3c44	0.011962891
210	0x3cd2	0.025634766
211	0x3cff	0.03112793
212	0xbaa5	-0.0012588501
213	0x3c3a	0.011352539
214	0x3c9e	0.01928711
215	0x3c9e	0.01928711
216	0xbcb8	-0.022460938
217	0x3b97	0.0046081543
218	0x3d0f	0.03491211
219	0x3d01	0.03149414
220	0x3c94	0.018066406
221	0x3c17	0.009216309
222	0x3cb2	0.021728516
223	0x3d09	0.033447266
224	0x3b60	0.0034179688
225	0x3ce9	0.028442383
226	0x3cfd	0.030883789
227	0xbc81	-0.01574707
228	0xbb7d	-0.0038604736
229	0x3c70	0.0146484375
230	0xbc33	-0.010925293
231	0x3cda	0.026611328
232	0xbce5	-0.027954102
233	0xbcb0	-0.021484375
234	0x3d10	0.03515625
235	0xbcc2	-0.02368164
236	0x3ce8	0.028320312
237	0x3d04	0.032226562
238	0x3c76	0.015014648
239	0x3c0b	0.008483887
240	0xbbe6	-0.007019043
241	0xbb7e	-0.0038757324
242	0x3b7d	0.0038604736
243	0xbc0a	-0.008422852
244	0x3acd	0.0015640259
245	0x3c34	0.010986328
246	0x3c86	0.016357422
247	0x3ce5	0.027954102
248	0x3c75	0.014953613
249	0x3ce3	0.027709961
250	0x3c09	0.008361816
251	0x3c11	0.008850098
252	0x3cc0	0.0234375
253	0x3b8d	0.0043029785
254	0xbcc6	-0.024169922
255	0xbca3	-0.019897461

base_model.model.transformer.h.1.attn.c_attn.lora_B.weight bf16 [2304, 8]
0	0xbacb	-0.0015487671
1	0xbaac	-0.0013122559
2	0xb8dd	-0.00010538101
3	0x3993	0.00028038025
4	0xba27	-0.00063705444
5	0xbabf	-0.0014572144
6	0xbaa1	-0.0012283325
7	0xbaa4	-0.0012512207
8	0x3aa8	0.0012817383
9	0x3af6	0.001876831
10	0x3a88	0.0010375977
11	0xb98f	-0.00027275085
12	0x3a84	0.0010070801
13	0xba8e	-0.001083374
14	0x3a32	0.0006790161
15	0x3af4	0.0018615723
16	0xba9a	-0.0011749268
17	0xbb05	-0.002029419
18	0x3a8c	0.0010681152
19	0xbaa7	-0.0012741089
20	0xba1c	-0.0005950928
21	0xbac3	-0.0014877319
22	0x3a88	0.0010375977
23	0xba90	-0.0010986328
24	0xb962	-0.0002155304
25	0x37d5	2.5391579e-05
26	0x39e3	0.00043296814
27	0x390f	0.00013637543
28	0x3aed	0.0018081665
29	0xb9f9	-0.0004749298
30	0x397f	0.00024318695
31	0x3afb	0.001914978
32	0xb98c	-0.0002670288
33	0x3a90	0.0010986328
34	0xbac4	-0.0014953613
35	0xb963	-0.00021648407
36	0xb837	-4.36306e-05
37	0xbaaa	-0.0012969971
38	0xbaee	-0.0018157959
39	0x3a80	0.0009765625
40	0xba35	-0.0006904602
41	0xba87	-0.0010299683
42	0x3b0d	0.0021514893
43	0xb982	-0.00024795532
44	0xba22	-0.00061798096
45	0x3a63	0.0008659363
46	0x3aba	0.0014190674
47	0x3a34	0.0006866455
48	0xba72	-0.00092315674
49	0xba92	-0.0011138916
50	0xbac9	-0.0015335083
51	0xba4c	-0.00077819824
52	0xbaee	-0.0018157959
53	0xbb0b	-0.0021209717
54	0xba82	-0.0009918213
55	0x3a7f	0.0009727478
56	0x38aa	8.106232e-05
57	0xbaf3	-0.0018539429
58	0xb824	-3.9100647e-05
59	0xbb01	-0.0019683838
60	0xb97f	-0.00024318695
61	0xba9a	-0.0011749268
62	0xba5e	-0.0008468628
63	0xbac7	-0.0015182495
64	0x3a8f	0.0010910034
65	0x3a85	0.0010147095
66	0x3a77	0.0009422302
67	0x3a82	0.0009918213
68	0xbade	-0.0016937256
69	0x3a9e	0.0012054443
70	0x3978	0.00023651123
71	0xbb0c	-0.0021362305
72	0x3afc	0.0019226074
73	0x3b14	0.0022583008
74	0x3a95	0.0011367798
75	0x3b0b	0.0021209717
76	0x3ad0	0.0015869141
77	0x3b08	0.0020751953
78	0x3a1b	0.0005912781
79	0x3b01	0.0019683838
80	0xba26	-0.00063323975
81	0xb8c6	-9.441376e-05
82	0x3b01	0.0019683838
83	0x3a85	0.0010147095
84	0x3af7	0.0018844604
85	0x39cf	0.00039482117
86	0x3b00	0.001953125
87	0x3b05	0.002029419
88	0x3b04	0.0020141602
89	0x3ad3	0.0016098022
90	0x39bf	0.0003643036
91	0x3a90	0.0010986328
92	0x3a0b	0.0005302429
93	0x3af6	0.001876831
94	0xba39	-0.000705719
95	0xbabe	-0.001449585
96	0x3adc	0.0016784668
97	0x3a81	0.0009841919
98	0xbb09	-0.002090454
99	0x390d	0.00013446808
100	0xbaf1	-0.0018386841
101	0x3a7f	0.0009727478
102	0xb9fd	-0.0004825592
103	0xbb02	-0.0019836426
104	0xba5a	-0.000831604
105	0xba5a	-0.000831604
106	0xb9e3	-0.00043296814
107	0xba5e	-0.0008468628
108	0x3a4c	0.00077819824
109	0xbab2	-0.0013580322
110	0x3aa4	0.0012512207
111	0x39b1	0.0003376007
112	0x3a1a	0.0005874634
113	0xbada	-0.001663208
114	0xbaa0	-0.0012207031
115	0xba9c	-0.0011901855
116	0x3a09	0.0005226135
117	0xba9a	-0.0011749268
118	0xbab1	-0.0013504028
119	0x3ab2	0.0013580322
120	0xba8c	-0.0010681152
121	0xba44	-0.00074768066
122	0xba6f	-0.00091171265
123	0xb8b8	-8.773804e-05
124	0xba55	-0.0008125305
125	0xba86	-0.0010223389
126	0xbaa1	-0.0012283325
127	0xba7e	-0.0009689331
128	0x3990	0.0002746582
129	0xba69	-0.00088882446
130	0xba73	-0.00092697144
131	0x3ac7	0.0015182495
132	0x3b07	0.0020599365
133	0xba2c	-0.00065612793
134	0x392a	0.00016212463
135	0xbacf	-0.0015792847
136	0x3ab8	0.0014038086
137	0x3aa2	0.0012359619
138	0xbad9	-0.0016555786
139	0xba2a	-0.00064849854
140	0xba87	-0.0010299683
141	0xba38	-0.0007019043
142	0x393c	0.00017929077
143	0xbafc	-0.0019226074
144	0xba3f	-0.0007286072
145	0x3ade	0.0016937256
146	0x3aec	0.0018005371
147	0x3ab2	0.0013580322
148	0x3ac6	0.0015106201
149	0x3b05	0.002029419
150	0x381e	3.7670135e-05
151	0x3b02	0.0019836426
152	0xb869	-5.555153e-05
153	0xbb0b	-0.0021209717
154	0xba85	-0.0010147095
155	0xba51	-0.0007972717
156	0x3aae	0.0013275146
157	0xbaa3	-0.0012435913
158	0xbaa7	-0.0012741089
159	0x3aa2	0.0012359619
160	0xb93a	-0.00017738342
161	0xbb1d	-0.0023956299
162	0xba89	-0.001045227
163	0xbafb	-0.001914978
164	0xbaa0	-0.0012207031
165	0xba3a	-0.0007095337
166	0xba84	-0.0010070801
167	0x3adc	0.0016784668
168	0xbaeb	-0.0017929077
169	0xbb09	-0.002090454
170	0xbae5	-0.0017471313
171	0xba9f	-0.0012130737
172	0xba62	-0.0008621216
173	0xbab6	-0.0013885498
174	0xb864	-5.4359436e-05
175	0xbaa4	-0.0012512207
176	0xbb03	-0.0019989014
177	0xbb08	-0.0020751953
178	0xbaea	-0.0017852783
179	0xbb0b	-0.0021209717
180	0xbb10	-0.0021972656
181	0xbaf1	-0.0018386841
182	0xbabe	-0.001449585
183	0xbb0b	-0.0021209717
184	0x3a52	0.0008010864
185	0x3a56	0.0008163452
186	0xbaf9	-0.0018997192
187	0xba35	-0.0006904602
188	0xbadb	-0.0016708374
189	0x3a91	0.0011062622
190	0xbaac	-0.0013122559
191	0xb931	-0.00016880035
192	0x3a42	0.00074005127
193	0x3b25	0.0025177002
194	0x3a0c	0.0005340576
195	0x3b06	0.0020446777
196	0x3b0d	0.0021514893
197	0x3b0a	0.002105713
198	0xb962	-0.0002155304
199	0x3b1b	0.0023651123
200	0xbaef	-0.0018234253
201	0xbb0a	-0.002105713
202	0xba85	-0.0010147095
203	0xba83	-0.0009994507
204	0xba15	-0.0005683899
205	0xbac3	-0.0014877319
206	0xba19	-0.0005836487
207	0xb8bc	-8.9645386e-05
208	0x3a58	0.0008239746
209	0xba3f	-0.0007286072
210	0x3b07	0.0020599365
211	0x3aaf	0.001335144
212	0x3aea	0.0017852783
213	0x3a15	0.0005683899
214	0x3b06	0.0020446777
215	0xba3d	-0.0007209778
216	0xbad5	-0.001625061
217	0x39a8	0.00032043457
218	0xba04	-0.00050354004
219	0xbac7	-0.0015182495
220	0xbaed	-0.0018081665
221	0xbac3	-0.0014877319
222	0xbae8	-0.0017700195
223	0x3a4a	0.00077056885
224	0x3a9d	0.0011978149
225	0x3ade	0.0016937256
226	0xba11	-0.0005531311
227	0xb94f	-0.00019741058
228	0x3aa6	0.0012664795
229	0x3abc	0.0014343262
230	0x3aa6	0.0012664795
231	0x3ae4	0.001739502
232	0x3aee	0.0018157959
233	0x3ab1	0.0013504028
234	0x3af8	0.0018920898
235	0x3b00	0.001953125
236	0x3af4	0.0018615723
237	0x39f8	0.00047302246
238	0x3afa	0.0019073486
239	0x3b02	0.0019836426
240	0x39a3	0.00031089783
241	0x3af8	0.0018920898
242	0x3af4	0.0018615723
243	0x3aed	0.0018081665
244	0x3b18	0.002319336
245	0x3b01	0.0019683838
246	0x39e8	0.00044250488
247	0x3b0b	0.0021209717
248	0xba85	-0.0010147095
249	0xba5d	-0.0008430481
250	0xb9de	-0.0004234314
251	0xba0e	-0.000541687
252	0xb862	-5.38826e-05
253	0xba4f	-0.00078964233
254	0xb8d5	-0.000101566315
255	0x3958	0.00020599365

base_model.model.transformer.h.10.attn.c_attn.lora_A.weight bf16 [8, 768]
0	0xbc72	-0.014770508
1	0xbcf8	-0.030273438
2	0x3c90	0.017578125
3	0x3c50	0.0126953125
4	0x3bde	0.0067749023
5	0xbbe9	-0.0071105957
6	0xbd12	-0.03564453
7	0xbca8	-0.020507812
8	0xbc38	-0.011230469
9	0x3ca9	0.020629883
10	0xbb83	-0.0039978027
11	0xbc00	-0.0078125
12	0xbbad	-0.005279541
13	0xbb85	-0.004058838
14	0xbb7b	-0.003829956
15	0xbcb6	-0.022216797
16	0xbd06	-0.032714844
17	0x3cb4	0.021972656
18	0xbcea	-0.028564453
19	0xbb80	-0.00390625
20	0x3b88	0.0041503906
21	0xbc00	-0.0078125
22	0x3cda	0.026611328
23	0xbcd4	-0.025878906
24	0xbd0c	-0.034179688
25	0xbb9f	-0.004852295
26	0x3cc4	0.023925781
27	0x3c9a	0.018798828
28	0x3c6f	0.014587402
29	0x3c2e	0.010620117
30	0x3c64	0.013916016
31	0x3bfc	0.0076904297
32	0x3d00	0.03125
33	0xbc95	-0.018188477
34	0x3bd6	0.0065307617
35	0x3d0b	0.033935547
36	0xbcdd	-0.026977539
37	0xbc6b	-0.014343262
38	0xbc99	-0.018676758
39	0x3d06	0.032714844
40	0xbd0a	-0.033691406
41	0xbca8	-0.020507812
42	0xbd05	-0.032470703
43	0xbbac	-0.0052490234
44	0xbb2b	-0.002609253
45	0x3ca4	0.020019531
46	0x3cc5	0.024047852
47	0xbc3b	-0.011413574
48	0x3c91	0.017700195
49	0x3cb7	0.022338867
50	0xbc90	-0.017578125
51	0xbcec	-0.028808594
52	0x3cdf	0.02722168
53	0x3c64	0.013916016
54	0x3cf2	0.029541016
55	0xbcb6	-0.022216797
56	0xbcbd	-0.023071289
57	0xbc06	-0.008178711
58	0xbc5d	-0.0134887695
59	0x3ce2	0.02758789
60	0xbbf7	-0.007537842
61	0xbcb1	-0.021606445
62	0xbc85	-0.016235352
63	0x3d0e	0.03466797
64	0x3c69	0.014221191
65	0xbd11	-0.03540039
66	0x3be7	0.0070495605
67	0xbcfc	-0.030761719
68	0xbc90	-0.017578125
69	0xbcd5	-0.026000977
70	0xbcb6	-0.022216797
71	0x3ca1	0.01965332
72	0x3be9	0.0071105957
73	0xbca8	-0.020507812
74	0x3d0e	0.03466797
75	0xbc00	-0.0078125
76	0x3b8a	0.004211426
77	0x3c84	0.016113281
78	0x3c82	0.01586914
79	0xbc9f	-0.01940918
80	0xbb9b	-0.0047302246
81	0xbc4b	-0.012390137
82	0x3bff	0.0077819824
83	0x3cc1	0.02355957
84	0xbc62	-0.013793945
85	0xbcdd	-0.026977539
86	0x3c9b	0.018920898
87	0x3bbb	0.005706787
88	0x3ce0	0.02734375
89	0x3ca1	0.01965332
90	0x3d0b	0.033935547
91	0x3c19	0.009338379
92	0xbca4	-0.020019531
93	0xbccd	-0.025024414
94	0x3b80	0.00390625
95	0x3c65	0.013977051
96	0x3d05	0.032470703
97	0x3cbd	0.023071289
98	0xbd0a	-0.033691406
99	0xbc63	-0.0138549805
100	0x3ca0	0.01953125
101	0x3cd9	0.026489258
102	0x3ca6	0.020263672
103	0x3b1f	0.0024261475
104	0xbb21	-0.002456665
105	0xbcb0	-0.021484375
106	0xbcf9	-0.030395508
107	0xbc52	-0.012817383
108	0x3cfa	0.030517578
109	0xbb9d	-0.0047912598
110	0xbcb0	-0.021484375
111	0x3bfd	0.0077209473
112	0x3bb9	0.005645752
113	0xbc94	-0.018066406
114	0x3c87	0.016479492
115	0xbc56	-0.013061523
116	0xbca6	-0.020263672
117	0x3b80	0.00390625
118	0x3d08	0.033203125
119	0x3bb5	0.0055236816
120	0x3ced	0.028930664
121	0xbcfe	-0.03100586
122	0xbd05	-0.032470703
123	0x3bb0	0.0053710938
124	0x3bf6	0.007507324
125	0xbcd8	-0.026367188
126	0xbcd2	-0.025634766
127	0xbccd	-0.025024414
128	0x3c93	0.017944336
129	0xbc5a	-0.013305664
130	0xbd0b	-0.033935547
131	0x3b24	0.0025024414
132	0xbd10	-0.03515625
133	0xbb02	-0.0019836426
134	0x3d0f	0.03491211
135	0xbc5a	-0.013305664
136	0xbc20	-0.009765625
137	0x3d05	0.032470703
138	0xbcbc	-0.022949219
139	0xbc29	-0.010314941
140	0x3cc1	0.02355957
141	0x3c81	0.01574707
142	0x3d13	0.035888672
143	0x3bb0	0.0053710938
144	0xbcb8	-0.022460938
145	0x3cb4	0.021972656
146	0x3d03	0.031982422
147	0xbbe4	-0.006958008
148	0xbcab	-0.020874023
149	0xbc95	-0.018188477
150	0xbd06	-0.032714844
151	0xbb85	-0.004058838
152	0xbc94	-0.018066406
153	0x3cdd	0.026977539
154	0x3cc8	0.024414062
155	0xbce9	-0.028442383
156	0x3ce2	0.02758789
157	0x3ced	0.028930664
158	0x3cf6	0.030029297
159	0x3be7	0.0070495605
160	0x3c35	0.011047363
161	0xba80	-0.0009765625
162	0xbc38	-0.011230469
163	0x3c00	0.0078125
164	0xbc8a	-0.016845703
165	0xbccb	-0.024780273
166	0x3c51	0.012756348
167	0x3cdc	0.026855469
168	0x3c52	0.012817383
169	0xbbaa	-0.0051879883
170	0x3b7d	0.0038604736
171	0x3cb4	0.021972656
172	0xbd10	-0.03515625
173	0x3ccd	0.025024414
174	0x3c00	0.0078125
175	0xbc0f	-0.008728027
176	0x3bff	0.0077819824
177	0x3d0f	0.03491211
178	0x3c56	0.013061523
179	0x3cf7	0.030151367
180	0x3b81	0.0039367676
181	0x3ca4	0.020019531
182	0xbc1b	-0.009460449
183	0xbcbd	-0.023071289
184	0xbbb4	-0.005493164
185	0x3c1b	0.009460449
186	0x3c1b	0.009460449
187	0x3bad	0.005279541
188	0x3c00	0.0078125
189	0x3b8e	0.004333496
190	0x3c36	0.011108398
191	0x3c1d	0.0095825195
192	0x3d08	0.033203125
193	0xbd14	-0.036132812
194	0x3d11	0.03540039
195	0x3c65	0.013977051
196	0x3c49	0.012268066
197	0x3c9f	0.01940918
198	0xbc6c	-0.014404297
199	0x3c0f	0.008728027
200	0x3c94	0.018066406
201	0x3c1a	0.009399414
202	0x3b72	0.003692627
203	0xbcf4	-0.029785156
204	0x3c7a	0.015258789
205	0xbd0b	-0.033935547
206	0xbcb8	-0.022460938
207	0xbcee	-0.029052734
208	0x3b80	0.00390625
209	0xbcfe	-0.03100586
210	0xbbad	-0.005279541
211	0x3b80	0.00390625
212	0x3cfe	0.03100586
213	0x3cb1	0.021606445
214	0x3c25	0.010070801
215	0x3a98	0.001159668
216	0xbbab	-0.005218506
217	0x3ce9	0.028442383
218	0xbc46	-0.012084961
219	0xbcc2	-0.02368164
220	0xbc9a	-0.018798828
221	0xbcea	-0.028564453
222	0xbbef	-0.007293701
223	0x3c00	0.0078125
224	0xbd0e	-0.03466797
225	0xbca5	-0.020141602
226	0x3c8d	0.017211914
227	0x3cf8	0.030273438
228	0x3c3e	0.01159668
229	0xbcde	-0.02709961
230	0x3ce9	0.028442383
231	0x3cef	0.029174805
232	0xbce6	-0.028076172
233	0xbc00	-0.0078125
234	0x3c6c	0.014404297
235	0xbc00	-0.0078125
236	0xbc87	-0.016479492
237	0xbd0f	-0.03491211
238	0xbca7	-0.020385742
239	0xbce6	-0.028076172
240	0xbc61	-0.01373291
241	0xbcd1	-0.025512695
242	0xbc5c	-0.013427734
243	0xbc00	-0.0078125
244	0x3bac	0.0052490234
245	0xbc2b	-0.010437012
246	0x3c87	0.016479492
247	0x3cc0	0.0234375
248	0xbce8	-0.028320312
249	0xbcaa	-0.020751953
250	0x3ca8	0.020507812
251	0xbcaf	-0.021362305
252	0xbd01	-0.03149414
253	0x3c7a	0.015258789
254	0xbcd9	-0.026489258
255	0xbb91	-0.004425049

base_model.model.transformer.h.10.attn.c_attn.lora_B.weight bf16 [2304, 8]
0	0x3b22	0.0024719238
1	0xbb33	-0.0027313232
2	0x3b08	0.0020751953
3	0x3b4b	0.0030975342
4	0x3b11	0.0022125244
5	0xbb2c	-0.0026245117
6	0x3b63	0.0034637451
7	0xbb0a	-0.002105713
8	0x3b12	0.0022277832
9	0xbb26	-0.002532959
10	0x3b14	0.0022583008
11	0x3b0b	0.0021209717
12	0x3b39	0.002822876
13	0xbb04	-0.0020141602
14	0x3b06	0.0020446777
15	0xbb08	-0.0020751953
16	0xbb3a	-0.0028381348
17	0x3b45	0.0030059814
18	0xbb00	-0.001953125
19	0xbb64	-0.003479004
20	0xbb49	-0.0030670166
21	0x3b4e	0.0031433105
22	0xbb2c	-0.0026245117
23	0x3b06	0.0020446777
24	0xbb0a	-0.002105713
25	0x3b2f	0.002670288
26	0xbb65	-0.0034942627
27	0xbb2e	-0.0026550293
28	0xbb2a	-0.0025939941
29	0x3b1c	0.002380371
30	0xbb26	-0.002532959
31	0x3b2a	0.0025939941
32	0x3a91	0.0011062622
33	0x3b01	0.0019683838
34	0xbaeb	-0.0017929077
35	0xba94	-0.0011291504
36	0xbab2	-0.0013580322
37	0x3aef	0.0018234253
38	0xba99	-0.0011672974
39	0x3af7	0.0018844604
40	0xbb48	-0.0030517578
41	0x3b73	0.0037078857
42	0xbb80	-0.00390625
43	0xbb80	-0.00390625
44	0xbb40	-0.0029296875
45	0x3b81	0.0039367676
46	0xbb80	-0.00390625
47	0x3b80	0.00390625
48	0xbb2c	-0.0026245117
49	0x3b48	0.0030517578
50	0xbb67	-0.0035247803
51	0xbb3f	-0.0029144287
52	0xbb3e	-0.00289917
53	0x3b0a	0.002105713
54	0xbb52	-0.0032043457
55	0x3b32	0.0027160645
56	0x3a9f	0.0012130737
57	0xbab0	-0.0013427734
58	0x3a8a	0.0010528564
59	0x3ad6	0.0016326904
60	0x3a43	0.00074386597
61	0xbb34	-0.002746582
62	0x3b1f	0.0024261475
63	0xbaf3	-0.0018539429
64	0x3b47	0.003036499
65	0xbb55	-0.003250122
66	0x3b39	0.002822876
67	0x3b5d	0.0033721924
68	0x3b37	0.0027923584
69	0xbb58	-0.0032958984
70	0x3b5f	0.00340271
71	0xbb0b	-0.0021209717
72	0x3b80	0.00390625
73	0xbb83	-0.0039978027
74	0x3b80	0.00390625
75	0x3b82	0.003967285
76	0x3b7e	0.0038757324
77	0xbb80	-0.00390625
78	0x3b83	0.0039978027
79	0xbb80	-0.00390625
80	0xbb80	-0.00390625
81	0x3b3d	0.0028839111
82	0xbb05	-0.002029419
83	0xbb7d	-0.0038604736
84	0xbb56	-0.0032653809
85	0x3b7b	0.003829956
86	0xbb80	-0.00390625
87	0x3b4e	0.0031433105
88	0x3b3c	0.0028686523
89	0xbb5c	-0.0033569336
90	0x3b74	0.0037231445
91	0x3b71	0.0036773682
92	0x3b55	0.003250122
93	0xbb47	-0.003036499
94	0x3b60	0.0034179688
95	0xbb7d	-0.0038604736
96	0x3b12	0.0022277832
97	0xbb12	-0.0022277832
98	0x3b27	0.0025482178
99	0x3b2d	0.0026397705
100	0x3b1f	0.0024261475
101	0xbb0c	-0.0021362305
102	0x3b4c	0.003112793
103	0xbb30	-0.0026855469
104	0xbb09	-0.002090454
105	0x3b02	0.0019836426
106	0xbb11	-0.0022125244
107	0xbb28	-0.0025634766
108	0xbafc	-0.0019226074
109	0x3b23	0.0024871826
110	0xbb31	-0.0027008057
111	0x3b2c	0.0026245117
112	0xbb4a	-0.0030822754
113	0x3b61	0.0034332275
114	0xbb80	-0.00390625
115	0xbb80	-0.00390625
116	0xbb4f	-0.0031585693
117	0x3b80	0.00390625
118	0xbb80	-0.00390625
119	0x3b80	0.00390625
120	0x3b61	0.0034332275
121	0xbb7b	-0.003829956
122	0x3b7e	0.0038757324
123	0x3b80	0.00390625
124	0x3b80	0.00390625
125	0xbb80	-0.00390625
126	0x3b80	0.00390625
127	0xbb82	-0.003967285
128	0x3b0b	0.0021209717
129	0xbb43	-0.0029754639
130	0x3b5e	0.0033874512
131	0x3b6f	0.0036468506
132	0x3b27	0.0025482178
133	0xbb56	-0.0032653809
134	0x3b1d	0.0023956299
135	0xbb28	-0.0025634766
136	0xbb6b	-0.0035858154
137	0x3b74	0.0037231445
138	0xbb80	-0.00390625
139	0xbb80	-0.00390625
140	0xbb4d	-0.0031280518
141	0x3b69	0.0035552979
142	0xbb81	-0.0039367676
143	0x3b80	0.00390625
144	0x3b3b	0.0028533936
145	0xbb61	-0.0034332275
146	0x3b7e	0.0038757324
147	0x3b80	0.00390625
148	0x3b46	0.0030212402
149	0xbb60	-0.0034179688
150	0x3b5f	0.00340271
151	0xbb5d	-0.0033721924
152	0x3a8c	0.0010681152
153	0x3b0e	0.002166748
154	0xbb3c	-0.0028686523
155	0xbae3	-0.0017318726
156	0xbb01	-0.0019683838
157	0x3af1	0.0018386841
158	0xbb01	-0.0019683838
159	0x3af6	0.001876831
160	0x3b72	0.003692627
161	0xbb83	-0.0039978027
162	0x3b80	0.00390625
163	0x3b81	0.0039367676
164	0x3b70	0.0036621094
165	0xbb80	-0.00390625
166	0x3b80	0.00390625
167	0xbb80	-0.00390625
168	0x3b66	0.0035095215
169	0xbac8	-0.0015258789
170	0x3b26	0.002532959
171	0x3b71	0.0036773682
172	0x3b4f	0.0031585693
173	0xbb09	-0.002090454
174	0x3b63	0.0034637451
175	0xbb57	-0.0032806396
176	0x3b11	0.0022125244
177	0x3aca	0.0015411377
178	0xbb0a	-0.002105713
179	0x3ad3	0.0016098022
180	0x3b0c	0.0021362305
181	0x3af9	0.0018997192
182	0x3a4d	0.00078201294
183	0x3abc	0.0014343262
184	0x3b3d	0.0028839111
185	0xbb5f	-0.00340271
186	0x3b19	0.0023345947
187	0x3b6a	0.0035705566
188	0x3b36	0.0027770996
189	0xbb1f	-0.0024261475
190	0x3b80	0.00390625
191	0xbb0d	-0.0021514893
192	0xbb5a	-0.003326416
193	0xbab6	-0.0013885498
194	0x3aee	0.0018157959
195	0xbb3b	-0.0028533936
196	0x3aba	0.0014190674
197	0x3af4	0.0018615723
198	0xbb2f	-0.002670288
199	0x3af8	0.0018920898
200	0x3b2e	0.0026550293
201	0xbb2f	-0.002670288
202	0x3b63	0.0034637451
203	0x3b60	0.0034179688
204	0x3b2a	0.0025939941
205	0xbb1d	-0.0023956299
206	0x3b6a	0.0035705566
207	0xbb7c	-0.0038452148
208	0x3b0e	0.002166748
209	0xbb02	-0.0019836426
210	0x3af0	0.0018310547
211	0x3b00	0.001953125
212	0x3b02	0.0019836426
213	0xbb06	-0.0020446777
214	0x3b00	0.001953125
215	0xbb13	-0.002243042
216	0xbb82	-0.003967285
217	0x3b7d	0.0038604736
218	0xbb84	-0.0040283203
219	0xbb84	-0.0040283203
220	0xbb6a	-0.0035705566
221	0x3b80	0.00390625
222	0xbb81	-0.0039367676
223	0x3b7c	0.0038452148
224	0xba83	-0.0009994507
225	0x39ce	0.00039291382
226	0xb938	-0.00017547607
227	0xba30	-0.0006713867
228	0xbab2	-0.0013580322
229	0xba91	-0.0011062622
230	0xba3c	-0.0007171631
231	0x39bc	0.00035858154
232	0x39f7	0.0004711151
233	0xbad2	-0.0016021729
234	0xbaba	-0.0014190674
235	0xba09	-0.0005226135
236	0xbaa5	-0.0012588501
237	0xba04	-0.00050354004
238	0x3962	0.0002155304
239	0x3a8e	0.001083374
240	0x3b82	0.003967285
241	0xbb82	-0.003967285
242	0x3b80	0.00390625
243	0x3b82	0.003967285
244	0x3b7e	0.0038757324
245	0xbb80	-0.00390625
246	0x3b82	0.003967285
247	0xbb83	-0.0039978027
248	0xbb55	-0.003250122
249	0x3b44	0.0029907227
250	0xbb7d	-0.0038604736
251	0xbb80	-0.00390625
252	0xbb3d	-0.0028839111
253	0x3b51	0.003189087
254	0xbb7c	-0.0038452148
255	0x3b7d	0.0038604736

base_model.model.transformer.h.11.attn.c_attn.lora_A.weight bf16 [8, 768]
0	0x3d12	0.03564453
1	0x3c0f	0.008728027
2	0x3c0d	0.008605957
3	0xbc79	-0.015197754
4	0xbc67	-0.014099121
5	0xbcd5	-0.026000977
6	0xbb80	-0.00390625
7	0x3c00	0.0078125
8	0xbc8e	-0.017333984
9	0x3c00	0.0078125
10	0x3c99	0.018676758
11	0xbc24	-0.010009766
12	0x3be3	0.0069274902
13	0xbca5	-0.020141602
14	0xbbdd	-0.0067443848
15	0x3ca6	0.020263672
16	0xbcc0	-0.0234375
17	0xbca4	-0.020019531
18	0xbb87	-0.004119873
19	0xbd09	-0.033447266
20	0x3c98	0.018554688
21	0x3c00	0.0078125
22	0x3b87	0.004119873
23	0xbc06	-0.008178711
24	0xbd04	-0.032226562
25	0x3c00	0.0078125
26	0xbcde	-0.02709961
27	0x3cf5	0.029907227
28	0xbb91	-0.004425049
29	0xbca9	-0.020629883
30	0xbc7c	-0.015380859
31	0x3c60	0.013671875
32	0x3d08	0.033203125
33	0xbd02	-0.03173828
34	0xbb87	-0.004119873
35	0x3ccc	0.024902344
36	0x3cda	0.026611328
37	0x3cb6	0.022216797
38	0xb807	-3.2186508e-05
39	0xbce1	-0.02746582
40	0xbb17	-0.0023040771
41	0xbcc5	-0.024047852
42	0xbd06	-0.032714844
43	0xbcea	-0.028564453
44	0xbc9b	-0.018920898
45	0x3ce3	0.027709961
46	0xbcce	-0.025146484
47	0xbba4	-0.005004883
48	0x3cb6	0.022216797
49	0xbd10	-0.03515625
50	0x3c91	0.017700195
51	0xbca6	-0.020263672
52	0xbc00	-0.0078125
53	0x3b02	0.0019836426
54	0xbc58	-0.013183594
55	0x3c68	0.014160156
56	0x3b8f	0.0043640137
57	0x3d06	0.032714844
58	0xbc24	-0.010009766
59	0x3ce5	0.027954102
60	0x3cd9	0.026489258
61	0x3c7d	0.0154418945
62	0xbc72	-0.014770508
63	0x3cd7	0.026245117
64	0x3c64	0.013916016
65	0xbcbc	-0.022949219
66	0x3d04	0.032226562
67	0x3c12	0.008911133
68	0x3cc2	0.02368164
69	0x3caf	0.021362305
70	0x3c9f	0.01940918
71	0x3b9a	0.004699707
72	0x3bc3	0.0059509277
73	0x3ca1	0.01965332
74	0xbc40	-0.01171875
75	0x3d0a	0.033691406
76	0xbbd2	-0.0064086914
77	0xbce1	-0.02746582
78	0xbba4	-0.005004883
79	0x3cf9	0.030395508
80	0xbd12	-0.03564453
81	0x3b91	0.004425049
82	0xbcae	-0.021240234
83	0x3cdf	0.02722168
84	0x3c75	0.014953613
85	0x3c8c	0.017089844
86	0x3c00	0.0078125
87	0xbc09	-0.008361816
88	0x3cda	0.026611328
89	0x3ce2	0.02758789
90	0xbb81	-0.0039367676
91	0x3c00	0.0078125
92	0x3d0d	0.034423828
93	0x3be3	0.0069274902
94	0xbcf6	-0.030029297
95	0x3b80	0.00390625
96	0xbcff	-0.03112793
97	0x3cc5	0.024047852
98	0x3cf2	0.029541016
99	0xbc05	-0.008117676
100	0xbb8a	-0.004211426
101	0xbd0e	-0.03466797
102	0xbce1	-0.02746582
103	0x3caf	0.021362305
104	0xbcc6	-0.024169922
105	0xbc90	-0.017578125
106	0xbc77	-0.015075684
107	0xbbbd	-0.0057678223
108	0x3c8c	0.017089844
109	0x3d07	0.032958984
110	0xbcf5	-0.029907227
111	0x3c81	0.01574707
112	0xbc6a	-0.014282227
113	0xbbac	-0.0052490234
114	0x3c83	0.015991211
115	0xbca1	-0.01965332
116	0xbce9	-0.028442383
117	0xbc17	-0.009216309
118	0x3c01	0.007873535
119	0xbca3	-0.019897461
120	0x3c12	0.008911133
121	0xbd04	-0.032226562
122	0x3bdc	0.006713867
123	0x3c9e	0.01928711
124	0x3c47	0.012145996
125	0xbcd6	-0.026123047
126	0xbc3d	-0.0115356445
127	0xbcb3	-0.021850586
128	0xbc9b	-0.018920898
129	0xbc6c	-0.014404297
130	0xbc00	-0.0078125
131	0x3c20	0.009765625
132	0xbc00	-0.0078125
133	0x3c83	0.015991211
134	0x3c2f	0.010681152
135	0x3c14	0.009033203
136	0x3c9b	0.018920898
137	0x3cb3	0.021850586
138	0x3c2e	0.010620117
139	0x3cf8	0.030273438
140	0xbcbf	-0.02331543
141	0xbc2c	-0.010498047
142	0x3c69	0.014221191
143	0xbca3	-0.019897461
144	0x3c00	0.0078125
145	0xbc36	-0.011108398
146	0x3cdf	0.02722168
147	0x3ba4	0.005004883
148	0xbc27	-0.010192871
149	0x3bf1	0.0073547363
150	0xbd10	-0.03515625
151	0x3cd8	0.026367188
152	0x3c54	0.012939453
153	0xbcf0	-0.029296875
154	0x3cf2	0.029541016
155	0x3d13	0.035888672
156	0x3cc0	0.0234375
157	0xbc23	-0.0099487305
158	0xbc8e	-0.017333984
159	0xbd12	-0.03564453
160	0xbca4	-0.020019531
161	0x3ce1	0.02746582
162	0xbd13	-0.035888672
163	0x3ca5	0.020141602
164	0xbd12	-0.03564453
165	0x3c99	0.018676758
166	0xbb80	-0.00390625
167	0x3ce2	0.02758789
168	0x3bff	0.0077819824
169	0x3d10	0.03515625
170	0x3b8e	0.004333496
171	0xbc6e	-0.014526367
172	0x3cb8	0.022460938
173	0xbb9a	-0.004699707
174	0xbccf	-0.025268555
175	0xbc3a	-0.011352539
176	0xbb93	-0.004486084
177	0xbcd6	-0.026123047
178	0xbcc8	-0.024414062
179	0x3c71	0.014709473
180	0x3cc1	0.02355957
181	0x3c6a	0.014282227
182	0x3cbb	0.022827148
183	0xbc94	-0.018066406
184	0x3c24	0.010009766
185	0xbc00	-0.0078125
186	0xbb55	-0.003250122
187	0xbca0	-0.01953125
188	0xbced	-0.028930664
189	0x3ccc	0.024902344
190	0xbb7f	-0.0038909912
191	0xbc2c	-0.010498047
192	0xbced	-0.028930664
193	0xbcde	-0.02709961
194	0x3d10	0.03515625
195	0xbd0e	-0.03466797
196	0x3cac	0.020996094
197	0x3cfa	0.030517578
198	0x3b80	0.00390625
199	0xbc22	-0.009887695
200	0x3c10	0.0087890625
201	0x3c12	0.008911133
202	0x3c80	0.015625
203	0xbcbe	-0.02319336
204	0xbc83	-0.015991211
205	0xbcd4	-0.025878906
206	0xbbb3	-0.0054626465
207	0xbc04	-0.008056641
208	0xbb8b	-0.0042419434
209	0x3c95	0.018188477
210	0xbcc8	-0.024414062
211	0x3d04	0.032226562
212	0xbcda	-0.026611328
213	0x3c94	0.018066406
214	0xbd0f	-0.03491211
215	0xbbb3	-0.0054626465
216	0x3d12	0.03564453
217	0x3cfc	0.030761719
218	0x3ca5	0.020141602
219	0xbb90	-0.0043945312
220	0x3ca0	0.01953125
221	0x3c49	0.012268066
222	0xbccb	-0.024780273
223	0x3c8f	0.017456055
224	0x3c84	0.016113281
225	0x3ca3	0.019897461
226	0xbb0a	-0.002105713
227	0x3c3a	0.011352539
228	0x3cac	0.020996094
229	0x3cec	0.028808594
230	0xbd05	-0.032470703
231	0x3ca1	0.01965332
232	0xbcf0	-0.029296875
233	0xbcfe	-0.03100586
234	0x3c55	0.013000488
235	0xbc88	-0.016601562
236	0xbb86	-0.0040893555
237	0x3b81	0.0039367676
238	0xbc4e	-0.012573242
239	0x3cbf	0.02331543
240	0x3c4c	0.012451172
241	0xbca9	-0.020629883
242	0x3c90	0.017578125
243	0xbc7b	-0.015319824
244	0xbbbb	-0.005706787
245	0x3cfe	0.03100586
246	0xbc92	-0.017822266
247	0x3cca	0.024658203
248	0xbc00	-0.0078125
249	0xbd0d	-0.034423828
250	0xbcf1	-0.029418945
251	0xbc22	-0.009887695
252	0x3cbf	0.02331543
253	0xbb8e	-0.004333496
254	0xbbdc	-0.006713867
255	0xbb80	-0.00390625
