examples/research_projects/stack_llama/scripts/gpt2_peft_stack-exchange-paired_rmts__100000_2e-05/checkpoint-24500/adapter_model.safetensors (safetensors, 594496 bytes, 25 tensors)

base_model.model.score.weight bf16 [1, 768]
000000 f0 3c b9 3b 9e 3c 01 3d 22 3c f9 bc b0 bb 3c 3c
       0.029296875 0.005645752 0.01928711 0.03149414 0.009887695 -0.030395508 -0.0053710938 0.011474609
000010 ce 3b 3a bc 32 3c 38 bc 45 3c 43 3d 09 3d 89 bc
       0.006286621 -0.011352539 0.010864258 -0.011230469 0.012023926 0.047607422 0.033447266 -0.016723633
000020 25 bc 27 bc 0f bc e0 3c 5c bc 80 bb 93 3c db bc
       -0.010070801 -0.010192871 -0.008728027 0.02734375 -0.013427734 -0.00390625 0.017944336 -0.026733398
000030 7b 3c bc 3c 3c bc 9e 3c 27 3d 38 3c 3b bb 65 bc
       0.015319824 0.022949219 -0.011474609 0.01928711 0.040771484 0.011230469 -0.0028533936 -0.013977051
000040 1a bc e4 bc e3 3c 49 bc 72 3d 56 3c de bc f3 bc
       -0.009399414 -0.027832031 0.027709961 -0.012268066 0.05908203 0.013061523 -0.02709961 -0.029663086
000050 a2 3c c3 3c 25 bd 03 bd 9e bc 38 3c 60 bc 76 bc
       0.01977539 0.023803711 -0.040283203 -0.031982422 -0.01928711 0.011230469 -0.013671875 -0.015014648
000060 97 3c f1 3b 23 3c e8 bc 16 3b 03 3d cb 3b 20 bc
       0.018432617 0.0073547363 0.0099487305 -0.028320312 0.0022888184 0.031982422 0.0061950684 -0.009765625
000070 90 3c e7 bc 46 3b 91 bc 0b 3b 80 3b ba bc 8f 3b
       0.017578125 -0.028198242 0.0030212402 -0.017700195 0.0021209717 0.00390625 -0.022705078 0.0043640137
000080 9a 3c 03 3c 29 3c b1 3c 0b bc e9 bc 3e bc 4d 3c
       0.018798828 0.0079956055 0.010314941 0.021606445 -0.008483887 -0.028442383 -0.01159668 0.012512207
000090 d1 3c ae bb 00 3b 1d 3c b5 3c 5a 3a 00 3c aa 3c
       0.025512695 -0.0053100586 0.001953125 0.0095825195 0.022094727 0.000831604 0.0078125 0.020751953
0000a0 ac 3c 05 bc b5 bc 0d bb d0 bb 98 bc 95 bc 69 bc
       0.020996094 -0.008117676 -0.022094727 -0.0021514893 -0.0063476562 -0.018554688 -0.018188477 -0.014221191
0000b0 c8 3c c6 3b bb 3b 80 bb 64 bc 20 3d be 3c c8 3a
       0.024414062 0.0060424805 0.005706787 -0.00390625 -0.013916016 0.0390625 0.02319336 0.0015258789
0000c0 34 3b a0 3c 08 bb 27 3c ba bc e9 3c 92 bc 25 3c
       0.002746582 0.01953125 -0.0020751953 0.010192871 -0.022705078 0.028442383 -0.017822266 0.010070801
0000d0 d0 3c 17 3b 5f bc bc 3c 60 3b 07 bc 49 ba 0b bd
       0.025390625 0.0023040771 -0.01361084 0.022949219 0.0034179688 -0.008239746 -0.00076675415 -0.033935547
0000e0 8a 3c 3e 3c 29 bd 87 bc 52 bc 24 3c 75 3c 8b bb
       0.016845703 0.01159668 -0.041259766 -0.016479492 -0.012817383 0.010009766 0.014953613 -0.0042419434
0000f0 2e 3c ed bc 5a bc 99 3b b6 3c c8 3c 1f 3d 03 3d
       0.010620117 -0.028930664 -0.013305664 0.0046691895 0.022216797 0.024414062 0.03881836 0.031982422
000100 1f bc 95 3c b8 bc ef 3b b7 bc 9c bc 0d bb 36 3c
       -0.00970459 0.018188477 -0.022460938 0.007293701 -0.022338867 -0.019042969 -0.0021514893 0.011108398
000110 e4 bc b5 3c c8 bc 92 3c d5 3c 63 bb 55 3b 98 3c
       -0.027832031 0.022094727 -0.024414062 0.017822266 0.026000977 -0.0034637451 0.003250122 0.018554688
000120 0b bd 2d 3c d1 bb d9 bc f3 3c 89 bb 7f 3b c9 bc
       -0.033935547 0.010559082 -0.006378174 -0.026489258 0.029663086 -0.004180908 0.0038909912 -0.024536133
000130 47 3c 99 3c 2e bd 5a bb 9a 3c bf bc 80 3b 8c 3b
       0.012145996 0.018676758 -0.04248047 -0.003326416 0.018798828 -0.02331543 0.00390625 0.004272461
000140 71 3c 59 bc 3b 3c 5e 3c 95 bc 03 3d 1a 3c 94 3b
       0.014709473 -0.013244629 0.011413574 0.013549805 -0.018188477 0.031982422 0.009399414 0.0045166016
000150 55 bc ee bb d6 bc 1a 3d 65 bc 3c 3c 73 3c f5 3c
       -0.013000488 -0.0072631836 -0.026123047 0.037597656 -0.013977051 0.011474609 0.014831543 0.029907227
000160 2d 3c 82 bb 82 3b 9a bb 47 bc 45 3c b1 3b f6 3a
       0.010559082 -0.003967285 0.003967285 -0.004699707 -0.012145996 0.012023926 0.0054016113 0.001876831
000170 02 3d 28 3c 85 3b 90 bc f8 b9 86 3c 80 3b 80 bb
       0.03173828 0.010253906 0.004058838 -0.017578125 -0.00047302246 0.016357422 0.00390625 -0.00390625
000180 43 bc b3 3c 02 3d b5 bc 02 3d 71 bc 1b 3c 07 bc
       -0.0119018555 0.021850586 0.03173828 -0.022094727 0.03173828 -0.014709473 0.009460449 -0.008239746
000190 4c 3b 7d 3b 2d 3b c5 3c f3 bc 08 3c 6d 3b 76 3b
       0.003112793 0.0038604736 0.0026397705 0.024047852 -0.029663086 0.008300781 0.003616333 0.003753662
0001a0 25 3b 12 bb d6 3b 72 3b 7b 3c 9e bc 0a 3d 82 3b
       0.0025177002 -0.0022277832 0.0065307617 0.003692627 0.015319824 -0.01928711 0.033691406 0.003967285
0001b0 36 bc 85 3c 83 bb 9d 3c c0 3b 9d 3c 3a 3b 57 bd
       -0.011108398 0.016235352 -0.0039978027 0.019165039 0.005859375 0.019165039 0.0028381348 -0.052490234
0001c0 07 bc be 3c 44 bd 60 bc 00 bd a8 bc 8d 3c d7 3b
       -0.008239746 0.02319336 -0.047851562 -0.013671875 -0.03125 -0.020507812 0.017211914 0.0065612793
0001d0 38 bd 1d 3c 05 bd 43 bc 91 bc 1e 3c 47 3c 7e bc
       -0.044921875 0.0095825195 -0.032470703 -0.0119018555 -0.017700195 0.009643555 0.012145996 -0.01550293
0001e0 bf bc 90 3c b5 3c b3 3c 05 bd 5d ba 5f 3c 71 3c
       -0.02331543 0.017578125 0.022094727 0.021850586 -0.032470703 -0.0008430481 0.01361084 0.014709473
0001f0 bc bc 6d bc 85 bb 80 bb ae 3b 90 3c ca bc 67 3c
       -0.022949219 -0.014465332 -0.004058838 -0.00390625 0.0053100586 0.017578125 -0.024658203 0.014099121

base_model.model.transformer.h.0.attn.c_attn.lora_A.weight bf16 [8, 768]
000000 d6 bc e5 3c e7 bc 80 bb 0a 3d 90 3c ab bb 83 3c
       -0.026123047 0.027954102 -0.028198242 -0.00390625 0.033691406 0.017578125 -0.005218506 0.015991211
000010 10 3c 36 bc 1a bc 33 bc 08 bd c0 bc 8b 3b 9d 3c
       0.0087890625 -0.011108398 -0.009399414 -0.010925293 -0.033203125 -0.0234375 0.0042419434 0.019165039
000020 ed bc d5 3c 04 3d a5 bc 7f 3c c6 3c 94 bc 92 3c
       -0.028930664 0.026000977 0.032226562 -0.020141602 0.015563965 0.024169922 -0.018066406 0.017822266
000030 06 3d df 3c 0a bd 80 3b 8f bb 87 3c 8f 3b b2 bc
       0.032714844 0.02722168 -0.033691406 0.00390625 -0.0043640137 0.016479492 0.0043640137 -0.021728516
000040 08 bd 1a bc 80 3b c4 bc 60 3c 3b bc 39 bc 9a bc
       -0.033203125 -0.009399414 0.00390625 -0.023925781 0.013671875 -0.011413574 -0.011291504 -0.018798828
000050 c5 bc bf 3c e3 3c 92 3b 99 bc ff ba f3 bb 86 3c
       -0.024047852 0.02331543 0.027709961 0.0044555664 -0.018676758 -0.0019454956 -0.0074157715 0.016357422
000060 04 bc a0 bc bc 3c 2f bc db 3c 8e 3b ac 3c 2a 3b
       -0.008056641 -0.01953125 0.022949219 -0.010681152 0.026733398 0.004333496 0.020996094 0.0025939941
000070 07 bc 80 bb 87 bb 80 3b 82 bb 86 3c 16 3b 75 bb
       -0.008239746 -0.00390625 -0.004119873 0.00390625 -0.003967285 0.016357422 0.0022888184 -0.0037384033
000080 95 3b a5 3b 09 3d 20 3c 02 3d 73 3c cc 3c cc bc
       0.004547119 0.0050354004 0.033447266 0.009765625 0.03173828 0.014831543 0.024902344 -0.024902344
000090 d1 3c a0 bc 71 3b 02 3d 71 3b 9d 3c 8a bb cc bc
       0.025512695 -0.01953125 0.0036773682 0.03173828 0.0036773682 0.019165039 -0.004211426 -0.024902344
0000a0 e7 3c a5 bc 10 3d a2 bb 78 bc f6 bc af 3c f0 bc
       0.028198242 -0.020141602 0.03515625 -0.0049438477 -0.015136719 -0.030029297 0.021362305 -0.029296875
0000b0 a4 bb 13 3b 6b 3c 79 bc 12 3c d7 bc 70 3c 28 bc
       -0.005004883 0.002243042 0.014343262 -0.015197754 0.008911133 -0.026245117 0.0146484375 -0.010253906
0000c0 a6 3c 04 3d 04 3d d2 bc 03 bd 52 3c bf bc bb bb
       0.020263672 0.032226562 0.032226562 -0.025634766 -0.031982422 0.012817383 -0.02331543 -0.005706787
0000d0 87 3c a2 3c e5 bb bb 3c 84 bc cd bb a3 3c d1 3b
       0.016479492 0.01977539 -0.0069885254 0.022827148 -0.016113281 -0.0062561035 0.019897461 0.006378174
0000e0 04 3d 9e 3c db 3c 20 3c 7e 3b 03 bc e8 3c 80 bb
       0.032226562 0.01928711 0.026733398 0.009765625 0.0038757324 -0.0079956055 0.028320312 -0.00390625
0000f0 84 3b bd bc 32 3b 66 3b 1b 3c 97 3c 6b 3c 0d bd
       0.0040283203 -0.023071289 0.0027160645 0.0035095215 0.009460449 0.018432617 0.014343262 -0.034423828
000100 f4 bc ca 3c 0e bd 9a 3c e8 3a 53 3c dc bc 42 3c
       -0.029785156 0.024658203 -0.03466797 0.018798828 0.0017700195 0.012878418 -0.026855469 0.01184082
000110 94 bc 12 3d 6a bc e7 bb 07 bb 1c 3c 7c bc 04 3d
       -0.018066406 0.03564453 -0.014282227 -0.0070495605 -0.0020599365 0.009521484 -0.015380859 0.032226562
000120 a8 bc 80 3b 3a 3c 10 bd f1 bc b6 3c 11 3d 92 3c
       -0.020507812 0.00390625 0.011352539 -0.03515625 -0.029418945 0.022216797 0.03540039 0.017822266
000130 a5 bc 09 3c 0e bd 81 3b d3 bc 32 bc b6 3c 05 3d
       -0.020141602 0.008361816 -0.03466797 0.0039367676 -0.025756836 -0.010864258 0.022216797 0.032470703
000140 4b bc c8 3c 07 bd 90 3b 71 3c af bc ad 3c e6 3c
       -0.012390137 0.024414062 -0.032958984 0.0043945312 0.014709473 -0.021362305 0.021118164 0.028076172
000150 cc 3b a7 3c f3 3c 09 3c 91 3c 9a bb 82 bb 3b 3c
       0.006225586 0.020385742 0.029663086 0.008361816 0.017700195 -0.004699707 -0.003967285 0.011413574
000160 0c 3d f2 bc e2 3c 15 3c a9 bc 7c 3c 7c bb 36 bc
       0.034179688 -0.029541016 0.02758789 0.009094238 -0.020629883 0.015380859 -0.0038452148 -0.011108398
000170 07 3d fd 3b e9 bc fb 3c 7f bc b9 3c b0 3c e8 bb
       0.032958984 0.0077209473 -0.028442383 0.030639648 -0.015563965 0.022583008 0.021484375 -0.007080078
000180 08 3d 82 3b cf 3c aa 3c b0 bc d3 3c 14 bc b4 bb
       0.033203125 0.003967285 0.025268555 0.020751953 -0.021484375 0.025756836 -0.009033203 -0.005493164
000190 a8 3c 27 3c 11 3d c7 3c 82 3b 10 3d 4c bc dc bc
       0.020507812 0.010192871 0.03540039 0.024291992 0.003967285 0.03515625 -0.012451172 -0.026855469
0001a0 66 bc ad bc 59 3b 63 bc ea bc 85 3b 88 bc 37 bb
       -0.014038086 -0.021118164 0.0033111572 -0.0138549805 -0.028564453 0.004058838 -0.016601562 -0.0027923584
0001b0 4a bc 91 bc 11 3d b2 3b 97 bb e8 bb f4 3c e2 bc
       -0.012329102 -0.017700195 0.03540039 0.005432129 -0.0046081543 -0.007080078 0.029785156 -0.02758789
0001c0 d9 3c 13 3d 4e bc 9e bc 81 3c 03 3d 82 bb f9 3c
       0.026489258 0.035888672 -0.012573242 -0.01928711 0.01574707 0.031982422 -0.003967285 0.030395508
0001d0 14 bc 11 bd 93 3c 0d 3d 19 bc fb bb 03 3c 05 3d
       -0.009033203 -0.03540039 0.017944336 0.034423828 -0.009338379 -0.007659912 0.0079956055 0.032470703
0001e0 04 3d ad bc d7 3c 88 bc 26 bc f1 3b d9 3c a8 bc
       0.032226562 -0.021118164 0.026245117 -0.016601562 -0.010131836 0.0073547363 0.026489258 -0.020507812
0001f0 95 3b bb bc 02 bd 94 bc 28 bc c7 bc de bc 00 bc
       0.004547119 -0.022827148 -0.03173828 -0.018066406 -0.010253906 -0.024291992 -0.02709961 -0.0078125

base_model.model.transformer.h.0.attn.c_attn.lora_B.weight bf16 [2304, 8]
000000 fd ba cd ba 83 3a 96 39 fa ba cd ba d7 3a f6 3a
       -0.0019302368 -0.0015640259 0.0009994507 0.0002861023 -0.0019073486 -0.0015640259 0.0016403198 0.001876831
000010 00 bb 4f b9 63 3a 11 3b b4 b9 00 bb 9e b9 75 3a
       -0.001953125 -0.00019741058 0.0008659363 0.0022125244 -0.00034332275 -0.001953125 -0.00030136108 0.00093460083
000020 db 3a 17 3b e7 3a 83 3a 03 3b ae 3a f0 ba 98 ba
       0.0016708374 0.0023040771 0.0017623901 0.0009994507 0.0019989014 0.0013275146 -0.0018310547 -0.001159668
000030 04 3b 8c 3a 3c ba fc 3a 06 3b 4f b9 d9 ba 9b ba
       0.0020141602 0.0010681152 -0.0007171631 0.0019226074 0.0020446777 -0.00019741058 -0.0016555786 -0.0011825562
000040 a2 ba 00 3a 28 3a d5 ba 48 3a b4 3a 7f 3a 09 ba
       -0.0012359619 0.00048828125 0.00064086914 -0.001625061 0.00076293945 0.001373291 0.0009727478 -0.0005226135
000050 15 ba e7 3a b6 3a 88 3a 96 ba d7 ba 93 ba 4d 3a
       -0.0005683899 0.0017623901 0.0013885498 0.0010375977 -0.0011444092 -0.0016403198 -0.001121521 0.00078201294
000060 93 3a d1 3a b2 3a a2 3a 1a 38 bb ba 90 ba bf ba
       0.001121521 0.0015945435 0.0013580322 0.0012359619 3.671646e-05 -0.0014266968 -0.0010986328 -0.0014572144
000070 44 b8 99 3a 1b b9 80 3a ae 39 e3 ba 26 ba 62 ba
       -4.673004e-05 0.0011672974 -0.00014781952 0.0009765625 0.00033187866 -0.0017318726 -0.00063323975 -0.0008621216
000080 fd ba b3 ba 80 38 89 3a c0 39 55 3a 58 39 b4 ba
       -0.0019302368 -0.0013656616 6.1035156e-05 0.001045227 0.00036621094 0.0008125305 0.00020599365 -0.001373291
000090 eb 38 14 ba 74 3a fa ba 9a ba 4f ba 5c ba 48 39
       0.00011205673 -0.0005645752 0.00093078613 -0.0019073486 -0.0011749268 -0.00078964233 -0.0008392334 0.00019073486
0000a0 56 3a f9 ba ff ba 04 3b db 3a 8a b9 00 bb 00 bb
       0.0008163452 -0.0018997192 -0.0019454956 0.0020141602 0.0016708374 -0.0002632141 -0.001953125 -0.001953125
0000b0 f6 b9 7c 3a 1c 3a b7 3a fc ba 82 ba 00 39 8b 3a
       -0.00046920776 0.0009613037 0.0005950928 0.0013961792 -0.0019226074 -0.0009918213 0.00012207031 0.0010604858
0000c0 a2 3a 35 3a 39 ba bc 3a e2 3a f1 b9 ce ba a4 ba
       0.0012359619 0.0006904602 -0.000705719 0.0014343262 0.0017242432 -0.00045967102 -0.0015716553 -0.0012512207
0000d0 9e 3a e2 3a 79 3a 68 ba 76 b7 94 3a a4 ba 5b ba
       0.0012054443 0.0017242432 0.0009498596 -0.00088500977 -1.4662743e-05 0.0011291504 -0.0012512207 -0.0008354187
0000e0 cd ba 02 bb f9 ba eb 3a 39 3a c5 3a ae 3a 27 ba
       -0.0015640259 -0.0019836426 -0.0018997192 0.0017929077 0.000705719 0.0015029907 0.0013275146 -0.00063705444
0000f0 81 3a eb 3a 08 3b 3b 3a 01 bb 82 ba 40 ba a2 3a
       0.0009841919 0.0017929077 0.0020751953 0.0007133484 -0.0019683838 -0.0009918213 -0.0007324219 0.0012359619
000100 9a ba e3 b8 9a 3a 8b ba dd 39 50 3a 9f ba 02 3a
       -0.0011749268 -0.000108242035 0.0011749268 -0.0010604858 0.00042152405 0.00079345703 -0.0012130737 0.00049591064
000110 a2 ba 0f bb 99 ba d1 ba 84 3a 00 3a d1 3a dd 3a
       -0.0012359619 -0.0021820068 -0.0011672974 -0.0015945435 0.0010070801 0.00048828125 0.0015945435 0.0016860962
000120 26 ba a8 3a fc 3a ea ba 00 bb f4 ba c4 39 04 3b
       -0.00063323975 0.0012817383 0.0019226074 -0.0017852783 -0.001953125 -0.0018615723 0.00037384033 0.0020141602
000130 73 3a e6 3a 05 3b 05 bb f9 ba d5 ba 18 3a 81 3a
       0.00092697144 0.0017547607 0.002029419 -0.002029419 -0.0018997192 -0.001625061 0.000579834 0.0009841919
000140 ed ba 0c bb 8f ba 00 bb a5 ba 1b ba 0e 3b d7 3a
       -0.0018081665 -0.0021362305 -0.0010910034 -0.001953125 -0.0012588501 -0.0005912781 0.002166748 0.0016403198
000150 a9 ba d5 ba 90 3a d6 ba 00 bb 41 ba ff 3a 8b 3a
       -0.0012893677 -0.001625061 0.0010986328 -0.0016326904 -0.001953125 -0.0007362366 0.0019454956 0.0010604858
000160 a7 ba 11 bb 8b 3a f5 3a d6 ba 22 ba 06 3b ed 38
       -0.0012741089 -0.0022125244 0.0010604858 0.0018692017 -0.0016326904 -0.00061798096 0.0020446777 0.00011301041
000170 d2 39 82 3a d3 3a 25 ba 97 b8 46 3a 81 ba a8 ba
       0.0004005432 0.0009918213 0.0016098022 -0.00062942505 -7.200241e-05 0.00075531006 -0.0009841919 -0.0012817383
000180 c7 3a 0c 3b ae ba fa ba 8c 3a eb 3a 3c ba 2d 3a
       0.0015182495 0.0021362305 -0.0013275146 -0.0019073486 0.0010681152 0.0017929077 -0.0007171631 0.0006599426
000190 ca b9 fc ba 1c bb 83 ba c9 3a c7 ba 30 3a 32 39
       -0.00038528442 -0.0019226074 -0.002380371 -0.0009994507 0.0015335083 -0.0015182495 0.0006713867 0.00016975403
0001a0 7e 3a a3 3a 02 3b a7 36 56 ba 27 ba a6 ba 6c ba
       0.0009689331 0.0012435913 0.0019836426 4.976988e-06 -0.0008163452 -0.00063705444 -0.0012664795 -0.00090026855
0001b0 61 3a 81 ba e7 3a 6b 3a e8 ba bc ba 90 ba 7f ba
       0.0008583069 -0.0009841919 0.0017623901 0.00089645386 -0.0017700195 -0.0014343262 -0.0010986328 -0.0009727478
0001c0 ca 3a ba 3a 02 3a 65 ba da ba b2 ba e3 3a 07 3b
       0.0015411377 0.0014190674 0.00049591064 -0.0008735657 -0.001663208 -0.0013580322 0.0017318726 0.0020599365
0001d0 99 ba d3 ba a0 ba c2 3a 94 3a 9a ba 8a 3a b9 3a
       -0.0011672974 -0.0016098022 -0.0012207031 0.0014801025 0.0011291504 -0.0011749268 0.0010528564 0.001411438
0001e0 86 b9 c4 ba de ba c5 ba fe 3a 00 3b 98 3a c8 b9
       -0.00025558472 -0.0014953613 -0.0016937256 -0.0015029907 0.0019378662 0.001953125 0.001159668 -0.00038146973
0001f0 b2 3a 37 ba 3b 3a e2 3a 3c b9 4c ba a0 ba ce 39
       0.0013580322 -0.0006980896 0.0007133484 0.0017242432 -0.00017929077 -0.00077819824 -0.0012207031 0.00039291382

base_model.model.transformer.h.1.attn.c_attn.lora_A.weight bf16 [8, 768]
000000 be 3c a9 3c d7 bc 05 3c 0a bd b1 3c a0 bc 2d bc
       0.02319336 0.020629883 -0.026245117 0.008117676 -0.033691406 0.021606445 -0.01953125 -0.010559082
000010 ee bc 04 3d 12 3d 16 3c 7c bb 85 bb a8 3c b3 3c
       -0.029052734 0.032226562 0.03564453 0.009155273 -0.0038452148 -0.004058838 0.020507812 0.021850586
000020 2e bc 97 3b 00 bc cd 3c 36 3c ad bc a2 bc 84 3c
       -0.010620117 0.0046081543 -0.0078125 0.025024414 0.011108398 -0.021118164 -0.01977539 0.016113281
000030 5a 3c 30 bc f8 bb 25 bc 9e bc 1d 3c d2 3c 71 bc
       0.013305664 -0.0107421875 -0.0075683594 -0.010070801 -0.01928711 0.0095825195 0.025634766 -0.014709473
000040 39 3c aa bc 6c 3c a1 3b 16 3c 05 bc 0b 3d ca bc
       0.011291504 -0.020751953 0.014404297 0.00491333 0.009155273 -0.008117676 0.033935547 -0.024658203
000050 06 3c 09 bd ed 3c 34 3c a1 bb 13 3d a6 bc f2 3c
       0.008178711 -0.033447266 0.028930664 0.010986328 -0.00491333 0.035888672 -0.020263672 0.029541016
000060 bb 3b 85 3c 6d 3c 83 bc d2 3b b4 bc 87 bc b3 3c
       0.005706787 0.016235352 0.014465332 -0.015991211 0.0064086914 -0.021972656 -0.016479492 0.021850586
000070 8d 3c 13 bd 6b 3c d0 3c 3b 3b 09 bc a8 3b 54 3b
       0.017211914 -0.035888672 0.014343262 0.025390625 0.0028533936 -0.008361816 0.005126953 0.0032348633
000080 4a bc 79 3c d0 3c fe 3c c5 bc 0b bc 11 3d 82 3c
       -0.012329102 0.015197754 0.025390625 0.03100586 -0.024047852 -0.008483887 0.03540039 0.01586914
000090 af bc 3f bb 93 3c 79 bc 02 bd 64 3c c2 bc 9c bc
       -0.021362305 -0.0029144287 0.017944336 -0.015197754 -0.03173828 0.013916016 -0.02368164 -0.019042969
0000a0 81 3c 9f bb 00 bc eb 3b b2 bc a6 bc 9a bb f6 3c
       0.01574707 -0.004852295 -0.0078125 0.007171631 -0.021728516 -0.020263672 -0.004699707 0.030029297
0000b0 c3 3c 22 3c f4 ba 00 bc 85 3b b7 3b cd 3b 0d bd
       0.023803711 0.009887695 -0.0018615723 -0.0078125 0.004058838 0.005584717 0.0062561035 -0.034423828
0000c0 a3 3c 5a bb 98 3c 0e 3d fe 3c 8e 3c 7a bb ef bc
       0.019897461 -0.003326416 0.018554688 0.03466797 0.03100586 0.017333984 -0.0038146973 -0.029174805
0000d0 12 3d 00 3c a3 3c 36 3c c5 3c ca bc c5 bc 6a bb
       0.03564453 0.0078125 0.019897461 0.011108398 0.024047852 -0.024658203 -0.024047852 -0.0035705566
0000e0 0d bd 87 ba fa bc 49 bc f8 bc 2b bc c3 3c b1 bb
       -0.034423828 -0.0010299683 -0.030517578 -0.012268066 -0.030273438 -0.010437012 0.023803711 -0.0054016113
0000f0 1a 3c 95 bb f8 bb f7 bc cf bc ce bc 8c 3c 79 3b
       0.009399414 -0.004547119 -0.0075683594 -0.030151367 -0.025268555 -0.025146484 0.017089844 0.0037994385
000100 0d 3d 8a 3b c6 bc aa 3c a2 bc ed bc 7a bc 00 3d
       0.034423828 0.004211426 -0.024169922 0.020751953 -0.01977539 -0.028930664 -0.015258789 0.03125
000110 46 3c 11 3d f7 bc 40 3c 05 bd 9f 3c d6 3c 5b bc
       0.012084961 0.03540039 -0.030151367 0.01171875 -0.032470703 0.01940918 0.026123047 -0.013366699
000120 bb 3c 7d 3c 3a 3c b4 bc 7e 3c 5f bc 5d 3c 6b bc
       0.022827148 0.0154418945 0.011352539 -0.021972656 0.01550293 -0.01361084 0.0134887695 -0.014343262
000130 bd 3c 59 3c c1 bc 10 3d 89 3b b9 3b 14 bd 8c 3c
       0.023071289 0.013244629 -0.02355957 0.03515625 0.004180908 0.005645752 -0.036132812 0.017089844
000140 de 3c be bc a7 bc fb bb 90 bc 3b bc df 3b 04 3d
       0.02709961 -0.02319336 -0.020385742 -0.007659912 -0.017578125 -0.011413574 0.00680542 0.032226562
000150 d3 bb 02 bd 37 3c be 3c 07 bd 87 3c 04 3d af bb
       -0.006439209 -0.03173828 0.011169434 0.02319336 -0.032958984 0.016479492 0.032226562 -0.005340576
000160 b4 bc c9 3a 09 bd 42 bc 5b bc b4 bc 09 bd ed bc
       -0.021972656 0.0015335083 -0.033447266 -0.01184082 -0.013366699 -0.021972656 -0.033447266 -0.028930664
000170 d0 3b 29 3b bd 3b c1 3c 8f bc 73 bc 67 3c c7 ba
       0.0063476562 0.0025787354 0.0057678223 0.02355957 -0.017456055 -0.014831543 0.014099121 -0.0015182495
000180 0a 3d f0 bc 75 bb 7c 3c c8 3b 34 3c 46 3c 06 bd
       0.033691406 -0.029296875 -0.0037384033 0.015380859 0.0061035156 0.010986328 0.012084961 -0.032714844
000190 07 3d c0 3c c1 bc cc 3c 4a 3c 4a bc 00 3c 69 3b
       0.032958984 0.0234375 -0.02355957 0.024902344 0.012329102 -0.012329102 0.0078125 0.0035552979
0001a0 8a bb 44 3c d2 3c ff 3c da ba 3a 3c 9e 3c 9e 3c
       -0.004211426 0.011962891 0.025634766 0.03112793 -0.001663208 0.011352539 0.01928711 0.01928711
0001b0 b8 bc 99 3b 0f 3d 01 3d 94 3c 17 3c b2 3c 09 3d
       -0.022460938 0.0046691895 0.03491211 0.03149414 0.018066406 0.009216309 0.021728516 0.033447266
0001c0 5a 3b e9 3c fd 3c 81 bc 75 bb 70 3c 33 bc da 3c
       0.003326416 0.028442383 0.030883789 -0.01574707 -0.0037384033 0.0146484375 -0.010925293 0.026611328
0001d0 e5 bc b0 bc 10 3d c2 bc e8 3c 04 3d 76 3c 0b 3c
       -0.027954102 -0.021484375 0.03515625 -0.02368164 0.028320312 0.032226562 0.015014648 0.008483887
0001e0 e6 bb 7b bb 6e 3b 0a bc d5 3a 34 3c 86 3c e5 3c
       -0.007019043 -0.003829956 0.0036315918 -0.008422852 0.001625061 0.010986328 0.016357422 0.027954102
0001f0 75 3c e3 3c 09 3c 11 3c c0 3c 90 3b c6 bc a3 bc
       0.014953613 0.027709961 0.008361816 0.008850098 0.0234375 0.0043945312 -0.024169922 -0.019897461

base_model.model.transformer.h.1.attn.c_attn.lora_B.weight bf16 [2304, 8]
000000 ae ba 9c ba 03 b9 f8 b7 c1 b9 93 ba 27 ba a9 ba
       -0.0013275146 -0.0011901855 -0.00012493134 -2.9563904e-05 -0.0003681183 -0.001121521 -0.00063705444 -0.0012893677
000010 8a 3a ff 3a 8f 3a 6c 38 76 3a b6 ba b0 39 00 3b
       0.0010528564 0.0019454956 0.0010910034 5.6266785e-05 0.0009384155 -0.0013885498 0.00033569336 0.001953125
000020 b9 ba 05 bb 9d 3a a3 ba 12 ba cc ba 80 3a 77 ba
       -0.001411438 -0.002029419 0.0011978149 -0.0012435913 -0.0005569458 -0.0015563965 0.0009765625 -0.0009422302
000030 88 ba 82 39 bb 39 e2 39 fa 3a 71 ba 32 ba f9 3a
       -0.0010375977 0.00024795532 0.0003566742 0.0004310608 0.0019073486 -0.00091934204 -0.0006790161 0.0018997192
000040 bc 39 9b 3a cb ba b8 39 47 39 9d ba d7 ba 8e 3a
       0.00035858154 0.0011825562 -0.0015487671 0.00035095215 0.00018978119 -0.0011978149 -0.0016403198 0.001083374
000050 e0 b8 11 ba 11 3b 57 ba 48 ba 87 3a cf 3a 82 3a
       -0.00010681152 -0.0005531311 0.0022125244 -0.0008201599 -0.00076293945 0.0010299683 0.0015792847 0.0009918213
000060 83 ba a1 ba e4 ba 78 ba ff ba 0b bb 89 ba 8d 3a
       -0.0009994507 -0.0012283325 -0.001739502 -0.0009460449 -0.0019454956 -0.0021209717 -0.001045227 0.0010757446
000070 f3 38 00 bb 86 ba 02 bb 6b ba ac ba 03 ba d7 ba
       0.00011587143 -0.001953125 -0.0010223389 -0.0019836426 -0.00089645386 -0.0013122559 -0.00049972534 -0.0016403198
000080 bb 3a d7 39 cc b9 c6 b7 fe ba bf 3a f8 b9 0c bb
       0.0014266968 0.00041007996 -0.00038909912 -2.360344e-05 -0.0019378662 0.0014572144 -0.00047302246 -0.0021362305
000090 eb 3a 10 3b 95 3a 07 3b fd 3a fd 3a d8 39 01 3b
       0.0017929077 0.0021972656 0.0011367798 0.0020599365 0.0019302368 0.0019302368 0.0004119873 0.0019683838
0000a0 79 ba 10 b9 01 3b 8c 3a fb 3a a9 39 f1 3a 05 3b
       -0.0009498596 -0.0001373291 0.0019683838 0.0010681152 0.001914978 0.00032234192 0.0018386841 0.002029419
0000b0 05 3b d7 3a e0 b8 47 3a c2 39 ff 3a 7b b9 f7 ba
       0.002029419 0.0016403198 -0.00010681152 0.00075912476 0.00037002563 0.0019454956 -0.00023937225 -0.0018844604
0000c0 ff 3a 97 3a 09 bb f1 b8 ff ba b4 3a f9 39 03 bb
       0.0019454956 0.0011520386 -0.002090454 -0.000114917755 -0.0019454956 0.001373291 0.0004749298 -0.0019989014
0000d0 70 ba 0a ba 8d 38 f4 b9 81 3a b6 ba ab 3a 78 3a
       -0.00091552734 -0.0005264282 6.723404e-05 -0.00046539307 0.0009841919 -0.0013885498 0.0013046265 0.0009460449
0000e0 ac 38 fd ba 8c ba 97 ba 4a 3a 83 ba bc ba ad 3a
       8.201599e-05 -0.0019302368 -0.0010681152 -0.0011520386 0.00077056885 -0.0009994507 -0.0014343262 0.0013198853
0000f0 97 ba 3d b9 10 ba b5 39 66 b9 51 ba 95 ba 49 b9
       -0.0011520386 -0.00018024445 -0.0005493164 0.0003452301 -0.0002193451 -0.0007972717 -0.0011367798 -0.00019168854
000100 68 3a d3 39 f7 b9 d7 3a 07 3b ef 39 1f 3a d2 ba
       0.00088500977 0.00040245056 -0.0004711151 0.0016403198 0.0020599365 0.00045585632 0.00060653687 -0.0016021729
000110 a1 3a 94 3a e1 ba 4b b8 95 ba 2e b8 7f 3a ed ba
       0.0012283325 0.0011291504 -0.0017166138 -4.839897e-05 -0.0011367798 -4.1484833e-05 0.0009727478 -0.0018081665
000120 85 ba fc 3a fe 3a d2 3a 00 3b 06 3b c8 b7 03 3b
       -0.0010147095 0.0019226074 0.0019378662 0.0016021729 0.001953125 0.0020446777 -2.3841858e-05 0.0019989014
000130 bb b9 0b bb 70 ba 56 ba b7 3a 9e ba a8 ba c0 3a
       -0.0003566742 -0.0021209717 -0.00091552734 -0.0008163452 0.0013961792 -0.0012054443 -0.0012817383 0.0014648438
000140 2f ba 1d bb a9 ba e7 ba ad ba 02 ba a7 ba db 3a
       -0.000667572 -0.0023956299 -0.0012893677 -0.0017623901 -0.0013198853 -0.00049591064 -0.0012741089 0.0016708374
000150 f0 ba 09 bb e7 ba a5 ba 5d ba e5 ba a1 39 ad ba
       -0.0018310547 -0.002090454 -0.0017623901 -0.0012588501 -0.0008430481 -0.0017471313 0.00030708313 -0.0013198853
000160 03 bb 08 bb 00 bb 0b bb 10 bb 00 bb 8f ba 0c bb
       -0.0019989014 -0.0020751953 -0.001953125 -0.0021209717 -0.0021972656 -0.001953125 -0.0010910034 -0.0021362305
000170 81 3a 30 3a f3 ba 60 ba e1 ba a6 3a 8d ba f1 b9
       0.0009841919 0.0006713867 -0.0018539429 -0.0008544922 -0.0017166138 0.0012664795 -0.0010757446 -0.00045967102
000180 25 3a 24 3b 37 3a 05 3b 0d 3b 06 3b 11 ba 1d 3b
       0.00062942505 0.0025024414 0.0006980896 0.002029419 0.0021514893 0.0020446777 -0.0005531311 0.0023956299
000190 eb ba 0a bb 9f ba 9d ba 42 ba a9 ba 76 ba 68 39
       -0.0017929077 -0.002105713 -0.0012130737 -0.0011978149 -0.00074005127 -0.0012893677 -0.0009384155 0.00022125244
0001a0 fa 39 1e ba 07 3b a1 3a f4 3a 7a 3a 06 3b 91 ba
       0.00047683716 -0.00060272217 0.0020599365 0.0012283325 0.0018615723 0.0009536743 0.0020446777 -0.0011062622
0001b0 02 bb a0 39 fa b9 a2 ba d2 ba f6 ba d3 ba 7c 3a
       -0.0019836426 0.00030517578 -0.00047683716 -0.0012359619 -0.0016021729 -0.001876831 -0.0016098022 0.0009613037
0001c0 77 3a d1 3a 43 b8 00 b9 81 3a c2 3a a4 3a d1 3a
       0.0009422302 0.0015945435 -4.6491623e-05 -0.00012207031 0.0009841919 0.0014801025 0.0012512207 0.0015945435
0001d0 d9 3a c5 3a eb 3a f7 3a e6 3a 38 3a e7 3a 01 3b
       0.0016555786 0.0015029907 0.0017929077 0.0018844604 0.0017547607 0.0007019043 0.0017623901 0.0019683838
0001e0 36 3a fa 3a 02 3b da 3a 18 3b 0c 3b 87 39 0b 3b
       0.0006942749 0.0019073486 0.0019836426 0.001663208 0.002319336 0.0021362305 0.00025749207 0.0021209717
0001f0 61 ba 4d ba 08 ba 0f ba b7 38 67 ba 82 ba 2e 3a
       -0.0008583069 -0.00078201294 -0.0005187988 -0.0005455017 8.72612e-05 -0.00088119507 -0.0009918213 0.0006637573

base_model.model.transformer.h.10.attn.c_attn.lora_A.weight bf16 [8, 768]
000000 72 bc f8 bc 90 3c 50 3c de 3b e9 bb 12 bd a8 bc
       -0.014770508 -0.030273438 0.017578125 0.0126953125 0.0067749023 -0.0071105957 -0.03564453 -0.020507812
000010 38 bc a9 3c 83 bb 00 bc ad bb 85 bb 7a bb b6 bc
       -0.011230469 0.020629883 -0.0039978027 -0.0078125 -0.005279541 -0.004058838 -0.0038146973 -0.022216797
000020 06 bd b4 3c ea bc 80 bb 88 3b 00 bc da 3c d4 bc
       -0.032714844 0.021972656 -0.028564453 -0.00390625 0.0041503906 -0.0078125 0.026611328 -0.025878906
000030 0c bd 9f bb c4 3c 9a 3c 6f 3c 2e 3c 64 3c fc 3b
       -0.034179688 -0.004852295 0.023925781 0.018798828 0.014587402 0.010620117 0.013916016 0.0076904297
000040 00 3d 95 bc d6 3b 0b 3d dd bc 6b bc 99 bc 06 3d
       0.03125 -0.018188477 0.0065307617 0.033935547 -0.026977539 -0.014343262 -0.018676758 0.032714844
000050 0a bd a8 bc 05 bd ac bb 2b bb a4 3c c5 3c 3b bc
       -0.033691406 -0.020507812 -0.032470703 -0.0052490234 -0.002609253 0.020019531 0.024047852 -0.011413574
000060 91 3c b7 3c 90 bc ec bc df 3c 64 3c f2 3c b6 bc
       0.017700195 0.022338867 -0.017578125 -0.028808594 0.02722168 0.013916016 0.029541016 -0.022216797
000070 bd bc 06 bc 5d bc e2 3c f7 bb b1 bc 85 bc 0e 3d
       -0.023071289 -0.008178711 -0.0134887695 0.02758789 -0.007537842 -0.021606445 -0.016235352 0.03466797
000080 69 3c 11 bd e7 3b fc bc 90 bc d5 bc b6 bc a1 3c
       0.014221191 -0.03540039 0.0070495605 -0.030761719 -0.017578125 -0.026000977 -0.022216797 0.01965332
000090 e9 3b a8 bc 0e 3d 00 bc 8a 3b 84 3c 82 3c 9f bc
       0.0071105957 -0.020507812 0.03466797 -0.0078125 0.004211426 0.016113281 0.01586914 -0.01940918
0000a0 9b bb 4b bc ff 3b c1 3c 62 bc dd bc 9b 3c bb 3b
       -0.0047302246 -0.012390137 0.0077819824 0.02355957 -0.013793945 -0.026977539 0.018920898 0.005706787
0000b0 e0 3c a1 3c 0b 3d 19 3c a4 bc cd bc 80 3b 65 3c
       0.02734375 0.01965332 0.033935547 0.009338379 -0.020019531 -0.025024414 0.00390625 0.013977051
0000c0 05 3d bd 3c 0a bd 63 bc a0 3c d9 3c a6 3c 1f 3b
       0.032470703 0.023071289 -0.033691406 -0.0138549805 0.01953125 0.026489258 0.020263672 0.0024261475
0000d0 21 bb b0 bc f9 bc 52 bc fa 3c 9d bb b0 bc fd 3b
       -0.002456665 -0.021484375 -0.030395508 -0.012817383 0.030517578 -0.0047912598 -0.021484375 0.0077209473
0000e0 b9 3b 94 bc 87 3c 56 bc a6 bc 7f 3b 08 3d b5 3b
       0.005645752 -0.018066406 0.016479492 -0.013061523 -0.020263672 0.0038909912 0.033203125 0.0055236816
0000f0 ed 3c fe bc 05 bd b0 3b f6 3b d8 bc d2 bc cd bc
       0.028930664 -0.03100586 -0.032470703 0.0053710938 0.007507324 -0.026367188 -0.025634766 -0.025024414
000100 93 3c 5a bc 0b bd 24 3b 10 bd 01 bb 0f 3d 5a bc
       0.017944336 -0.013305664 -0.033935547 0.0025024414 -0.03515625 -0.0019683838 0.03491211 -0.013305664
000110 20 bc 05 3d bc bc 29 bc c1 3c 81 3c 13 3d b0 3b
       -0.009765625 0.032470703 -0.022949219 -0.010314941 0.02355957 0.01574707 0.035888672 0.0053710938
000120 b8 bc b4 3c 03 3d e4 bb ab bc 95 bc 06 bd 85 bb
       -0.022460938 0.021972656 0.031982422 -0.006958008 -0.020874023 -0.018188477 -0.032714844 -0.004058838
000130 94 bc dd 3c c8 3c e9 bc e2 3c ed 3c f6 3c e7 3b
       -0.018066406 0.026977539 0.024414062 -0.028442383 0.02758789 0.028930664 0.030029297 0.0070495605
000140 35 3c 43 ba 38 bc 00 3c 8a bc cb bc 51 3c dc 3c
       0.011047363 -0.00074386597 -0.011230469 0.0078125 -0.016845703 -0.024780273 0.012756348 0.026855469
000150 52 3c aa bb 7e 3b b4 3c 10 bd cd 3c 00 3c 0f bc
       0.012817383 -0.0051879883 0.0038757324 0.021972656 -0.03515625 0.025024414 0.0078125 -0.008728027
000160 ff 3b 0f 3d 56 3c f7 3c 81 3b a4 3c 1b bc bd bc
       0.0077819824 0.03491211 0.013061523 0.030151367 0.0039367676 0.020019531 -0.009460449 -0.023071289
000170 b4 bb 1b 3c 1b 3c ad 3b 00 3c 8e 3b 36 3c 1d 3c
       -0.005493164 0.009460449 0.009460449 0.005279541 0.0078125 0.004333496 0.011108398 0.0095825195
000180 08 3d 14 bd 11 3d 65 3c 49 3c 9f 3c 6c bc 0f 3c
       0.033203125 -0.036132812 0.03540039 0.013977051 0.012268066 0.01940918 -0.014404297 0.008728027
000190 94 3c 1a 3c 72 3b f4 bc 7a 3c 0b bd b8 bc ee bc
       0.018066406 0.009399414 0.003692627 -0.029785156 0.015258789 -0.033935547 -0.022460938 -0.029052734
0001a0 80 3b fe bc ad bb 80 3b fe 3c b1 3c 25 3c 5f 3a
       0.00390625 -0.03100586 -0.005279541 0.00390625 0.03100586 0.021606445 0.010070801 0.0008506775
0001b0 ab bb e9 3c 46 bc c2 bc 9a bc ea bc ef bb 00 3c
       -0.005218506 0.028442383 -0.012084961 -0.02368164 -0.018798828 -0.028564453 -0.007293701 0.0078125
0001c0 0e bd a5 bc 8d 3c f8 3c 3e 3c de bc e9 3c ef 3c
       -0.03466797 -0.020141602 0.017211914 0.030273438 0.01159668 -0.02709961 0.028442383 0.029174805
0001d0 e6 bc 00 bc 6c 3c 00 bc 87 bc 0f bd a7 bc e6 bc
       -0.028076172 -0.0078125 0.014404297 -0.0078125 -0.016479492 -0.03491211 -0.020385742 -0.028076172
0001e0 61 bc d1 bc 5c bc 00 bc ac 3b 2b bc 87 3c c0 3c
       -0.01373291 -0.025512695 -0.013427734 -0.0078125 0.0052490234 -0.010437012 0.016479492 0.0234375
0001f0 e8 bc aa bc a8 3c af bc 01 bd 7a 3c d9 bc 91 bb
       -0.028320312 -0.020751953 0.020507812 -0.021362305 -0.03149414 0.015258789 -0.026489258 -0.004425049

base_model.model.transformer.h.10.attn.c_attn.lora_B.weight bf16 [2304, 8]
000000 22 3b 33 bb 08 3b 4b 3b 12 3b 2c bb 64 3b 0b bb
       0.0024719238 -0.0027313232 0.0020751953 0.0030975342 0.0022277832 -0.0026245117 0.003479004 -0.0021209717
000010 11 3b 26 bb 13 3b 0a 3b 3b 3b 04 bb 04 3b 07 bb
       0.0022125244 -0.002532959 0.002243042 0.002105713 0.0028533936 -0.0020141602 0.0020141602 -0.0020599365
000020 3a bb 45 3b 00 bb 66 bb 4a bb 4e 3b 2d bb 06 3b
       -0.0028381348 0.0030059814 -0.001953125 -0.0035095215 -0.0030822754 0.0031433105 -0.0026397705 0.0020446777
000030 0b bb 2f 3b 65 bb 2f bb 2b bb 1c 3b 29 bb 2d 3b
       -0.0021209717 0.002670288 -0.0034942627 -0.002670288 -0.002609253 0.002380371 -0.0025787354 0.0026397705
000040 ac 3a 01 3b 00 bb 99 ba d7 ba ef 3a a6 ba e6 3a
       0.0013122559 0.0019683838 -0.001953125 -0.0011672974 -0.0016403198 0.0018234253 -0.0012664795 0.0017547607
000050 47 bb 73 3b 80 bb 80 bb 40 bb 81 3b 7f bb 80 3b
       -0.003036499 0.0037078857 -0.00390625 -0.00390625 -0.0029296875 0.0039367676 -0.0038909912 0.00390625
000060 2d bb 44 3b 68 bb 3e bb 3e bb 05 3b 4a bb 27 3b
       -0.0026397705 0.0029907227 -0.003540039 -0.00289917 -0.00289917 0.002029419 -0.0030822754 0.0025482178
000070 a9 3a ec ba 9a 3a f5 3a b1 3a 34 bb 1f 3b 00 bb
       0.0012893677 -0.0018005371 0.0011749268 0.0018692017 0.0013504028 -0.002746582 0.0024261475 -0.001953125
000080 48 3b 55 bb 39 3b 59 3b 37 3b 58 bb 5d 3b 0a bb
       0.0030517578 -0.003250122 0.002822876 0.0033111572 0.0027923584 -0.0032958984 0.0033721924 -0.002105713
000090 80 3b 83 bb 80 3b 82 3b 7e 3b 80 bb 83 3b 80 bb
       0.00390625 -0.0039978027 0.00390625 0.003967285 0.0038757324 -0.00390625 0.0039978027 -0.00390625
0000a0 80 bb 3d 3b 05 bb 7d bb 56 bb 7b 3b 80 bb 4d 3b
       -0.00390625 0.0028839111 -0.002029419 -0.0038604736 -0.0032653809 0.003829956 -0.00390625 0.0031280518
0000b0 3c 3b 5c bb 74 3b 71 3b 55 3b 47 bb 5f 3b 7d bb
       0.0028686523 -0.0033569336 0.0037231445 0.0036773682 0.003250122 -0.003036499 0.00340271 -0.0038604736
0000c0 10 3b 12 bb 27 3b 2d 3b 22 3b 0c bb 4c 3b 2f bb
       0.0021972656 -0.0022277832 0.0025482178 0.0026397705 0.0024719238 -0.0021362305 0.003112793 -0.002670288
0000d0 0b bb 02 3b 11 bb 29 bb f8 ba 23 3b 31 bb 2e 3b
       -0.0021209717 0.0019836426 -0.0022125244 -0.0025787354 -0.0018920898 0.0024871826 -0.0027008057 0.0026550293
0000e0 48 bb 5e 3b 80 bb 80 bb 51 bb 7f 3b 80 bb 80 3b
       -0.0030517578 0.0033874512 -0.00390625 -0.00390625 -0.003189087 0.0038909912 -0.00390625 0.00390625
0000f0 63 3b 7c bb 7e 3b 80 3b 80 3b 80 bb 80 3b 82 bb
       0.0034637451 -0.0038452148 0.0038757324 0.00390625 0.00390625 -0.00390625 0.00390625 -0.003967285
000100 09 3b 42 bb 5d 3b 6f 3b 27 3b 56 bb 1c 3b 28 bb
       0.002090454 -0.002960205 0.0033721924 0.0036468506 0.0025482178 -0.0032653809 0.002380371 -0.0025634766
000110 6b bb 72 3b 80 bb 80 bb 52 bb 69 3b 81 bb 80 3b
       -0.0035858154 0.003692627 -0.00390625 -0.00390625 -0.0032043457 0.0035552979 -0.0039367676 0.00390625
000120 3b 3b 63 bb 80 3b 80 3b 4b 3b 64 bb 63 3b 63 bb
       0.0028533936 -0.0034637451 0.00390625 0.00390625 0.0030975342 -0.003479004 0.0034637451 -0.0034637451
000130 a4 3a 0e 3b 3e bb f0 ba fd ba f3 3a 01 bb 02 3b
       0.0012512207 0.002166748 -0.00289917 -0.0018310547 -0.0019302368 0.0018539429 -0.0019683838 0.0019836426
000140 73 3b 83 bb 80 3b 81 3b 71 3b 80 bb 80 3b 80 bb
       0.0037078857 -0.0039978027 0.00390625 0.0039367676 0.0036773682 -0.00390625 0.00390625 -0.00390625
000150 66 3b e3 ba 27 3b 78 3b 4f 3b 09 bb 62 3b 5a bb
       0.0035095215 -0.0017318726 0.0025482178 0.0037841797 0.0031585693 -0.002090454 0.0034484863 -0.003326416
000160 11 3b dc 3a 10 bb ff 3a 0e 3b f6 3a 67 3a ac 3a
       0.0022125244 0.0016784668 -0.0021972656 0.0019454956 0.002166748 0.001876831 0.00088119507 0.0013122559
000170 3d 3b 5f bb 1b 3b 6a 3b 36 3b 1f bb 78 3b 0c bb
       0.0028839111 -0.00340271 0.0023651123 0.0035705566 0.0027770996 -0.0024261475 0.0037841797 -0.0021362305
000180 5c bb f6 ba f6 3a 3b bb f9 3a ef 3a 2f bb f1 3a
       -0.0033569336 -0.001876831 0.001876831 -0.0028533936 0.0018997192 0.0018234253 -0.002670288 0.0018386841
000190 2d 3b 2f bb 64 3b 60 3b 2a 3b 1d bb 6a 3b 7c bb
       0.0026397705 -0.002670288 0.003479004 0.0034179688 0.0025939941 -0.0023956299 0.0035705566 -0.0038452148
0001a0 11 3b 04 bb 02 3b 00 3b fd 3a 06 bb 02 3b 14 bb
       0.0022125244 -0.0020141602 0.0019836426 0.001953125 0.0019302368 -0.0020446777 0.0019836426 -0.0022583008
0001b0 82 bb 7d 3b 84 bb 84 bb 6a bb 7f 3b 81 bb 7c 3b
       -0.003967285 0.0038604736 -0.0040283203 -0.0040283203 -0.0035705566 0.0038909912 -0.0039367676 0.0038452148
0001c0 93 ba b3 39 36 b8 46 ba e1 ba 86 ba a8 ba 2d 3a
       -0.001121521 0.0003414154 -4.339218e-05 -0.00075531006 -0.0017166138 -0.0010223389 -0.0012817383 0.0006599426
0001d0 c8 38 9f ba cb ba 8e ba dd ba 08 b9 08 ba 9c 3a
       9.536743e-05 -0.0012130737 -0.0015487671 -0.001083374 -0.0016860962 -0.0001296997 -0.0005187988 0.0011901855
0001e0 82 3b 82 bb 80 3b 82 3b 7e 3b 80 bb 82 3b 83 bb
       0.003967285 -0.003967285 0.00390625 0.003967285 0.0038757324 -0.00390625 0.003967285 -0.0039978027
0001f0 55 bb 47 3b 7e bb 80 bb 3e bb 50 3b 7b bb 7c 3b
       -0.003250122 0.003036499 -0.0038757324 -0.00390625 -0.00289917 0.0031738281 -0.003829956 0.0038452148

base_model.model.transformer.h.11.attn.c_attn.lora_A.weight bf16 [8, 768]
000000 12 3d 0f 3c 0d 3c 79 bc 67 bc d5 bc 80 bb 00 3c
       0.03564453 0.008728027 0.008605957 -0.015197754 -0.014099121 -0.026000977 -0.00390625 0.0078125
000010 8e bc 00 3c 99 3c 24 bc e3 3b a5 bc dd bb a6 3c
       -0.017333984 0.0078125 0.018676758 -0.010009766 0.0069274902 -0.020141602 -0.0067443848 0.020263672
000020 c0 bc a4 bc 87 bb 09 bd 98 3c 00 3c 87 3b 06 bc
       -0.0234375 -0.020019531 -0.004119873 -0.033447266 0.018554688 0.0078125 0.004119873 -0.008178711
000030 04 bd 00 3c de bc f5 3c 91 bb a9 bc 7c bc 60 3c
       -0.032226562 0.0078125 -0.02709961 0.029907227 -0.004425049 -0.020629883 -0.015380859 0.013671875
000040 08 3d 02 bd 87 bb cc 3c da 3c b6 3c 89 b9 e1 bc
       0.033203125 -0.03173828 -0.004119873 0.024902344 0.026611328 0.022216797 -0.00026130676 -0.02746582
000050 17 bb c5 bc 06 bd ea bc 9b bc e3 3c ce bc a4 bb
       -0.0023040771 -0.024047852 -0.032714844 -0.028564453 -0.018920898 0.027709961 -0.025146484 -0.005004883
000060 b6 3c 10 bd 91 3c a6 bc 00 bc 04 3b 58 bc 68 3c
       0.022216797 -0.03515625 0.017700195 -0.020263672 -0.0078125 0.0020141602 -0.013183594 0.014160156
000070 8f 3b 06 3d 24 bc e5 3c d9 3c 7d 3c 72 bc d7 3c
       0.0043640137 0.032714844 -0.010009766 0.027954102 0.026489258 0.0154418945 -0.014770508 0.026245117
000080 64 3c bc bc 04 3d 12 3c c2 3c af 3c 9f 3c 9a 3b
       0.013916016 -0.022949219 0.032226562 0.008911133 0.02368164 0.021362305 0.01940918 0.004699707
000090 c3 3b a1 3c 40 bc 0a 3d d2 bb e1 bc a4 bb f9 3c
       0.0059509277 0.01965332 -0.01171875 0.033691406 -0.0064086914 -0.02746582 -0.005004883 0.030395508
0000a0 12 bd 91 3b ae bc df 3c 75 3c 8c 3c 00 3c 09 bc
       -0.03564453 0.004425049 -0.021240234 0.02722168 0.014953613 0.017089844 0.0078125 -0.008361816
0000b0 da 3c e2 3c 81 bb 00 3c 0d 3d e3 3b f6 bc 80 3b
       0.026611328 0.02758789 -0.0039367676 0.0078125 0.034423828 0.0069274902 -0.030029297 0.00390625
0000c0 ff bc c5 3c f2 3c 05 bc 8a bb 0e bd e1 bc af 3c
       -0.03112793 0.024047852 0.029541016 -0.008117676 -0.004211426 -0.03466797 -0.02746582 0.021362305
0000d0 c6 bc 90 bc 77 bc bd bb 8c 3c 07 3d f5 bc 81 3c
       -0.024169922 -0.017578125 -0.015075684 -0.0057678223 0.017089844 0.032958984 -0.029907227 0.01574707
0000e0 6a bc ac bb 83 3c a1 bc e9 bc 17 bc 01 3c a3 bc
       -0.014282227 -0.0052490234 0.015991211 -0.01965332 -0.028442383 -0.009216309 0.007873535 -0.019897461
0000f0 12 3c 04 bd dc 3b 9e 3c 47 3c d6 bc 3d bc b3 bc
       0.008911133 -0.032226562 0.006713867 0.01928711 0.012145996 -0.026123047 -0.0115356445 -0.021850586
000100 9b bc 6c bc 00 bc 20 3c 00 bc 83 3c 2f 3c 14 3c
       -0.018920898 -0.014404297 -0.0078125 0.009765625 -0.0078125 0.015991211 0.010681152 0.009033203
000110 9b 3c b3 3c 2e 3c f8 3c bf bc 2c bc 69 3c a3 bc
       0.018920898 0.021850586 0.010620117 0.030273438 -0.02331543 -0.010498047 0.014221191 -0.019897461
000120 00 3c 36 bc df 3c a4 3b 27 bc f1 3b 10 bd d8 3c
       0.0078125 -0.011108398 0.02722168 0.005004883 -0.010192871 0.0073547363 -0.03515625 0.026367188
000130 54 3c f0 bc f2 3c 13 3d c0 3c 23 bc 8e bc 12 bd
       0.012939453 -0.029296875 0.029541016 0.035888672 0.0234375 -0.0099487305 -0.017333984 -0.03564453
000140 a4 bc e1 3c 13 bd a5 3c 12 bd 99 3c 7f bb e2 3c
       -0.020019531 0.02746582 -0.035888672 0.020141602 -0.03564453 0.018676758 -0.0038909912 0.02758789
000150 ff 3b 10 3d 8e 3b 6e bc b8 3c 9a bb cf bc 3a bc
       0.0077819824 0.03515625 0.004333496 -0.014526367 0.022460938 -0.004699707 -0.025268555 -0.011352539
000160 93 bb d6 bc c8 bc 71 3c c1 3c 6a 3c bb 3c 94 bc
       -0.004486084 -0.026123047 -0.024414062 0.014709473 0.02355957 0.014282227 0.022827148 -0.018066406
000170 24 3c 00 bc 55 bb a0 bc ed bc cc 3c 7f bb 2c bc
       0.010009766 -0.0078125 -0.003250122 -0.01953125 -0.028930664 0.024902344 -0.0038909912 -0.010498047
000180 ed bc de bc 10 3d 0e bd ac 3c fa 3c 80 3b 22 bc
       -0.028930664 -0.02709961 0.03515625 -0.03466797 0.020996094 0.030517578 0.00390625 -0.009887695
000190 10 3c 12 3c 80 3c be bc 83 bc d4 bc b3 bb 04 bc
       0.0087890625 0.008911133 0.015625 -0.02319336 -0.015991211 -0.025878906 -0.0054626465 -0.008056641
0001a0 8b bb 95 3c c8 bc 04 3d da bc 94 3c 0f bd b3 bb
       -0.0042419434 0.018188477 -0.024414062 0.032226562 -0.026611328 0.018066406 -0.03491211 -0.0054626465
0001b0 12 3d fc 3c a5 3c 90 bb a0 3c 49 3c cb bc 8f 3c
       0.03564453 0.030761719 0.020141602 -0.0043945312 0.01953125 0.012268066 -0.024780273 0.017456055
0001c0 84 3c a3 3c 0f bb 3a 3c ac 3c ec 3c 05 bd a1 3c
       0.016113281 0.019897461 -0.0021820068 0.011352539 0.020996094 0.028808594 -0.032470703 0.01965332
0001d0 f0 bc fe bc 55 3c 88 bc 86 bb 81 3b 4e bc bf 3c
       -0.029296875 -0.03100586 0.013000488 -0.016601562 -0.0040893555 0.0039367676 -0.012573242 0.02331543
0001e0 4c 3c a9 bc 90 3c 7b bc bb bb fe 3c 92 bc ca 3c
       0.012451172 -0.020629883 0.017578125 -0.015319824 -0.005706787 0.03100586 -0.017822266 0.024658203
0001f0 00 bc 0d bd f1 bc 22 bc bf 3c 8e bb dc bb 80 bb
       -0.0078125 -0.034423828 -0.029418945 -0.009887695 0.02331543 -0.004333496 -0.006713867 -0.00390625

base_model.model.transformer.h.11.attn.c_attn.lora_B.weight bf16 [2304, 8]
000000 e0 b9 46 bb 5a 3b 48 3b 2d 38 7f bb 44 bb 73 3b
       -0.0004272461 -0.0030212402 0.003326416 0.0030517578 4.1246414e-05 -0.0038909912 -0.0029907227 0.0037078857
000010 0a bb 41 bb 4a 3b 5d 3b 0e 39 5f bb 5a bb 5b 3b
       -0.002105713 -0.0029449463 0.0030822754 0.0033721924 0.00013542175 -0.00340271 -0.003326416 0.0033416748
000020 ac ba 13 bb f5 3a 89 ba 05 3b 9d ba 38 bb cb 3a
       -0.0013122559 -0.002243042 0.0018692017 -0.001045227 0.002029419 -0.0011978149 -0.0028076172 0.0015487671
000030 3a 3b 15 bb 46 bb 15 bb 04 bb 0e 3b 16 3b 5d bb
       0.0028381348 -0.0022735596 -0.0030212402 -0.0022735596 -0.0020141602 0.002166748 0.0022888184 -0.0033721924
000040 02 3b 00 3b 37 bb 18 bb 1e bb 19 3b 34 3b 24 bb
       0.0019836426 0.001953125 -0.0027923584 -0.002319336 -0.0024108887 0.0023345947 0.002746582 -0.0025024414
000050 1a 3a 80 3b 33 bb 80 bb 5d 3b 80 3b 24 3b 80 bb
       0.0005874634 0.00390625 -0.0027313232 -0.00390625 0.0033721924 0.00390625 0.0025024414 -0.00390625
000060 86 bb ff 3a 8d 3b 39 3b 80 3b 80 bb 83 bb 82 3b
       -0.0040893555 0.0019454956 0.0043029785 0.002822876 0.00390625 -0.00390625 -0.0039978027 0.003967285
000070 02 bb 01 bb 13 3b 02 3b 2f b9 24 bb 24 bb 25 3b
       -0.0019836426 -0.0019683838 0.002243042 0.0019836426 -0.000166893 -0.0025024414 -0.0025024414 0.0025177002
000080 a1 3a 46 bb 54 3b 4f 3b 5c 3a 7e bb 42 bb 59 3b
       0.0012283325 -0.0030212402 0.0032348633 0.0031585693 0.0008392334 -0.0038757324 -0.002960205 0.0033111572
000090 18 bb 59 3b 00 3b 32 bb 1b 3b 2f 3b 0c bb c1 3a
       -0.002319336 0.0033111572 0.001953125 -0.0027160645 0.0023651123 0.002670288 -0.0021362305 0.0014724731
0000a0 55 3a cf 3a fa 3a de 3a cb 3a 89 ba d8 ba f0 3a
       0.0008125305 0.0015792847 0.0019073486 0.0016937256 0.0015487671 -0.001045227 -0.0016479492 0.0018310547
0000b0 80 3b 79 3b 81 bb 76 bb 21 bb 81 3b 80 3b 83 bb
       0.00390625 0.0037994385 -0.0039367676 -0.003753662 -0.002456665 0.0039367676 0.00390625 -0.0039978027
0000c0 80 3b 80 bb 80 bb 38 3b 80 bb a8 ba 80 3b 2b bb
       0.00390625 -0.00390625 -0.00390625 0.0028076172 -0.00390625 -0.0012817383 0.00390625 -0.002609253
0000d0 08 3b 0b bb 2c 3b 5f 3b a5 b9 4c bb 00 bb 22 3b
       0.0020751953 -0.0021209717 0.0026245117 0.00340271 -0.00031471252 -0.003112793 -0.001953125 0.0024719238
0000e0 88 3b 16 bb 8f bb 3c bb 80 bb 80 3b 85 3b 81 bb
       0.0041503906 -0.0022888184 -0.0043640137 -0.0028686523 -0.00390625 0.00390625 0.004058838 -0.0039367676
0000f0 ec ba 80 3b cc ba 27 bb fc 3a 4e 3b 96 37 0c bb
       -0.0018005371 0.00390625 -0.0015563965 -0.0025482178 0.0019226074 0.0031433105 1.7881393e-05 -0.0021362305
000100 2a 3b 3f bb 3e bb e0 ba 28 bb 66 ba 42 3b 04 bb
       0.0025939941 -0.0029144287 -0.00289917 -0.0017089844 -0.0025634766 -0.0008773804 0.002960205 -0.0020141602
000110 d3 ba 70 b9 00 bb 00 bb 98 ba fe 3a e4 3a da ba
       -0.0016098022 -0.00022888184 -0.001953125 -0.001953125 -0.001159668 0.0019378662 0.001739502 -0.001663208
000120 ea 3a 19 bb 08 bb 66 b9 18 bb ac ba 02 3b 85 ba
       0.0017852783 -0.0023345947 -0.0020751953 -0.0002193451 -0.002319336 -0.0013122559 0.0019836426 -0.0010147095
000130 68 bb 07 3b 4a 3b 02 3b 57 3b 01 bb 77 bb 6e 3b
       -0.003540039 0.0020599365 0.0030822754 0.0019836426 0.0032806396 -0.0019683838 -0.003768921 0.0036315918
000140 82 3b 65 3b 8d bb 80 bb 31 bb 81 3b 87 3b 80 bb
       0.003967285 0.0034942627 -0.0043029785 -0.00390625 -0.0027008057 0.0039367676 0.004119873 -0.00390625
000150 3c 3b 7d bb 0c bb 20 3b 4a bb 12 bb 23 3b 01 bb
       0.0028686523 -0.0038604736 -0.0021362305 0.0024414062 -0.0030822754 -0.0022277832 0.0024871826 -0.0019683838
000160 80 bb a7 3a 70 3b fb 3a 3a 3b 06 bb 42 bb 6f 3b
       -0.00390625 0.0012741089 0.0036621094 0.001914978 0.0028381348 -0.0020446777 -0.002960205 0.0036468506
000170 8a bb f8 3a 89 3b 69 3b 80 3b 80 bb 84 bb 86 3b
       -0.004211426 0.0018920898 0.004180908 0.0035552979 0.00390625 -0.00390625 -0.0040283203 0.0040893555
000180 77 bb 80 3b 14 3b 56 bb 7d 3b 19 3b 28 bb c7 3a
       -0.003768921 0.00390625 0.0022583008 -0.0032653809 0.0038604736 0.0023345947 -0.0025634766 0.0015182495
000190 0f bb 0a 3b 47 3b 04 3b 41 3b 07 bb 40 bb 19 3b
       -0.0021820068 0.002105713 0.003036499 0.0020141602 0.0029449463 -0.0020599365 -0.0029296875 0.0023345947
0001a0 f3 ba 0d 3b 64 bb 0e bb 21 ba 0f 3b 00 3b 23 bb
       -0.0018539429 0.0021514893 -0.003479004 -0.002166748 -0.00061416626 0.0021820068 0.001953125 -0.0024871826
0001b0 80 bb 1f 3b 83 3b 1f 3b 80 3b 22 bb 83 bb 80 3b
       -0.00390625 0.0024261475 0.0039978027 0.0024261475 0.00390625 -0.0024719238 -0.0039978027 0.00390625
0001c0 80 bb 64 3b 51 3b 0e bb 7a 3b 1e 3a 80 bb 18 3b
       -0.00390625 0.003479004 0.003189087 -0.002166748 0.0038146973 0.00060272217 -0.00390625 0.002319336
0001d0 3f 3b 95 ba 68 bb 1b bb 11 bb 10 3b 5a 3b 43 bb
       0.0029144287 -0.0011367798 -0.003540039 -0.0023651123 -0.0022125244 0.0021972656 0.003326416 -0.0029754639
0001e0 7c 3b 1e bb 80 bb 07 bb 66 bb 32 3b 82 3b 84 bb
       0.0038452148 -0.0024108887 -0.00390625 -0.0020599365 -0.0035095215 0.0027160645 0.003967285 -0.0040283203
0001f0 7d bb 27 bb 87 3b 80 3b 7f 3b 7f bb 86 bb 83 3b
       -0.0038604736 -0.0025482178 0.004119873 0.00390625 0.0038909912 -0.0038909912 -0.0040893555 0.0039978027
