examples/research_projects/stack_llama/scripts/gpt2_peft_stack-exchange-paired_rmts__100000_2e-05/checkpoint-7000/adapter_model.safetensors (safetensors, 594496 bytes, 25 tensors)

base_model.model.score.weight bf16 [1, 768]
00000000: f03c b93b 9e3c 013d 223c f9bc b0bb 3c3c
00000010: ce3b 3abc 323c 38bc 453c 433d 093d 89bc
00000020: 25bc 27bc 0fbc e03c 5cbc 80bb 933c dbbc
00000030: 7b3c bc3c 3cbc 9e3c 273d 383c 24bb 65bc
00000040: 1abc e4bc e33c 49bc 723d 563c debc f3bc
00000050: a23c c33c 25bd 03bd 9ebc 383c 60bc 76bc
00000060: 973c f13b 233c e8bc 013b 033d cb3b 20bc
00000070: 903c e7bc 353b 91bc df3a 703b babc 8f3b
00000080: 9a3c 033c 293c b13c 0bbc e9bc 3ebc 4d3c
00000090: d13c aebb 2e39 1d3c b53c e0ba 003c aa3c
000000a0: ac3c 05bc b5bc 03bb d0bb 98bc 95bc 69bc
000000b0: c83c c63b bb3b 80bb 64bc 203d be3c c03a
000000c0: 2b3b a03c cfba 273c babc e93c 92bc 253c
000000d0: d03c 273b 5fbc bc3c 603b 07bc 3db7 0bbd
000000e0: 8a3c 3e3c 29bd 87bc 52bc 243c 753c 8bbb
000000f0: 2e3c edbc 5abc 993b b63c c83c 1f3d 033d
00000100: 1fbc 953c b8bc ef3b b7bc 9cbc 06bb 363c
00000110: e4bc b53c c8bc 923c d53c 55bb 493b 983c
00000120: 0bbd 2d3c d1bb d9bc f33c 89bb 7d3b c9bc
00000130: 473c 993c 2ebd 51bb 9a3c bfbc 7d3b 8c3b
00000140: 713c 59bc 3b3c 5e3c 95bc 033d 1a3c 943b
00000150: 55bc eebb d6bc 1a3d 65bc 3c3c 733c f53c
00000160: 2d3c 82bb 823b 9abb 47bc 453c b13b aab8
00000170: 023d 283c 853b 90bc 963a 863c 803b 80bb
00000180: 43bc b33c 023d b5bc 023d 71bc 1b3c 07bc
00000190: 413b 803b 2d3b c53c f3bc 083c 6c3b 7a3b
000001a0: 1e3b 12bb d63b 7d3b 7b3c 9ebc 0a3d 823b
000001b0: 36bc 853c 83bb 9d3c c03b 9d3c 2f3b 57bd
000001c0: 07bc be3c 44bd 60bc 00bd a8bc 8d3c d73b
000001d0: 38bd 1d3c 05bd 43bc 91bc 1e3c 473c 7ebc
000001e0: bfbc 903c b53c b33c 05bd 00bb 5f3c 713c
000001f0: bcbc 6dbc 85bb 80bb ae3b 903c cabc 673c
0.029296875 0.005645752 0.01928711 0.03149414 0.009887695 -0.030395508 -0.0053710938 0.011474609
0.006286621 -0.011352539 0.010864258 -0.011230469 0.012023926 0.047607422 0.033447266 -0.016723633
-0.010070801 -0.010192871 -0.008728027 0.02734375 -0.013427734 -0.00390625 0.017944336 -0.026733398
0.015319824 0.022949219 -0.011474609 0.01928711 0.040771484 0.011230469 -0.0025024414 -0.013977051
-0.009399414 -0.027832031 0.027709961 -0.012268066 0.05908203 0.013061523 -0.02709961 -0.029663086
0.01977539 0.023803711 -0.040283203 -0.031982422 -0.01928711 0.011230469 -0.013671875 -0.015014648
0.018432617 0.0073547363 0.0099487305 -0.028320312 0.0019683838 0.031982422 0.0061950684 -0.009765625
0.017578125 -0.028198242 0.0027618408 -0.017700195 0.001701355 0.0036621094 -0.022705078 0.0043640137
0.018798828 0.0079956055 0.010314941 0.021606445 -0.008483887 -0.028442383 -0.01159668 0.012512207
0.025512695 -0.0053100586 0.00016593933 0.0095825195 0.022094727 -0.0017089844 0.0078125 0.020751953
0.020996094 -0.008117676 -0.022094727 -0.0019989014 -0.0063476562 -0.018554688 -0.018188477 -0.014221191
0.024414062 0.0060424805 0.005706787 -0.00390625 -0.013916016 0.0390625 0.02319336 0.0014648438
0.002609253 0.01953125 -0.0015792847 0.010192871 -0.022705078 0.028442383 -0.017822266 0.010070801
0.025390625 0.0025482178 -0.01361084 0.022949219 0.0034179688 -0.008239746 -1.1265278e-05 -0.033935547
0.016845703 0.01159668 -0.041259766 -0.016479492 -0.012817383 0.010009766 0.014953613 -0.0042419434
0.010620117 -0.028930664 -0.013305664 0.0046691895 0.022216797 0.024414062 0.03881836 0.031982422
-0.00970459 0.018188477 -0.022460938 0.007293701 -0.022338867 -0.019042969 -0.0020446777 0.011108398
-0.027832031 0.022094727 -0.024414062 0.017822266 0.026000977 -0.003250122 0.0030670166 0.018554688
-0.033935547 0.010559082 -0.006378174 -0.026489258 0.029663086 -0.004180908 0.0038604736 -0.024536133
0.012145996 0.018676758 -0.04248047 -0.003189087 0.018798828 -0.02331543 0.0038604736 0.004272461
0.014709473 -0.013244629 0.011413574 0.013549805 -0.018188477 0.031982422 0.009399414 0.0045166016
-0.013000488 -0.0072631836 -0.026123047 0.037597656 -0.013977051 0.011474609 0.014831543 0.029907227
0.010559082 -0.003967285 0.003967285 -0.004699707 -0.012145996 0.012023926 0.0054016113 -8.106232e-05
0.03173828 0.010253906 0.004058838 -0.017578125 0.0011444092 0.016357422 0.00390625 -0.00390625
-0.0119018555 0.021850586 0.03173828 -0.022094727 0.03173828 -0.014709473 0.009460449 -0.008239746
0.0029449463 0.00390625 0.0026397705 0.024047852 -0.029663086 0.008300781 0.0036010742 0.0038146973
0.0024108887 -0.0022277832 0.0065307617 0.0038604736 0.015319824 -0.01928711 0.033691406 0.003967285
-0.011108398 0.016235352 -0.0039978027 0.019165039 0.005859375 0.019165039 0.002670288 -0.052490234
-0.008239746 0.02319336 -0.047851562 -0.013671875 -0.03125 -0.020507812 0.017211914 0.0065612793
-0.044921875 0.0095825195 -0.032470703 -0.0119018555 -0.017700195 0.009643555 0.012145996 -0.01550293
-0.02331543 0.017578125 0.022094727 0.021850586 -0.032470703 -0.001953125 0.01361084 0.014709473
-0.022949219 -0.014465332 -0.004058838 -0.00390625 0.0053100586 0.017578125 -0.024658203 0.014099121

base_model.model.transformer.h.0.attn.c_attn.lora_A.weight bf16 [8, 768]
00000000: d6bc e53c e7bc 80bb 0a3d 903c abbb 833c
00000010: 103c 36bc 1abc 33bc 08bd c0bc 8a3b 9d3c
00000020: edbc d53c 043d a5bc 7f3c c63c 94bc 923c
00000030: 063d df3c 0abd 803b 8fbb 873c 8f3b b2bc
00000040: 08bd 1abc 803b c4bc 603c 3bbc 39bc 9abc
00000050: c5bc bf3c e33c 923b 99bc b33a f2bb 863c
00000060: 04bc a0bc bc3c 2fbc db3c 8e3b ac3c 063b
00000070: 07bc 80bb 87bb 803b 82bb 863c 103b 80bb
00000080: 953b a53b 093d 203c 023d 733c cc3c ccbc
00000090: d13c a0bc 6f3b 023d 6e3b 9d3c 8abb ccbc
000000a0: e73c a5bc 103d a1bb 78bc f6bc af3c f0bc
000000b0: a4bb f63a 6b3c 79bc 123c d7bc 703c 28bc
000000c0: a63c 043d 043d d2bc 03bd 523c bfbc bbbb
000000d0: 873c a23c e5bb bb3c 84bc cdbb a33c d13b
000000e0: 043d 9e3c db3c 203c 7d3b 03bc e83c 30bb
000000f0: 843b bdbc 163b 713b 1b3c 973c 6b3c 0dbd
00000100: f4bc ca3c 0ebd 9a3c fa3a 533c dcbc 423c
00000110: 94bc 123d 6abc e7bb 00bb 1c3c 7cbc 043d
00000120: a8bc 803b 3a3c 10bd f1bc b63c 113d 923c
00000130: a5bc 093c 0ebd 813b d3bc 32bc b63c 053d
00000140: 4bbc c83c 07bd 903b 713c afbc ad3c e63c
00000150: cc3b a73c f33c 093c 913c 9abb 82bb 3b3c
00000160: 0c3d f2bc e23c 153c a9bc 7c3c 7fbb 36bc
00000170: 073d fd3b e9bc fb3c 7fbc b93c b03c e8bb
00000180: 083d 823b cf3c aa3c b0bc d33c 14bc b4bb
00000190: a83c 273c 113d c73c 823b 103d 4cbc dcbc
000001a0: 66bc adbc 3a3b 63bc eabc 853b 88bc 28bb
000001b0: 4abc 91bc 113d b23b 97bb e8bb f43c e2bc
000001c0: d93c 133d 4ebc 9ebc 813c 033d 82bb f93c
000001d0: 14bc 11bd 933c 0d3d 19bc fbbb 033c 053d
000001e0: 043d adbc d73c 88bc 26bc f13b d93c a8bc
000001f0: 953b bbbc 02bd 94bc 28bc c7bc debc 00bc
-0.026123047 0.027954102 -0.028198242 -0.00390625 0.033691406 0.017578125 -0.005218506 0.015991211
0.0087890625 -0.011108398 -0.009399414 -0.010925293 -0.033203125 -0.0234375 0.004211426 0.019165039
-0.028930664 0.026000977 0.032226562 -0.020141602 0.015563965 0.024169922 -0.018066406 0.017822266
0.032714844 0.02722168 -0.033691406 0.00390625 -0.0043640137 0.016479492 0.0043640137 -0.021728516
-0.033203125 -0.009399414 0.00390625 -0.023925781 0.013671875 -0.011413574 -0.011291504 -0.018798828
-0.024047852 0.02331543 0.027709961 0.0044555664 -0.018676758 0.0013656616 -0.007385254 0.016357422
-0.008056641 -0.01953125 0.022949219 -0.010681152 0.026733398 0.004333496 0.020996094 0.0020446777
-0.008239746 -0.00390625 -0.004119873 0.00390625 -0.003967285 0.016357422 0.0021972656 -0.00390625
0.004547119 0.0050354004 0.033447266 0.009765625 0.03173828 0.014831543 0.024902344 -0.024902344
0.025512695 -0.01953125 0.0036468506 0.03173828 0.0036315918 0.019165039 -0.004211426 -0.024902344
0.028198242 -0.020141602 0.03515625 -0.00491333 -0.015136719 -0.030029297 0.021362305 -0.029296875
-0.005004883 0.001876831 0.014343262 -0.015197754 0.008911133 -0.026245117 0.0146484375 -0.010253906
0.020263672 0.032226562 0.032226562 -0.025634766 -0.031982422 0.012817383 -0.02331543 -0.005706787
0.016479492 0.01977539 -0.0069885254 0.022827148 -0.016113281 -0.0062561035 0.019897461 0.006378174
0.032226562 0.01928711 0.026733398 0.009765625 0.0038604736 -0.0079956055 0.028320312 -0.0026855469
0.0040283203 -0.023071289 0.0022888184 0.0036773682 0.009460449 0.018432617 0.014343262 -0.034423828
-0.029785156 0.024658203 -0.03466797 0.018798828 0.0019073486 0.012878418 -0.026855469 0.01184082
-0.018066406 0.03564453 -0.014282227 -0.0070495605 -0.001953125 0.009521484 -0.015380859 0.032226562
-0.020507812 0.00390625 0.011352539 -0.03515625 -0.029418945 0.022216797 0.03540039 0.017822266
-0.020141602 0.008361816 -0.03466797 0.0039367676 -0.025756836 -0.010864258 0.022216797 0.032470703
-0.012390137 0.024414062 -0.032958984 0.0043945312 0.014709473 -0.021362305 0.021118164 0.028076172
0.006225586 0.020385742 0.029663086 0.008361816 0.017700195 -0.004699707 -0.003967285 0.011413574
0.034179688 -0.029541016 0.02758789 0.009094238 -0.020629883 0.015380859 -0.0038909912 -0.011108398
0.032958984 0.0077209473 -0.028442383 0.030639648 -0.015563965 0.022583008 0.021484375 -0.007080078
0.033203125 0.003967285 0.025268555 0.020751953 -0.021484375 0.025756836 -0.009033203 -0.005493164
0.020507812 0.010192871 0.03540039 0.024291992 0.003967285 0.03515625 -0.012451172 -0.026855469
-0.014038086 -0.021118164 0.0028381348 -0.0138549805 -0.028564453 0.004058838 -0.016601562 -0.0025634766
-0.012329102 -0.017700195 0.03540039 0.005432129 -0.0046081543 -0.007080078 0.029785156 -0.02758789
0.026489258 0.035888672 -0.012573242 -0.01928711 0.01574707 0.031982422 -0.003967285 0.030395508
-0.009033203 -0.03540039 0.017944336 0.034423828 -0.009338379 -0.007659912 0.0079956055 0.032470703
0.032226562 -0.021118164 0.026245117 -0.016601562 -0.010131836 0.0073547363 0.026489258 -0.020507812
0.004547119 -0.022827148 -0.03173828 -0.018066406 -0.010253906 -0.024291992 -0.02709961 -0.0078125

base_model.model.transformer.h.0.attn.c_attn.lora_B.weight bf16 [2304, 8]
00000000: 9dba 83ba 2d3a 313a a2ba 94ba a23a d93a
00000010: abba 99ba f8b9 053b b639 d3ba 89b9 753a
00000020: be3a 093b cc3a 3238 f13a 8b3a caba 7eba
00000030: 013b 563a b2ba f63a 073b d639 ffba c7ba
00000040: 81ba b539 7a3a f0ba 4639 60b9 953a d039
00000050: f539 c13a 6f39 27b9 f5b9 3ab9 53ba 3bba
00000060: a13a 863a e338 453a 37ba 0eba 2bba d8ba
00000070: d739 9bba deb8 4539 6ab9 8cba 873a c739
00000080: b5ba 5aba 6d3a 223a 4fb9 6d39 6d38 cd38
00000090: 8a39 a7b8 f3b8 f9ba 2bba fcb9 feb8 7c39
000000a0: 093a baba 02bb 113b f63a bab9 d0ba ffba
000000b0: 9c3a 5835 d837 753a c0ba 63b9 1aba bfb9
000000c0: b23a aeba 8bb9 9139 e83a 9d3a 9cba 0dba
000000d0: 093a b43a 3639 cab9 2c3a 1f3a e4b9 6ab7
000000e0: 40ba 00bb 00bb 873a 28ba 393a 7d3a b7ba
000000f0: 9d3a e13a 0c3b 64ba c5ba 8939 2939 293a
00000100: b0ba 04ba 133a c539 713a 453a 8bba 2bba
00000110: 6bb9 01bb a7ba 99ba 0439 4d3a 5e3a 963a
00000120: ad39 b739 cc3a e3ba f5ba f4ba 2e3a f13a
00000130: 633a e83a e13a a0ba f2ba ffba 923a ebb9
00000140: 03bb d3ba 77ba 03ba 4eb9 6e39 de3a 9c3a
00000150: 153a 5fba 47ba e8b9 cbba 40ba cd3a 5939
00000160: 44ba 0bbb 373a ea3a 50ba f438 9d3a acb9
00000170: ee38 ce3a c43a 0639 0eba 0eb9 a4ba acba
00000180: c23a f73a c8ba 91ba ba3a 9e3a 6eb9 1eb9
00000190: 4a3a 06bb 13bb f937 813a b0b9 373a 5e3a
000001a0: 8939 10b9 cd3a 0bb9 91b9 a738 bcb8 88b9
000001b0: 663a 57ba d63a 8fb9 f4ba 28ba 1fba b9ba
000001c0: f23a ad3a ae39 1db9 28ba cbb8 7d3a d93a
000001d0: 89ba 94ba f1ba b63a bf3a b5ba 7e3a 973a
000001e0: 7aba 37b9 28ba 71ba 3a3a c63a 8d3a 5c3a
000001f0: a93a 3fba 9f39 af3a 53ba 293a a0ba 39ba
-0.0011978149 -0.0009994507 0.0006599426 0.0006752014 -0.0012359619 -0.0011291504 0.0012359619 0.0016555786
-0.0013046265 -0.0011672974 -0.00047302246 0.002029419 0.00034713745 -0.0016098022 -0.00026130676 0.00093460083
0.001449585 0.002090454 0.0015563965 4.2438507e-05 0.0018386841 0.0010604858 -0.0015411377 -0.0009689331
0.0019683838 0.0008163452 -0.0013580322 0.001876831 0.0020599365 0.0004081726 -0.0019454956 -0.0015182495
-0.0009841919 0.0003452301 0.0009536743 -0.0018310547 0.00018882751 -0.00021362305 0.0011367798 0.00039672852
0.00046730042 0.0014724731 0.00022792816 -0.00015926361 -0.00046730042 -0.00017738342 -0.0008049011 -0.0007133484
0.0012283325 0.0010223389 0.000108242035 0.00075149536 -0.0006980896 -0.000541687 -0.00065231323 -0.0016479492
0.00041007996 -0.0011825562 -0.00010585785 0.00018787384 -0.00022315979 -0.0010681152 0.0010299683 0.00037956238
-0.0013809204 -0.000831604 0.00090408325 0.00061798096 -0.00019741058 0.00022602081 5.6505203e-05 9.775162e-05
0.0002632141 -7.9631805e-05 -0.00011587143 -0.0018997192 -0.00065231323 -0.00048065186 -0.00012111664 0.00024032593
0.0005226135 -0.0014190674 -0.0019836426 0.0022125244 0.001876831 -0.00035476685 -0.0015869141 -0.0019454956
0.0011901855 8.046627e-07 2.5749207e-05 0.00093460083 -0.0014648438 -0.00021648407 -0.0005874634 -0.0003643036
0.0013580322 -0.0013275146 -0.00026512146 0.00027656555 0.0017700195 0.0011978149 -0.0011901855 -0.0005378723
0.0005226135 0.001373291 0.00017356873 -0.00038528442 0.00065612793 0.00060653687 -0.0004348755 -1.3947487e-05
-0.0007324219 -0.001953125 -0.001953125 0.0010299683 -0.00064086914 0.000705719 0.0009651184 -0.0013961792
0.0011978149 0.0017166138 0.0021362305 -0.000869751 -0.0015029907 0.00026130676 0.00016117096 0.00064468384
-0.0013427734 -0.00050354004 0.0005607605 0.00037574768 0.00091934204 0.00075149536 -0.0010604858 -0.00065231323
-0.00022411346 -0.0019683838 -0.0012741089 -0.0011672974 0.00012588501 0.00078201294 0.0008468628 0.0011444092
0.0003299713 0.0003490448 0.0015563965 -0.0017318726 -0.0018692017 -0.0018615723 0.0006637573 0.0018386841
0.0008659363 0.0017700195 0.0017166138 -0.0012207031 -0.0018463135 -0.0019454956 0.0011138916 -0.00044822693
-0.0019989014 -0.0016098022 -0.0009422302 -0.00049972534 -0.00019645691 0.00022697449 0.0016937256 0.0011901855
0.0005683899 -0.0008506775 -0.00075912476 -0.00044250488 -0.0015487671 -0.0007324219 0.0015640259 0.00020694733
-0.00074768066 -0.0021209717 0.0006980896 0.0017852783 -0.00079345703 0.00011634827 0.0011978149 -0.00032806396
0.000113487244 0.0015716553 0.0014953613 0.00012779236 -0.000541687 -0.00013542175 -0.0012512207 -0.0013122559
0.0014801025 0.0018844604 -0.0015258789 -0.0011062622 0.0014190674 0.0012054443 -0.00022697449 -0.00015068054
0.00077056885 -0.0020446777 -0.002243042 2.9683113e-05 0.0009841919 -0.00033569336 0.0006980896 0.0008468628
0.00026130676 -0.0001373291 0.0015640259 -0.00013256073 -0.00027656555 7.9631805e-05 -8.9645386e-05 -0.0002593994
0.0008773804 -0.0008201599 0.0016326904 -0.00027275085 -0.0018615723 -0.00064086914 -0.00060653687 -0.001411438
0.0018463135 0.0013198853 0.00033187866 -0.00014972687 -0.00064086914 -9.679794e-05 0.0009651184 0.0016555786
-0.001045227 -0.0011291504 -0.0018386841 0.0013885498 0.0014572144 -0.0013809204 0.0009689331 0.0011520386
-0.0009536743 -0.0001745224 -0.00064086914 -0.00091934204 0.0007095337 0.0015106201 0.0010757446 0.0008392334
0.0012893677 -0.0007286072 0.00030326843 0.001335144 -0.0008049011 0.00064468384 -0.0012207031 -0.000705719

base_model.model.transformer.h.1.attn.c_attn.lora_A.weight bf16 [8, 768]
00000000: be3c a93c d7bc 053c 0abd b13c a0bc 2dbc
00000010: eebc 043d 123d 163c 80bb 85bb a83c b33c
00000020: 2ebc 993b 00bc cd3c 363c adbc a2bc 843c
00000030: 5a3c 30bc f7bb 25bc 9ebc 1d3c d23c 71bc
00000040: 393c aabc 6c3c a13b 163c 05bc 0b3d cabc
00000050: 063c 09bd ed3c 343c a0bb 133d a6bc f23c
00000060: bb3b 853c 6d3c 83bc d13b b4bc 87bc b33c
00000070: 8d3c 13bd 6b3c d03c 353b 09bc a83b 5e3b
00000080: 4abc 793c d03c fe3c c5bc 0bbc 113d 823c
00000090: afbc 2abb 933c 79bc 02bd 643c c2bc 9cbc
000000a0: 813c 9fbb 00bc eb3b b2bc a6bc 9abb f63c
000000b0: c33c 223c b0ba 00bc 853b b73b cd3b 0dbd
000000c0: a33c 58bb 983c 0e3d fe3c 8e3c 80bb efbc
000000d0: 123d 003c a33c 363c c53c cabc c5bc 58bb
000000e0: 0dbd b4b9 fabc 49bc f8bc 2bbc c33c b1bb
000000f0: 1a3c 95bb f4bb f7bc cfbc cebc 8c3c 713b
00000100: 0d3d 8a3b c6bc aa3c a2bc edbc 7abc 003d
00000110: 463c 113d f7bc 403c 05bd 9f3c d63c 5bbc
00000120: bb3c 7d3c 3a3c b4bc 7e3c 5fbc 5d3c 6bbc
00000130: bd3c 593c c1bc 103d 893b b93b 14bd 8c3c
00000140: de3c bebc a7bc f9bb 90bc 3bbc df3b 043d
00000150: d3bb 02bd 373c be3c 07bd 873c 043d afbb
00000160: b4bc 113a 09bd 42bc 5bbc b4bc 09bd edbc
00000170: d03b 223b bd3b c13c 8fbc 73bc 673c bbba
00000180: 0a3d f0bc 80bb 7c3c cc3b 343c 463c 06bd
00000190: 073d c03c c1bc cc3c 4a3c 4abc 003c 603b
000001a0: 8abb 443c d23c ff3c 343a 3a3c 9e3c 9e3c
000001b0: b8bc 973b 0f3d 013d 943c 173c b23c 093d
000001c0: 4d3b e93c fd3c 81bc 7fbb 703c 33bc da3c
000001d0: e5bc b0bc 103d c2bc e83c 043d 763c 0b3c
000001e0: e8bb 80bb 773b 0abc e43a 343c 863c e53c
000001f0: 753c e33c 093c 113c c03c 8d3b c6bc a3bc
0.02319336 0.020629883 -0.026245117 0.008117676 -0.033691406 0.021606445 -0.01953125 -0.010559082
-0.029052734 0.032226562 0.03564453 0.009155273 -0.00390625 -0.004058838 0.020507812 0.021850586
-0.010620117 0.0046691895 -0.0078125 0.025024414 0.011108398 -0.021118164 -0.01977539 0.016113281
0.013305664 -0.0107421875 -0.007537842 -0.010070801 -0.01928711 0.0095825195 0.025634766 -0.014709473
0.011291504 -0.020751953 0.014404297 0.00491333 0.009155273 -0.008117676 0.033935547 -0.024658203
0.008178711 -0.033447266 0.028930664 0.010986328 -0.0048828125 0.035888672 -0.020263672 0.029541016
0.005706787 0.016235352 0.014465332 -0.015991211 0.006378174 -0.021972656 -0.016479492 0.021850586
0.017211914 -0.035888672 0.014343262 0.025390625 0.0027618408 -0.008361816 0.005126953 0.0033874512
-0.012329102 0.015197754 0.025390625 0.03100586 -0.024047852 -0.008483887 0.03540039 0.01586914
-0.021362305 -0.0025939941 0.017944336 -0.015197754 -0.03173828 0.013916016 -0.02368164 -0.019042969
0.01574707 -0.004852295 -0.0078125 0.007171631 -0.021728516 -0.020263672 -0.004699707 0.030029297
0.023803711 0.009887695 -0.0013427734 -0.0078125 0.004058838 0.005584717 0.0062561035 -0.034423828
0.019897461 -0.0032958984 0.018554688 0.03466797 0.03100586 0.017333984 -0.00390625 -0.029174805
0.03564453 0.0078125 0.019897461 0.011108398 0.024047852 -0.024658203 -0.024047852 -0.0032958984
-0.034423828 -0.00034332275 -0.030517578 -0.012268066 -0.030273438 -0.010437012 0.023803711 -0.0054016113
0.009399414 -0.004547119 -0.007446289 -0.030151367 -0.025268555 -0.025146484 0.017089844 0.0036773682
0.034423828 0.004211426 -0.024169922 0.020751953 -0.01977539 -0.028930664 -0.015258789 0.03125
0.012084961 0.03540039 -0.030151367 0.01171875 -0.032470703 0.01940918 0.026123047 -0.013366699
0.022827148 0.0154418945 0.011352539 -0.021972656 0.01550293 -0.01361084 0.0134887695 -0.014343262
0.023071289 0.013244629 -0.02355957 0.03515625 0.004180908 0.005645752 -0.036132812 0.017089844
0.02709961 -0.02319336 -0.020385742 -0.007598877 -0.017578125 -0.011413574 0.00680542 0.032226562
-0.006439209 -0.03173828 0.011169434 0.02319336 -0.032958984 0.016479492 0.032226562 -0.005340576
-0.021972656 0.0005531311 -0.033447266 -0.01184082 -0.013366699 -0.021972656 -0.033447266 -0.028930664
0.0063476562 0.0024719238 0.0057678223 0.02355957 -0.017456055 -0.014831543 0.014099121 -0.0014266968
0.033691406 -0.029296875 -0.00390625 0.015380859 0.006225586 0.010986328 0.012084961 -0.032714844
0.032958984 0.0234375 -0.02355957 0.024902344 0.012329102 -0.012329102 0.0078125 0.0034179688
-0.004211426 0.011962891 0.025634766 0.03112793 0.0006866455 0.011352539 0.01928711 0.01928711
-0.022460938 0.0046081543 0.03491211 0.03149414 0.018066406 0.009216309 0.021728516 0.033447266
0.0031280518 0.028442383 0.030883789 -0.01574707 -0.0038909912 0.0146484375 -0.010925293 0.026611328
-0.027954102 -0.021484375 0.03515625 -0.02368164 0.028320312 0.032226562 0.015014648 0.008483887
-0.007080078 -0.00390625 0.003768921 -0.008422852 0.001739502 0.010986328 0.016357422 0.027954102
0.014953613 0.027709961 0.008361816 0.008850098 0.0234375 0.0043029785 -0.024169922 -0.019897461

base_model.model.transformer.h.1.attn.c_attn.lora_B.weight bf16 [2304, 8]
00000000: 74b8 a3ba 9aba 89ba ceba abba ffb9 21ba
00000010: 673a c03a ba3a 893a c03a 92b8 5d3a 033b
00000020: 75b9 cdba 683a bcba 7039 f4ba 833a 5aba
00000030: f2b9 06b9 bf3a 903a b93a 0a3a 5b3a fe3a
00000040: 043a c53a bcba 74b7 39ba b9ba e8ba 963a
00000050: 38ba 5ab9 003b 333a ba39 a73a fd38 bb39
00000060: 16ba cfba caba 2fba e1ba 08bb 95b9 433a
00000070: 323a 01bb fe38 02bb 64ba 4eba 423a d6ba
00000080: d73a 9c3a f9b8 a7b9 daba 083a 8a3a faba
00000090: a93a 0f3b 9d3a 0e3b 003b 073b 383a 003b
000000a0: eab9 38b9 e33a 8e39 aa3a 4b3a a83a db3a
000000b0: 023b cb3a 67ba 0c3a 44b7 ea3a 0dba 05ba
000000c0: ed3a 963a 0bbb 8fb9 a1ba 213a 9dba 79ba
000000d0: d5b9 45ba 8b39 21ba fb39 b3ba 083a 7839
000000e0: 49b9 83ba acb8 d339 4e3a 85ba 1eba 913a
000000f0: d4b9 1aba bcb9 1dba 70ba 2eba 95b9 d8b9
00000100: 863a 5dba 90ba f239 ce3a cdb9 1b39 95ba
00000110: b73a da3a dfba 0839 12ba 033a 5b39 55ba
00000120: c3b9 ce3a d53a bc3a a53a 043b 3c3a f53a
00000130: a1ba 0ebb 42ba c7b9 9f3a d0ba c4ba 9a38
00000140: 89ba 19bb 55ba 00bb ceba dfba eeb9 d9b8
00000150: b8ba e8ba a3ba 12ba e9b9 54ba 30ba fbb9
00000160: 00bb 04bb e9ba 00bb 02bb beba 00bb fdba
00000170: 8d3a a23a deba dbb9 a7ba 973a e0ba 4e3a
00000180: 31ba 0e3b a63a d63a 023b dd3a 84ba 113b
00000190: acba 04bb 80ba 50ba eeb9 c8ba 3db9 13ba
000001a0: 3539 4eb9 073b a33a 023b 8939 f23a 8f38
000001b0: 94ba 72ba 39b9 f1ba f2ba edba e0ba dbb9
000001c0: 7f39 d13a f839 4739 ca3a b83a fc37 ec3a
000001d0: 273a 8b39 f03a de3a 873a 90b8 d03a ab3a
000001e0: 27ba d73a cc3a be3a f53a 003b 1bb9 d83a
000001f0: 95ba 1bba 013a 5d37 70b9 4237 9a3a 813a
-5.8174133e-05 -0.0012435913 -0.0011749268 -0.001045227 -0.0015716553 -0.0013046265 -0.0004863739 -0.00061416626
0.00088119507 0.0014648438 0.0014190674 0.001045227 0.0014648438 -6.9618225e-05 0.0008430481 0.0019989014
-0.00023365021 -0.0015640259 0.00088500977 -0.0014343262 0.00022888184 -0.0018615723 0.0009994507 -0.000831604
-0.00046157837 -0.00012779236 0.0014572144 0.0010986328 0.001411438 0.0005264282 0.0008354187 0.0019378662
0.00050354004 0.0015029907 -0.0014343262 -1.4543533e-05 -0.000705719 -0.001411438 -0.0017700195 0.0011444092
-0.0007019043 -0.000207901 0.001953125 0.0006828308 0.00035476685 0.0012741089 0.0001206398 0.0003566742
-0.0005722046 -0.0015792847 -0.0015411377 -0.000667572 -0.0017166138 -0.0020751953 -0.00028419495 0.00074386597
0.0006790161 -0.0019683838 0.00012111664 -0.0019836426 -0.000869751 -0.00078582764 0.00074005127 -0.0016326904
0.0016403198 0.0011901855 -0.00011873245 -0.00031852722 -0.001663208 0.0005187988 0.0010528564 -0.0019073486
0.0012893677 0.0021820068 0.0011978149 0.002166748 0.001953125 0.0020599365 0.0007019043 0.001953125
-0.00044631958 -0.00017547607 0.0017318726 0.0002708435 0.0012969971 0.00077438354 0.0012817383 0.0016708374
0.0019836426 0.0015487671 -0.00088119507 0.0005340576 -1.168251e-05 0.0017852783 -0.0005378723 -0.00050735474
0.0018081665 0.0011444092 -0.0021209717 -0.00027275085 -0.0012283325 0.00061416626 -0.0011978149 -0.0009498596
-0.00040626526 -0.00075149536 0.00026512146 -0.00061416626 0.0004787445 -0.0013656616 0.0005187988 0.00023651123
-0.00019168854 -0.0009994507 -8.201599e-05 0.00040245056 0.00078582764 -0.0010147095 -0.00060272217 0.0011062622
-0.0004043579 -0.0005874634 -0.00035858154 -0.00059890747 -0.00091552734 -0.0006637573 -0.00028419495 -0.0004119873
0.0010223389 -0.0008430481 -0.0010986328 0.00046157837 0.0015716553 -0.00039100647 0.00014781952 -0.0011367798
0.0013961792 0.001663208 -0.001701355 0.0001296997 -0.0005569458 0.00049972534 0.00020885468 -0.0008125305
-0.00037193298 0.0015716553 0.001625061 0.0014343262 0.0012588501 0.0020141602 0.0007171631 0.0018692017
-0.0012283325 -0.002166748 -0.00074005127 -0.00037956238 0.0012130737 -0.0015869141 -0.0014953613 7.343292e-05
-0.001045227 -0.0023345947 -0.0008125305 -0.001953125 -0.0015716553 -0.001701355 -0.00045394897 -0.00010347366
-0.0014038086 -0.0017700195 -0.0012435913 -0.0005569458 -0.00044441223 -0.0008087158 -0.0006713867 -0.0004787445
-0.001953125 -0.0020141602 -0.0017776489 -0.001953125 -0.0019836426 -0.001449585 -0.001953125 -0.0019302368
0.0010757446 0.0012359619 -0.0016937256 -0.00041770935 -0.0012741089 0.0011520386 -0.0017089844 0.00078582764
-0.0006752014 0.002166748 0.0012664795 0.0016326904 0.0019836426 0.0016860962 -0.0010070801 0.0022125244
-0.0013122559 -0.0020141602 -0.0009765625 -0.00079345703 -0.00045394897 -0.0015258789 -0.00018024445 -0.0005607605
0.00017261505 -0.00019645691 0.0020599365 0.0012435913 0.0019836426 0.00026130676 0.0018463135 6.818771e-05
-0.0011291504 -0.00092315674 -0.00017642975 -0.0018386841 -0.0018463135 -0.0018081665 -0.0017089844 -0.00041770935
0.00024318695 0.0015945435 0.00047302246 0.00018978119 0.0015411377 0.0014038086 3.0040741e-05 0.0018005371
0.00063705444 0.00026512146 0.0018310547 0.0016937256 0.0010299683 -6.866455e-05 0.0015869141 0.0013046265
-0.00063705444 0.0016403198 0.0015563965 0.001449585 0.0018692017 0.001953125 -0.00014781952 0.0016479492
-0.0011367798 -0.0005912781 0.00049209595 1.31726265e-05 -0.00022888184 1.1563301e-05 0.0011749268 0.0009841919

base_model.model.transformer.h.10.attn.c_attn.lora_A.weight bf16 [8, 768]
00000000: 72bc f8bc 903c 503c de3b e9bb 12bd a8bc
00000010: 38bc a93c 83bb 00bc adbb 85bb 75bb b6bc
00000020: 06bd b43c eabc 80bb 883b 00bc da3c d4bc
00000030: 0cbd 9fbb c43c 9a3c 6f3c 2e3c 643c fc3b
00000040: 003d 95bc d63b 0b3d ddbc 6bbc 99bc 063d
00000050: 0abd a8bc 05bd acbb 16bb a43c c53c 3bbc
00000060: 913c b73c 90bc ecbc df3c 643c f23c b6bc
00000070: bdbc 06bc 5dbc e23c f7bb b1bc 85bc 0e3d
00000080: 693c 11bd e73b fcbc 90bc d5bc b6bc a13c
00000090: e93b a8bc 0e3d 00bc 8a3b 843c 823c 9fbc
000000a0: 9bbb 4bbc ff3b c13c 62bc ddbc 9b3c bb3b
000000b0: e03c a13c 0b3d 193c a4bc cdbc 7f3b 653c
000000c0: 053d bd3c 0abd 63bc a03c d93c a63c 123b
000000d0: 14bb b0bc f9bc 52bc fa3c 9dbb b0bc fd3b
000000e0: b93b 94bc 873c 56bc a6bc 803b 083d b53b
000000f0: ed3c febc 05bd b03b f63b d8bc d2bc cdbc
00000100: 933c 5abc 0bbd 953a 10bd 7a39 0f3d 5abc
00000110: 20bc 053d bcbc 29bc c13c 813c 133d b03b
00000120: b8bc b43c 033d e4bb abbc 95bc 06bd 85bb
00000130: 94bc dd3c c83c e9bc e23c ed3c f63c e73b
00000140: 353c 22ba 38bc 003c 8abc cbbc 513c dc3c
00000150: 523c aabb 803b b43c 10bd cd3c 003c 0fbc
00000160: ff3b 0f3d 563c f73c 813b a43c 1bbc bdbc
00000170: b4bb 1b3c 1b3c ad3b 003c 8e3b 363c 1d3c
00000180: 083d 14bd 113d 653c 493c 9f3c 6cbc 0f3c
00000190: 943c 1a3c 6a3b f4bc 7a3c 0bbd b8bc eebc
000001a0: 803b febc adbb 7f3b fe3c b13c 253c ab3a
000001b0: abbb e93c 46bc c2bc 9abc eabc efbb 003c
000001c0: 0ebd a5bc 8d3c f83c 3e3c debc e93c ef3c
000001d0: e6bc 00bc 6c3c 00bc 87bc 0fbd a7bc e6bc
000001e0: 61bc d1bc 5cbc 00bc ac3b 2bbc 873c c03c
000001f0: e8bc aabc a83c afbc 01bd 7a3c d9bc 91bb
-0.014770508 -0.030273438 0.017578125 0.0126953125 0.0067749023 -0.0071105957 -0.03564453 -0.020507812
-0.011230469 0.020629883 -0.0039978027 -0.0078125 -0.005279541 -0.004058838 -0.0037384033 -0.022216797
-0.032714844 0.021972656 -0.028564453 -0.00390625 0.0041503906 -0.0078125 0.026611328 -0.025878906
-0.034179688 -0.004852295 0.023925781 0.018798828 0.014587402 0.010620117 0.013916016 0.0076904297
0.03125 -0.018188477 0.0065307617 0.033935547 -0.026977539 -0.014343262 -0.018676758 0.032714844
-0.033691406 -0.020507812 -0.032470703 -0.0052490234 -0.0022888184 0.020019531 0.024047852 -0.011413574
0.017700195 0.022338867 -0.017578125 -0.028808594 0.02722168 0.013916016 0.029541016 -0.022216797
-0.023071289 -0.008178711 -0.0134887695 0.02758789 -0.007537842 -0.021606445 -0.016235352 0.03466797
0.014221191 -0.03540039 0.0070495605 -0.030761719 -0.017578125 -0.026000977 -0.022216797 0.01965332
0.0071105957 -0.020507812 0.03466797 -0.0078125 0.004211426 0.016113281 0.01586914 -0.01940918
-0.0047302246 -0.012390137 0.0077819824 0.02355957 -0.013793945 -0.026977539 0.018920898 0.005706787
0.02734375 0.01965332 0.033935547 0.009338379 -0.020019531 -0.025024414 0.0038909912 0.013977051
0.032470703 0.023071289 -0.033691406 -0.0138549805 0.01953125 0.026489258 0.020263672 0.0022277832
-0.0022583008 -0.021484375 -0.030395508 -0.012817383 0.030517578 -0.0047912598 -0.021484375 0.0077209473
0.005645752 -0.018066406 0.016479492 -0.013061523 -0.020263672 0.00390625 0.033203125 0.0055236816
0.028930664 -0.03100586 -0.032470703 0.0053710938 0.007507324 -0.026367188 -0.025634766 -0.025024414
0.017944336 -0.013305664 -0.033935547 0.0011367798 -0.03515625 0.00023841858 0.03491211 -0.013305664
-0.009765625 0.032470703 -0.022949219 -0.010314941 0.02355957 0.01574707 0.035888672 0.0053710938
-0.022460938 0.021972656 0.031982422 -0.006958008 -0.020874023 -0.018188477 -0.032714844 -0.004058838
-0.018066406 0.026977539 0.024414062 -0.028442383 0.02758789 0.028930664 0.030029297 0.0070495605
0.011047363 -0.00061798096 -0.011230469 0.0078125 -0.016845703 -0.024780273 0.012756348 0.026855469
0.012817383 -0.0051879883 0.00390625 0.021972656 -0.03515625 0.025024414 0.0078125 -0.008728027
0.0077819824 0.03491211 0.013061523 0.030151367 0.0039367676 0.020019531 -0.009460449 -0.023071289
-0.005493164 0.009460449 0.009460449 0.005279541 0.0078125 0.004333496 0.011108398 0.0095825195
0.033203125 -0.036132812 0.03540039 0.013977051 0.012268066 0.01940918 -0.014404297 0.008728027
0.018066406 0.009399414 0.0035705566 -0.029785156 0.015258789 -0.033935547 -0.022460938 -0.029052734
0.00390625 -0.03100586 -0.005279541 0.0038909912 0.03100586 0.021606445 0.010070801 0.0013046265
-0.005218506 0.028442383 -0.012084961 -0.02368164 -0.018798828 -0.028564453 -0.007293701 0.0078125
-0.03466797 -0.020141602 0.017211914 0.030273438 0.01159668 -0.02709961 0.028442383 0.029174805
-0.028076172 -0.0078125 0.014404297 -0.0078125 -0.016479492 -0.03491211 -0.020385742 -0.028076172
-0.01373291 -0.025512695 -0.013427734 -0.0078125 0.0052490234 -0.010437012 0.016479492 0.0234375
-0.028320312 -0.020751953 0.020507812 -0.021362305 -0.03149414 0.015258789 -0.026489258 -0.004425049

base_model.model.transformer.h.10.attn.c_attn.lora_B.weight bf16 [2304, 8]
00000000: 1a3b 33bb 063b 473b 133b 2fbb 5f3b 04bb
00000010: e43a 1dbb 0f3b fa3a 323b f7ba d43a 01bb
00000020: 1abb 3a3b f5ba 53bb 3dbb 493b 1cbb 023b
00000030: 04bb 283b 5cbb 2abb 24bb 183b 28bb 233b
00000040: a53a e73a b3ba 05ba 81ba 303a 11ba bb3a
00000050: 3cbb 6c3b 80bb 80bb 45bb 813b 80bb 7e3b
00000060: 18bb 423b 62bb 38bb 35bb 0a3b 51bb 303b
00000070: 853a 02bb 9239 943a a43a 33bb 293b 90ba
00000080: 433b 52bb 233b 563b 2f3b 46bb 5f3b 09bb
00000090: 693b 83bb 803b 823b 803b 80bb 833b 80bb
000000a0: 66bb 343b 0cbb 69bb 4ebb 713b 7fbb 513b
000000b0: 2a3b 4ebb 633b 663b 423b 41bb 543b 6fbb
000000c0: 193b 0bbb 173b 2d3b 173b 08bb 413b 31bb
000000d0: f2ba 013b 0abb 27bb fcba 223b 26bb 2f3b
000000e0: 3cbb 5c3b 80bb 80bb 50bb 803b 80bb 7d3b
000000f0: 3c3b 7ebb 803b 803b 803b 80bb 803b 82bb
00000100: cd3a 42bb 503b 5e3b 1e3b 4bbb 193b 23bb
00000110: 44bb 723b 80bb 80bb 49bb 5e3b 81bb 7d3b
00000120: 2d3b 57bb 7a3b 6f3b 413b 5abb 5f3b 4abb
00000130: 993a 083b 42bb 9dba f5ba bf3a 6cba 003b
00000140: 5c3b 83bb 803b 813b 673b 80bb 803b 7bbb
00000150: 503b c1ba 123b 603b 453b 00bb 4d3b 43bb
00000160: c83a 7f3a faba dd39 0d3b 893a cb39 803a
00000170: 2b3b 5cbb 1f3b 633b 333b 16bb 803b 0bbb
00000180: 55bb e0b9 db3a 30bb 8739 ca3a 25bb e53a
00000190: 223b 27bb 623b 5f3b 1d3b 17bb 633b 75bb
000001a0: 093b cfba ea3a f93a aa3a 06bb df3a deba
000001b0: 80bb 803b 84bb 84bb 60bb 803b 81bb 7d3b
000001c0: 69ba bc3a aaba 23ba f6ba a4ba b8ba a439
000001d0: 39ba 72ba b9ba 7bba 5aba 573a 84ba be3a
000001e0: 7b3b 82bb 803b 823b 7f3b 80bb 823b 83bb
000001f0: 42bb 433b 7bbb 7cbb 3dbb 563b 7dbb 7e3b
0.0023498535 -0.0027313232 0.0020446777 0.003036499 0.002243042 -0.002670288 0.00340271 -0.0020141602
0.001739502 -0.0023956299 0.0021820068 0.0019073486 0.0027160645 -0.0018844604 0.0016174316 -0.0019683838
-0.0023498535 0.0028381348 -0.0018692017 -0.0032196045 -0.0028839111 0.0030670166 -0.002380371 0.0019836426
-0.0020141602 0.0025634766 -0.0033569336 -0.0025939941 -0.0025024414 0.002319336 -0.0025634766 0.0024871826
0.0012588501 0.0017623901 -0.0013656616 -0.00050735474 -0.0009841919 0.0006713867 -0.0005531311 0.0014266968
-0.0028686523 0.0036010742 -0.00390625 -0.00390625 -0.0030059814 0.0039367676 -0.00390625 0.0038757324
-0.002319336 0.002960205 -0.0034484863 -0.0028076172 -0.0027618408 0.002105713 -0.003189087 0.0026855469
0.0010147095 -0.0019836426 0.0002784729 0.0011291504 0.0012512207 -0.0027313232 0.0025787354 -0.0010986328
0.0029754639 -0.0032043457 0.0024871826 0.0032653809 0.002670288 -0.0030212402 0.00340271 -0.002090454
0.0035552979 -0.0039978027 0.00390625 0.003967285 0.00390625 -0.00390625 0.0039978027 -0.00390625
-0.0035095215 0.002746582 -0.0021362305 -0.0035552979 -0.0031433105 0.0036773682 -0.0038909912 0.003189087
0.0025939941 -0.0031433105 0.0034637451 0.0035095215 0.002960205 -0.0029449463 0.0032348633 -0.0036468506
0.0023345947 -0.0021209717 0.0023040771 0.0026397705 0.0023040771 -0.0020751953 0.0029449463 -0.0027008057
-0.0018463135 0.0019683838 -0.002105713 -0.0025482178 -0.0019226074 0.0024719238 -0.002532959 0.002670288
-0.0028686523 0.0033569336 -0.00390625 -0.00390625 -0.0031738281 0.00390625 -0.00390625 0.0038604736
0.0028686523 -0.0038757324 0.00390625 0.00390625 0.00390625 -0.00390625 0.00390625 -0.003967285
0.0015640259 -0.002960205 0.0031738281 0.0033874512 0.0024108887 -0.0030975342 0.0023345947 -0.0024871826
-0.0029907227 0.003692627 -0.00390625 -0.00390625 -0.0030670166 0.0033874512 -0.0039367676 0.0038604736
0.0026397705 -0.0032806396 0.0038146973 0.0036468506 0.0029449463 -0.003326416 0.00340271 -0.0030822754
0.0011672974 0.0020751953 -0.002960205 -0.0011978149 -0.0018692017 0.0014572144 -0.00090026855 0.001953125
0.0033569336 -0.0039978027 0.00390625 0.0039367676 0.0035247803 -0.00390625 0.00390625 -0.003829956
0.0031738281 -0.0014724731 0.0022277832 0.0034179688 0.0030059814 -0.001953125 0.0031280518 -0.0029754639
0.0015258789 0.0009727478 -0.0019073486 0.00042152405 0.0021514893 0.001045227 0.00038719177 0.0009765625
0.002609253 -0.0033569336 0.0024261475 0.0034637451 0.0027313232 -0.0022888184 0.00390625 -0.0021209717
-0.003250122 -0.0004272461 0.0016708374 -0.0026855469 0.00025749207 0.0015411377 -0.0025177002 0.0017471313
0.0024719238 -0.0025482178 0.0034484863 0.00340271 0.0023956299 -0.0023040771 0.0034637451 -0.0037384033
0.002090454 -0.0015792847 0.0017852783 0.0018997192 0.0012969971 -0.0020446777 0.001701355 -0.0016937256
-0.00390625 0.00390625 -0.0040283203 -0.0040283203 -0.0034179688 0.00390625 -0.0039367676 0.0038604736
-0.00088882446 0.0014343262 -0.0012969971 -0.00062179565 -0.001876831 -0.0012512207 -0.0014038086 0.00031280518
-0.000705719 -0.00092315674 -0.001411438 -0.000957489 -0.000831604 0.0008201599 -0.0010070801 0.001449585
0.003829956 -0.003967285 0.00390625 0.003967285 0.0038909912 -0.00390625 0.003967285 -0.0039978027
-0.002960205 0.0029754639 -0.003829956 -0.0038452148 -0.0028839111 0.0032653809 -0.0038604736 0.0038757324

base_model.model.transformer.h.11.attn.c_attn.lora_A.weight bf16 [8, 768]
00000000: 123d 0f3c 0d3c 79bc 67bc d5bc 80bb 003c
00000010: 8ebc 003c 993c 24bc e33b a5bc ddbb a63c
00000020: c0bc a4bc 87bb 09bd 983c 003c 873b 06bc
00000030: 04bd 003c debc f53c 91bb a9bc 7cbc 603c
00000040: 083d 02bd 87bb cc3c da3c b63c 8639 e1bc
00000050: 11bb c5bc 06bd eabc 9bbc e33c cebc a4bb
00000060: b63c 10bd 913c a6bc 00bc bf3a 58bc 683c
00000070: 8f3b 063d 24bc e53c d93c 7d3c 72bc d73c
00000080: 643c bcbc 043d 123c c23c af3c 9f3c 9a3b
00000090: c33b a13c 40bc 0a3d d2bb e1bc a4bb f93c
000000a0: 12bd 903b aebc df3c 753c 8c3c 003c 09bc
000000b0: da3c e23c 81bb 003c 0d3d e33b f6bc 803b
000000c0: ffbc c53c f23c 05bc 8abb 0ebd e1bc af3c
000000d0: c6bc 90bc 77bc bdbb 8c3c 073d f5bc 813c
000000e0: 6abc acbb 833c a1bc e9bc 17bc 013c a3bc
000000f0: 123c 04bd dc3b 9e3c 473c d6bc 3dbc b3bc
00000100: 9bbc 6cbc 00bc 203c 00bc 833c 2f3c 143c
00000110: 9b3c b33c 2e3c f83c bfbc 2cbc 693c a3bc
00000120: 003c 36bc df3c a43b 27bc f13b 10bd d83c
00000130: 543c f0bc f23c 133d c03c 23bc 8ebc 12bd
00000140: a4bc e13c 13bd a53c 12bd 993c 80bb e23c
00000150: ff3b 103d 8e3b 6ebc b83c 9abb cfbc 3abc
00000160: 93bb d6bc c8bc 713c c13c 6a3c bb3c 94bc
00000170: 243c 00bc 36bb a0bc edbc cc3c 80bb 2cbc
00000180: edbc debc 103d 0ebd ac3c fa3c 803b 22bc
00000190: 103c 123c 803c bebc 83bc d4bc b3bb 04bc
000001a0: 8bbb 953c c8bc 043d dabc 943c 0fbd b3bb
000001b0: 123d fc3c a53c 90bb a03c 493c cbbc 8f3c
000001c0: 843c a33c 12bb 3a3c ac3c ec3c 05bd a13c
000001d0: f0bc febc 553c 88bc 86bb 813b 4ebc bf3c
000001e0: 4c3c a9bc 903c 7bbc bbbb fe3c 92bc ca3c
000001f0: 00bc 0dbd f1bc 22bc bf3c 8ebb dcbb 80bb
0.03564453 0.008728027 0.008605957 -0.015197754 -0.014099121 -0.026000977 -0.00390625 0.0078125
-0.017333984 0.0078125 0.018676758 -0.010009766 0.0069274902 -0.020141602 -0.0067443848 0.020263672
-0.0234375 -0.020019531 -0.004119873 -0.033447266 0.018554688 0.0078125 0.004119873 -0.008178711
-0.032226562 0.0078125 -0.02709961 0.029907227 -0.004425049 -0.020629883 -0.015380859 0.013671875
0.033203125 -0.03173828 -0.004119873 0.024902344 0.026611328 0.022216797 0.00025558472 -0.02746582
-0.0022125244 -0.024047852 -0.032714844 -0.028564453 -0.018920898 0.027709961 -0.025146484 -0.005004883
0.022216797 -0.03515625 0.017700195 -0.020263672 -0.0078125 0.0014572144 -0.013183594 0.014160156
0.0043640137 0.032714844 -0.010009766 0.027954102 0.026489258 0.0154418945 -0.014770508 0.026245117
0.013916016 -0.022949219 0.032226562 0.008911133 0.02368164 0.021362305 0.01940918 0.004699707
0.0059509277 0.01965332 -0.01171875 0.033691406 -0.0064086914 -0.02746582 -0.005004883 0.030395508
-0.03564453 0.0043945312 -0.021240234 0.02722168 0.014953613 0.017089844 0.0078125 -0.008361816
0.026611328 0.02758789 -0.0039367676 0.0078125 0.034423828 0.0069274902 -0.030029297 0.00390625
-0.03112793 0.024047852 0.029541016 -0.008117676 -0.004211426 -0.03466797 -0.02746582 0.021362305
-0.024169922 -0.017578125 -0.015075684 -0.0057678223 0.017089844 0.032958984 -0.029907227 0.01574707
-0.014282227 -0.0052490234 0.015991211 -0.01965332 -0.028442383 -0.009216309 0.007873535 -0.019897461
0.008911133 -0.032226562 0.006713867 0.01928711 0.012145996 -0.026123047 -0.0115356445 -0.021850586
-0.018920898 -0.014404297 -0.0078125 0.009765625 -0.0078125 0.015991211 0.010681152 0.009033203
0.018920898 0.021850586 0.010620117 0.030273438 -0.02331543 -0.010498047 0.014221191 -0.019897461
0.0078125 -0.011108398 0.02722168 0.005004883 -0.010192871 0.0073547363 -0.03515625 0.026367188
0.012939453 -0.029296875 0.029541016 0.035888672 0.0234375 -0.0099487305 -0.017333984 -0.03564453
-0.020019531 0.02746582 -0.035888672 0.020141602 -0.03564453 0.018676758 -0.00390625 0.02758789
0.0077819824 0.03515625 0.004333496 -0.014526367 0.022460938 -0.004699707 -0.025268555 -0.011352539
-0.004486084 -0.026123047 -0.024414062 0.014709473 0.02355957 0.014282227 0.022827148 -0.018066406
0.010009766 -0.0078125 -0.0027770996 -0.01953125 -0.028930664 0.024902344 -0.00390625 -0.010498047
-0.028930664 -0.02709961 0.03515625 -0.03466797 0.020996094 0.030517578 0.00390625 -0.009887695
0.0087890625 0.008911133 0.015625 -0.02319336 -0.015991211 -0.025878906 -0.0054626465 -0.008056641
-0.0042419434 0.018188477 -0.024414062 0.032226562 -0.026611328 0.018066406 -0.03491211 -0.0054626465
0.03564453 0.030761719 0.020141602 -0.0043945312 0.01953125 0.012268066 -0.024780273 0.017456055
0.016113281 0.019897461 -0.0022277832 0.011352539 0.020996094 0.028808594 -0.032470703 0.01965332
-0.029296875 -0.03100586 0.013000488 -0.016601562 -0.0040893555 0.0039367676 -0.012573242 0.02331543
0.012451172 -0.020629883 0.017578125 -0.015319824 -0.005706787 0.03100586 -0.017822266 0.024658203
-0.0078125 -0.034423828 -0.029418945 -0.009887695 0.02331543 -0.004333496 -0.006713867 -0.00390625

base_model.model.transformer.h.11.attn.c_attn.lora_B.weight bf16 [2304, 8]
00000000: 11ba 39bb 523b 3c3b 49ba 7dbb 39bb 683b
00000010: e7ba 37bb 263b 5a3b 73ba 4cbb 3ebb 473b
00000020: 06bb 12bb 053b 68b8 9d3a abba 37bb 013b
00000030: 203b 10bb 44bb 08bb 00bb 083b 123b 4ebb
00000040: 0a3b cc3a 3ebb 12bb 18bb 283b 3d3b 2cbb
00000050: bfba 803b 25bb 80bb 5d3b 803b 163b 65bb
00000060: 86bb c33a 8d3b 313b 803b 7dbb 80bb 823b
00000070: 00bb 00bb 0c3b f33a 56b7 23bb 29bb 273b
00000080: 71b9 42bb 4f3b 3e3b 9238 80bb 3dbb 543b
00000090: 12bb 5c3b 8d3a 37bb 193b 323b feba 76b9
000000a0: b83a bd3a 513a f639 97b9 883a fc39 ba39
000000b0: 7e3b 733b 81bb 73bb 16bb 813b 7d3b 83bb
000000c0: 803b 80bb 80bb 373b 80bb e4ba 803b 1ebb
000000d0: 043b 0bbb 243b 4e3b 96ba 3ebb a6b9 193b
000000e0: 883b 01bb 8fbb 36bb 80bb 663b 853b 81bb
000000f0: a3ba 803b b3ba 17bb 003b 4a3b 6f3a 06bb
00000100: 1f3b 38bb 36bb 19ba 19bb 08ba 383b 02bb
00000110: c1ba 26ba 3bba 94ba e3b9 a03a 8db9 53b8
00000120: 663a 27bb deba c2b7 11bb feba b33a 8139
00000130: 5cbb 013b 473b f93a 573b f4ba 76bb 643b
00000140: 823b 5b3b 8dbb 7dbb 28bb 813b 873b 77bb
00000150: 2d3b 79bb 02bb 253b 3ebb 17bb 1c3b 06ba
00000160: 7fbb f83a 6b3b ff3a 333b 05bb 42bb 6a3b
00000170: 8abb f63a 893b 443b 803b 80bb 84bb 853b
00000180: 72bb 803b 133b 52bb 7d3b 1a3b 1cbb b63a
00000190: 14bb 043b 433b 5bb9 3a3b 87ba 33bb 0f3b
000001a0: a1ba 0a3b 62bb 03bb 66ba 0c3b db3a 29bb
000001b0: 80bb 113b 833b 063b 803b 06bb 83bb 803b
000001c0: 7bbb 5c3b 483b 05bb 6f3b 963a 80bb 153b
000001d0: 313b 23ba 60bb 06bb 0dbb 0a3b 553b 39bb
000001e0: 803b 0bbb 7ebb b6ba 5abb 293b 823b 84bb
000001f0: 80bb 22bb 873b 803b 803b 77bb 86bb 833b
-0.0005531311 -0.002822876 0.0032043457 0.0028686523 -0.00076675415 -0.0038604736 -0.002822876 0.003540039
-0.0017623901 -0.0027923584 0.002532959 0.003326416 -0.00092697144 -0.003112793 -0.00289917 0.003036499
-0.0020446777 -0.0022277832 0.002029419 -5.531311e-05 0.0011978149 -0.0013046265 -0.0027923584 0.0019683838
0.0024414062 -0.0021972656 -0.0029907227 -0.0020751953 -0.001953125 0.0020751953 0.0022277832 -0.0031433105
0.002105713 0.0015563965 -0.00289917 -0.0022277832 -0.002319336 0.0025634766 0.0028839111 -0.0026245117
-0.0014572144 0.00390625 -0.0025177002 -0.00390625 0.0033721924 0.00390625 0.0022888184 -0.0034942627
-0.0040893555 0.0014877319 0.0043029785 0.0027008057 0.00390625 -0.0038604736 -0.00390625 0.003967285
-0.001953125 -0.001953125 0.0021362305 0.0018539429 -1.2755394e-05 -0.0024871826 -0.0025787354 0.0025482178
-0.00022983551 -0.002960205 0.0031585693 0.00289917 6.9618225e-05 -0.00390625 -0.0028839111 0.0032348633
-0.0022277832 0.0033569336 0.0010757446 -0.0027923584 0.0023345947 0.0027160645 -0.0019378662 -0.00023460388
0.0014038086 0.0014419556 0.0007972717 0.00046920776 -0.00028800964 0.0010375977 0.00048065186 0.00035476685
0.0038757324 0.0037078857 -0.0039367676 -0.0037078857 -0.0022888184 0.0039367676 0.0038604736 -0.0039978027
0.00390625 -0.00390625 -0.00390625 0.0027923584 -0.00390625 -0.001739502 0.00390625 -0.0024108887
0.0020141602 -0.0021209717 0.0025024414 0.0031433105 -0.0011444092 -0.00289917 -0.00031661987 0.0023345947
0.0041503906 -0.0019683838 -0.0043640137 -0.0027770996 -0.00390625 0.0035095215 0.004058838 -0.0039367676
-0.0012435913 0.00390625 -0.0013656616 -0.0023040771 0.001953125 0.0030822754 0.00091171265 -0.0020446777
0.0024261475 -0.0028076172 -0.0027770996 -0.0005836487 -0.0023345947 -0.0005187988 0.0028076172 -0.0019836426
-0.0014724731 -0.00063323975 -0.0007133484 -0.0011291504 -0.00043296814 0.0012207031 -0.00026893616 -5.030632e-05
0.0008773804 -0.0025482178 -0.0016937256 -2.3126602e-05 -0.0022125244 -0.0019378662 0.0013656616 0.00024604797
-0.0033569336 0.0019683838 0.003036499 0.0018997192 0.0032806396 -0.0018615723 -0.003753662 0.003479004
0.003967285 0.0033416748 -0.0043029785 -0.0038604736 -0.0025634766 0.0039367676 0.004119873 -0.003768921
0.0026397705 -0.0037994385 -0.0019836426 0.0025177002 -0.00289917 -0.0023040771 0.002380371 -0.00051116943
-0.0038909912 0.0018920898 0.0035858154 0.0019454956 0.0027313232 -0.002029419 -0.002960205 0.0035705566
-0.004211426 0.001876831 0.004180908 0.0029907227 0.00390625 -0.00390625 -0.0040283203 0.004058838
-0.003692627 0.00390625 0.002243042 -0.0032043457 0.0038604736 0.0023498535 -0.002380371 0.0013885498
-0.0022583008 0.0020141602 0.0029754639 -0.00020885468 0.0028381348 -0.0010299683 -0.0027313232 0.0021820068
-0.0012283325 0.002105713 -0.0034484863 -0.0019989014 -0.0008773804 0.0021362305 0.0016708374 -0.0025787354
-0.00390625 0.0022125244 0.0039978027 0.0020446777 0.00390625 -0.0020446777 -0.0039978027 0.00390625
-0.003829956 0.0033569336 0.0030517578 -0.002029419 0.0036468506 0.0011444092 -0.00390625 0.0022735596
0.0027008057 -0.00062179565 -0.0034179688 -0.0020446777 -0.0021514893 0.002105713 0.003250122 -0.002822876
0.00390625 -0.0021209717 -0.0038757324 -0.0013885498 -0.003326416 0.0025787354 0.003967285 -0.0040283203
-0.00390625 -0.0024719238 0.004119873 0.00390625 0.00390625 -0.003768921 -0.0040893555 0.0039978027

base_model.model.transformer.h.2.attn.c_attn.lora_A.weight bf16 [8, 768]
00000000: c7bc 8dbc 843c c1bc 063d c03b 82bc 86bc
00000010: 423c ed3b c1bc 903c 53bc b13c 4ebc 8d3c
00000020: cbbc de3c 553c 7dbb 843c 673c af3c 28bb
00000030: c03c a13c 67bc c6bc 043d 39bc 073d b7bc
00000040: 5f3c a93b 083d 803b 033d 5f3c f2ba df3c
00000050: 80bc ba3c 873c 07bd 373a dbbb 97bb 01bd
00000060: eebc 77bc ca3c d13c febc 013d b23a b63c
00000070: 90bc 043b 88bc bb3b 01bc fa3c c9bc 1cbc
00000080: 003c 593c dd3c b3bc b03c 66ba acbc e63c
00000090: 01bc 723c 0a3d 813b fabc 4c3c 02bb 93bc
000000a0: da3c 5f3c 81bc 60bc e4bc c63c ed3c afbb
000000b0: 5c3c 40bc a6bc d0bc cebc 643c 0ebd 073d
000000c0: 80bb 08bd 13bd 05bd f7bc c0bc 963c abbc
000000d0: b2bc 00bc 753c 0a3d be3c 12bd edbb f6bb
000000e0: bc3c 9d3c 47bc 853c b5bc 80bb f6bc 02bd
000000f0: 973c 0b3d 103b ccbc 973b 843c 03bc 083d
00000100: 2cbc f6bc 0bbc 59bc 9c3b f3bc 1a3c d33c
00000110: 0abd 00bc aabc 87bc 85bc f2bc 5a3c b3bb
00000120: 8cbc cebb 8a3c eb3c 213c 813b 743c a9bc
00000130: 2ebc 953b b03c c43c e9bc 9fbc 9d3c 013b
00000140: 06bd 8bbc cb3c 0bbd 14bc aabc 24bc 0bbd
00000150: dc3c dc3b 0b3d 03bd e0bc 12bd f4bc c7bc
00000160: 24bc 233c a03c bd3c 9abc eb3c 88bb 06bd
00000170: 06bc 3a3c ad3c 363c 7ebb ccbc 9b3b 0c3d
00000180: c0bc 65bc b7bc 01bd fe3c bebc b43b 1c3b
00000190: 2fbb d2bc 14bb 78bc 06bc f73c 91bc 19bc
000001a0: 2dbb 063d 12bd e73b 063d d63c a23a cfbc
000001b0: 123d 52bc a63c 1a3c 02bd ab3c 41bc 81bb
000001c0: 8c3b 073d de3c f43c d13c 003c 05bd edbc
000001d0: 883b 0ebd 67ba 823b d83c efbc 11bd acbc
000001e0: 013d 6a3c 86bc 083d bbbc af3c f3bb a9bc
000001f0: 56bc 22bc 69bc fb3c c43c e0bc 00bc 80bb
-0.024291992 -0.017211914 0.016113281 -0.02355957 0.032714844 0.005859375 -0.01586914 -0.016357422
0.01184082 0.007232666 -0.02355957 0.017578125 -0.012878418 0.021606445 -0.012573242 0.017211914
-0.024780273 0.02709961 0.013000488 -0.0038604736 0.016113281 0.014099121 0.021362305 -0.0025634766
0.0234375 0.01965332 -0.014099121 -0.024169922 0.032226562 -0.011291504 0.032958984 -0.022338867
0.01361084 0.0051574707 0.033203125 0.00390625 0.031982422 0.01361084 -0.0018463135 0.02722168
-0.015625 0.022705078 0.016479492 -0.032958984 0.0006980896 -0.0066833496 -0.0046081543 -0.03149414
-0.029052734 -0.015075684 0.024658203 0.025512695 -0.03100586 0.03149414 0.0013580322 0.022216797
-0.017578125 0.0020141602 -0.016601562 0.005706787 -0.007873535 0.030517578 -0.024536133 -0.009521484
0.0078125 0.013244629 0.026977539 -0.021850586 0.021484375 -0.0008773804 -0.020996094 0.028076172
-0.007873535 0.014770508 0.033691406 0.0039367676 -0.030517578 0.012451172 -0.0019836426 -0.017944336
0.026611328 0.01361084 -0.01574707 -0.013671875 -0.027832031 0.024169922 0.028930664 -0.005340576
0.013427734 -0.01171875 -0.020263672 -0.025390625 -0.025146484 0.013916016 -0.03466797 0.032958984
-0.00390625 -0.033203125 -0.035888672 -0.032470703 -0.030151367 -0.0234375 0.018310547 -0.020874023
-0.021728516 -0.0078125 0.014953613 0.033691406 0.02319336 -0.03564453 -0.007232666 -0.007507324
0.022949219 0.019165039 -0.012145996 0.016235352 -0.022094727 -0.00390625 -0.030029297 -0.03173828
0.018432617 0.033935547 0.0021972656 -0.024902344 0.0046081543 0.016113281 -0.0079956055 0.033203125
-0.010498047 -0.030029297 -0.008483887 -0.013244629 0.004760742 -0.029663086 0.009399414 0.025756836
-0.033691406 -0.0078125 -0.020751953 -0.016479492 -0.016235352 -0.029541016 0.013305664 -0.0054626465
-0.017089844 -0.006286621 0.016845703 0.028686523 0.00982666 0.0039367676 0.014892578 -0.020629883
-0.010620117 0.004547119 0.021484375 0.023925781 -0.028442383 -0.01940918 0.019165039 0.0019683838
-0.032714844 -0.016967773 0.024780273 -0.033935547 -0.009033203 -0.020751953 -0.010009766 -0.033935547
0.026855469 0.006713867 0.033935547 -0.031982422 -0.02734375 -0.03564453 -0.029785156 -0.024291992
-0.010009766 0.0099487305 0.01953125 0.023071289 -0.018798828 0.028686523 -0.0041503906 -0.032714844
-0.008178711 0.011352539 0.021118164 0.011108398 -0.0038757324 -0.024902344 0.0047302246 0.034179688
-0.0234375 -0.013977051 -0.022338867 -0.03149414 0.03100586 -0.02319336 0.005493164 0.002380371
-0.002670288 -0.025634766 -0.0022583008 -0.015136719 -0.008178711 0.030151367 -0.017700195 -0.009338379
-0.0026397705 0.032714844 -0.03564453 0.0070495605 0.032714844 0.026123047 0.0012359619 -0.025268555
0.03564453 -0.012817383 0.020263672 0.009399414 -0.03173828 0.020874023 -0.011779785 -0.0039367676
0.004272461 0.032958984 0.02709961 0.029785156 0.025512695 0.0078125 -0.032470703 -0.028930664
0.0041503906 -0.03466797 -0.00088119507 0.003967285 0.026367188 -0.029174805 -0.03540039 -0.020996094
0.03149414 0.014282227 -0.016357422 0.033203125 -0.022827148 0.021362305 -0.0074157715 -0.020629883
-0.013061523 -0.009887695 -0.014221191 0.030639648 0.023925781 -0.02734375 -0.0078125 -0.00390625
