examples/research_projects/stack_llama/scripts/gpt2_peft_stack-exchange-paired_rmts__100000_2e-05/checkpoint-4500/adapter_model.safetensors (safetensors, 594496 bytes, 25 tensors)

base_model.model.score.weight bf16 [1, 768]
00000000: f03c b93b 9e3c 013d 223c f9bc b0bb 3c3c
00000010: ce3b 3abc 323c 38bc 453c 433d 093d 89bc
00000020: 25bc 27bc 0fbc e03c 5cbc 78bb 933c dbbc
00000030: 7b3c bc3c 3cbc 9e3c 273d 383c 1fbb 65bc
00000040: 1abc e4bc e33c 49bc 723d 563c debc f3bc
00000050: a23c c33c 25bd 03bd 9ebc 383c 60bc 76bc
00000060: 973c f13b 233c e8bc c53a 033d cc3b 20bc
00000070: 903c e7bc 283b 91bc 4e39 693b babc 8f3b
00000080: 9a3c 033c 293c b13c 0bbc e9bc 3ebc 4d3c
00000090: d13c aebb 89ba 1d3c b53c eaba 003c aa3c
000000a0: ac3c 05bc b5bc 9eba d0bb 98bc 95bc 69bc
000000b0: c83c c63b bb3b 70bb 64bc 203d be3c 993a
000000c0: 293b a03c d1ba 273c babc e93c 92bc 253c
000000d0: d03c 2a3b 5fbc bc3c 533b 07bc 5c39 0bbd
000000e0: 8a3c 3e3c 29bd 87bc 52bc 243c 753c 8bbb
000000f0: 2e3c edbc 5abc 993b b63c c83c 1f3d 033d
00000100: 1fbc 953c b8bc ef3b b7bc 9cbc c3ba 363c
00000110: e4bc b53c c8bc 923c d53c 47bb 393b 983c
00000120: 0bbd 2d3c d1bb d9bc f33c 89bb 803b c9bc
00000130: 473c 993c 2ebd 43bb 9a3c bfbc 7f3b 8c3b
00000140: 713c 59bc 3b3c 5e3c 95bc 033d 1a3c 943b
00000150: 55bc eebb d6bc 1a3d 65bc 3c3c 733c f53c
00000160: 2d3c 82bb 823b 9abb 47bc 453c b13b 8739
00000170: 023d 283c 853b 90bc bd3a 863c 7c3b 80bb
00000180: 43bc b33c 023d b5bc 023d 71bc 1b3c 07bc
00000190: 2e3b 7e3b 2d3b c53c f3bc 083c 723b 763b
000001a0: 043b 14bb d63b 803b 7b3c 9ebc 0a3d 823b
000001b0: 36bc 853c 83bb 9d3c c03b 9d3c 333b 57bd
000001c0: 07bc be3c 44bd 60bc 00bd a8bc 8d3c d73b
000001d0: 38bd 1d3c 05bd 43bc 91bc 1e3c 473c 7ebc
000001e0: bfbc 903c b53c b33c 05bd 02bb 5f3c 713c
000001f0: bcbc 6dbc 85bb 80bb ae3b 903c cabc 673c
0.029296875 0.005645752 0.01928711 0.03149414 0.009887695 -0.030395508 -0.0053710938 0.011474609
0.006286621 -0.011352539 0.010864258 -0.011230469 0.012023926 0.047607422 0.033447266 -0.016723633
-0.010070801 -0.010192871 -0.008728027 0.02734375 -0.013427734 -0.0037841797 0.017944336 -0.026733398
0.015319824 0.022949219 -0.011474609 0.01928711 0.040771484 0.011230469 -0.0024261475 -0.013977051
-0.009399414 -0.027832031 0.027709961 -0.012268066 0.05908203 0.013061523 -0.02709961 -0.029663086
0.01977539 0.023803711 -0.040283203 -0.031982422 -0.01928711 0.011230469 -0.013671875 -0.015014648
0.018432617 0.0073547363 0.0099487305 -0.028320312 0.0015029907 0.031982422 0.006225586 -0.009765625
0.017578125 -0.028198242 0.0025634766 -0.017700195 0.00019645691 0.0035552979 -0.022705078 0.0043640137
0.018798828 0.0079956055 0.010314941 0.021606445 -0.008483887 -0.028442383 -0.01159668 0.012512207
0.025512695 -0.0053100586 -0.001045227 0.0095825195 0.022094727 -0.0017852783 0.0078125 0.020751953
0.020996094 -0.008117676 -0.022094727 -0.0012054443 -0.0063476562 -0.018554688 -0.018188477 -0.014221191
0.024414062 0.0060424805 0.005706787 -0.0036621094 -0.013916016 0.0390625 0.02319336 0.0011672974
0.0025787354 0.01953125 -0.0015945435 0.010192871 -0.022705078 0.028442383 -0.017822266 0.010070801
0.025390625 0.0025939941 -0.01361084 0.022949219 0.0032196045 -0.008239746 0.00020980835 -0.033935547
0.016845703 0.01159668 -0.041259766 -0.016479492 -0.012817383 0.010009766 0.014953613 -0.0042419434
0.010620117 -0.028930664 -0.013305664 0.0046691895 0.022216797 0.024414062 0.03881836 0.031982422
-0.00970459 0.018188477 -0.022460938 0.007293701 -0.022338867 -0.019042969 -0.0014877319 0.011108398
-0.027832031 0.022094727 -0.024414062 0.017822266 0.026000977 -0.003036499 0.002822876 0.018554688
-0.033935547 0.010559082 -0.006378174 -0.026489258 0.029663086 -0.004180908 0.00390625 -0.024536133
0.012145996 0.018676758 -0.04248047 -0.0029754639 0.018798828 -0.02331543 0.0038909912 0.004272461
0.014709473 -0.013244629 0.011413574 0.013549805 -0.018188477 0.031982422 0.009399414 0.0045166016
-0.013000488 -0.0072631836 -0.026123047 0.037597656 -0.013977051 0.011474609 0.014831543 0.029907227
0.010559082 -0.003967285 0.003967285 -0.004699707 -0.012145996 0.012023926 0.0054016113 0.00025749207
0.03173828 0.010253906 0.004058838 -0.017578125 0.0014419556 0.016357422 0.0038452148 -0.00390625
-0.0119018555 0.021850586 0.03173828 -0.022094727 0.03173828 -0.014709473 0.009460449 -0.008239746
0.0026550293 0.0038757324 0.0026397705 0.024047852 -0.029663086 0.008300781 0.003692627 0.003753662
0.0020141602 -0.0022583008 0.0065307617 0.00390625 0.015319824 -0.01928711 0.033691406 0.003967285
-0.011108398 0.016235352 -0.0039978027 0.019165039 0.005859375 0.019165039 0.0027313232 -0.052490234
-0.008239746 0.02319336 -0.047851562 -0.013671875 -0.03125 -0.020507812 0.017211914 0.0065612793
-0.044921875 0.0095825195 -0.032470703 -0.0119018555 -0.017700195 0.009643555 0.012145996 -0.01550293
-0.02331543 0.017578125 0.022094727 0.021850586 -0.032470703 -0.0019836426 0.01361084 0.014709473
-0.022949219 -0.014465332 -0.004058838 -0.00390625 0.0053100586 0.017578125 -0.024658203 0.014099121

base_model.model.transformer.h.0.attn.c_attn.lora_A.weight bf16 [8, 768]
00000000: d6bc e53c e7bc 7cbb 0a3d 903c abbb 833c
00000010: 103c 36bc 1abc 33bc 08bd c0bc 8a3b 9d3c
00000020: edbc d53c 043d a5bc 7f3c c63c 94bc 923c
00000030: 063d df3c 0abd 593b 8fbb 873c 8f3b b2bc
00000040: 08bd 1abc 803b c4bc 603c 3bbc 39bc 9abc
00000050: c5bc bf3c e33c 923b 99bc 1f3b f2bb 863c
00000060: 04bc a0bc bc3c 2fbc db3c 8a3b ac3c fa3a
00000070: 07bc 80bb 87bb 803b 80bb 863c 243b 80bb
00000080: 953b a53b 093d 203c 023d 733c cc3c ccbc
00000090: d13c a0bc 813b 023d 453b 9d3c 8abb ccbc
000000a0: e73c a5bc 103d a1bb 78bc f6bc af3c f0bc
000000b0: a3bb 993a 6b3c 79bc 123c d7bc 703c 28bc
000000c0: a63c 043d 043d d2bc 03bd 523c bfbc bbbb
000000d0: 873c a23c e5bb bb3c 84bc cdbb a33c d13b
000000e0: 043d 9e3c db3c 203c 723b 03bc e83c 06bb
000000f0: 803b bdbc fd3a 6d3b 1b3c 973c 6b3c 0dbd
00000100: f4bc ca3c 0ebd 9a3c a63a 533c dcbc 423c
00000110: 94bc 123d 6abc e7bb f538 1c3c 7cbc 043d
00000120: a8bc 603b 3a3c 10bd f1bc b63c 113d 923c
00000130: a5bc 093c 0ebd 813b d3bc 32bc b63c 053d
00000140: 4bbc c83c 07bd 903b 713c afbc ad3c e63c
00000150: cc3b a73c f33c 093c 913c 9abb 82bb 3b3c
00000160: 0c3d f2bc e23c 153c a9bc 7c3c 60bb 36bc
00000170: 073d fc3b e9bc fb3c 7fbc b93c b03c e8bb
00000180: 083d 803b cf3c aa3c b0bc d33c 14bc b4bb
00000190: a83c 273c 113d c73c 823b 103d 4cbc dcbc
000001a0: 66bc adbc 193b 63bc eabc 853b 88bc b3ba
000001b0: 4abc 91bc 113d b23b 97bb e7bb f43c e2bc
000001c0: d93c 133d 4ebc 9ebc 813c 033d 82bb f93c
000001d0: 14bc 11bd 933c 0d3d 19bc fbbb 033c 053d
000001e0: 043d adbc d73c 88bc 26bc f13b d93c a8bc
000001f0: 983b bbbc 02bd 94bc 28bc c7bc debc 00bc
-0.026123047 0.027954102 -0.028198242 -0.0038452148 0.033691406 0.017578125 -0.005218506 0.015991211
0.0087890625 -0.011108398 -0.009399414 -0.010925293 -0.033203125 -0.0234375 0.004211426 0.019165039
-0.028930664 0.026000977 0.032226562 -0.020141602 0.015563965 0.024169922 -0.018066406 0.017822266
0.032714844 0.02722168 -0.033691406 0.0033111572 -0.0043640137 0.016479492 0.0043640137 -0.021728516
-0.033203125 -0.009399414 0.00390625 -0.023925781 0.013671875 -0.011413574 -0.011291504 -0.018798828
-0.024047852 0.02331543 0.027709961 0.0044555664 -0.018676758 0.0024261475 -0.007385254 0.016357422
-0.008056641 -0.01953125 0.022949219 -0.010681152 0.026733398 0.004211426 0.020996094 0.0019073486
-0.008239746 -0.00390625 -0.004119873 0.00390625 -0.00390625 0.016357422 0.0025024414 -0.00390625
0.004547119 0.0050354004 0.033447266 0.009765625 0.03173828 0.014831543 0.024902344 -0.024902344
0.025512695 -0.01953125 0.0039367676 0.03173828 0.0030059814 0.019165039 -0.004211426 -0.024902344
0.028198242 -0.020141602 0.03515625 -0.00491333 -0.015136719 -0.030029297 0.021362305 -0.029296875
-0.0049743652 0.0011672974 0.014343262 -0.015197754 0.008911133 -0.026245117 0.0146484375 -0.010253906
0.020263672 0.032226562 0.032226562 -0.025634766 -0.031982422 0.012817383 -0.02331543 -0.005706787
0.016479492 0.01977539 -0.0069885254 0.022827148 -0.016113281 -0.0062561035 0.019897461 0.006378174
0.032226562 0.01928711 0.026733398 0.009765625 0.003692627 -0.0079956055 0.028320312 -0.0020446777
0.00390625 -0.023071289 0.0019302368 0.003616333 0.009460449 0.018432617 0.014343262 -0.034423828
-0.029785156 0.024658203 -0.03466797 0.018798828 0.0012664795 0.012878418 -0.026855469 0.01184082
-0.018066406 0.03564453 -0.014282227 -0.0070495605 0.000116825104 0.009521484 -0.015380859 0.032226562
-0.020507812 0.0034179688 0.011352539 -0.03515625 -0.029418945 0.022216797 0.03540039 0.017822266
-0.020141602 0.008361816 -0.03466797 0.0039367676 -0.025756836 -0.010864258 0.022216797 0.032470703
-0.012390137 0.024414062 -0.032958984 0.0043945312 0.014709473 -0.021362305 0.021118164 0.028076172
0.006225586 0.020385742 0.029663086 0.008361816 0.017700195 -0.004699707 -0.003967285 0.011413574
0.034179688 -0.029541016 0.02758789 0.009094238 -0.020629883 0.015380859 -0.0034179688 -0.011108398
0.032958984 0.0076904297 -0.028442383 0.030639648 -0.015563965 0.022583008 0.021484375 -0.007080078
0.033203125 0.00390625 0.025268555 0.020751953 -0.021484375 0.025756836 -0.009033203 -0.005493164
0.020507812 0.010192871 0.03540039 0.024291992 0.003967285 0.03515625 -0.012451172 -0.026855469
-0.014038086 -0.021118164 0.0023345947 -0.0138549805 -0.028564453 0.004058838 -0.016601562 -0.0013656616
-0.012329102 -0.017700195 0.03540039 0.005432129 -0.0046081543 -0.0070495605 0.029785156 -0.02758789
0.026489258 0.035888672 -0.012573242 -0.01928711 0.01574707 0.031982422 -0.003967285 0.030395508
-0.009033203 -0.03540039 0.017944336 0.034423828 -0.009338379 -0.007659912 0.0079956055 0.032470703
0.032226562 -0.021118164 0.026245117 -0.016601562 -0.010131836 0.0073547363 0.026489258 -0.020507812
0.004638672 -0.022827148 -0.03173828 -0.018066406 -0.010253906 -0.024291992 -0.02709961 -0.0078125

base_model.model.transformer.h.0.attn.c_attn.lora_B.weight bf16 [2304, 8]
00000000: 6aba 54ba a139 dc39 0bba 50ba 2a3a 813a
00000010: 9bba d5b9 1dba f53a c139 64ba f938 1c3a
00000020: 923a fd3a 303a aeb8 fa3a 943a e0ba 78ba
00000030: d43a 213a 9aba f93a 023b ddb8 baba c9ba
00000040: b6ba 5439 9639 adba 0f39 7eb9 8f3a a339
00000050: c039 d43a afb8 f0b9 b3b8 a6b8 13ba 86ba
00000060: 753a a23a 133a 32b8 2aba 1aba a7b9 86ba
00000070: 33b9 92b8 a839 1939 cf38 19ba 643a 47ba
00000080: 54ba 3bb8 183a 1339 08ba b539 da38 063a
00000090: 4f3a 1cb7 eeb9 faba a5b9 48ba 063a 4e3a
000000a0: 113a 5bba edba e53a f63a c6b9 bbba e7ba
000000b0: 963a 1a3a a439 fb39 54ba b3b9 7338 4fb9
000000c0: be3a c8b9 b439 7739 b83a 5b3a 32ba 5fb9
000000d0: 533a b63a e5b9 87ba c03a 363a 96b9 e3b9
000000e0: eeb9 bfba b6ba 213a 2bba 1f3a 8b3a bab9
000000f0: 883a fa3a 033b 6eba b2ba 5d39 4dba 5439
00000100: a0ba 01b9 cdb9 183a 883a ef39 73ba 8aba
00000110: a4b7 bdba 90ba 98b9 cf39 c739 0439 953a
00000120: 403a 233a a63a edba afba f5ba 133a 803a
00000130: 4939 913a ed3a 89ba f1ba d8ba 793a 55ba
00000140: cbba 47ba 49ba 9d39 d2b9 063a b23a 803a
00000150: 423a e5b9 6839 fab9 baba dcb9 3b3a 1a3a
00000160: 96b9 0bbb 853a df3a 73ba e939 8f3a cdb9
00000170: a7b9 6f3a a53a 8539 11ba 383a b2ba 82ba
00000180: 9e3a a53a 8eba 9dba 743a 593a a239 8239
00000190: 463a 03bb 12bb d839 6b3a 5bb9 7739 533a
000001a0: 083a 36ba 993a 50b8 2339 1cb9 2139 91b9
000001b0: f239 83b9 aa3a 0fba aaba fab9 95ba b1ba
000001c0: d43a 7d3a 543a 4dba 28ba 26b9 293a da3a
000001d0: 2bba 89ba 70ba a43a 223a c1ba 803a e43a
000001e0: 66ba 0aba 59ba 58b9 5f39 9e3a 1f3a 4b3a
000001f0: d639 c2b9 363a a03a 34ba ac39 c9b9 19ba
-0.00089263916 -0.0008087158 0.00030708313 0.0004196167 -0.0005302429 -0.00079345703 0.00064849854 0.0009841919
-0.0011825562 -0.00040626526 -0.00059890747 0.0018692017 0.0003681183 -0.000869751 0.00011873245 0.0005950928
0.0011138916 0.0019302368 0.0006713867 -8.2969666e-05 0.0019073486 0.0011291504 -0.0017089844 -0.0009460449
0.0016174316 0.00061416626 -0.0011749268 0.0018997192 0.0019836426 -0.00010538101 -0.0014190674 -0.0015335083
-0.0013885498 0.00020217896 0.0002861023 -0.0013198853 0.00013637543 -0.00024223328 0.0010910034 0.00031089783
0.00036621094 0.0016174316 -8.34465e-05 -0.00045776367 -8.535385e-05 -7.915497e-05 -0.0005607605 -0.0010223389
0.00093460083 0.0012359619 0.0005607605 -4.2438507e-05 -0.00064849854 -0.0005874634 -0.00031852722 -0.0010223389
-0.0001707077 -6.9618225e-05 0.00032043457 0.00014591217 9.870529e-05 -0.0005836487 0.000869751 -0.00075912476
-0.0008087158 -4.4584274e-05 0.000579834 0.00014019012 -0.0005187988 0.0003452301 0.0001039505 0.00051116943
0.00078964233 -9.298325e-06 -0.00045394897 -0.0019073486 -0.00031471252 -0.00076293945 0.00051116943 0.00078582764
0.0005531311 -0.0008354187 -0.0018081665 0.0017471313 0.001876831 -0.00037765503 -0.0014266968 -0.0017623901
0.0011444092 0.0005874634 0.00031280518 0.0004787445 -0.0008087158 -0.0003414154 5.7935715e-05 -0.00019741058
0.001449585 -0.00038146973 0.00034332275 0.00023555756 0.0014038086 0.0008354187 -0.0006790161 -0.00021266937
0.0008049011 0.0013885498 -0.00043678284 -0.0010299683 0.0014648438 0.0006942749 -0.0002861023 -0.00043296814
-0.00045394897 -0.0014572144 -0.0013885498 0.00061416626 -0.00065231323 0.00060653687 0.0010604858 -0.00035476685
0.0010375977 0.0019073486 0.0019989014 -0.00090789795 -0.0013580322 0.00021076202 -0.00078201294 0.00020217896
-0.0012207031 -0.00012302399 -0.00039100647 0.000579834 0.0010375977 0.00045585632 -0.00092697144 -0.0010528564
-1.9550323e-05 -0.0014419556 -0.0010986328 -0.000289917 0.00039482117 0.00037956238 0.00012588501 0.0011367798
0.0007324219 0.00062179565 0.0012664795 -0.0018081665 -0.001335144 -0.0018692017 0.0005607605 0.0009765625
0.00019168854 0.0011062622 0.0018081665 -0.001045227 -0.0018386841 -0.0016479492 0.0009498596 -0.0008125305
-0.0015487671 -0.00075912476 -0.00076675415 0.00029945374 -0.0004005432 0.00051116943 0.0013580322 0.0009765625
0.00074005127 -0.00043678284 0.00022125244 -0.00047683716 -0.0014190674 -0.0004196167 0.0007133484 0.0005874634
-0.0002861023 -0.0021209717 0.0010147095 0.001701355 -0.00092697144 0.00044441223 0.0010910034 -0.00039100647
-0.00031852722 0.00091171265 0.0012588501 0.00025367737 -0.0005531311 0.0007019043 -0.0013580322 -0.0009918213
0.0012054443 0.0012588501 -0.001083374 -0.0011978149 0.00093078613 0.0008277893 0.00030899048 0.00024795532
0.00075531006 -0.0019989014 -0.0022277832 0.0004119873 0.00089645386 -0.00020885468 0.00023555756 0.0008049011
0.0005187988 -0.0006942749 0.0011672974 -4.9591064e-05 0.00015544891 -0.0001487732 0.00015354156 -0.00027656555
0.00046157837 -0.00024986267 0.0012969971 -0.0005455017 -0.0012969971 -0.00047683716 -0.0011367798 -0.0013504028
0.0016174316 0.0009651184 0.0008087158 -0.00078201294 -0.00064086914 -0.00015830994 0.00064468384 0.001663208
-0.00065231323 -0.001045227 -0.00091552734 0.0012512207 0.00061798096 -0.0014724731 0.0009765625 0.001739502
-0.0008773804 -0.0005264282 -0.0008277893 -0.00020599365 0.00021266937 0.0012054443 0.00060653687 0.00077438354
0.0004081726 -0.00037002563 0.0006942749 0.0012207031 -0.0006866455 0.00032806396 -0.00038337708 -0.0005836487

base_model.model.transformer.h.1.attn.c_attn.lora_A.weight bf16 [8, 768]
00000000: be3c a93c d7bc 053c 0abd b13c a0bc 2dbc
00000010: eebc 043d 123d 163c 7ebb 80bb a83c b33c
00000020: 2ebc 993b 00bc cd3c 363c adbc a2bc 843c
00000030: 5a3c 30bc f3bb 25bc 9ebc 1d3c d23c 71bc
00000040: 393c aabc 6c3c a43b 163c 05bc 0b3d cabc
00000050: 063c 09bd ed3c 343c 9ebb 133d a6bc f23c
00000060: b53b 853c 6d3c 83bc d13b b4bc 87bc b33c
00000070: 8d3c 13bd 6b3c d03c 0b3b 09bc a73b 5a3b
00000080: 4abc 793c d03c fe3c c5bc 0bbc 113d 823c
00000090: afbc 0ebb 933c 79bc 02bd 643c c2bc 9cbc
000000a0: 813c 9fbb 00bc eb3b b2bc a6bc 9abb f63c
000000b0: c33c 223c afba 00bc 823b b93b ce3b 0dbd
000000c0: a33c 43bb 983c 0e3d fe3c 8e3c 80bb efbc
000000d0: 123d 003c a33c 363c c53c cabc c5bc 4cbb
000000e0: 0dbd 35ba fabc 49bc f8bc 2bbc c33c b3bb
000000f0: 1a3c 95bb f4bb f7bc cfbc cebc 8c3c 773b
00000100: 0d3d 8b3b c6bc aa3c a2bc edbc 7abc 003d
00000110: 463c 113d f7bc 403c 05bd 9f3c d63c 5bbc
00000120: bb3c 7d3c 3a3c b4bc 7e3c 5fbc 5d3c 6bbc
00000130: bd3c 593c c1bc 103d 873b b93b 14bd 8c3c
00000140: de3c bebc a7bc f6bb 90bc 3bbc df3b 043d
00000150: d3bb 02bd 373c be3c 07bd 873c 043d aabb
00000160: b4bc 3ab9 09bd 42bc 5bbc b4bc 09bd edbc
00000170: d63b 1f3b bd3b c13c 8fbc 73bc 673c 3dba
00000180: 0a3d f0bc 80bb 7c3c c53b 343c 463c 06bd
00000190: 073d c03c c1bc cc3c 4a3c 4abc fa3b 483b
000001a0: 8abb 443c d23c ff3c 213a 3a3c 9e3c 9e3c
000001b0: b8bc 973b 0f3d 013d 943c 173c b23c 093d
000001c0: 343b e93c fd3c 81bc 66bb 703c 33bc da3c
000001d0: e5bc b0bc 103d c2bc e83c 043d 763c 0b3c
000001e0: e8bb 83bb 723b 0abc a83a 343c 863c e53c
000001f0: 753c e33c 093c 113c c03c 843b c6bc a3bc
0.02319336 0.020629883 -0.026245117 0.008117676 -0.033691406 0.021606445 -0.01953125 -0.010559082
-0.029052734 0.032226562 0.03564453 0.009155273 -0.0038757324 -0.00390625 0.020507812 0.021850586
-0.010620117 0.0046691895 -0.0078125 0.025024414 0.011108398 -0.021118164 -0.01977539 0.016113281
0.013305664 -0.0107421875 -0.0074157715 -0.010070801 -0.01928711 0.0095825195 0.025634766 -0.014709473
0.011291504 -0.020751953 0.014404297 0.005004883 0.009155273 -0.008117676 0.033935547 -0.024658203
0.008178711 -0.033447266 0.028930664 0.010986328 -0.0048217773 0.035888672 -0.020263672 0.029541016
0.0055236816 0.016235352 0.014465332 -0.015991211 0.006378174 -0.021972656 -0.016479492 0.021850586
0.017211914 -0.035888672 0.014343262 0.025390625 0.0021209717 -0.008361816 0.0050964355 0.003326416
-0.012329102 0.015197754 0.025390625 0.03100586 -0.024047852 -0.008483887 0.03540039 0.01586914
-0.021362305 -0.002166748 0.017944336 -0.015197754 -0.03173828 0.013916016 -0.02368164 -0.019042969
0.01574707 -0.004852295 -0.0078125 0.007171631 -0.021728516 -0.020263672 -0.004699707 0.030029297
0.023803711 0.009887695 -0.001335144 -0.0078125 0.003967285 0.005645752 0.006286621 -0.034423828
0.019897461 -0.0029754639 0.018554688 0.03466797 0.03100586 0.017333984 -0.00390625 -0.029174805
0.03564453 0.0078125 0.019897461 0.011108398 0.024047852 -0.024658203 -0.024047852 -0.003112793
-0.034423828 -0.0006904602 -0.030517578 -0.012268066 -0.030273438 -0.010437012 0.023803711 -0.0054626465
0.009399414 -0.004547119 -0.007446289 -0.030151367 -0.025268555 -0.025146484 0.017089844 0.003768921
0.034423828 0.0042419434 -0.024169922 0.020751953 -0.01977539 -0.028930664 -0.015258789 0.03125
0.012084961 0.03540039 -0.030151367 0.01171875 -0.032470703 0.01940918 0.026123047 -0.013366699
0.022827148 0.0154418945 0.011352539 -0.021972656 0.01550293 -0.01361084 0.0134887695 -0.014343262
0.023071289 0.013244629 -0.02355957 0.03515625 0.004119873 0.005645752 -0.036132812 0.017089844
0.02709961 -0.02319336 -0.020385742 -0.007507324 -0.017578125 -0.011413574 0.00680542 0.032226562
-0.006439209 -0.03173828 0.011169434 0.02319336 -0.032958984 0.016479492 0.032226562 -0.0051879883
-0.021972656 -0.00017738342 -0.033447266 -0.01184082 -0.013366699 -0.021972656 -0.033447266 -0.028930664
0.0065307617 0.0024261475 0.0057678223 0.02355957 -0.017456055 -0.014831543 0.014099121 -0.0007209778
0.033691406 -0.029296875 -0.00390625 0.015380859 0.006011963 0.010986328 0.012084961 -0.032714844
0.032958984 0.0234375 -0.02355957 0.024902344 0.012329102 -0.012329102 0.0076293945 0.0030517578
-0.004211426 0.011962891 0.025634766 0.03112793 0.00061416626 0.011352539 0.01928711 0.01928711
-0.022460938 0.0046081543 0.03491211 0.03149414 0.018066406 0.009216309 0.021728516 0.033447266
0.002746582 0.028442383 0.030883789 -0.01574707 -0.0035095215 0.0146484375 -0.010925293 0.026611328
-0.027954102 -0.021484375 0.03515625 -0.02368164 0.028320312 0.032226562 0.015014648 0.008483887
-0.007080078 -0.0039978027 0.003692627 -0.008422852 0.0012817383 0.010986328 0.016357422 0.027954102
0.014953613 0.027709961 0.008361816 0.008850098 0.0234375 0.0040283203 -0.024169922 -0.019897461

base_model.model.transformer.h.1.attn.c_attn.lora_B.weight bf16 [2304, 8]
00000000: 78b9 beba 80ba 95ba b2ba fdba 58ba 75ba
00000010: 8f3a d63a af3a 8f3a af3a 153a ba3a 073b
00000020: 4dba c5ba d23a 5dba 263a d1ba 823a 6aba
00000030: 4cb9 a439 cf3a a23a b63a 9c39 bd3a 003b
00000040: ce39 d03a 9aba 9639 2eba 18ba feba 9b3a
00000050: 86ba adb8 de3a 3d3a b539 e339 acb9 6ab8
00000060: 26ba dfba c4ba 65ba efba 09bb 3db9 b539
00000070: 3038 01bb d339 06bb 93ba 80ba 033a fdba
00000080: ac3a 3f3a 8eb9 d7b9 a0ba 023a 9c37 cfba
00000090: 843a 113b 163a 0e3b ff3a 083b eb39 003b
000000a0: d5b9 f339 003b 3a3a a83a 033a e93a d43a
000000b0: 023b c43a bfba c1b9 0bba cb3a 8fba 58ba
000000c0: 023b 2b3a 0cbb b1ba e3ba bc39 c4ba c5ba
000000d0: 20ba 46ba 543a c2b8 d139 b8ba 2a3a 45b8
000000e0: ae39 b6b9 9f39 1e3a 553a 50ba f139 a73a
000000f0: dcb9 56b9 dab9 f637 94ba 87b9 84b9 4fb9
00000100: 6a3a efb9 61ba 033a a93a 41ba d7b8 56ba
00000110: 883a 9a3a 00bb b9b9 bfba 05ba 5239 8fba
00000120: 92b8 d03a e23a b13a bf3a 043b bc3a f23a
00000130: 8dba 05bb 01ba 1db9 b33a bfba b9b9 2a3a
00000140: a4ba 14bb 4e38 86ba 86ba 08bb 203a 7c39
00000150: d5ba aeba aaba c9b9 25ba 72ba 9dba 11ba
00000160: 00bb 09bb 5fba e3ba f0ba 96ba fcba fcba
00000170: b43a 5e3a d7ba 90ba faba 833a a5ba f339
00000180: b9b9 023b 853a e33a ff3a 9f3a 09ba 0d3b
00000190: 66ba 06bb 92ba 47ba 6cba deba 40b9 ebb9
000001a0: 4b3a 1d3a 023b a63a fa3a 853a 0e3b ce39
000001b0: 8dba 5eba c4b8 eeba b5ba f6ba 6bba 0eba
000001c0: 4f3a ef3a 173a 173a 003b e53a 8b39 003b
000001d0: 523a 803a e93a d43a 863a 1b3a f23a b83a
000001e0: 74ba ac3a f43a c13a c93a c33a 6c3a db3a
000001f0: acba 19ba 653a 543a 4839 d3b9 533a b13a
-0.00023651123 -0.001449585 -0.0009765625 -0.0011367798 -0.0013580322 -0.0019302368 -0.0008239746 -0.00093460083
0.0010910034 0.0016326904 0.001335144 0.0010910034 0.001335144 0.0005683899 0.0014190674 0.0020599365
-0.00078201294 -0.0015029907 0.0016021729 -0.0008430481 0.00063323975 -0.0015945435 0.0009918213 -0.00089263916
-0.00019454956 0.00031280518 0.0015792847 0.0012359619 0.0013885498 0.0002975464 0.0014419556 0.001953125
0.00039291382 0.0015869141 -0.0011749268 0.0002861023 -0.0006637573 -0.000579834 -0.0019378662 0.0011825562
-0.0010223389 -8.249283e-05 0.0016937256 0.0007209778 0.0003452301 0.00043296814 -0.00032806396 -5.5789948e-05
-0.00063323975 -0.001701355 -0.0014953613 -0.0008735657 -0.0018234253 -0.002090454 -0.00018024445 0.0003452301
4.196167e-05 -0.0019683838 0.00040245056 -0.0020446777 -0.001121521 -0.0009765625 0.00049972534 -0.0019302368
0.0013122559 0.0007286072 -0.0002708435 -0.00041007996 -0.0012207031 0.00049591064 1.859665e-05 -0.0015792847
0.0010070801 0.0022125244 0.0005722046 0.002166748 0.0019454956 0.0020751953 0.00044822693 0.001953125
-0.00040626526 0.00046348572 0.001953125 0.0007095337 0.0012817383 0.00049972534 0.0017776489 0.0016174316
0.0019836426 0.0014953613 -0.0014572144 -0.0003681183 -0.0005302429 0.0015487671 -0.0010910034 -0.0008239746
0.0019836426 0.00065231323 -0.0021362305 -0.0013504028 -0.0017318726 0.00035858154 -0.0014953613 -0.0015029907
-0.00061035156 -0.00075531006 0.0008087158 -9.250641e-05 0.00039863586 -0.0014038086 0.00064849854 -4.696846e-05
0.00033187866 -0.00034713745 0.00030326843 0.00060272217 0.0008125305 -0.00079345703 0.00045967102 0.0012741089
-0.0004196167 -0.0002040863 -0.000415802 2.9325485e-05 -0.0011291504 -0.00025749207 -0.00025177002 -0.00019741058
0.00089263916 -0.00045585632 -0.0008583069 0.00049972534 0.0012893677 -0.0007362366 -0.00010251999 -0.0008163452
0.0010375977 0.0011749268 -0.001953125 -0.0003528595 -0.0014572144 -0.00050735474 0.0002002716 -0.0010910034
-6.9618225e-05 0.0015869141 0.0017242432 0.0013504028 0.0014572144 0.0020141602 0.0014343262 0.0018463135
-0.0010757446 -0.002029419 -0.00049209595 -0.00014972687 0.0013656616 -0.0014572144 -0.0003528595 0.00064849854
-0.0012512207 -0.0022583008 4.9114227e-05 -0.0010223389 -0.0010223389 -0.0020751953 0.00061035156 0.00024032593
-0.001625061 -0.0013275146 -0.0012969971 -0.00038337708 -0.00062942505 -0.00092315674 -0.0011978149 -0.0005531311
-0.001953125 -0.002090454 -0.0008506775 -0.0017318726 -0.0018310547 -0.0011444092 -0.0019226074 -0.0019226074
0.001373291 0.0008468628 -0.0016403198 -0.0010986328 -0.0019073486 0.0009994507 -0.0012588501 0.00046348572
-0.0003528595 0.0019836426 0.0010147095 0.0017318726 0.0019454956 0.0012130737 -0.0005226135 0.0021514893
-0.0008773804 -0.0020446777 -0.0011138916 -0.00075912476 -0.00090026855 -0.0016937256 -0.00018310547 -0.00044822693
0.00077438354 0.00059890747 0.0019836426 0.0012664795 0.0019073486 0.0010147095 0.002166748 0.00039291382
-0.0010757446 -0.0008468628 -9.346008e-05 -0.0018157959 -0.0013809204 -0.001876831 -0.00089645386 -0.000541687
0.00078964233 0.0018234253 0.0005760193 0.0005760193 0.001953125 0.0017471313 0.00026512146 0.001953125
0.0008010864 0.0009765625 0.0017776489 0.0016174316 0.0010223389 0.0005912781 0.0018463135 0.0014038086
-0.00093078613 0.0013122559 0.0018615723 0.0014724731 0.0015335083 0.0014877319 0.00090026855 0.0016708374
-0.0013122559 -0.0005836487 0.0008735657 0.0008087158 0.00019073486 -0.00040245056 0.0008049011 0.0013504028

base_model.model.transformer.h.10.attn.c_attn.lora_A.weight bf16 [8, 768]
00000000: 72bc f8bc 903c 503c de3b e9bb 12bd a8bc
00000010: 38bc a93c 83bb 00bc adbb 85bb 80bb b6bc
00000020: 06bd b43c eabc 70bb 883b 00bc da3c d4bc
00000030: 0cbd 9fbb c43c 9a3c 6f3c 2e3c 643c fc3b
00000040: 003d 95bc d63b 0b3d ddbc 6bbc 99bc 063d
00000050: 0abd a8bc 05bd acbb fcba a43c c53c 3bbc
00000060: 913c b73c 90bc ecbc df3c 643c f23c b6bc
00000070: bdbc 06bc 5dbc e23c f7bb b1bc 85bc 0e3d
00000080: 693c 11bd e73b fcbc 90bc d5bc b6bc a13c
00000090: e93b a8bc 0e3d 00bc 8a3b 843c 823c 9fbc
000000a0: 9bbb 4bbc ff3b c13c 62bc ddbc 9b3c bb3b
000000b0: e03c a13c 0b3d 193c a4bc cdbc 803b 653c
000000c0: 053d bd3c 0abd 63bc a03c d93c a63c 0c3b
000000d0: 0bbb b0bc f9bc 52bc fa3c 9dbb b0bc fd3b
000000e0: b93b 94bc 873c 56bc a6bc 7e3b 083d b53b
000000f0: ed3c febc 05bd b03b f63b d8bc d2bc cdbc
00000100: 933c 5abc 0bbd 99ba 10bd 1f3a 0f3d 5abc
00000110: 20bc 053d bcbc 29bc c13c 813c 133d b03b
00000120: b8bc b43c 033d e4bb abbc 95bc 06bd 85bb
00000130: 94bc dd3c c83c e9bc e23c ed3c f63c e73b
00000140: 353c c7ba 38bc 003c 8abc cbbc 513c dc3c
00000150: 523c aabb 793b b43c 10bd cd3c 003c 0fbc
00000160: fe3b 0f3d 563c f73c 7b3b a43c 1bbc bdbc
00000170: b4bb 1b3c 1b3c ad3b 003c 8e3b 363c 1d3c
00000180: 083d 14bd 113d 653c 493c 9f3c 6cbc 0f3c
00000190: 943c 1a3c 4a3b f4bc 7a3c 0bbd b8bc eebc
000001a0: 803b febc adbb 7f3b fe3c b13c 253c 8db7
000001b0: aabb e93c 46bc c2bc 9abc eabc efbb 003c
000001c0: 0ebd a5bc 8d3c f83c 3e3c debc e93c ef3c
000001d0: e6bc 00bc 6c3c 00bc 87bc 0fbd a7bc e6bc
000001e0: 61bc d1bc 5cbc 00bc ac3b 2bbc 873c c03c
000001f0: e8bc aabc a83c afbc 01bd 7a3c d9bc 91bb
-0.014770508 -0.030273438 0.017578125 0.0126953125 0.0067749023 -0.0071105957 -0.03564453 -0.020507812
-0.011230469 0.020629883 -0.0039978027 -0.0078125 -0.005279541 -0.004058838 -0.00390625 -0.022216797
-0.032714844 0.021972656 -0.028564453 -0.0036621094 0.0041503906 -0.0078125 0.026611328 -0.025878906
-0.034179688 -0.004852295 0.023925781 0.018798828 0.014587402 0.010620117 0.013916016 0.0076904297
0.03125 -0.018188477 0.0065307617 0.033935547 -0.026977539 -0.014343262 -0.018676758 0.032714844
-0.033691406 -0.020507812 -0.032470703 -0.0052490234 -0.0019226074 0.020019531 0.024047852 -0.011413574
0.017700195 0.022338867 -0.017578125 -0.028808594 0.02722168 0.013916016 0.029541016 -0.022216797
-0.023071289 -0.008178711 -0.0134887695 0.02758789 -0.007537842 -0.021606445 -0.016235352 0.03466797
0.014221191 -0.03540039 0.0070495605 -0.030761719 -0.017578125 -0.026000977 -0.022216797 0.01965332
0.0071105957 -0.020507812 0.03466797 -0.0078125 0.004211426 0.016113281 0.01586914 -0.01940918
-0.0047302246 -0.012390137 0.0077819824 0.02355957 -0.013793945 -0.026977539 0.018920898 0.005706787
0.02734375 0.01965332 0.033935547 0.009338379 -0.020019531 -0.025024414 0.00390625 0.013977051
0.032470703 0.023071289 -0.033691406 -0.0138549805 0.01953125 0.026489258 0.020263672 0.0021362305
-0.0021209717 -0.021484375 -0.030395508 -0.012817383 0.030517578 -0.0047912598 -0.021484375 0.0077209473
0.005645752 -0.018066406 0.016479492 -0.013061523 -0.020263672 0.0038757324 0.033203125 0.0055236816
0.028930664 -0.03100586 -0.032470703 0.0053710938 0.007507324 -0.026367188 -0.025634766 -0.025024414
0.017944336 -0.013305664 -0.033935547 -0.0011672974 -0.03515625 0.00060653687 0.03491211 -0.013305664
-0.009765625 0.032470703 -0.022949219 -0.010314941 0.02355957 0.01574707 0.035888672 0.0053710938
-0.022460938 0.021972656 0.031982422 -0.006958008 -0.020874023 -0.018188477 -0.032714844 -0.004058838
-0.018066406 0.026977539 0.024414062 -0.028442383 0.02758789 0.028930664 0.030029297 0.0070495605
0.011047363 -0.0015182495 -0.011230469 0.0078125 -0.016845703 -0.024780273 0.012756348 0.026855469
0.012817383 -0.0051879883 0.0037994385 0.021972656 -0.03515625 0.025024414 0.0078125 -0.008728027
0.007751465 0.03491211 0.013061523 0.030151367 0.003829956 0.020019531 -0.009460449 -0.023071289
-0.005493164 0.009460449 0.009460449 0.005279541 0.0078125 0.004333496 0.011108398 0.0095825195
0.033203125 -0.036132812 0.03540039 0.013977051 0.012268066 0.01940918 -0.014404297 0.008728027
0.018066406 0.009399414 0.0030822754 -0.029785156 0.015258789 -0.033935547 -0.022460938 -0.029052734
0.00390625 -0.03100586 -0.005279541 0.0038909912 0.03100586 0.021606445 0.010070801 -1.680851e-05
-0.0051879883 0.028442383 -0.012084961 -0.02368164 -0.018798828 -0.028564453 -0.007293701 0.0078125
-0.03466797 -0.020141602 0.017211914 0.030273438 0.01159668 -0.02709961 0.028442383 0.029174805
-0.028076172 -0.0078125 0.014404297 -0.0078125 -0.016479492 -0.03491211 -0.020385742 -0.028076172
-0.01373291 -0.025512695 -0.013427734 -0.0078125 0.0052490234 -0.010437012 0.016479492 0.0234375
-0.028320312 -0.020751953 0.020507812 -0.021362305 -0.03149414 0.015258789 -0.026489258 -0.004425049

base_model.model.transformer.h.10.attn.c_attn.lora_B.weight bf16 [2304, 8]
00000000: 023b 20bb ed3a 283b 103b 33bb 563b 00bb
00000010: 873a 13bb ff3a 013b 2c3b 01bb a23a 06bb
00000020: 0fbb 3b3b f7ba 51bb 3dbb 4b3b 1ebb 003b
00000030: 01bb 1a3b 52bb 24bb 11bb 113b 23bb 1e3b
00000040: 8a3a c43a 99ba c5b9 89ba 283a 37ba e039
00000050: 38bb 5d3b 80bb 80bb 3dbb 813b 80bb 803b
00000060: 17bb 393b 5cbb 34bb 35bb 023b 51bb 273b
00000070: ab3a 0cbb a339 9c3a a03a 37bb 203b 23b9
00000080: 3c3b 3bbb 243b 493b 1f3b 44bb 4d3b 01bb
00000090: 563b 80bb 7b3b 7e3b 703b 80bb 833b 80bb
000000a0: 4ebb 253b 09bb 55bb 55bb 6c3b 74bb 603b
000000b0: 1e3b 3cbb 543b 5c3b 363b 3dbb 433b 6dbb
000000c0: 0a3b 02bb 063b 223b 123b f0ba 313b 2abb
000000d0: c6ba b73a fdba 1bbb 02bb 173b 1abb 2c3b
000000e0: 32bb 343b 7fbb 80bb 3cbb 803b 7bbb 7b3b
000000f0: 423b 7fbb 803b 803b 7f3b 80bb 803b 82bb
00000100: bf3a 42bb 523b 4e3b 213b 49bb 143b 24bb
00000110: 2ebb 4f3b 80bb 80bb 3abb 503b 81bb 803b
00000120: 203b 3abb 7e3b 6e3b 3a3b 4dbb 573b 50bb
00000130: 873a ef3a 30bb 07ba 61ba 0d3a d538 af3a
00000140: 3b3b 73bb 803b 803b 5a3b 7bbb 803b 80bb
00000150: 3c3b faba 1b3b 513b 413b 0abb 4e3b 41bb
00000160: 433a dd39 a2ba b939 053b 723a 693a bd39
00000170: 2b3b 5bbb 1e3b 623b 2a3b 14bb 803b 07bb
00000180: 4bbb 813a 8f3a 2bbb 98ba ed3a 18bb de3a
00000190: 043b 0cbb 3e3b 453b 0b3b 13bb 3b3b 65bb
000001a0: 093b e8ba c03a 003b 113a fbba b13a 8eba
000001b0: 78bb 7a3b 84bb 84bb 4ebb 803b 81bb 803b
000001c0: ddb9 bf3a f2ba d8b9 dcba 5dba b9ba 2e3a
000001d0: c0b9 bbba 59ba 1aba 063a 0bb7 4137 cd3a
000001e0: 593b 7dbb 803b 823b 803b 80bb 823b 82bb
000001f0: 35bb 383b 5fbb 74bb 3bbb 533b 72bb 7f3b
0.0019836426 -0.0024414062 0.0018081665 0.0025634766 0.0021972656 -0.0027313232 0.0032653809 -0.001953125
0.0010299683 -0.002243042 0.0019454956 0.0019683838 0.0026245117 -0.0019683838 0.0012359619 -0.0020446777
-0.0021820068 0.0028533936 -0.0018844604 -0.003189087 -0.0028839111 0.0030975342 -0.0024108887 0.001953125
-0.0019683838 0.0023498535 -0.0032043457 -0.0025024414 -0.0022125244 0.0022125244 -0.0024871826 0.0024108887
0.0010528564 0.0014953613 -0.0011672974 -0.00037574768 -0.001045227 0.00064086914 -0.0006980896 0.0004272461
-0.0028076172 0.0033721924 -0.00390625 -0.00390625 -0.0028839111 0.0039367676 -0.00390625 0.00390625
-0.0023040771 0.002822876 -0.0033569336 -0.002746582 -0.0027618408 0.0019836426 -0.003189087 0.0025482178
0.0013046265 -0.0021362305 0.00031089783 0.0011901855 0.0012207031 -0.0027923584 0.0024414062 -0.00015544891
0.0028686523 -0.0028533936 0.0025024414 0.0030670166 0.0024261475 -0.0029907227 0.0031280518 -0.0019683838
0.0032653809 -0.00390625 0.003829956 0.0038757324 0.0036621094 -0.00390625 0.0039978027 -0.00390625
-0.0031433105 0.0025177002 -0.002090454 -0.003250122 -0.003250122 0.0036010742 -0.0037231445 0.0034179688
0.0024108887 -0.0028686523 0.0032348633 0.0033569336 0.0027770996 -0.0028839111 0.0029754639 -0.003616333
0.002105713 -0.0019836426 0.0020446777 0.0024719238 0.0022277832 -0.0018310547 0.0027008057 -0.0025939941
-0.0015106201 0.0013961792 -0.0019302368 -0.0023651123 -0.0019836426 0.0023040771 -0.0023498535 0.0026245117
-0.0027160645 0.002746582 -0.0038909912 -0.00390625 -0.0028686523 0.00390625 -0.003829956 0.003829956
0.002960205 -0.0038909912 0.00390625 0.00390625 0.0038909912 -0.00390625 0.00390625 -0.003967285
0.0014572144 -0.002960205 0.0032043457 0.0031433105 0.002456665 -0.0030670166 0.0022583008 -0.0025024414
-0.0026550293 0.0031585693 -0.00390625 -0.00390625 -0.0028381348 0.0031738281 -0.0039367676 0.00390625
0.0024414062 -0.0028381348 0.0038757324 0.0036315918 0.0028381348 -0.0031280518 0.0032806396 -0.0031738281
0.0010299683 0.0018234253 -0.0026855469 -0.00051498413 -0.0008583069 0.0005378723 0.000101566315 0.001335144
0.0028533936 -0.0037078857 0.00390625 0.00390625 0.003326416 -0.003829956 0.00390625 -0.00390625
0.0028686523 -0.0019073486 0.0023651123 0.003189087 0.0029449463 -0.002105713 0.0031433105 -0.0029449463
0.00074386597 0.00042152405 -0.0012359619 0.0003528595 0.002029419 0.00092315674 0.00088882446 0.0003604889
0.002609253 -0.0033416748 0.0024108887 0.0034484863 0.0025939941 -0.0022583008 0.00390625 -0.0020599365
-0.0030975342 0.0009841919 0.0010910034 -0.002609253 -0.001159668 0.0018081665 -0.002319336 0.0016937256
0.0020141602 -0.0021362305 0.00289917 0.0030059814 0.0021209717 -0.002243042 0.0028533936 -0.0034942627
0.002090454 -0.0017700195 0.0014648438 0.001953125 0.0005531311 -0.001914978 0.0013504028 -0.001083374
-0.0037841797 0.0038146973 -0.0040283203 -0.0040283203 -0.0031433105 0.00390625 -0.0039367676 0.00390625
-0.00042152405 0.0014572144 -0.0018463135 -0.0004119873 -0.0016784668 -0.0008430481 -0.001411438 0.0006637573
-0.00036621094 -0.0014266968 -0.0008277893 -0.0005874634 0.00051116943 -8.285046e-06 1.1503696e-05 0.0015640259
0.0033111572 -0.0038604736 0.00390625 0.003967285 0.00390625 -0.00390625 0.003967285 -0.003967285
-0.0027618408 0.0028076172 -0.00340271 -0.0037231445 -0.0028533936 0.0032196045 -0.003692627 0.0038909912

base_model.model.transformer.h.11.attn.c_attn.lora_A.weight bf16 [8, 768]
00000000: 123d 0f3c 0d3c 79bc 67bc d5bc 80bb 003c
00000010: 8ebc 003c 993c 24bc e33b a5bc ddbb a63c
00000020: c0bc a4bc 87bb 09bd 983c 003c 873b 06bc
00000030: 04bd 003c debc f53c 91bb a9bc 7cbc 603c
00000040: 083d 02bd 87bb cc3c da3c b63c 863a e1bc
00000050: 0bbb c5bc 06bd eabc 9bbc e33c cebc a6bb
00000060: b63c 10bd 913c a6bc 00bc e43a 58bc 683c
00000070: 8f3b 063d 24bc e53c d93c 7d3c 72bc d73c
00000080: 643c bcbc 043d 123c c23c af3c 9f3c 9a3b
00000090: c33b a13c 40bc 0a3d d2bb e1bc a3bb f93c
000000a0: 12bd 903b aebc df3c 753c 8c3c 003c 09bc
000000b0: da3c e23c 81bb 003c 0d3d e33b f6bc 803b
000000c0: ffbc c53c f23c 05bc 8abb 0ebd e1bc af3c
000000d0: c6bc 90bc 77bc bdbb 8c3c 073d f5bc 813c
000000e0: 6abc acbb 833c a1bc e9bc 17bc 013c a3bc
000000f0: 123c 04bd dc3b 9e3c 473c d6bc 3dbc b3bc
00000100: 9bbc 6cbc 00bc 203c 00bc 833c 2f3c 143c
00000110: 9b3c b33c 2e3c f83c bfbc 2cbc 693c a3bc
00000120: 003c 36bc df3c a43b 27bc f13b 10bd d83c
00000130: 543c f0bc f23c 133d c03c 23bc 8ebc 12bd
00000140: a4bc e13c 13bd a53c 12bd 993c 80bb e23c
00000150: ff3b 103d 8e3b 6ebc b83c 9abb cfbc 3abc
00000160: 92bb d6bc c8bc 713c c13c 6a3c bb3c 94bc
00000170: 243c 00bc c7ba a0bc edbc cc3c 7fbb 2cbc
00000180: edbc debc 103d 0ebd ac3c fa3c 803b 22bc
00000190: 103c 123c 803c bebc 83bc d4bc b3bb 04bc
000001a0: 8bbb 953c c8bc 043d dabc 943c 0fbd b3bb
000001b0: 123d fc3c a53c 90bb a03c 493c cbbc 8f3c
000001c0: 843c a33c f9ba 3a3c ac3c ec3c 05bd a13c
000001d0: f0bc febc 553c 88bc 86bb 813b 4ebc bf3c
000001e0: 4c3c a9bc 903c 7bbc bbbb fe3c 92bc ca3c
000001f0: 00bc 0dbd f1bc 22bc bf3c 8ebb dcbb 80bb
0.03564453 0.008728027 0.008605957 -0.015197754 -0.014099121 -0.026000977 -0.00390625 0.0078125
-0.017333984 0.0078125 0.018676758 -0.010009766 0.0069274902 -0.020141602 -0.0067443848 0.020263672
-0.0234375 -0.020019531 -0.004119873 -0.033447266 0.018554688 0.0078125 0.004119873 -0.008178711
-0.032226562 0.0078125 -0.02709961 0.029907227 -0.004425049 -0.020629883 -0.015380859 0.013671875
0.033203125 -0.03173828 -0.004119873 0.024902344 0.026611328 0.022216797 0.0010223389 -0.02746582
-0.0021209717 -0.024047852 -0.032714844 -0.028564453 -0.018920898 0.027709961 -0.025146484 -0.005065918
0.022216797 -0.03515625 0.017700195 -0.020263672 -0.0078125 0.001739502 -0.013183594 0.014160156
0.0043640137 0.032714844 -0.010009766 0.027954102 0.026489258 0.0154418945 -0.014770508 0.026245117
0.013916016 -0.022949219 0.032226562 0.008911133 0.02368164 0.021362305 0.01940918 0.004699707
0.0059509277 0.01965332 -0.01171875 0.033691406 -0.0064086914 -0.02746582 -0.0049743652 0.030395508
-0.03564453 0.0043945312 -0.021240234 0.02722168 0.014953613 0.017089844 0.0078125 -0.008361816
0.026611328 0.02758789 -0.0039367676 0.0078125 0.034423828 0.0069274902 -0.030029297 0.00390625
-0.03112793 0.024047852 0.029541016 -0.008117676 -0.004211426 -0.03466797 -0.02746582 0.021362305
-0.024169922 -0.017578125 -0.015075684 -0.0057678223 0.017089844 0.032958984 -0.029907227 0.01574707
-0.014282227 -0.0052490234 0.015991211 -0.01965332 -0.028442383 -0.009216309 0.007873535 -0.019897461
0.008911133 -0.032226562 0.006713867 0.01928711 0.012145996 -0.026123047 -0.0115356445 -0.021850586
-0.018920898 -0.014404297 -0.0078125 0.009765625 -0.0078125 0.015991211 0.010681152 0.009033203
0.018920898 0.021850586 0.010620117 0.030273438 -0.02331543 -0.010498047 0.014221191 -0.019897461
0.0078125 -0.011108398 0.02722168 0.005004883 -0.010192871 0.0073547363 -0.03515625 0.026367188
0.012939453 -0.029296875 0.029541016 0.035888672 0.0234375 -0.0099487305 -0.017333984 -0.03564453
-0.020019531 0.02746582 -0.035888672 0.020141602 -0.03564453 0.018676758 -0.00390625 0.02758789
0.0077819824 0.03515625 0.004333496 -0.014526367 0.022460938 -0.004699707 -0.025268555 -0.011352539
-0.0044555664 -0.026123047 -0.024414062 0.014709473 0.02355957 0.014282227 0.022827148 -0.018066406
0.010009766 -0.0078125 -0.0015182495 -0.01953125 -0.028930664 0.024902344 -0.0038909912 -0.010498047
-0.028930664 -0.02709961 0.03515625 -0.03466797 0.020996094 0.030517578 0.00390625 -0.009887695
0.0087890625 0.008911133 0.015625 -0.02319336 -0.015991211 -0.025878906 -0.0054626465 -0.008056641
-0.0042419434 0.018188477 -0.024414062 0.032226562 -0.026611328 0.018066406 -0.03491211 -0.0054626465
0.03564453 0.030761719 0.020141602 -0.0043945312 0.01953125 0.012268066 -0.024780273 0.017456055
0.016113281 0.019897461 -0.0018997192 0.011352539 0.020996094 0.028808594 -0.032470703 0.01965332
-0.029296875 -0.03100586 0.013000488 -0.016601562 -0.0040893555 0.0039367676 -0.012573242 0.02331543
0.012451172 -0.020629883 0.017578125 -0.015319824 -0.005706787 0.03100586 -0.017822266 0.024658203
-0.0078125 -0.034423828 -0.029418945 -0.009887695 0.02331543 -0.004333496 -0.006713867 -0.00390625

base_model.model.transformer.h.11.attn.c_attn.lora_B.weight bf16 [2304, 8]
00000000: 8bba 3abb 4c3b 3d3b e9b9 80bb 38bb 683b
00000010: 03bb 33bb 243b 5f3b 55b9 4fbb 38bb 483b
00000020: 0abb 04bb f53a a1ba 753a 52ba 34bb fb3a
00000030: 0c3b 06bb 29bb 76ba bbba a53a fe3a 2dbb
00000040: 0c3b 983a 3abb 0dbb 19bb 163b 393b 2abb
00000050: a0ba 803b 0ebb 80bb 4c3b 803b 153b 5dbb
00000060: 86bb 643a 8d3b 1c3b 763b 80bb 80bb 823b
00000070: d5ba 06bb 123b c33a 3b3a 29bb 32bb 263b
00000080: 26ba 35bb 513b 383b a339 76bb 3bbb 563b
00000090: 04bb 4d3b 763a 35bb 1b3b 3c3b 75ba 8cba
000000a0: 433a ae3a 113a bf39 41b9 a13a be38 183a
000000b0: 763b 423b 81bb 40bb 15bb 803b 7b3b 83bb
000000c0: 803b 80bb 73bb 3e3b 76bb 02bb 5d3b 0cbb
000000d0: e73a 06bb 103b 333b 94ba 2abb 3a38 083b
000000e0: 883b b3ba 8fbb 1dbb 7dbb 493b 853b 81bb
000000f0: aeba 7f3b 8cba 18bb 993a 4e3b 903a 00bb
00000100: 1c3b 3dbb 31bb 9b39 17bb 60ba 363b b4ba
00000110: a0ba 29ba 74b8 deb9 423a dd39 63ba 483a
00000120: 933a 26bb deba c8b9 0abb c7ba ca3a 5ab9
00000130: 5bbb 003b 463b fb3a 513b d5ba 72bb 633b
00000140: 823b 563b 8dbb 7fbb 26bb 813b 873b 80bb
00000150: 153b 72bb cbba 353b 41bb 1bbb 013b 453a
00000160: 80bb 9c3a 543b ce38 263b faba 2fbb 5d3b
00000170: 8abb ca3a 893b 2d3b 793b 73bb 84bb 853b
00000180: 5ebb 803b 0d3b 55bb 6e3b 123b 0dbb 4b38
00000190: 02bb 023b 363b 4fba 313b 85b8 24bb d23a
000001a0: 97ba dc3a 61bb 03bb 03ba 073b 053b 31bb
000001b0: 79bb 093b 833b f73a 7c3b d1ba 83bb 803b
000001c0: 71bb 523b 3e3b 09bb 5f3b d13a 73bb 0d3b
000001d0: 1e3b 81b9 49bb a8ba 05bb f33a 403b 28bb
000001e0: 803b 03bb 80bb a3ba 5bbb 203b 823b 84bb
000001f0: 80bb 1bbb 873b 803b 803b 80bb 86bb 833b
-0.0010604858 -0.0028381348 0.003112793 0.0028839111 -0.00044441223 -0.00390625 -0.0028076172 0.003540039
-0.0019989014 -0.0027313232 0.0025024414 0.00340271 -0.00020313263 -0.0031585693 -0.0028076172 0.0030517578
-0.002105713 -0.0020141602 0.0018692017 -0.0012283325 0.00093460083 -0.0008010864 -0.002746582 0.001914978
0.0021362305 -0.0020446777 -0.0025787354 -0.0009384155 -0.0014266968 0.0012588501 0.0019378662 -0.0026397705
0.0021362305 0.001159668 -0.0028381348 -0.0021514893 -0.0023345947 0.0022888184 0.002822876 -0.0025939941
-0.0012207031 0.00390625 -0.002166748 -0.00390625 0.003112793 0.00390625 0.0022735596 -0.0033721924
-0.0040893555 0.000869751 0.0043029785 0.002380371 0.003753662 -0.00390625 -0.00390625 0.003967285
-0.001625061 -0.0020446777 0.0022277832 0.0014877319 0.0007133484 -0.0025787354 -0.0027160645 0.002532959
-0.00063323975 -0.0027618408 0.003189087 0.0028076172 0.00031089783 -0.003753662 -0.0028533936 0.0032653809
-0.0020141602 0.0031280518 0.0009384155 -0.0027618408 0.0023651123 0.0028686523 -0.00093460083 -0.0010681152
0.00074386597 0.0013275146 0.0005531311 0.0003643036 -0.00018405914 0.0012283325 9.059906e-05 0.000579834
0.003753662 0.002960205 -0.0039367676 -0.0029296875 -0.0022735596 0.00390625 0.003829956 -0.0039978027
0.00390625 -0.00390625 -0.0037078857 0.00289917 -0.003753662 -0.0019836426 0.0033721924 -0.0021362305
0.0017623901 -0.0020446777 0.0021972656 0.0027313232 -0.0011291504 -0.0025939941 4.4345856e-05 0.0020751953
0.0041503906 -0.0013656616 -0.0043640137 -0.0023956299 -0.0038604736 0.0030670166 0.004058838 -0.0039367676
-0.0013275146 0.0038909912 -0.0010681152 -0.002319336 0.0011672974 0.0031433105 0.0010986328 -0.001953125
0.002380371 -0.0028839111 -0.0027008057 0.00029563904 -0.0023040771 -0.0008544922 0.0027770996 -0.001373291
-0.0012207031 -0.00064468384 -5.8174133e-05 -0.0004234314 0.00074005127 0.00042152405 -0.0008659363 0.00076293945
0.001121521 -0.002532959 -0.0016937256 -0.00038146973 -0.002105713 -0.0015182495 0.0015411377 -0.000207901
-0.0033416748 0.001953125 0.0030212402 0.001914978 0.003189087 -0.001625061 -0.003692627 0.0034637451
0.003967285 0.0032653809 -0.0043029785 -0.0038909912 -0.002532959 0.0039367676 0.004119873 -0.00390625
0.0022735596 -0.003692627 -0.0015487671 0.0027618408 -0.0029449463 -0.0023651123 0.0019683838 0.00075149536
-0.00390625 0.0011901855 0.0032348633 9.8228455e-05 0.002532959 -0.0019073486 -0.002670288 0.0033721924
-0.004211426 0.0015411377 0.004180908 0.0026397705 0.0037994385 -0.0037078857 -0.0040283203 0.004058838
-0.0033874512 0.00390625 0.0021514893 -0.003250122 0.0036315918 0.0022277832 -0.0021514893 4.839897e-05
-0.0019836426 0.0019836426 0.0027770996 -0.00078964233 0.0027008057 -6.341934e-05 -0.0025024414 0.0016021729
-0.0011520386 0.0016784668 -0.0034332275 -0.0019989014 -0.00049972534 0.0020599365 0.002029419 -0.0027008057
-0.0037994385 0.002090454 0.0039978027 0.0018844604 0.0038452148 -0.0015945435 -0.0039978027 0.00390625
-0.0036773682 0.0032043457 0.00289917 -0.002090454 0.00340271 0.0015945435 -0.0037078857 0.0021514893
0.0024108887 -0.00024604797 -0.0030670166 -0.0012817383 -0.002029419 0.0018539429 0.0029296875 -0.0025634766
0.00390625 -0.0019989014 -0.00390625 -0.0012435913 -0.0033416748 0.0024414062 0.003967285 -0.0040283203
-0.00390625 -0.0023651123 0.004119873 0.00390625 0.00390625 -0.00390625 -0.0040893555 0.0039978027

base_model.model.transformer.h.2.attn.c_attn.lora_A.weight bf16 [8, 768]
00000000: c7bc 8dbc 843c c1bc 063d c13b 82bc 86bc
00000010: 423c ed3b c1bc 903c 53bc b13c 4ebc 8d3c
00000020: cbbc de3c 553c 6fbb 843c 673c af3c 24bb
00000030: c03c a13c 67bc c6bc 043d 39bc 073d b7bc
00000040: 5f3c a93b 083d 803b 033d 5f3c acba df3c
00000050: 80bc ba3c 873c 07bd ae39 dbbb 97bb 01bd
00000060: eebc 77bc ca3c d13c febc 013d 9d3a b63c
00000070: 90bc f33a 88bc bb3b 01bc fa3c c9bc 1cbc
00000080: 003c 593c dd3c b3bc b03c 29ba acbc e63c
00000090: 01bc 723c 0a3d 813b fabc 4c3c f8ba 93bc
000000a0: da3c 5f3c 81bc 60bc e4bc c63c ed3c afbb
000000b0: 5c3c 40bc a6bc d0bc cebc 643c 0ebd 073d
000000c0: 7ebb 08bd 13bd 05bd f7bc c0bc 963c abbc
000000d0: b2bc 00bc 753c 0a3d be3c 12bd edbb f6bb
000000e0: bc3c 9d3c 47bc 853c b5bc 7dbb f6bc 02bd
000000f0: 973c 0b3d 0e3b ccbc 973b 843c 03bc 083d
00000100: 2cbc f6bc 0bbc 59bc 9c3b f3bc 1a3c d33c
00000110: 0abd 00bc aabc 87bc 85bc f2bc 5a3c b3bb
00000120: 8cbc cdbb 8a3c eb3c 213c 813b 743c a9bc
00000130: 2ebc 953b b03c c43c e9bc 9fbc 9d3c 043b
00000140: 06bd 8bbc cb3c 0bbd 14bc aabc 24bc 0bbd
00000150: dc3c dc3b 0b3d 03bd e0bc 12bd f4bc c7bc
00000160: 24bc 233c a03c bd3c 9abc eb3c 88bb 06bd
00000170: 06bc 3a3c ad3c 363c 80bb ccbc 9b3b 0c3d
00000180: c0bc 65bc b7bc 01bd fe3c bebc b43b 003b
00000190: 12bb d2bc 10bb 78bc 06bc f73c 91bc 19bc
000001a0: 06bb 063d 12bd e73b 063d d63c c23a cfbc
000001b0: 123d 52bc a63c 1a3c 02bd ab3c 41bc 81bb
000001c0: 8d3b 073d de3c f43c d13c 003c 05bd edbc
000001d0: 883b 0ebd 6cba 803b d83c efbc 11bd acbc
000001e0: 013d 6a3c 86bc 083d bbbc af3c f3bb a9bc
000001f0: 56bc 22bc 69bc fb3c c43c e0bc 00bc 80bb
-0.024291992 -0.017211914 0.016113281 -0.02355957 0.032714844 0.0058898926 -0.01586914 -0.016357422
0.01184082 0.007232666 -0.02355957 0.017578125 -0.012878418 0.021606445 -0.012573242 0.017211914
-0.024780273 0.02709961 0.013000488 -0.0036468506 0.016113281 0.014099121 0.021362305 -0.0025024414
0.0234375 0.01965332 -0.014099121 -0.024169922 0.032226562 -0.011291504 0.032958984 -0.022338867
0.01361084 0.0051574707 0.033203125 0.00390625 0.031982422 0.01361084 -0.0013122559 0.02722168
-0.015625 0.022705078 0.016479492 -0.032958984 0.00033187866 -0.0066833496 -0.0046081543 -0.03149414
-0.029052734 -0.015075684 0.024658203 0.025512695 -0.03100586 0.03149414 0.0011978149 0.022216797
-0.017578125 0.0018539429 -0.016601562 0.005706787 -0.007873535 0.030517578 -0.024536133 -0.009521484
0.0078125 0.013244629 0.026977539 -0.021850586 0.021484375 -0.00064468384 -0.020996094 0.028076172
-0.007873535 0.014770508 0.033691406 0.0039367676 -0.030517578 0.012451172 -0.0018920898 -0.017944336
0.026611328 0.01361084 -0.01574707 -0.013671875 -0.027832031 0.024169922 0.028930664 -0.005340576
0.013427734 -0.01171875 -0.020263672 -0.025390625 -0.025146484 0.013916016 -0.03466797 0.032958984
-0.0038757324 -0.033203125 -0.035888672 -0.032470703 -0.030151367 -0.0234375 0.018310547 -0.020874023
-0.021728516 -0.0078125 0.014953613 0.033691406 0.02319336 -0.03564453 -0.007232666 -0.007507324
0.022949219 0.019165039 -0.012145996 0.016235352 -0.022094727 -0.0038604736 -0.030029297 -0.03173828
0.018432617 0.033935547 0.002166748 -0.024902344 0.0046081543 0.016113281 -0.0079956055 0.033203125
-0.010498047 -0.030029297 -0.008483887 -0.013244629 0.004760742 -0.029663086 0.009399414 0.025756836
-0.033691406 -0.0078125 -0.020751953 -0.016479492 -0.016235352 -0.029541016 0.013305664 -0.0054626465
-0.017089844 -0.0062561035 0.016845703 0.028686523 0.00982666 0.0039367676 0.014892578 -0.020629883
-0.010620117 0.004547119 0.021484375 0.023925781 -0.028442383 -0.01940918 0.019165039 0.0020141602
-0.032714844 -0.016967773 0.024780273 -0.033935547 -0.009033203 -0.020751953 -0.010009766 -0.033935547
0.026855469 0.006713867 0.033935547 -0.031982422 -0.02734375 -0.03564453 -0.029785156 -0.024291992
-0.010009766 0.0099487305 0.01953125 0.023071289 -0.018798828 0.028686523 -0.0041503906 -0.032714844
-0.008178711 0.011352539 0.021118164 0.011108398 -0.00390625 -0.024902344 0.0047302246 0.034179688
-0.0234375 -0.013977051 -0.022338867 -0.03149414 0.03100586 -0.02319336 0.005493164 0.001953125
-0.0022277832 -0.025634766 -0.0021972656 -0.015136719 -0.008178711 0.030151367 -0.017700195 -0.009338379
-0.0020446777 0.032714844 -0.03564453 0.0070495605 0.032714844 0.026123047 0.0014801025 -0.025268555
0.03564453 -0.012817383 0.020263672 0.009399414 -0.03173828 0.020874023 -0.011779785 -0.0039367676
0.0043029785 0.032958984 0.02709961 0.029785156 0.025512695 0.0078125 -0.032470703 -0.028930664
0.0041503906 -0.03466797 -0.00090026855 0.00390625 0.026367188 -0.029174805 -0.03540039 -0.020996094
0.03149414 0.014282227 -0.016357422 0.033203125 -0.022827148 0.021362305 -0.0074157715 -0.020629883
-0.013061523 -0.009887695 -0.014221191 0.030639648 0.023925781 -0.02734375 -0.0078125 -0.00390625
