examples/research_projects/stack_llama/scripts/gpt2_peft_stack-exchange-paired_rmts__100000_2e-05/checkpoint-4500/adapter_model.safetensors (safetensors, 594496 bytes, 25 tensors)

base_model.model.score.weight bf16 [1, 768]
000000 f0 3c bf 3b 9e 3c 01 3d 22 3c f9 bc a3 bb 3c 3c
       0.029296875 0.0058288574 0.01928711 0.03149414 0.009887695 -0.030395508 -0.0049743652 0.011474609
000010 c5 3b 3a bc 32 3c 38 bc 45 3c 43 3d 09 3d 89 bc
       0.006011963 -0.011352539 0.010864258 -0.011230469 0.012023926 0.047607422 0.033447266 -0.016723633
000020 25 bc 27 bc 0f bc e0 3c 5c bc 30 bb 93 3c db bc
       -0.010070801 -0.010192871 -0.008728027 0.02734375 -0.013427734 -0.0026855469 0.017944336 -0.026733398
000030 7b 3c bc 3c 3c bc 9e 3c 27 3d 38 3c b0 ba 65 bc
       0.015319824 0.022949219 -0.011474609 0.01928711 0.040771484 0.011230469 -0.0013427734 -0.013977051
000040 1a bc e4 bc e3 3c 49 bc 72 3d 56 3c de bc f3 bc
       -0.009399414 -0.027832031 0.027709961 -0.012268066 0.05908203 0.013061523 -0.02709961 -0.029663086
000050 a2 3c c3 3c 25 bd 03 bd 9e bc 38 3c 60 bc 76 bc
       0.01977539 0.023803711 -0.040283203 -0.031982422 -0.01928711 0.011230469 -0.013671875 -0.015014648
000060 97 3c f3 3b 23 3c e8 bc 92 3a 03 3d c2 3b 20 bc
       0.018432617 0.0074157715 0.0099487305 -0.028320312 0.0011138916 0.031982422 0.00592041 -0.009765625
000070 90 3c e7 bc 09 3b 91 bc 80 3a 4e 3b ba bc 87 3b
       0.017578125 -0.028198242 0.002090454 -0.017700195 0.0009765625 0.0031433105 -0.022705078 0.004119873
000080 9a 3c 03 3c 29 3c b1 3c 0b bc e9 bc 3e bc 4d 3c
       0.018798828 0.0079956055 0.010314941 0.021606445 -0.008483887 -0.028442383 -0.01159668 0.012512207
000090 d1 3c a4 bb 0b bb 1d 3c b5 3c 2c bb 00 3c aa 3c
       0.025512695 -0.005004883 -0.0021209717 0.0095825195 0.022094727 -0.0026245117 0.0078125 0.020751953
0000a0 ac 3c 05 bc b5 bc 10 bb d5 bb 98 bc 95 bc 69 bc
       0.020996094 -0.008117676 -0.022094727 -0.0021972656 -0.006500244 -0.018554688 -0.018188477 -0.014221191
0000b0 c8 3c c7 3b c6 3b 5d bb 64 bc 20 3d be 3c 73 3a
       0.024414062 0.006072998 0.0060424805 -0.0033721924 -0.013916016 0.0390625 0.02319336 0.00092697144
0000c0 19 3b a0 3c 0b 3a 27 3c ba bc e9 3c 92 bc 25 3c
       0.0023345947 0.01953125 0.0005302429 0.010192871 -0.022705078 0.028442383 -0.017822266 0.010070801
0000d0 d0 3c ab 3a 5f bc bc 3c 10 3b 07 bc 56 b9 0b bd
       0.025390625 0.0013046265 -0.01361084 0.022949219 0.0021972656 -0.008239746 -0.0002040863 -0.033935547
0000e0 8a 3c 3e 3c 29 bd 87 bc 52 bc 24 3c 75 3c 86 bb
       0.016845703 0.01159668 -0.041259766 -0.016479492 -0.012817383 0.010009766 0.014953613 -0.0040893555
0000f0 2e 3c ed bc 5a bc 9f 3b b6 3c c8 3c 1f 3d 03 3d
       0.010620117 -0.028930664 -0.013305664 0.004852295 0.022216797 0.024414062 0.03881836 0.031982422
000100 1f bc 95 3c b8 bc f1 3b b7 bc 9c bc 92 ba 36 3c
       -0.00970459 0.018188477 -0.022460938 0.0073547363 -0.022338867 -0.019042969 -0.0011138916 0.011108398
000110 e4 bc b5 3c c8 bc 92 3c d5 3c 2b bb 23 3b 98 3c
       -0.027832031 0.022094727 -0.024414062 0.017822266 0.026000977 -0.002609253 0.0024871826 0.018554688
000120 0b bd 2d 3c c2 bb d9 bc f3 3c 80 bb 1b 3b c9 bc
       -0.033935547 0.010559082 -0.00592041 -0.026489258 0.029663086 -0.00390625 0.0023651123 -0.024536133
000130 47 3c 99 3c 2e bd 6a bb 9a 3c bf bc 80 3b 8f 3b
       0.012145996 0.018676758 -0.04248047 -0.0035705566 0.018798828 -0.02331543 0.00390625 0.0043640137
000140 71 3c 59 bc 3b 3c 5e 3c 95 bc 03 3d 1a 3c 9e 3b
       0.014709473 -0.013244629 0.011413574 0.013549805 -0.018188477 0.031982422 0.009399414 0.0048217773
000150 55 bc f5 bb d6 bc 1a 3d 65 bc 3c 3c 73 3c f5 3c
       -0.013000488 -0.0074768066 -0.026123047 0.037597656 -0.013977051 0.011474609 0.014831543 0.029907227
000160 2d 3c 86 bb 88 3b 91 bb 47 bc 45 3c b5 3b af 39
       0.010559082 -0.0040893555 0.0041503906 -0.004425049 -0.012145996 0.012023926 0.0055236816 0.000333786
000170 02 3d 28 3c 8c 3b 90 bc bd 3a 86 3c 7f 3b 84 bb
       0.03173828 0.010253906 0.004272461 -0.017578125 0.0014419556 0.016357422 0.0038909912 -0.0040283203
000180 43 bc b3 3c 02 3d b5 bc 02 3d 71 bc 1b 3c 07 bc
       -0.0119018555 0.021850586 0.03173828 -0.022094727 0.03173828 -0.014709473 0.009460449 -0.008239746
000190 28 3b 82 3b 4e 3b c5 3c f3 bc 08 3c 7e 3b 60 3b
       0.0025634766 0.003967285 0.0031433105 0.024047852 -0.029663086 0.008300781 0.0038757324 0.0034179688
0001a0 9c 3a 07 bb e1 3b 62 3b 7b 3c 9e bc 0a 3d 78 3b
       0.0011901855 -0.0020599365 0.006866455 0.0034484863 0.015319824 -0.01928711 0.033691406 0.0037841797
0001b0 36 bc 85 3c 80 bb 9d 3c cc 3b 9d 3c 59 3b 57 bd
       -0.011108398 0.016235352 -0.00390625 0.019165039 0.006225586 0.019165039 0.0033111572 -0.052490234
0001c0 07 bc be 3c 44 bd 60 bc 00 bd a8 bc 8d 3c c5 3b
       -0.008239746 0.02319336 -0.047851562 -0.013671875 -0.03125 -0.020507812 0.017211914 0.006011963
0001d0 38 bd 1d 3c 05 bd 43 bc 91 bc 1e 3c 47 3c 7e bc
       -0.044921875 0.0095825195 -0.032470703 -0.0119018555 -0.017700195 0.009643555 0.012145996 -0.01550293
0001e0 bf bc 90 3c b5 3c b3 3c 05 bd c8 ba 5f 3c 71 3c
       -0.02331543 0.017578125 0.022094727 0.021850586 -0.032470703 -0.0015258789 0.01361084 0.014709473
0001f0 bc bc 6d bc 8b bb 8b bb b6 3b 90 3c ca bc 67 3c
       -0.022949219 -0.014465332 -0.0042419434 -0.0042419434 0.005554199 0.017578125 -0.024658203 0.014099121

base_model.model.transformer.h.0.attn.c_attn.lora_A.weight bf16 [8, 768]
000000 d6 bc e5 3c e7 bc 71 bb 0a 3d 90 3c 8e bb 83 3c
       -0.026123047 0.027954102 -0.028198242 -0.0036773682 0.033691406 0.017578125 -0.004333496 0.015991211
000010 10 3c 36 bc 1a bc 32 bc 08 bd c0 bc 83 3b 9d 3c
       0.0087890625 -0.011108398 -0.009399414 -0.010864258 -0.033203125 -0.0234375 0.0039978027 0.019165039
000020 ed bc d5 3c 04 3d a5 bc 7f 3c c6 3c 94 bc 92 3c
       -0.028930664 0.026000977 0.032226562 -0.020141602 0.015563965 0.024169922 -0.018066406 0.017822266
000030 06 3d df 3c 0a bd 80 3b a6 bb 87 3c 9a 3b b2 bc
       0.032714844 0.02722168 -0.033691406 0.00390625 -0.005065918 0.016479492 0.004699707 -0.021728516
000040 08 bd 1a bc 51 3b c4 bc 60 3c 3c bc 39 bc 9a bc
       -0.033203125 -0.009399414 0.003189087 -0.023925781 0.013671875 -0.011474609 -0.011291504 -0.018798828
000050 c5 bc bf 3c e3 3c 80 3b 99 bc 0d bb ff bb 86 3c
       -0.024047852 0.02331543 0.027709961 0.00390625 -0.018676758 -0.0021514893 -0.0077819824 0.016357422
000060 04 bc a0 bc bc 3c 2f bc db 3c 92 3b ac 3c be 3a
       -0.008056641 -0.01953125 0.022949219 -0.010681152 0.026733398 0.0044555664 0.020996094 0.001449585
000070 07 bc 80 bb 80 3b b1 3b 80 bb 86 3c 02 3b a8 bb
       -0.008239746 -0.00390625 0.00390625 0.0054016113 -0.00390625 0.016357422 0.0019836426 -0.005126953
000080 8c 3b 9a 3b 09 3d 20 3c 02 3d 73 3c cc 3c cc bc
       0.004272461 0.004699707 0.033447266 0.009765625 0.03173828 0.014831543 0.024902344 -0.024902344
000090 d1 3c a0 bc 86 3b 02 3d 36 3b 9d 3c b7 bb cc bc
       0.025512695 -0.01953125 0.0040893555 0.03173828 0.0027770996 0.019165039 -0.005584717 -0.024902344
0000a0 e7 3c a5 bc 10 3d b6 bb 78 bc f6 bc af 3c f0 bc
       0.028198242 -0.020141602 0.03515625 -0.005554199 -0.015136719 -0.030029297 0.021362305 -0.029296875
0000b0 a4 bb 1a 3b 6b 3c 79 bc 12 3c d7 bc 70 3c 28 bc
       -0.005004883 0.0023498535 0.014343262 -0.015197754 0.008911133 -0.026245117 0.0146484375 -0.010253906
0000c0 a6 3c 04 3d 04 3d d2 bc 03 bd 52 3c bf bc d5 bb
       0.020263672 0.032226562 0.032226562 -0.025634766 -0.031982422 0.012817383 -0.02331543 -0.006500244
0000d0 87 3c a2 3c 00 bc bb 3c 84 bc 85 bb a3 3c d8 3b
       0.016479492 0.01977539 -0.0078125 0.022827148 -0.016113281 -0.004058838 0.019897461 0.006591797
0000e0 04 3d 9e 3c db 3c 20 3c 8b 3a 03 bc e8 3c 80 bb
       0.032226562 0.01928711 0.026733398 0.009765625 0.0010604858 -0.0079956055 0.028320312 -0.00390625
0000f0 87 3b bd bc 14 3b f1 3a 1b 3c 97 3c 6b 3c 0d bd
       0.004119873 -0.023071289 0.0022583008 0.0018386841 0.009460449 0.018432617 0.014343262 -0.034423828
000100 f4 bc ca 3c 0e bd 9a 3c 14 3b 53 3c dc bc 42 3c
       -0.029785156 0.024658203 -0.03466797 0.018798828 0.0022583008 0.012878418 -0.026855469 0.01184082
000110 94 bc 12 3d 6a bc 00 bc 0f bb 1c 3c 7c bc 04 3d
       -0.018066406 0.03564453 -0.014282227 -0.0078125 -0.0021820068 0.009521484 -0.015380859 0.032226562
000120 a8 bc 80 3b 3a 3c 10 bd f1 bc b6 3c 11 3d 92 3c
       -0.020507812 0.00390625 0.011352539 -0.03515625 -0.029418945 0.022216797 0.03540039 0.017822266
000130 a5 bc 09 3c 0e bd 98 3b d3 bc 32 bc b6 3c 05 3d
       -0.020141602 0.008361816 -0.03466797 0.004638672 -0.025756836 -0.010864258 0.022216797 0.032470703
000140 4b bc c8 3c 07 bd 8b 3b 71 3c af bc ad 3c e6 3c
       -0.012390137 0.024414062 -0.032958984 0.0042419434 0.014709473 -0.021362305 0.021118164 0.028076172
000150 cb 3b a7 3c f3 3c 09 3c 91 3c d9 bb 81 bb 3b 3c
       0.0061950684 0.020385742 0.029663086 0.008361816 0.017700195 -0.0066223145 -0.0039367676 0.011413574
000160 0c 3d f2 bc e2 3c 15 3c a9 bc 7c 3c 0d bb 36 bc
       0.034179688 -0.029541016 0.02758789 0.009094238 -0.020629883 0.015380859 -0.0021514893 -0.011108398
000170 07 3d f5 3b e9 bc fb 3c 7f bc b9 3c b0 3c de bb
       0.032958984 0.0074768066 -0.028442383 0.030639648 -0.015563965 0.022583008 0.021484375 -0.0067749023
000180 08 3d 7f 3b cf 3c aa 3c b0 bc d3 3c 14 bc bc bb
       0.033203125 0.0038909912 0.025268555 0.020751953 -0.021484375 0.025756836 -0.009033203 -0.0057373047
000190 a8 3c 27 3c 11 3d c7 3c 92 3b 10 3d 4c bc dc bc
       0.020507812 0.010192871 0.03540039 0.024291992 0.0044555664 0.03515625 -0.012451172 -0.026855469
0001a0 66 bc ad bc a4 3a 62 bc ea bc 88 3b 88 bc 80 bb
       -0.014038086 -0.021118164 0.0012512207 -0.013793945 -0.028564453 0.0041503906 -0.016601562 -0.00390625
0001b0 4a bc 91 bc 11 3d b4 3b 7e bb f0 bb f4 3c e2 bc
       -0.012329102 -0.017700195 0.03540039 0.005493164 -0.0038757324 -0.0073242188 0.029785156 -0.02758789
0001c0 d9 3c 13 3d 4e bc 9e bc 81 3c 03 3d 8a bb f9 3c
       0.026489258 0.035888672 -0.012573242 -0.01928711 0.01574707 0.031982422 -0.004211426 0.030395508
0001d0 14 bc 11 bd 93 3c 0d 3d 19 bc e3 bb 03 3c 05 3d
       -0.009033203 -0.03540039 0.017944336 0.034423828 -0.009338379 -0.0069274902 0.0079956055 0.032470703
0001e0 04 3d ad bc d7 3c 88 bc 26 bc f4 3b d9 3c a8 bc
       0.032226562 -0.021118164 0.026245117 -0.016601562 -0.010131836 0.007446289 0.026489258 -0.020507812
0001f0 0b 3b bb bc 02 bd 94 bc 28 bc c7 bc de bc 00 bc
       0.0021209717 -0.022827148 -0.03173828 -0.018066406 -0.010253906 -0.024291992 -0.02709961 -0.0078125

base_model.model.transformer.h.0.attn.c_attn.lora_B.weight bf16 [2304, 8]
000000 4b ba e8 ba 0d 3a 6d ba 4d b9 5d ba 8e 3a bd 3a
       -0.00077438354 -0.0017700195 0.0005378723 -0.00090408325 -0.00019550323 -0.0008430481 0.001083374 0.0014419556
000010 06 b9 3d 37 fe 39 b1 3a 55 b9 3d ba 20 b9 d0 b9
       -0.00012779236 1.1265278e-05 0.00048446655 0.0013504028 -0.00020313263 -0.0007209778 -0.00015258789 -0.00039672852
000020 10 ba da 3a 43 3a b1 39 b2 b9 0a b9 ba ba 80 b9
       -0.0005493164 0.001663208 0.00074386597 0.0003376007 -0.00033950806 -0.00013160706 -0.0014190674 -0.00024414062
000030 8c 3a a0 3a 62 ba c1 3a 8d 3a 25 3a c8 b9 cf ba
       0.0010681152 0.0012207031 -0.0008621216 0.0014724731 0.0010757446 0.00062942505 -0.00038146973 -0.0015792847
000040 da b9 6c b6 08 3a 3a 39 df 39 dd b9 80 ba f3 b9
       -0.000415802 -3.516674e-06 0.0005187988 0.00017738342 0.00042533875 -0.00042152405 -0.0009765625 -0.00046348572
000050 a3 b9 fd 39 91 3a 3f 3a d6 ba cf 38 4c 39 82 ba
       -0.00031089783 0.0004825592 0.0011062622 0.0007286072 -0.0016326904 9.870529e-05 0.00019454956 -0.0009918213
000060 34 3a 8e 3a d1 b8 df 3a 8b 39 85 3a 81 ba 04 bb
       0.0006866455 0.001083374 -9.9658966e-05 0.001701355 0.00026512146 0.0010147095 -0.0009841919 -0.0020141602
000070 05 39 a5 38 26 39 2c 3a 8f b9 ae 3a 80 39 1a 39
       0.00012683868 7.867813e-05 0.00015830994 0.00065612793 -0.00027275085 0.0013275146 0.00024414062 0.00014686584
000080 81 3a 43 ba 89 ba 8b 3a 5e 3a d3 b8 87 3a ae 3a
       0.0009841919 -0.00074386597 -0.001045227 0.0010604858 0.0008468628 -0.00010061264 0.0010299683 0.0013275146
000090 c8 ba 82 ba d4 3a f6 ba c3 ba 12 ba 15 3a a2 3a
       -0.0015258789 -0.0009918213 0.0016174316 -0.001876831 -0.0014877319 -0.0005569458 0.0005683899 0.0012359619
0000a0 a1 39 8b ba 86 ba 99 3a 09 3a 16 3a d3 36 c1 ba
       0.00030708313 -0.0010604858 -0.0010223389 0.0011672974 0.0005226135 0.0005722046 6.28829e-06 -0.0014724731
0000b0 5b 39 8a 3a 9a b9 86 3a 9e 38 95 b9 14 b9 23 ba
       0.00020885468 0.0010528564 -0.0002937317 0.0010223389 7.534027e-05 -0.00028419495 -0.0001411438 -0.00062179565
0000c0 88 3a fe 3a 30 ba 94 3a 61 3a 83 3a 66 ba fc ba
       0.0010375977 0.0019378662 -0.0006713867 0.0011291504 0.0008583069 0.0009994507 -0.0008773804 -0.0019226074
0000d0 89 3a d6 39 26 ba 8f 39 94 3a 93 38 a2 b9 91 3a
       0.001045227 0.0004081726 -0.00063323975 0.00027275085 0.0011291504 7.009506e-05 -0.00030899048 0.0011062622
0000e0 99 b9 01 ba 37 ba 12 ba 56 ba 98 39 3c 3a 04 3a
       -0.00029182434 -0.00049209595 -0.0006980896 -0.0005569458 -0.0008163452 0.000289917 0.0007171631 0.00050354004
0000f0 10 b9 8d 3a 48 3a 77 38 d4 ba a4 ba b0 b9 98 ba
       -0.0001373291 0.0010757446 0.00076293945 5.888939e-05 -0.0016174316 -0.0012512207 -0.00033569336 -0.001159668
000100 97 3a 85 ba 00 ba b9 b9 7d 3a 03 38 4f ba 5b 3a
       0.0011520386 -0.0010147095 -0.00048828125 -0.0003528595 0.0009651184 3.1232834e-05 -0.00078964233 0.0008354187
000110 0a 39 13 ba d3 b9 05 ba 37 b9 97 39 6a 39 73 b9
       0.00013160706 -0.0005607605 -0.00040245056 -0.00050735474 -0.0001745224 0.00028800964 0.00022315979 -0.00023174286
000120 03 ba 59 b9 bf 3a fa b6 9c ba d8 ba 47 ba 38 ba
       -0.00049972534 -0.00020694733 0.0014572144 -7.4505806e-06 -0.0011901855 -0.0016479492 -0.00075912476 -0.0007019043
000130 8a 39 fb 37 63 3a 9a 39 ce b8 de b9 ac ba 2f b8
       0.0002632141 2.9921532e-05 0.0008659363 0.0002937317 -9.8228455e-05 -0.0004234314 -0.0013122559 -4.172325e-05
000140 6c b9 80 ba ee 38 be ba 50 b9 81 ba a3 3a bb 3a
       -0.00022506714 -0.0009765625 0.000113487244 -0.001449585 -0.00019836426 -0.0009841919 0.0012435913 0.0014266968
000150 9e ba 89 ba 83 39 7e ba 88 ba 9e 38 7e 3a 2e ba
       -0.0012054443 -0.001045227 0.00024986267 -0.0009689331 -0.0010375977 7.534027e-05 0.0009689331 -0.0006637573
000160 c7 39 fe 39 15 ba a1 3a c8 39 bb 3a 04 3a b6 ba
       0.00037956238 0.00048446655 -0.0005683899 0.0012283325 0.00038146973 0.0014266968 0.00050354004 -0.0013885498
000170 20 3a 22 3a 47 ba 80 b9 8c 3a cc b9 dd b9 30 b8
       0.00061035156 0.00061798096 -0.00075912476 -0.00024414062 0.0010681152 -0.00038909912 -0.00042152405 -4.196167e-05
000180 5f 3a b8 3a f3 b9 71 ba 00 3a 03 3a a7 ba 7c 3a
       0.0008506775 0.0014038086 -0.00046348572 -0.00091934204 0.00048828125 0.00049972534 -0.0012741089 0.0009613037
000190 f4 35 65 ba 0d ba 35 ba 89 ba 95 ba bc 3a f8 39
       1.8179417e-06 -0.0008735657 -0.0005378723 -0.0006904602 -0.001045227 -0.0011367798 0.0014343262 0.00047302246
0001a0 59 b9 88 3a 8c 3a 10 3a 96 ba ec 39 ce b9 1f ba
       -0.00020694733 0.0010375977 0.0010681152 0.0005493164 -0.0011444092 0.00045013428 -0.00039291382 -0.00060653687
0001b0 25 ba 10 39 82 3a a8 39 be ba 4c b8 80 3a f8 ba
       -0.00062942505 0.0001373291 0.0009918213 0.00032043457 -0.001449585 -4.863739e-05 0.0009765625 -0.0018920898
0001c0 6c b9 e4 37 9a 38 88 b9 26 ba d8 ba 82 b8 c4 39
       -0.00022506714 2.7179718e-05 7.343292e-05 -0.0002593994 -0.00063323975 -0.0016479492 -6.198883e-05 0.00037384033
0001d0 33 39 15 ba 84 ba 96 3a a1 3a b8 37 a2 3a 93 39
       0.0001707077 -0.0005683899 -0.0010070801 0.0011444092 0.0012283325 2.193451e-05 0.0012359619 0.00028038025
0001e0 8b 39 97 ba 5c ba 9f ba 15 3a dc b8 57 3a f6 3a
       0.00026512146 -0.0011520386 -0.0008392334 -0.0012130737 0.0005683899 -0.000104904175 0.0008201599 0.001876831
0001f0 a0 39 84 3a 56 3a 0a 3a 1d 39 5b 3a 87 ba 9e b9
       0.00030517578 0.0010070801 0.0008163452 0.0005264282 0.00014972687 0.0008354187 -0.0010299683 -0.00030136108

base_model.model.transformer.h.1.attn.c_attn.lora_A.weight bf16 [8, 768]
000000 be 3c a9 3c d7 bc 05 3c 0a bd b1 3c a0 bc 2d bc
       0.02319336 0.020629883 -0.026245117 0.008117676 -0.033691406 0.021606445 -0.01953125 -0.010559082
000010 ee bc 04 3d 12 3d 16 3c 80 bb 48 bb a8 3c b3 3c
       -0.029052734 0.032226562 0.03564453 0.009155273 -0.00390625 -0.0030517578 0.020507812 0.021850586
000020 2e bc dc ba 00 bc cd 3c 36 3c ad bc a2 bc 84 3c
       -0.010620117 -0.0016784668 -0.0078125 0.025024414 0.011108398 -0.021118164 -0.01977539 0.016113281
000030 5d 3c 31 bc fb bb 25 bc 9e bc 1c 3c d2 3c 71 bc
       0.0134887695 -0.010803223 -0.007659912 -0.010070801 -0.01928711 0.009521484 0.025634766 -0.014709473
000040 3a 3c aa bc 6c 3c 29 bb 16 3c 05 bc 0b 3d ca bc
       0.011352539 -0.020751953 0.014404297 -0.0025787354 0.009155273 -0.008117676 0.033935547 -0.024658203
000050 06 3c 09 bd ed 3c 35 3c 91 bb 13 3d a6 bc f2 3c
       0.008178711 -0.033447266 0.028930664 0.011047363 -0.004425049 0.035888672 -0.020263672 0.029541016
000060 ba 3b 85 3c 6c 3c 83 bc bc 3b b4 bc 87 bc b3 3c
       0.0056762695 0.016235352 0.014404297 -0.015991211 0.0057373047 -0.021972656 -0.016479492 0.021850586
000070 8d 3c 13 bd 6b 3c d0 3c 4a 3b 09 bc 6f 3b bc 3a
       0.017211914 -0.035888672 0.014343262 0.025390625 0.0030822754 -0.008361816 0.0036468506 0.0014343262
000080 4a bc 76 3c d0 3c fe 3c c5 bc 0b bc 11 3d 82 3c
       -0.012329102 0.015014648 0.025390625 0.03100586 -0.024047852 -0.008483887 0.03540039 0.01586914
000090 af bc 45 bb 93 3c 79 bc 02 bd 65 3c c2 bc 9c bc
       -0.021362305 -0.0030059814 0.017944336 -0.015197754 -0.03173828 0.013977051 -0.02368164 -0.019042969
0000a0 81 3c 86 bb 00 bc d5 3b b2 bc a6 bc 8b bb f6 3c
       0.01574707 -0.0040893555 -0.0078125 0.006500244 -0.021728516 -0.020263672 -0.0042419434 0.030029297
0000b0 c3 3c 22 3c 5e bb fc bb 5f 3b c5 3b c1 3b 0d bd
       0.023803711 0.009887695 -0.0033874512 -0.0076904297 0.00340271 0.006011963 0.0058898926 -0.034423828
0000c0 a3 3c 3f bb 98 3c 0e 3d fe 3c 8e 3c 83 bb ef bc
       0.019897461 -0.0029144287 0.018554688 0.03466797 0.03100586 0.017333984 -0.0039978027 -0.029174805
0000d0 12 3d 00 3c a3 3c 39 3c c5 3c ca bc c5 bc 23 bb
       0.03564453 0.0078125 0.019897461 0.011291504 0.024047852 -0.024658203 -0.024047852 -0.0024871826
0000e0 0d bd 44 bb fa bc 4a bc f8 bc 2b bc c3 3c 88 bb
       -0.034423828 -0.0029907227 -0.030517578 -0.012329102 -0.030273438 -0.010437012 0.023803711 -0.0041503906
0000f0 1a 3c 80 bb fd bb f7 bc cf bc ce bc 8c 3c ea 37
       0.009399414 -0.00390625 -0.0077209473 -0.030151367 -0.025268555 -0.025146484 0.017089844 2.7894974e-05
000100 0d 3d 8c 3b c6 bc aa 3c a2 bc ed bc 7a bc 00 3d
       0.034423828 0.004272461 -0.024169922 0.020751953 -0.01977539 -0.028930664 -0.015258789 0.03125
000110 46 3c 11 3d f7 bc 40 3c 05 bd 9f 3c d6 3c 5b bc
       0.012084961 0.03540039 -0.030151367 0.01171875 -0.032470703 0.01940918 0.026123047 -0.013366699
000120 bb 3c 79 3c 3b 3c b4 bc 7e 3c 62 bc 5b 3c 6d bc
       0.022827148 0.015197754 0.011413574 -0.021972656 0.01550293 -0.013793945 0.013366699 -0.014465332
000130 bd 3c 59 3c c1 bc 10 3d 83 3b c1 3b 14 bd 8c 3c
       0.023071289 0.013244629 -0.02355957 0.03515625 0.0039978027 0.0058898926 -0.036132812 0.017089844
000140 de 3c be bc a7 bc 00 bc 90 bc 3b bc c2 3b 04 3d
       0.02709961 -0.02319336 -0.020385742 -0.0078125 -0.017578125 -0.011413574 0.00592041 0.032226562
000150 d3 bb 02 bd 36 3c be 3c 07 bd 87 3c 04 3d d6 bb
       -0.006439209 -0.03173828 0.011108398 0.02319336 -0.032958984 0.016479492 0.032226562 -0.0065307617
000160 b4 bc 83 bb 09 bd 42 bc 5b bc b4 bc 09 bd ed bc
       -0.021972656 -0.0039978027 -0.033447266 -0.01184082 -0.013366699 -0.021972656 -0.033447266 -0.028930664
000170 d1 3b f8 39 be 3b c1 3c 8f bc 73 bc 67 3c 11 bb
       0.006378174 0.00047302246 0.00579834 0.02355957 -0.017456055 -0.014831543 0.014099121 -0.0022125244
000180 0a 3d f0 bc 84 bb 7c 3c cb 3b 34 3c 41 3c 06 bd
       0.033691406 -0.029296875 -0.0040283203 0.015380859 0.0061950684 0.010986328 0.011779785 -0.032714844
000190 07 3d c0 3c c1 bc cc 3c 4c 3c 4a bc 00 3c f3 3a
       0.032958984 0.0234375 -0.02355957 0.024902344 0.012451172 -0.012329102 0.0078125 0.0018539429
0001a0 81 bb 41 3c d2 3c ff 3c fb ba 3a 3c 9e 3c 9e 3c
       -0.0039367676 0.011779785 0.025634766 0.03112793 -0.001914978 0.011352539 0.01928711 0.01928711
0001b0 b8 bc 9f 3b 0f 3d 01 3d 94 3c 11 3c b2 3c 09 3d
       -0.022460938 0.004852295 0.03491211 0.03149414 0.018066406 0.008850098 0.021728516 0.033447266
0001c0 1e 3b e9 3c fd 3c 81 bc 4c bb 70 3c 32 bc da 3c
       0.0024108887 0.028442383 0.030883789 -0.01574707 -0.003112793 0.0146484375 -0.010864258 0.026611328
0001d0 e5 bc b0 bc 10 3d c2 bc e8 3c 04 3d 76 3c 08 3c
       -0.027954102 -0.021484375 0.03515625 -0.02368164 0.028320312 0.032226562 0.015014648 0.008300781
0001e0 00 bc 91 bb 77 3b 0a bc 88 3b 34 3c 86 3c e5 3c
       -0.0078125 -0.004425049 0.003768921 -0.008422852 0.0041503906 0.010986328 0.016357422 0.027954102
0001f0 75 3c e3 3c 09 3c 10 3c c0 3c b9 3b c6 bc a3 bc
       0.014953613 0.027709961 0.008361816 0.0087890625 0.0234375 0.005645752 -0.024169922 -0.019897461

base_model.model.transformer.h.1.attn.c_attn.lora_B.weight bf16 [2304, 8]
000000 67 ba e1 ba 70 b9 82 ba 86 ba d3 ba 03 ba cf ba
       -0.00088119507 -0.0017166138 -0.00022888184 -0.0009918213 -0.0010223389 -0.0016098022 -0.00049972534 -0.0015792847
000010 8a 3a 01 3b 6c ba 0a 3a a6 3a ff 3a 81 ba 0b 3b
       0.0010528564 0.0019683838 -0.00090026855 0.0005264282 0.0012664795 0.0019454956 -0.0009841919 0.0021209717
000020 96 ba ae ba ae 3a b5 ba 00 ba 08 ba 12 3a be ba
       -0.0011444092 -0.0013275146 0.0013275146 -0.0013809204 -0.00048828125 -0.0005187988 0.0005569458 -0.001449585
000030 d4 b9 9d 3a 01 39 9c 39 f8 3a f6 3a 91 ba 00 3b
       -0.0004043579 0.0011978149 0.00012302399 0.0002975464 0.0018920898 0.001876831 -0.0011062622 0.001953125
000040 61 3a 75 3a 3f 38 ff 38 6b ba cb 39 0e ba 02 b9
       0.0008583069 0.00093460083 4.553795e-05 0.000121593475 -0.00089645386 0.00038719177 -0.000541687 -0.00012397766
000050 5a ba b4 ba 8d 3a 70 b9 34 3a 17 3a 92 ba 0b ba
       -0.000831604 -0.001373291 0.0010757446 -0.00022888184 0.0006866455 0.0005760193 -0.0011138916 -0.0005302429
000060 09 ba bd ba 64 ba d8 ba d2 b9 d6 ba 05 ba 12 ba
       -0.0005226135 -0.0014419556 -0.000869751 -0.0016479492 -0.0004005432 -0.0016326904 -0.00050735474 -0.0005569458
000070 6b 39 9e ba d8 39 eb ba 5f ba 03 ba 9f 3a ab ba
       0.00022411346 -0.0012054443 0.0004119873 -0.0017929077 -0.0008506775 -0.00049972534 0.0012130737 -0.0013046265
000080 c0 37 6e ba 83 3a 44 3a 36 ba 8f ba a5 ba d6 ba
       2.2888184e-05 -0.00090789795 0.0009994507 0.00074768066 -0.0006942749 -0.0010910034 -0.0012588501 -0.0016326904
000090 2a 3a 50 3a 0f ba 3e 3a 14 3a 7f 3a 08 ba 87 39
       0.00064849854 0.00079345703 -0.0005455017 0.0007247925 0.0005645752 0.0009727478 -0.0005187988 0.00025749207
0000a0 2f ba 95 3a 8e 3a 5c 3a 0f 3b e8 3a 1a 3a bb 3a
       -0.000667572 0.0011367798 0.001083374 0.0008392334 0.0021820068 0.0017700195 0.0005874634 0.0014266968
0000b0 b4 38 9a ba 13 3a 13 3a c5 ba bc ba e4 39 f8 ba
       8.583069e-05 -0.0011749268 0.0005607605 0.0005607605 -0.0015029907 -0.0014343262 0.0004348755 -0.0018920898
0000c0 4c 39 8b ba 0f b9 e3 39 f5 ba fe ba ad 3a 02 bb
       0.00019454956 -0.0010604858 -0.00013637543 0.00043296814 -0.0018692017 -0.0019378662 0.0013198853 -0.0019836426
0000d0 e8 37 b8 39 ca b9 6b ba dd 3a 98 3a 15 3a 06 3a
       2.7656555e-05 0.00035095215 -0.00038528442 -0.00089645386 0.0016860962 0.001159668 0.0005683899 0.00051116943
0000e0 22 ba ba b9 b5 b9 db 37 00 3b 9a 3a 93 ba d9 3a
       -0.00061798096 -0.00035476685 -0.0003452301 2.6106834e-05 0.001953125 0.0011749268 -0.001121521 0.0016555786
0000f0 db 39 dc b8 12 b8 32 38 07 ba 25 ba 8d b9 c4 b9
       0.00041770935 -0.000104904175 -3.4809113e-05 4.2438507e-05 -0.00051498413 -0.00062942505 -0.00026893616 -0.00037384033
000100 c4 38 2e b9 fd b9 86 3a 68 3a 94 b9 60 ba 3e ba
       9.346008e-05 -0.00016593933 -0.0004825592 0.0010223389 0.00088500977 -0.0002822876 -0.0008544922 -0.0007247925
000110 02 ba 67 ba 0c b9 00 3a 5d ba ba ba 0f 39 fe ba
       -0.00049591064 -0.00088119507 -0.0001335144 0.00048828125 -0.0008430481 -0.0014190674 0.00013637543 -0.0019378662
000120 46 3a f9 3a 08 ba 83 39 f8 3a ff 3a fd b9 00 3b
       0.00075531006 0.0018997192 -0.0005187988 0.00024986267 0.0018920898 0.0019454956 -0.0004825592 0.001953125
000130 3f 3a a8 3a 88 39 13 3a f9 3a df 3a 93 ba 0d 3b
       0.0007286072 0.0012817383 0.0002593994 0.0005607605 0.0018997192 0.001701355 -0.001121521 0.0021514893
000140 69 b8 9e b9 b3 b9 92 ba ac 3a 22 3a 02 bb a3 3a
       -5.555153e-05 -0.00030136108 -0.0003414154 -0.0011138916 0.0013122559 0.00061798096 -0.0019836426 0.0012435913
000150 cc ba 05 bb 32 3a 03 3a 8a ba f5 ba 11 3a 9a ba
       -0.0015563965 -0.002029419 0.0006790161 0.00049972534 -0.0010528564 -0.0018692017 0.0005531311 -0.0011749268
000160 05 bb f2 ba 08 3a b7 b9 5b ba cf b9 00 3a da ba
       -0.002029419 -0.0018463135 0.0005187988 -0.0003490448 -0.0008354187 -0.00039482117 0.00048828125 -0.001663208
000170 cd b9 81 ba 38 ba 4a b7 94 ba d0 ba 3c 3a cb ba
       -0.00039100647 -0.0009841919 -0.0007019043 -1.2040138e-05 -0.0011291504 -0.0015869141 0.0007171631 -0.0015487671
000180 0c 3a f6 3a 11 ba 84 3a d6 3a 00 3b 9e ba 06 3b
       0.0005340576 0.001876831 -0.0005531311 0.0010070801 0.0016326904 0.001953125 -0.0012054443 0.0020446777
000190 00 ba 5c ba e6 b7 10 3a e4 39 4c ba 8f ba 98 3a
       -0.00048828125 -0.0008392334 -2.7418137e-05 0.0005493164 0.0004348755 -0.00077819824 -0.0010910034 0.001159668
0001a0 be 38 04 3a ab 39 85 3a 0b 3b f5 3a 2d 39 53 39
       9.059906e-05 0.00050354004 0.00032615662 0.0010147095 0.0021209717 0.0018692017 0.00016498566 0.00020122528
0001b0 02 ba 7e 3a 83 3a 71 ba 01 ba 36 3a 61 38 a7 3a
       -0.00049591064 0.0009689331 0.0009994507 -0.00091934204 -0.00049209595 0.0006942749 5.364418e-05 0.0012741089
0001c0 18 ba 91 3a 47 3a bf 3a 9f 3a e0 3a 16 3a 82 3a
       -0.000579834 0.0011062622 0.00075912476 0.0014572144 0.0012130737 0.0017089844 0.0005722046 0.0009918213
0001d0 d8 3a e9 3a 95 37 6c 3a 00 3b a9 3a 00 3a 06 3b
       0.0016479492 0.0017776489 1.7762184e-05 0.00090026855 0.001953125 0.0012893677 0.00048828125 0.0020446777
0001e0 10 3a b9 3a 09 ba 74 39 4f 3a d2 3a 45 ba cd 3a
       0.0005493164 0.001411438 -0.0005226135 0.00023269653 0.00078964233 0.0016021729 -0.00075149536 0.0015640259
0001f0 af b9 03 ba 89 ba 35 ba 97 3a 2f ba a7 ba 8e 3a
       -0.000333786 -0.00049972534 -0.001045227 -0.0006904602 0.0011520386 -0.000667572 -0.0012741089 0.001083374

base_model.model.transformer.h.10.attn.c_attn.lora_A.weight bf16 [8, 768]
000000 7a bc f8 bc 90 3c 55 3c 82 bb 00 bc 12 bd a8 bc
       -0.015258789 -0.030273438 0.017578125 0.013000488 -0.003967285 -0.0078125 -0.03564453 -0.020507812
000010 38 bc a9 3c 93 bb 87 bb f6 3b f3 3b 00 3c b6 bc
       -0.011230469 0.020629883 -0.004486084 -0.004119873 0.007507324 0.0074157715 0.0078125 -0.022216797
000020 06 bd b4 3c ea bc c3 3b 00 bc 84 bb da 3c d4 bc
       -0.032714844 0.021972656 -0.028564453 0.0059509277 -0.0078125 -0.0040283203 0.026611328 -0.025878906
000030 0c bd 9c 3b c4 3c 9a 3c 5b 3c 18 3c 67 3c 7f bb
       -0.034179688 0.004760742 0.023925781 0.018798828 0.013366699 0.009277344 0.014099121 -0.0038909912
000040 00 3d 95 bc 0d 3c 0b 3d dd bc 71 bc 99 bc 06 3d
       0.03125 -0.018188477 0.008605957 0.033935547 -0.026977539 -0.014709473 -0.018676758 0.032714844
000050 0a bd a8 bc 05 bd d9 3b 00 3c a4 3c c5 3c 3b bc
       -0.033691406 -0.020507812 -0.032470703 0.0066223145 0.0078125 0.020019531 0.024047852 -0.011413574
000060 91 3c b7 3c 90 bc ec bc df 3c 64 3c f2 3c b6 bc
       0.017700195 0.022338867 -0.017578125 -0.028808594 0.02722168 0.013916016 0.029541016 -0.022216797
000070 bd bc 06 bc 44 bc e2 3c 0f bc b1 bc 85 bc 0e 3d
       -0.023071289 -0.008178711 -0.011962891 0.02758789 -0.008728027 -0.021606445 -0.016235352 0.03466797
000080 80 3c 11 bd ca 3b fc bc 90 bc d5 bc b6 bc a1 3c
       0.015625 -0.03540039 0.006164551 -0.030761719 -0.017578125 -0.026000977 -0.022216797 0.01965332
000090 9a bb a8 bc 0e 3d bc 3b 00 bc 84 3c 82 3c 9f bc
       -0.004699707 -0.020507812 0.03466797 0.0057373047 -0.0078125 0.016113281 0.01586914 -0.01940918
0000a0 00 3c 43 bc d5 3b c1 3c 62 bc dd bc 9b 3c 7f bb
       0.0078125 -0.0119018555 0.006500244 0.02355957 -0.013793945 -0.026977539 0.018920898 -0.0038909912
0000b0 e0 3c a1 3c 0b 3d 19 3c a4 bc cd bc 7b 3b 71 3c
       0.02734375 0.01965332 0.033935547 0.009338379 -0.020019531 -0.025024414 0.003829956 0.014709473
0000c0 05 3d bd 3c 0a bd 63 bc a0 3c d9 3c a6 3c 7a bb
       0.032470703 0.023071289 -0.033691406 -0.0138549805 0.01953125 0.026489258 0.020263672 -0.0038146973
0000d0 80 bb b0 bc f9 bc 80 bc fa 3c dd 3b b0 bc 99 3b
       -0.00390625 -0.021484375 -0.030395508 -0.015625 0.030517578 0.0067443848 -0.021484375 0.0046691895
0000e0 54 bb 94 bc 87 3c 56 bc a6 bc 96 bb 08 3d 00 bc
       -0.0032348633 -0.018066406 0.016479492 -0.013061523 -0.020263672 -0.0045776367 0.033203125 -0.0078125
0000f0 ed 3c fe bc 05 bd 81 3b 00 3c d8 bc d2 bc cd bc
       0.028930664 -0.03100586 -0.032470703 0.0039367676 0.0078125 -0.026367188 -0.025634766 -0.025024414
000100 93 3c 5f bc 0b bd 23 bc 10 bd 8f 3b 0f 3d 5e bc
       0.017944336 -0.01361084 -0.033935547 -0.0099487305 -0.03515625 0.0043640137 0.03491211 -0.013549805
000110 20 bc 05 3d bc bc 29 bc c1 3c 81 3c 13 3d 19 bb
       -0.009765625 0.032470703 -0.022949219 -0.010314941 0.02355957 0.01574707 0.035888672 -0.0023345947
000120 b8 bc b4 3c 03 3d 95 3b ab bc 95 bc 06 bd 02 bc
       -0.022460938 0.021972656 0.031982422 0.004547119 -0.020874023 -0.018188477 -0.032714844 -0.00793457
000130 94 bc dd 3c c8 3c e9 bc e2 3c ed 3c f6 3c 00 3c
       -0.018066406 0.026977539 0.024414062 -0.028442383 0.02758789 0.028930664 0.030029297 0.0078125
000140 18 3c 01 3c 30 bc 00 3c 8a bc cb bc 39 3c dc 3c
       0.009277344 0.007873535 -0.0107421875 0.0078125 -0.016845703 -0.024780273 0.011291504 0.026855469
000150 52 3c 91 3b 3e bb b4 3c 10 bd cd 3c 00 3c 10 bc
       0.012817383 0.004425049 -0.00289917 0.021972656 -0.03515625 0.025024414 0.0078125 -0.0087890625
000160 00 bc 0f 3d 35 3c f7 3c 00 bc a4 3c 1b bc bd bc
       -0.0078125 0.03491211 0.011047363 0.030151367 -0.0078125 0.020019531 -0.009460449 -0.023071289
000170 00 3c 1a 3c 1b 3c 08 3c 88 bb 9a bb 36 3c 22 3c
       0.0078125 0.009399414 0.009460449 0.008300781 -0.0041503906 -0.004699707 0.011108398 0.009887695
000180 08 3d 14 bd 11 3d 65 3c 48 3c 9f 3c 6c bc 11 3c
       0.033203125 -0.036132812 0.03540039 0.013977051 0.012207031 0.01940918 -0.014404297 0.008850098
000190 94 3c 1a 3c 80 bb f4 bc 80 3c 0b bd b8 bc ee bc
       0.018066406 0.009399414 -0.00390625 -0.029785156 0.015625 -0.033935547 -0.022460938 -0.029052734
0001a0 ab bb fe bc 9b ba 00 bc fe 3c b1 3c 30 3c 00 bc
       -0.005218506 -0.03100586 -0.0011825562 -0.0078125 0.03100586 0.021606445 0.0107421875 -0.0078125
0001b0 83 3b e9 3c 47 bc c2 bc 9a bc ea bc af 3b e2 bb
       0.0039978027 0.028442383 -0.012145996 -0.02368164 -0.018798828 -0.028564453 0.005340576 -0.0068969727
0001c0 0e bd a5 bc 8d 3c f8 3c 3e 3c de bc e9 3c ef 3c
       -0.03466797 -0.020141602 0.017211914 0.030273438 0.01159668 -0.02709961 0.028442383 0.029174805
0001d0 e6 bc 9f 3b 75 3c c1 3b 87 bc 0f bd a7 bc e6 bc
       -0.028076172 0.004852295 0.014953613 0.0058898926 -0.016479492 -0.03491211 -0.020385742 -0.028076172
0001e0 61 bc d1 bc 78 bc 80 bb 00 bc 2e bc 87 3c c0 3c
       -0.01373291 -0.025512695 -0.015136719 -0.00390625 -0.0078125 -0.010620117 0.016479492 0.0234375
0001f0 e8 bc aa bc a8 3c af bc 01 bd 67 3c d9 bc 3d bc
       -0.028320312 -0.020751953 0.020507812 -0.021362305 -0.03149414 0.014099121 -0.026489258 -0.0115356445

base_model.model.transformer.h.10.attn.c_attn.lora_B.weight bf16 [2304, 8]
000000 51 bb 22 bb db 3a 3b 3b 0d 3b 26 bb 2c 3b 17 bb
       -0.003189087 -0.0024719238 0.0016708374 0.0028533936 0.0021514893 -0.002532959 0.0026245117 -0.0023040771
000010 fa ba 04 bb 04 3b c6 3a 07 3b 06 bb 00 3b fd ba
       -0.0019073486 -0.0020141602 0.0020141602 0.0015106201 0.0020599365 -0.0020446777 0.001953125 -0.0019302368
000020 18 3b 31 3b 17 bb 55 bb 4b bb 55 3b 64 bb 45 3b
       0.002319336 0.0027008057 -0.0023040771 -0.003250122 -0.0030975342 0.003250122 -0.003479004 0.0030059814
000030 37 3b 33 3b 41 bb 26 bb 2c bb 15 3b 21 bb 19 3b
       0.0027923584 0.0027313232 -0.0029449463 -0.002532959 -0.0026245117 0.0022735596 -0.002456665 0.0023345947
000040 ec 3a d2 3a ff ba ef ba 5b 3a bd 3a 31 ba 00 3b
       0.0018005371 0.0016021729 -0.0019454956 -0.0018234253 0.0008354187 0.0014419556 -0.0006752014 0.001953125
000050 80 3b 80 3b 80 bb 83 bb 5c bb 80 3b 80 bb 80 3b
       0.00390625 0.00390625 -0.00390625 -0.0039978027 -0.0033569336 0.00390625 -0.00390625 0.00390625
000060 fe 3a f7 3a 21 bb fb ba 22 bb e6 3a e2 ba df 3a
       0.0019378662 0.0018844604 -0.002456665 -0.001914978 -0.0024719238 0.0017547607 -0.0017242432 0.001701355
000070 0c bb eb ba c1 3a 03 3b d8 3a 21 bb 09 3b 21 bb
       -0.0021362305 -0.0017929077 0.0014724731 0.0019989014 0.0016479492 -0.002456665 0.002090454 -0.002456665
000080 2d bb 19 bb 18 3b 07 3b 1b 3b 0e bb 1b 3b 19 bb
       -0.0026397705 -0.0023345947 0.002319336 0.0020599365 0.0023651123 -0.002166748 0.0023651123 -0.0023345947
000090 6b bb 74 bb 66 3b 80 3b 70 3b 61 bb 6f 3b 80 bb
       -0.0035858154 -0.0037231445 0.0035095215 0.00390625 0.0036621094 -0.0034332275 0.0036468506 -0.00390625
0000a0 06 3b 00 3b f9 ba 46 bb 21 bb 1f 3b 50 bb 22 3b
       0.0020446777 0.001953125 -0.0018997192 -0.0030212402 -0.002456665 0.0024261475 -0.0031738281 0.0024719238
0000b0 3e bb 54 bb 55 3b 6c 3b 3c 3b 50 bb 39 3b 3b bb
       -0.00289917 -0.0032348633 0.003250122 0.0036010742 0.0028686523 -0.0031738281 0.002822876 -0.0028533936
0000c0 00 bb 01 bb 05 3b 28 3b 08 3b 2c bb 09 3b e8 ba
       -0.001953125 -0.0019683838 0.002029419 0.0025634766 0.0020751953 -0.0026245117 0.002090454 -0.0017700195
0000d0 24 3b 16 3b 02 bb 3e bb 21 bb 3b 3b 2b bb 3b 3b
       0.0025024414 0.0022888184 -0.0019836426 -0.00289917 -0.002456665 0.0028533936 -0.002609253 0.0028533936
0000e0 75 3b 5c 3b 80 bb 80 bb 2e bb 4f 3b 2a bb 4a 3b
       0.0037384033 0.0033569336 -0.00390625 -0.00390625 -0.0026550293 0.0031585693 -0.0025939941 0.0030822754
0000f0 7d bb 78 bb 80 3b 80 3b 63 3b 80 bb 80 3b 80 bb
       -0.0038604736 -0.0037841797 0.00390625 0.00390625 0.0034637451 -0.00390625 0.00390625 -0.00390625
000100 51 bb 22 bb 2e 3b 2d 3b 1b 3b 1f bb 0c 3b 12 bb
       -0.003189087 -0.0024719238 0.0026550293 0.0026397705 0.0023651123 -0.0024261475 0.0021362305 -0.0022277832
000110 26 3b 50 3b 79 bb 80 bb 58 bb 6d 3b 33 bb 6f 3b
       0.002532959 0.0031738281 -0.0037994385 -0.00390625 -0.0032958984 0.003616333 -0.0027313232 0.0036468506
000120 23 bb 17 bb 7f 3b 2a 3b 27 3b 30 bb 15 3b 27 bb
       -0.0024871826 -0.0023040771 0.0038909912 0.0025939941 0.0025482178 -0.0026855469 0.0022735596 -0.0025482178
000130 b3 3a e8 3a 30 bb bc ba ac ba 9f 3a a5 ba 86 3a
       0.0013656616 0.0017700195 -0.0026855469 -0.0014343262 -0.0013122559 0.0012130737 -0.0012588501 0.0010223389
000140 79 bb 63 bb 80 3b 7f 3b 46 3b 73 bb 32 3b 63 bb
       -0.0037994385 -0.0034637451 0.00390625 0.0038909912 0.0030212402 -0.0037078857 0.0027160645 -0.0034637451
000150 b5 ba f9 ba 03 3b 06 3b 25 3b 1f bb 2c 3b 0d bb
       -0.0013809204 -0.0018997192 0.0019989014 0.0020446777 0.0025177002 -0.0024261475 0.0026245117 -0.0021514893
000160 d6 ba 07 bb 10 3b d8 3a 4a 3b 1a bb 19 3b 0c bb
       -0.0016326904 -0.0020599365 0.0021972656 0.0016479492 0.0030822754 -0.0023498535 0.0023345947 -0.0021362305
000170 1e bb 1d bb 19 3b 15 3b 26 3b 03 bb 13 3b 12 bb
       -0.0024108887 -0.0023956299 0.0023345947 0.0022735596 0.002532959 -0.0019989014 0.002243042 -0.0022277832
000180 01 bb 2d bb 16 3b 7f 3a a8 3a 84 ba 16 ba a3 39
       -0.0019683838 -0.0026397705 0.0022888184 0.0009727478 0.0012817383 -0.0010070801 -0.0005722046 0.00031089783
000190 27 bb 02 bb 2b 3b 28 3b 22 3b 3c bb 03 3b 19 bb
       -0.0025482178 -0.0019836426 0.002609253 0.0025634766 0.0024719238 -0.0028686523 0.0019989014 -0.0023345947
0001a0 5e 3a 81 ba 2c 3a 89 3a 01 3a b0 ba ab 3a cb ba
       0.0008468628 -0.0009841919 0.00065612793 0.001045227 0.00049209595 -0.0013427734 0.0013046265 -0.0015487671
0001b0 5a 3b 27 3b 80 bb 6d bb 54 bb 62 3b 67 bb 80 3b
       0.003326416 0.0025482178 -0.00390625 -0.003616333 -0.0032348633 0.0034484863 -0.0035247803 0.00390625
0001c0 b9 3a 0e 3a 18 bb af b9 6e ba 44 ba ff 37 a8 39
       0.001411438 0.000541687 -0.002319336 -0.000333786 -0.00090789795 -0.00074768066 3.0398369e-05 0.00032043457
0001d0 53 3a 9b b9 bc ba 14 ba 80 ba b5 b6 36 3a a3 b9
       0.0008049011 -0.00029563904 -0.0014343262 -0.0005645752 -0.0009765625 -5.3942204e-06 0.0006942749 -0.00031089783
0001e0 5c bb 45 bb 80 3b 80 3b 80 3b 80 bb 80 3b 80 bb
       -0.0033569336 -0.0030059814 0.00390625 0.00390625 0.00390625 -0.00390625 0.00390625 -0.00390625
0001f0 10 3b 36 3b 5a bb 5a bb 45 bb 5c 3b 2f bb 46 3b
       0.0021972656 0.0027770996 -0.003326416 -0.003326416 -0.0030059814 0.0033569336 -0.002670288 0.0030212402

base_model.model.transformer.h.11.attn.c_attn.lora_A.weight bf16 [8, 768]
000000 12 3d 0d 3c 0d 3c 77 bc 66 bc d5 bc 86 bb 04 3c
       0.03564453 0.008605957 0.008605957 -0.015075684 -0.014038086 -0.026000977 -0.0040893555 0.008056641
000010 8e bc 00 3c 99 3c 25 bc 00 3c a5 bc 05 bc a6 3c
       -0.017333984 0.0078125 0.018676758 -0.010070801 0.0078125 -0.020141602 -0.008117676 0.020263672
000020 c0 bc a4 bc 83 bb 09 bd 98 3c fd 3b 84 3b 06 bc
       -0.0234375 -0.020019531 -0.0039978027 -0.033447266 0.018554688 0.0077209473 0.0040283203 -0.008178711
000030 04 bd 00 3c de bc f5 3c 80 bb a9 bc 7c bc 60 3c
       -0.032226562 0.0078125 -0.02709961 0.029907227 -0.00390625 -0.020629883 -0.015380859 0.013671875
000040 08 3d 02 bd 80 bb cc 3c da 3c b6 3c fc ba e1 bc
       0.033203125 -0.03173828 -0.00390625 0.024902344 0.026611328 0.022216797 -0.0019226074 -0.02746582
000050 28 b9 c5 bc 06 bd ea bc 9b bc e3 3c ce bc 0a bc
       -0.00016021729 -0.024047852 -0.032714844 -0.028564453 -0.018920898 0.027709961 -0.025146484 -0.008422852
000060 b6 3c 10 bd 91 3c a6 bc 00 bc 90 3a 56 bc 6a 3c
       0.022216797 -0.03515625 0.017700195 -0.020263672 -0.0078125 0.0010986328 -0.013061523 0.014282227
000070 9b 3b 06 3d 24 bc e5 3c d9 3c 7d 3c 72 bc d7 3c
       0.0047302246 0.032714844 -0.010009766 0.027954102 0.026489258 0.0154418945 -0.014770508 0.026245117
000080 69 3c bc bc 04 3d 10 3c c2 3c af 3c 9f 3c a3 3b
       0.014221191 -0.022949219 0.032226562 0.0087890625 0.02368164 0.021362305 0.01940918 0.0049743652
000090 a4 3b a1 3c 3f bc 0a 3d d3 bb e1 bc 8c bb f9 3c
       0.005004883 0.01965332 -0.011657715 0.033691406 -0.006439209 -0.02746582 -0.004272461 0.030395508
0000a0 12 bd 8b 3b ae bc df 3c 75 3c 8c 3c 00 3c 09 bc
       -0.03564453 0.0042419434 -0.021240234 0.02722168 0.014953613 0.017089844 0.0078125 -0.008361816
0000b0 da 3c e2 3c 81 bb e8 3b 0d 3d cc 3b f6 bc 4e 3b
       0.026611328 0.02758789 -0.0039367676 0.007080078 0.034423828 0.006225586 -0.030029297 0.0031433105
0000c0 ff bc c5 3c f2 3c 05 bc 8e bb 0e bd e1 bc af 3c
       -0.03112793 0.024047852 0.029541016 -0.008117676 -0.004333496 -0.03466797 -0.02746582 0.021362305
0000d0 c6 bc 90 bc 77 bc 00 bc 8c 3c 07 3d f5 bc 81 3c
       -0.024169922 -0.017578125 -0.015075684 -0.0078125 0.017089844 0.032958984 -0.029907227 0.01574707
0000e0 6a bc cb bb 83 3c a1 bc e9 bc 17 bc 00 3c a3 bc
       -0.014282227 -0.0061950684 0.015991211 -0.01965332 -0.028442383 -0.009216309 0.0078125 -0.019897461
0000f0 12 3c 04 bd c5 3b 9e 3c 47 3c d6 bc 3d bc b3 bc
       0.008911133 -0.032226562 0.006011963 0.01928711 0.012145996 -0.026123047 -0.0115356445 -0.021850586
000100 9b bc 6c bc 00 bc 20 3c 02 bc 83 3c 2f 3c 14 3c
       -0.018920898 -0.014404297 -0.0078125 0.009765625 -0.00793457 0.015991211 0.010681152 0.009033203
000110 9b 3c b3 3c 32 3c f8 3c bf bc 2c bc 6d 3c a3 bc
       0.018920898 0.021850586 0.010864258 0.030273438 -0.02331543 -0.010498047 0.014465332 -0.019897461
000120 00 3c 36 bc df 3c ad 3b 32 bc d9 3b 10 bd d8 3c
       0.0078125 -0.011108398 0.02722168 0.005279541 -0.010864258 0.0066223145 -0.03515625 0.026367188
000130 55 3c f0 bc f2 3c 13 3d c0 3c 22 bc 8e bc 12 bd
       0.013000488 -0.029296875 0.029541016 0.035888672 0.0234375 -0.009887695 -0.017333984 -0.03564453
000140 a4 bc e1 3c 13 bd a5 3c 12 bd 99 3c 80 bb e2 3c
       -0.020019531 0.02746582 -0.035888672 0.020141602 -0.03564453 0.018676758 -0.00390625 0.02758789
000150 00 3c 10 3d 8a 3b 6e bc b8 3c 91 bb cf bc 3a bc
       0.0078125 0.03515625 0.004211426 -0.014526367 0.022460938 -0.004425049 -0.025268555 -0.011352539
000160 9f bb d6 bc c8 bc 71 3c c1 3c 6f 3c bb 3c 94 bc
       -0.004852295 -0.026123047 -0.024414062 0.014709473 0.02355957 0.014587402 0.022827148 -0.018066406
000170 31 3c 00 bc cc ba a0 bc ed bc cc 3c 23 bb 2c bc
       0.010803223 -0.0078125 -0.0015563965 -0.01953125 -0.028930664 0.024902344 -0.0024871826 -0.010498047
000180 ed bc de bc 10 3d 0e bd ac 3c fa 3c 80 3b 22 bc
       -0.028930664 -0.02709961 0.03515625 -0.03466797 0.020996094 0.030517578 0.00390625 -0.009887695
000190 10 3c 12 3c 80 3c be bc 83 bc d4 bc bb bb 04 bc
       0.0087890625 0.008911133 0.015625 -0.02319336 -0.015991211 -0.025878906 -0.005706787 -0.008056641
0001a0 00 bb 95 3c c8 bc 04 3d da bc 94 3c 0f bd d6 bb
       -0.001953125 0.018188477 -0.024414062 0.032226562 -0.026611328 0.018066406 -0.03491211 -0.0065307617
0001b0 12 3d fc 3c a5 3c 92 bb a0 3c 49 3c cb bc 8f 3c
       0.03564453 0.030761719 0.020141602 -0.0044555664 0.01953125 0.012268066 -0.024780273 0.017456055
0001c0 84 3c a3 3c 84 3b 36 3c ac 3c ec 3c 05 bd a1 3c
       0.016113281 0.019897461 0.0040283203 0.011108398 0.020996094 0.028808594 -0.032470703 0.01965332
0001d0 f0 bc fe bc 55 3c 88 bc 63 bb 83 3b 4e bc bf 3c
       -0.029296875 -0.03100586 0.013000488 -0.016601562 -0.0034637451 0.0039978027 -0.012573242 0.02331543
0001e0 4c 3c a9 bc 90 3c 79 bc cf bb fe 3c 92 bc ca 3c
       0.012451172 -0.020629883 0.017578125 -0.015197754 -0.0063171387 0.03100586 -0.017822266 0.024658203
0001f0 00 bc 0d bd f1 bc 23 bc bf 3c 82 bb 00 bc 64 bb
       -0.0078125 -0.034423828 -0.029418945 -0.0099487305 0.02331543 -0.003967285 -0.0078125 -0.003479004

base_model.model.transformer.h.11.attn.c_attn.lora_B.weight bf16 [2304, 8]
000000 f3 ba 00 bb 36 3b 2d 3b 15 3a 02 bb 22 bb 32 3b
       -0.0018539429 -0.001953125 0.0027770996 0.0026397705 0.0005683899 -0.0019836426 -0.0024719238 0.0027160645
000010 18 bb 45 bb 41 3b 63 3b ed b8 4a bb 3a bb 28 3b
       -0.002319336 -0.0030059814 0.0029449463 0.0034637451 -0.00011301041 -0.0030822754 -0.0028381348 0.0025634766
000020 83 37 e7 39 f9 b9 81 ba 87 ba 50 3a 80 3a 00 ba
       1.5616417e-05 0.00044059753 -0.0004749298 -0.0009841919 -0.0010299683 0.00079345703 0.0009765625 -0.00048828125
000030 09 3b 93 3a f9 ba fb ba 8b ba 02 3b 03 3b 00 bb
       0.002090454 0.001121521 -0.0018997192 -0.001914978 -0.0010604858 0.0019836426 0.0019989014 -0.001953125
000040 0c 3b 72 3a a1 ba 0d ba ab ba b5 b7 94 3a c3 ba
       0.0021362305 0.00092315674 -0.0012283325 -0.0005378723 -0.0013046265 -2.1576881e-05 0.0011291504 -0.0014877319
000050 b8 3a 80 3b 2d bb 55 bb ae 3a 80 3b 21 3b 40 bb
       0.0014038086 0.00390625 -0.0026397705 -0.003250122 0.0013275146 0.00390625 0.002456665 -0.0029296875
000060 85 bb cb ba 88 3b 87 3b 52 3b 45 bb 85 bb 89 3b
       -0.004058838 -0.0015487671 0.0041503906 0.004119873 0.0032043457 -0.0030059814 -0.004058838 0.004180908
000070 ff ba b1 ba 02 3b 00 3b 58 3a 00 bb 34 bb 0a 3b
       -0.0019454956 -0.0013504028 0.0019836426 0.001953125 0.0008239746 -0.001953125 -0.002746582 0.002105713
000080 5f ba db ba 16 3b da 3a 2d 3a eb ba 39 bb f3 3a
       -0.0008506775 -0.0016708374 0.0022888184 0.001663208 0.0006599426 -0.0017929077 -0.002822876 0.0018539429
000090 29 bb 44 3b 4d 3a 89 ba 04 3b 07 3b b6 ba 76 b9
       -0.0025787354 0.0029907227 0.00078201294 -0.001045227 0.0020141602 0.0020599365 -0.0013885498 -0.00023460388
0000a0 93 ba fe 3a 9a 3a cd 39 b8 39 cc 39 cb ba 43 3a
       -0.001121521 0.0019378662 0.0011749268 0.00039100647 0.00035095215 0.00038909912 -0.0015487671 0.00074386597
0000b0 80 3b 80 3b 80 bb 80 bb 08 bb 81 3b 80 3b 80 bb
       0.00390625 0.00390625 -0.00390625 -0.00390625 -0.0020751953 0.0039367676 0.00390625 -0.00390625
0000c0 81 3b 02 bb 78 bb 25 ba 5a bb dc ba 78 3b 55 bb
       0.0039367676 -0.0019836426 -0.0037841797 -0.00062942505 -0.003326416 -0.0016784668 0.0037841797 -0.003250122
0000d0 1b ba 0d ba cc 3a bf 3a 8f 39 94 ba f8 ba d0 3a
       -0.0005912781 -0.0005378723 0.0015563965 0.0014572144 0.00027275085 -0.0011291504 -0.0018920898 0.0015869141
0000e0 83 3b c1 3a 86 bb 7d bb 5d bb 4e 3b 84 3b 85 bb
       0.0039978027 0.0014724731 -0.0040893555 -0.0038604736 -0.0033721924 0.0031433105 0.0040283203 -0.004058838
0000f0 53 ba 68 3b 8c ba 02 bb 5f 3a 61 3b 86 3a fb ba
       -0.0008049011 0.003540039 -0.0010681152 -0.0019836426 0.0008506775 0.0034332275 0.0010223389 -0.001914978
000100 1f 3b 00 bb fe ba e7 ba 00 bb b5 ba e9 3a 00 bb
       0.0024261475 -0.001953125 -0.0019378662 -0.0017623901 -0.001953125 -0.0013809204 0.0017776489 -0.001953125
000110 5b ba 7c ba ff 39 ef b7 d2 ba 77 ba 24 39 b0 39
       -0.0008354187 -0.0009613037 0.0004863739 -2.849102e-05 -0.0016021729 -0.0009422302 0.00015640259 0.00033569336
000120 c8 3a af ba 1a ba be 38 41 ba 4e ba 02 b7 e2 b9
       0.0015258789 -0.001335144 -0.0005874634 9.059906e-05 -0.0007362366 -0.00078582764 -7.748604e-06 -0.0004310608
000130 2f bb 82 38 18 3b 04 3b e6 3a a5 ba 01 bb 16 3b
       -0.002670288 6.198883e-05 0.002319336 0.0020141602 0.0017547607 -0.0012588501 -0.0019683838 0.0022888184
000140 50 3b 4b 3b 83 bb 7d bb 09 bb 83 3b 85 3b 80 bb
       0.0031738281 0.0030975342 -0.0039978027 -0.0038604736 -0.002090454 0.0039978027 0.004058838 -0.00390625
000150 80 3b 00 bb 32 bb bb ba 4e bb 7d ba 61 3b 38 bb
       0.00390625 -0.001953125 -0.0027160645 -0.0014266968 -0.0031433105 -0.0009651184 0.0034332275 -0.0028076172
000160 6d bb 0d bb 31 3b 06 3b 1d 3b 09 bb 1a bb 20 3b
       -0.003616333 -0.0021514893 0.0027008057 0.0020446777 0.0023956299 -0.002090454 -0.0023498535 0.0024414062
000170 83 bb 8c ba 81 3b 80 3b 6c 3b 34 bb 84 bb 83 3b
       -0.0039978027 -0.0010681152 0.0039367676 0.00390625 0.0036010742 -0.002746582 -0.0040283203 0.0039978027
000180 80 bb 12 3b 1e 3b 85 ba 21 3b 01 3b 23 bb 1f 3b
       -0.00390625 0.0022277832 0.0024108887 -0.0010147095 0.002456665 0.0019683838 -0.0024871826 0.0024261475
000190 40 bb 00 3b 3d 3b 0a 3b 2d 3b a2 39 50 bb 26 3b
       -0.0029296875 0.001953125 0.0028839111 0.002105713 0.0026397705 0.00030899048 -0.0031738281 0.002532959
0001a0 d4 b8 98 3a 02 bb c3 ba 96 ba a9 3a c2 3a cc ba
       -0.00010108948 0.001159668 -0.0019836426 -0.0014877319 -0.0011444092 0.0012893677 0.0014801025 -0.0015563965
0001b0 83 bb 98 3a 84 3b 3c 3b 34 3b a2 ba 80 bb 77 3b
       -0.0039978027 0.001159668 0.0040283203 0.0028686523 0.002746582 -0.0012359619 -0.00390625 0.003768921
0001c0 40 bb ca 3a 1f 3b b2 3a 19 3b d4 39 0b bb 0b 3b
       -0.0029296875 0.0015411377 0.0024261475 0.0013580322 0.0023345947 0.0004043579 -0.0021209717 0.0021209717
0001d0 19 3b 2a b9 00 bb fa ba 84 ba e4 3a 03 3b ff ba
       0.0023345947 -0.00016212463 -0.001953125 -0.0019073486 -0.0010070801 0.001739502 0.0019989014 -0.0019454956
0001e0 80 3b e0 b9 7a bb 1d bb 05 bb ff 3a 78 3b 7a bb
       0.00390625 -0.0004272461 -0.0038146973 -0.0023956299 -0.002029419 0.0019454956 0.0037841797 -0.0038146973
0001f0 80 bb 34 bb 8c 3b 81 3b 2f 3b 80 bb 81 bb 86 3b
       -0.00390625 -0.002746582 0.004272461 0.0039367676 0.002670288 -0.00390625 -0.0039367676 0.0040893555
