examples/research_projects/stack_llama/scripts/gpt2_peft_stack-exchange-paired_rmts__100000_2e-05/checkpoint-10500/adapter_model.safetensors (safetensors, 594496 bytes, 25 tensors)

base_model.model.score.weight bf16 [1, 768]
00000000: f03c b93b 9e3c 013d 223c f9bc b0bb 3c3c
00000010: ce3b 3abc 323c 38bc 453c 433d 093d 89bc
00000020: 25bc 27bc 0fbc e03c 5cbc 80bb 933c dbbc
00000030: 7b3c bc3c 3cbc 9e3c 273d 383c 38bb 65bc
00000040: 1abc e4bc e33c 49bc 723d 563c debc f3bc
00000050: a23c c33c 25bd 03bd 9ebc 383c 60bc 76bc
00000060: 973c f13b 233c e8bc 093b 033d cb3b 20bc
00000070: 903c e7bc 3b3b 91bc 023b 803b babc 8f3b
00000080: 9a3c 033c 293c b13c 0bbc e9bc 3ebc 4d3c
00000090: d13c aebb 9b3a 1d3c b53c aaba 003c aa3c
000000a0: ac3c 05bc b5bc 09bb d0bb 98bc 95bc 69bc
000000b0: c83c c63b bb3b 80bb 64bc 203d be3c df3a
000000c0: 343b a03c 01bb 273c babc e93c 92bc 253c
000000d0: d03c 1c3b 5fbc bc3c 623b 07bc 083a 0bbd
000000e0: 8a3c 3e3c 29bd 87bc 52bc 243c 753c 8bbb
000000f0: 2e3c edbc 5abc 993b b63c c83c 1f3d 033d
00000100: 1fbc 953c b8bc ef3b b7bc 9cbc 0cbb 363c
00000110: e4bc b53c c8bc 923c d53c 60bb 4c3b 983c
00000120: 0bbd 2d3c d1bb d9bc f33c 89bb 7f3b c9bc
00000130: 473c 993c 2ebd 59bb 9a3c bfbc 803b 8c3b
00000140: 713c 59bc 3b3c 5e3c 95bc 033d 1a3c 943b
00000150: 55bc eebb d6bc 1a3d 65bc 3c3c 733c f53c
00000160: 2d3c 82bb 823b 9abb 47bc 453c b13b 9839
00000170: 023d 283c 853b 90bc 3e3a 863c 803b 80bb
00000180: 43bc b33c 023d b5bc 023d 71bc 1b3c 07bc
00000190: 433b 803b 323b c53c f3bc 083c 6f3b 753b
000001a0: 1d3b 13bb d63b 7c3b 7b3c 9ebc 0a3d 823b
000001b0: 36bc 853c 83bb 9d3c c03b 9d3c 3f3b 57bd
000001c0: 07bc be3c 44bd 60bc 00bd a8bc 8d3c d73b
000001d0: 38bd 1d3c 05bd 43bc 91bc 1e3c 473c 7ebc
000001e0: bfbc 903c b53c b33c 05bd 9aba 5f3c 713c
000001f0: bcbc 6dbc 85bb 80bb ae3b 903c cabc 673c
0.029296875 0.005645752 0.01928711 0.03149414 0.009887695 -0.030395508 -0.0053710938 0.011474609
0.006286621 -0.011352539 0.010864258 -0.011230469 0.012023926 0.047607422 0.033447266 -0.016723633
-0.010070801 -0.010192871 -0.008728027 0.02734375 -0.013427734 -0.00390625 0.017944336 -0.026733398
0.015319824 0.022949219 -0.011474609 0.01928711 0.040771484 0.011230469 -0.0028076172 -0.013977051
-0.009399414 -0.027832031 0.027709961 -0.012268066 0.05908203 0.013061523 -0.02709961 -0.029663086
0.01977539 0.023803711 -0.040283203 -0.031982422 -0.01928711 0.011230469 -0.013671875 -0.015014648
0.018432617 0.0073547363 0.0099487305 -0.028320312 0.002090454 0.031982422 0.0061950684 -0.009765625
0.017578125 -0.028198242 0.0028533936 -0.017700195 0.0019836426 0.00390625 -0.022705078 0.0043640137
0.018798828 0.0079956055 0.010314941 0.021606445 -0.008483887 -0.028442383 -0.01159668 0.012512207
0.025512695 -0.0053100586 0.0011825562 0.0095825195 0.022094727 -0.0012969971 0.0078125 0.020751953
0.020996094 -0.008117676 -0.022094727 -0.002090454 -0.0063476562 -0.018554688 -0.018188477 -0.014221191
0.024414062 0.0060424805 0.005706787 -0.00390625 -0.013916016 0.0390625 0.02319336 0.001701355
0.002746582 0.01953125 -0.0019683838 0.010192871 -0.022705078 0.028442383 -0.017822266 0.010070801
0.025390625 0.002380371 -0.01361084 0.022949219 0.0034484863 -0.008239746 0.0005187988 -0.033935547
0.016845703 0.01159668 -0.041259766 -0.016479492 -0.012817383 0.010009766 0.014953613 -0.0042419434
0.010620117 -0.028930664 -0.013305664 0.0046691895 0.022216797 0.024414062 0.03881836 0.031982422
-0.00970459 0.018188477 -0.022460938 0.007293701 -0.022338867 -0.019042969 -0.0021362305 0.011108398
-0.027832031 0.022094727 -0.024414062 0.017822266 0.026000977 -0.0034179688 0.003112793 0.018554688
-0.033935547 0.010559082 -0.006378174 -0.026489258 0.029663086 -0.004180908 0.0038909912 -0.024536133
0.012145996 0.018676758 -0.04248047 -0.0033111572 0.018798828 -0.02331543 0.00390625 0.004272461
0.014709473 -0.013244629 0.011413574 0.013549805 -0.018188477 0.031982422 0.009399414 0.0045166016
-0.013000488 -0.0072631836 -0.026123047 0.037597656 -0.013977051 0.011474609 0.014831543 0.029907227
0.010559082 -0.003967285 0.003967285 -0.004699707 -0.012145996 0.012023926 0.0054016113 0.000289917
0.03173828 0.010253906 0.004058838 -0.017578125 0.0007247925 0.016357422 0.00390625 -0.00390625
-0.0119018555 0.021850586 0.03173828 -0.022094727 0.03173828 -0.014709473 0.009460449 -0.008239746
0.0029754639 0.00390625 0.0027160645 0.024047852 -0.029663086 0.008300781 0.0036468506 0.0037384033
0.0023956299 -0.002243042 0.0065307617 0.0038452148 0.015319824 -0.01928711 0.033691406 0.003967285
-0.011108398 0.016235352 -0.0039978027 0.019165039 0.005859375 0.019165039 0.0029144287 -0.052490234
-0.008239746 0.02319336 -0.047851562 -0.013671875 -0.03125 -0.020507812 0.017211914 0.0065612793
-0.044921875 0.0095825195 -0.032470703 -0.0119018555 -0.017700195 0.009643555 0.012145996 -0.01550293
-0.02331543 0.017578125 0.022094727 0.021850586 -0.032470703 -0.0011749268 0.01361084 0.014709473
-0.022949219 -0.014465332 -0.004058838 -0.00390625 0.0053100586 0.017578125 -0.024658203 0.014099121

base_model.model.transformer.h.0.attn.c_attn.lora_A.weight bf16 [8, 768]
00000000: d6bc e53c e7bc 80bb 0a3d 903c abbb 833c
00000010: 103c 36bc 1abc 33bc 08bd c0bc 8b3b 9d3c
00000020: edbc d53c 043d a5bc 7f3c c63c 94bc 923c
00000030: 063d df3c 0abd 7f3b 8fbb 873c 8f3b b2bc
00000040: 08bd 1abc 7a3b c4bc 603c 3bbc 39bc 9abc
00000050: c5bc bf3c e33c 923b 99bc 683a f3bb 863c
00000060: 04bc a0bc bc3c 2fbc db3c 8e3b ac3c 253b
00000070: 07bc 7fbb 87bb 803b 82bb 863c 163b 7ebb
00000080: 953b a53b 093d 203c 023d 733c cc3c ccbc
00000090: d13c a0bc 6d3b 023d 703b 9d3c 8abb ccbc
000000a0: e73c a5bc 103d a2bb 78bc f6bc af3c f0bc
000000b0: a4bb 033b 6b3c 79bc 123c d7bc 703c 28bc
000000c0: a63c 043d 043d d2bc 03bd 523c bfbc bbbb
000000d0: 873c a23c e5bb bb3c 84bc cdbb a33c d13b
000000e0: 043d 9e3c db3c 203c 803b 03bc e83c 74bb
000000f0: 843b bdbc 253b 693b 1b3c 973c 6b3c 0dbd
00000100: f4bc ca3c 0ebd 9a3c c33a 533c dcbc 423c
00000110: 94bc 123d 6abc e7bb e7ba 1c3c 7cbc 043d
00000120: a8bc 7d3b 3a3c 10bd f1bc b63c 113d 923c
00000130: a5bc 093c 0ebd 813b d3bc 32bc b63c 053d
00000140: 4bbc c83c 07bd 903b 713c afbc ad3c e63c
00000150: cc3b a73c f33c 093c 913c 9abb 82bb 3b3c
00000160: 0c3d f2bc e23c 153c a9bc 7c3c 80bb 36bc
00000170: 073d fd3b e9bc fb3c 7fbc b93c b03c e8bb
00000180: 083d 823b cf3c aa3c b0bc d33c 14bc b4bb
00000190: a83c 273c 113d c73c 823b 103d 4cbc dcbc
000001a0: 66bc adbc 583b 63bc eabc 853b 88bc 2fbb
000001b0: 4abc 91bc 113d b23b 97bb e8bb f43c e2bc
000001c0: d93c 133d 4ebc 9ebc 813c 033d 82bb f93c
000001d0: 14bc 11bd 933c 0d3d 19bc fbbb 033c 053d
000001e0: 043d adbc d73c 88bc 26bc f13b d93c a8bc
000001f0: 953b bbbc 02bd 94bc 28bc c7bc debc 00bc
-0.026123047 0.027954102 -0.028198242 -0.00390625 0.033691406 0.017578125 -0.005218506 0.015991211
0.0087890625 -0.011108398 -0.009399414 -0.010925293 -0.033203125 -0.0234375 0.0042419434 0.019165039
-0.028930664 0.026000977 0.032226562 -0.020141602 0.015563965 0.024169922 -0.018066406 0.017822266
0.032714844 0.02722168 -0.033691406 0.0038909912 -0.0043640137 0.016479492 0.0043640137 -0.021728516
-0.033203125 -0.009399414 0.0038146973 -0.023925781 0.013671875 -0.011413574 -0.011291504 -0.018798828
-0.024047852 0.02331543 0.027709961 0.0044555664 -0.018676758 0.00088500977 -0.0074157715 0.016357422
-0.008056641 -0.01953125 0.022949219 -0.010681152 0.026733398 0.004333496 0.020996094 0.0025177002
-0.008239746 -0.0038909912 -0.004119873 0.00390625 -0.003967285 0.016357422 0.0022888184 -0.0038757324
0.004547119 0.0050354004 0.033447266 0.009765625 0.03173828 0.014831543 0.024902344 -0.024902344
0.025512695 -0.01953125 0.003616333 0.03173828 0.0036621094 0.019165039 -0.004211426 -0.024902344
0.028198242 -0.020141602 0.03515625 -0.0049438477 -0.015136719 -0.030029297 0.021362305 -0.029296875
-0.005004883 0.0019989014 0.014343262 -0.015197754 0.008911133 -0.026245117 0.0146484375 -0.010253906
0.020263672 0.032226562 0.032226562 -0.025634766 -0.031982422 0.012817383 -0.02331543 -0.005706787
0.016479492 0.01977539 -0.0069885254 0.022827148 -0.016113281 -0.0062561035 0.019897461 0.006378174
0.032226562 0.01928711 0.026733398 0.009765625 0.00390625 -0.0079956055 0.028320312 -0.0037231445
0.0040283203 -0.023071289 0.0025177002 0.0035552979 0.009460449 0.018432617 0.014343262 -0.034423828
-0.029785156 0.024658203 -0.03466797 0.018798828 0.0014877319 0.012878418 -0.026855469 0.01184082
-0.018066406 0.03564453 -0.014282227 -0.0070495605 -0.0017623901 0.009521484 -0.015380859 0.032226562
-0.020507812 0.0038604736 0.011352539 -0.03515625 -0.029418945 0.022216797 0.03540039 0.017822266
-0.020141602 0.008361816 -0.03466797 0.0039367676 -0.025756836 -0.010864258 0.022216797 0.032470703
-0.012390137 0.024414062 -0.032958984 0.0043945312 0.014709473 -0.021362305 0.021118164 0.028076172
0.006225586 0.020385742 0.029663086 0.008361816 0.017700195 -0.004699707 -0.003967285 0.011413574
0.034179688 -0.029541016 0.02758789 0.009094238 -0.020629883 0.015380859 -0.00390625 -0.011108398
0.032958984 0.0077209473 -0.028442383 0.030639648 -0.015563965 0.022583008 0.021484375 -0.007080078
0.033203125 0.003967285 0.025268555 0.020751953 -0.021484375 0.025756836 -0.009033203 -0.005493164
0.020507812 0.010192871 0.03540039 0.024291992 0.003967285 0.03515625 -0.012451172 -0.026855469
-0.014038086 -0.021118164 0.0032958984 -0.0138549805 -0.028564453 0.004058838 -0.016601562 -0.002670288
-0.012329102 -0.017700195 0.03540039 0.005432129 -0.0046081543 -0.007080078 0.029785156 -0.02758789
0.026489258 0.035888672 -0.012573242 -0.01928711 0.01574707 0.031982422 -0.003967285 0.030395508
-0.009033203 -0.03540039 0.017944336 0.034423828 -0.009338379 -0.007659912 0.0079956055 0.032470703
0.032226562 -0.021118164 0.026245117 -0.016601562 -0.010131836 0.0073547363 0.026489258 -0.020507812
0.004547119 -0.022827148 -0.03173828 -0.018066406 -0.010253906 -0.024291992 -0.02709961 -0.0078125

base_model.model.transformer.h.0.attn.c_attn.lora_B.weight bf16 [2304, 8]
00000000: beba 96ba 1a3a 7d39 97ba bdba d83a f13a
00000010: f4ba 49ba 6239 093b f1b8 e3ba 91ba 903a
00000020: 003b 113b ca3a 033a 043b bf3a f4ba b5ba
00000030: 013b a93a 63ba 003b 063b 5e3a dbba a9ba
00000040: b3ba 5e36 693a d3ba e438 803a 923a cd39
00000050: 3bb9 ed3a 253a 263a 7338 16ba adba 6bba
00000060: 773a cc3a 273a 863a 06ba 63ba a8b9 e4ba
00000070: 0e36 44ba 90b9 7a39 11b9 9aba 453a fbb8
00000080: ddba 8fba e539 4d3a de39 40b9 fc39 a9ba
00000090: 3739 f8b8 bb38 edba 4aba b2b9 28b9 013a
000000a0: f439 ebba 02bb 083b cf3a 66ba eeba e4ba
000000b0: 2939 d139 4d3a a63a a9ba 40ba 003a 373a
000000c0: 903a 53ba 03b9 4e3a ea3a 3a3a 88ba 6aba
000000d0: b73a fe3a 50ba 2439 da3a ad3a 7fba beb9
000000e0: d1ba 02bb 01bb b83a 43ba 1839 be3a 95ba
000000f0: 453a fd3a 163b 1eba e2ba 31ba 87b8 313a
00000100: 0bba cab9 c539 ddb9 9f3a 873a 92ba 6cba
00000110: 96ba 10bb 8aba cfba a5b8 ebb9 e13a bb3a
00000120: 1839 b73a 063b dbba 00bb 05bb 143a 003b
00000130: a63a f53a 013b f7ba c5ba edba 8b3a bdb9
00000140: 00bb 0cbb 88ba 81ba 10ba 27b9 cd3a 943a
00000150: 69b9 72ba e3b8 8fba f0ba aaba ee3a cab9
00000160: 8dba 0fbb 853a c63a bcba 73b9 db3a 6c39
00000170: 3939 2a3a ce3a 90b9 b638 dfb9 a4ba a5ba
00000180: 003b 083b 02bb adba e03a d53a 88ba 6cb9
00000190: b739 feba 15bb 97b9 953a a5ba 553a 4d3a
000001a0: 1d3a fd39 e23a fbb9 1db8 16ba f0b8 c1b9
000001b0: d239 6cba 003b dab9 00bb a5ba f538 94ba
000001c0: f13a ae3a 0e3a 81ba 86ba 86ba e73a 023b
000001d0: 61ba 90ba ddba e03a ac3a d2ba 573a ab3a
000001e0: 12ba 9eba 94ba 87ba 6a3a 003b a63a 483a
000001f0: a03a 47b9 9a3a ff3a cfb9 d739 7fba 4aba
-0.001449585 -0.0011444092 0.0005874634 0.0002412796 -0.0011520386 -0.0014419556 0.0016479492 0.0018386841
-0.0018615723 -0.00076675415 0.0002155304 0.002090454 -0.000114917755 -0.0017318726 -0.0011062622 0.0010986328
0.001953125 0.0022125244 0.0015411377 0.00049972534 0.0020141602 0.0014572144 -0.0018615723 -0.0013809204
0.0019683838 0.0012893677 -0.0008659363 0.001953125 0.0020446777 0.0008468628 -0.0016708374 -0.0012893677
-0.0013656616 3.3080578e-06 0.00088882446 -0.0016098022 0.00010871887 0.0009765625 0.0011138916 0.00039100647
-0.0001783371 0.0018081665 0.00062942505 0.00063323975 5.7935715e-05 -0.0005722046 -0.0013198853 -0.00089645386
0.0009422302 0.0015563965 0.00063705444 0.0010223389 -0.00051116943 -0.0008659363 -0.00032043457 -0.001739502
2.115965e-06 -0.00074768066 -0.0002746582 0.00023841858 -0.00013828278 -0.0011749268 0.00075149536 -0.00011968613
-0.0016860962 -0.0010910034 0.00043678284 0.00078201294 0.0004234314 -0.00018310547 0.00048065186 -0.0012893677
0.0001745224 -0.000118255615 8.916855e-05 -0.0018081665 -0.00077056885 -0.00033950806 -0.00016021729 0.00049209595
0.00046539307 -0.0017929077 -0.0019836426 0.0020751953 0.0015792847 -0.0008773804 -0.0018157959 -0.001739502
0.00016117096 0.00039863586 0.00078201294 0.0012664795 -0.0012893677 -0.0007324219 0.00048828125 0.0006980896
0.0010986328 -0.0008049011 -0.00012493134 0.00078582764 0.0017852783 0.0007095337 -0.0010375977 -0.00089263916
0.0013961792 0.0019378662 -0.00079345703 0.00015640259 0.001663208 0.0013198853 -0.0009727478 -0.00036239624
-0.0015945435 -0.0019836426 -0.0019683838 0.0014038086 -0.00074386597 0.0001449585 0.001449585 -0.0011367798
0.00075149536 0.0019302368 0.0022888184 -0.00060272217 -0.0017242432 -0.0006752014 -6.4373016e-05 0.0006752014
-0.0005302429 -0.00038528442 0.00037574768 -0.00042152405 0.0012130737 0.0010299683 -0.0011138916 -0.00090026855
-0.0011444092 -0.0021972656 -0.0010528564 -0.0015792847 -7.867813e-05 -0.00044822693 0.0017166138 0.0014266968
0.0001449585 0.0013961792 0.0020446777 -0.0016708374 -0.001953125 -0.002029419 0.0005645752 0.001953125
0.0012664795 0.0018692017 0.0019683838 -0.0018844604 -0.0015029907 -0.0018081665 0.0010604858 -0.0003604889
-0.001953125 -0.0021362305 -0.0010375977 -0.0009841919 -0.0005493164 -0.00015926361 0.0015640259 0.0011291504
-0.00022220612 -0.00092315674 -0.000108242035 -0.0010910034 -0.0018310547 -0.0012969971 0.0018157959 -0.00038528442
-0.0010757446 -0.0021820068 0.0010147095 0.0015106201 -0.0014343262 -0.00023174286 0.0016708374 0.00022506714
0.00017642975 0.00064849854 0.0015716553 -0.0002746582 8.678436e-05 -0.00042533875 -0.0012512207 -0.0012588501
0.001953125 0.0020751953 -0.0019836426 -0.0013198853 0.0017089844 0.001625061 -0.0010375977 -0.00022506714
0.0003490448 -0.0019378662 -0.0022735596 -0.00028800964 0.0011367798 -0.0012588501 0.0008125305 0.00078201294
0.00059890747 0.0004825592 0.0017242432 -0.0004787445 -3.7431717e-05 -0.0005722046 -0.00011444092 -0.0003681183
0.0004005432 -0.00090026855 0.001953125 -0.000415802 -0.001953125 -0.0012588501 0.000116825104 -0.0011291504
0.0018386841 0.0013275146 0.000541687 -0.0009841919 -0.0010223389 -0.0010223389 0.0017623901 0.0019836426
-0.0008583069 -0.0010986328 -0.0016860962 0.0017089844 0.0013122559 -0.0016021729 0.0008201599 0.0013046265
-0.0005569458 -0.0012054443 -0.0011291504 -0.0010299683 0.00089263916 0.001953125 0.0012664795 0.00076293945
0.0012207031 -0.00018978119 0.0011749268 0.0019454956 -0.00039482117 0.00041007996 -0.0009727478 -0.00077056885

base_model.model.transformer.h.1.attn.c_attn.lora_A.weight bf16 [8, 768]
00000000: be3c a93c d7bc 053c 0abd b13c a0bc 2dbc
00000010: eebc 043d 123d 163c 7dbb 85bb a83c b33c
00000020: 2ebc 993b 00bc cd3c 363c adbc a2bc 843c
00000030: 5a3c 30bc f7bb 25bc 9ebc 1d3c d23c 71bc
00000040: 393c aabc 6c3c a13b 163c 05bc 0b3d cabc
00000050: 063c 09bd ed3c 343c a0bb 133d a6bc f23c
00000060: bb3b 853c 6d3c 83bc d13b b4bc 87bc b33c
00000070: 8d3c 13bd 6b3c d03c 303b 09bc a83b 673b
00000080: 4abc 793c d03c fe3c c5bc 0bbc 113d 823c
00000090: afbc 38bb 933c 79bc 02bd 643c c2bc 9cbc
000000a0: 813c 9fbb 00bc eb3b b2bc a6bc 9abb f63c
000000b0: c33c 223c 00bb 00bc 853b b73b cd3b 0dbd
000000c0: a33c 63bb 983c 0e3d fe3c 8e3c 80bb efbc
000000d0: 123d 003c a33c 363c c53c cabc c5bc 64bb
000000e0: 0dbd 1c39 fabc 49bc f8bc 2bbc c33c b1bb
000000f0: 1a3c 95bb f6bb f7bc cfbc cebc 8c3c 723b
00000100: 0d3d 8a3b c6bc aa3c a2bc edbc 7abc 003d
00000110: 463c 113d f7bc 403c 05bd 9f3c d63c 5bbc
00000120: bb3c 7d3c 3a3c b4bc 7e3c 5fbc 5d3c 6bbc
00000130: bd3c 593c c1bc 103d 893b b93b 14bd 8c3c
00000140: de3c bebc a7bc f9bb 90bc 3bbc df3b 043d
00000150: d3bb 02bd 373c be3c 07bd 873c 043d afbb
00000160: b4bc d93a 09bd 42bc 5bbc b4bc 09bd edbc
00000170: d03b 1d3b bd3b c13c 8fbc 73bc 673c 72ba
00000180: 0a3d f0bc 80bb 7c3c cc3b 343c 463c 06bd
00000190: 073d c03c c1bc cc3c 4a3c 4abc 003c 633b
000001a0: 8abb 443c d23c ff3c 53ba 3a3c 9e3c 9e3c
000001b0: b8bc 973b 0f3d 013d 943c 173c b23c 093d
000001c0: 543b e93c fd3c 81bc 80bb 703c 33bc da3c
000001d0: e5bc b0bc 103d c2bc e83c 043d 763c 0b3c
000001e0: e6bb 80bb 7e3b 0abc 003b 343c 863c e53c
000001f0: 753c e33c 093c 113c c03c 8d3b c6bc a3bc
0.02319336 0.020629883 -0.026245117 0.008117676 -0.033691406 0.021606445 -0.01953125 -0.010559082
-0.029052734 0.032226562 0.03564453 0.009155273 -0.0038604736 -0.004058838 0.020507812 0.021850586
-0.010620117 0.0046691895 -0.0078125 0.025024414 0.011108398 -0.021118164 -0.01977539 0.016113281
0.013305664 -0.0107421875 -0.007537842 -0.010070801 -0.01928711 0.0095825195 0.025634766 -0.014709473
0.011291504 -0.020751953 0.014404297 0.00491333 0.009155273 -0.008117676 0.033935547 -0.024658203
0.008178711 -0.033447266 0.028930664 0.010986328 -0.0048828125 0.035888672 -0.020263672 0.029541016
0.005706787 0.016235352 0.014465332 -0.015991211 0.006378174 -0.021972656 -0.016479492 0.021850586
0.017211914 -0.035888672 0.014343262 0.025390625 0.0026855469 -0.008361816 0.005126953 0.0035247803
-0.012329102 0.015197754 0.025390625 0.03100586 -0.024047852 -0.008483887 0.03540039 0.01586914
-0.021362305 -0.0028076172 0.017944336 -0.015197754 -0.03173828 0.013916016 -0.02368164 -0.019042969
0.01574707 -0.004852295 -0.0078125 0.007171631 -0.021728516 -0.020263672 -0.004699707 0.030029297
0.023803711 0.009887695 -0.001953125 -0.0078125 0.004058838 0.005584717 0.0062561035 -0.034423828
0.019897461 -0.0034637451 0.018554688 0.03466797 0.03100586 0.017333984 -0.00390625 -0.029174805
0.03564453 0.0078125 0.019897461 0.011108398 0.024047852 -0.024658203 -0.024047852 -0.003479004
-0.034423828 0.0001487732 -0.030517578 -0.012268066 -0.030273438 -0.010437012 0.023803711 -0.0054016113
0.009399414 -0.004547119 -0.007507324 -0.030151367 -0.025268555 -0.025146484 0.017089844 0.003692627
0.034423828 0.004211426 -0.024169922 0.020751953 -0.01977539 -0.028930664 -0.015258789 0.03125
0.012084961 0.03540039 -0.030151367 0.01171875 -0.032470703 0.01940918 0.026123047 -0.013366699
0.022827148 0.0154418945 0.011352539 -0.021972656 0.01550293 -0.01361084 0.0134887695 -0.014343262
0.023071289 0.013244629 -0.02355957 0.03515625 0.004180908 0.005645752 -0.036132812 0.017089844
0.02709961 -0.02319336 -0.020385742 -0.007598877 -0.017578125 -0.011413574 0.00680542 0.032226562
-0.006439209 -0.03173828 0.011169434 0.02319336 -0.032958984 0.016479492 0.032226562 -0.005340576
-0.021972656 0.0016555786 -0.033447266 -0.01184082 -0.013366699 -0.021972656 -0.033447266 -0.028930664
0.0063476562 0.0023956299 0.0057678223 0.02355957 -0.017456055 -0.014831543 0.014099121 -0.00092315674
0.033691406 -0.029296875 -0.00390625 0.015380859 0.006225586 0.010986328 0.012084961 -0.032714844
0.032958984 0.0234375 -0.02355957 0.024902344 0.012329102 -0.012329102 0.0078125 0.0034637451
-0.004211426 0.011962891 0.025634766 0.03112793 -0.0008049011 0.011352539 0.01928711 0.01928711
-0.022460938 0.0046081543 0.03491211 0.03149414 0.018066406 0.009216309 0.021728516 0.033447266
0.0032348633 0.028442383 0.030883789 -0.01574707 -0.00390625 0.0146484375 -0.010925293 0.026611328
-0.027954102 -0.021484375 0.03515625 -0.02368164 0.028320312 0.032226562 0.015014648 0.008483887
-0.007019043 -0.00390625 0.0038757324 -0.008422852 0.001953125 0.010986328 0.016357422 0.027954102
0.014953613 0.027709961 0.008361816 0.008850098 0.0234375 0.0043029785 -0.024169922 -0.019897461

base_model.model.transformer.h.1.attn.c_attn.lora_B.weight bf16 [2304, 8]
00000000: 7dba aaba 83ba 45ba b1ba 98ba 62ba b6ba
00000010: 943a ef3a b73a 683a a73a c8b9 533a 003b
00000020: 5dba 03bb 4f3a c1ba a8b7 f4ba 873a a4ba
00000030: dab8 04ba 8e3a 2a3a d13a 6c38 083a f33a
00000040: 1839 c03a b9ba e7b9 15ba b2ba f1ba 883a
00000050: 81ba 73ba 083b 0b3a 7339 1a3a 9d39 cc38
00000060: 1cba 9dba 9eba 1cba eaba 0bbb 03ba 643a
00000070: 103a daba 4fb9 06bb f8b9 39ba 5a39 e2ba
00000080: 8f3a 3b3a 9438 92b9 ddba 163a 8f39 03bb
00000090: be3a 113b 5a3a 0c3b c73a 063b eb38 ff3a
000000a0: 02ba 5438 e83a 0f3a da3a 813a af3a 033b
000000b0: 023b d43a beb9 8e3a be38 f93a 81ba 14ba
000000c0: df3a 933a 0bbb 0739 beba 8f3a f5b9 99ba
000000d0: 18b8 10ba 51b8 44ba ee39 bcba a53a d7b9
000000e0: c339 ceba 45ba 0dba dc39 acba 87ba 0f3a
000000f0: 0cba 93ba 8dba 0eba 81ba 70ba eab9 41ba
00000100: 3d3a 90ba 73ba 813a 003b 85ba 8539 96ba
00000110: d43a e23a e3ba c5b9 6eba d5b8 b536 c4ba
00000120: 4939 ea3a de3a bb3a ab3a 063b 6b3a 003b
00000130: 95ba 18bb 65ba 15ba 9c3a d4ba cbba 6439
00000140: b3b9 1fbb 71ba feba bfba b1ba d3b9 153a
00000150: 00bb 06bb acba 1bba 33ba 54ba 1d39 e1b9
00000160: 02bb 09bb e1ba 03bb 09bb ccba e7ba 01bb
00000170: 9b3a 8b3a c9ba 0cba b1ba 563a b0ba 9e39
00000180: ab38 193b 693a 033b 093b 053b 9aba 1b3b
00000190: d5ba 04bb 18ba 0cba c6b8 e7ba 5aba 3eba
000001a0: 553a 86ba 063b b33a 033b 8338 ed3a e9b9
000001b0: baba f0b9 27ba f9ba 00bb feba b6ba b3b9
000001c0: 5d3a d83a 8cb8 39b9 b23a bc3a 8e3a f53a
000001d0: ac3a 713a 003b da3a af3a 5f3a cd3a e83a
000001e0: aa39 003b f13a f23a 0d3b 003b 1e3a 053b
000001f0: 97ba 86ba 3fb9 edb9 21ba 13ba d938 3639
-0.0009651184 -0.0012969971 -0.0009994507 -0.00075149536 -0.0013504028 -0.001159668 -0.0008621216 -0.0013885498
0.0011291504 0.0018234253 0.0013961792 0.00088500977 0.0012741089 -0.00038146973 0.0008049011 0.001953125
-0.0008430481 -0.0019989014 0.00078964233 -0.0014724731 -2.002716e-05 -0.0018615723 0.0010299683 -0.0012512207
-0.0001039505 -0.00050354004 0.001083374 0.00064849854 0.0015945435 5.6266785e-05 0.0005187988 0.0018539429
0.0001449585 0.0014648438 -0.001411438 -0.00044059753 -0.0005683899 -0.0013580322 -0.0018386841 0.0010375977
-0.0009841919 -0.00092697144 0.0020751953 0.0005302429 0.00023174286 0.0005874634 0.00029945374 9.727478e-05
-0.0005950928 -0.0011978149 -0.0012054443 -0.0005950928 -0.0017852783 -0.0021209717 -0.00049972534 0.000869751
0.0005493164 -0.001663208 -0.00019741058 -0.0020446777 -0.00047302246 -0.000705719 0.000207901 -0.0017242432
0.0010910034 0.0007133484 7.05719e-05 -0.0002784729 -0.0016860962 0.0005722046 0.00027275085 -0.0019989014
0.001449585 0.0022125244 0.000831604 0.0021362305 0.0015182495 0.0020446777 0.00011205673 0.0019454956
-0.00049591064 5.054474e-05 0.0017700195 0.0005455017 0.001663208 0.0009841919 0.001335144 0.0019989014
0.0019836426 0.0016174316 -0.00036239624 0.001083374 9.059906e-05 0.0018997192 -0.0009841919 -0.0005645752
0.001701355 0.001121521 -0.0021209717 0.00012874603 -0.001449585 0.0010910034 -0.00046730042 -0.0011672974
-3.6239624e-05 -0.0005493164 -4.9829483e-05 -0.00074768066 0.00045394897 -0.0014343262 0.0012588501 -0.00041007996
0.00037193298 -0.0015716553 -0.00075149536 -0.0005378723 0.0004196167 -0.0013122559 -0.0010299683 0.0005455017
-0.0005340576 -0.001121521 -0.0010757446 -0.000541687 -0.0009841919 -0.00091552734 -0.00044631958 -0.0007362366
0.0007209778 -0.0010986328 -0.00092697144 0.0009841919 0.001953125 -0.0010147095 0.00025367737 -0.0011444092
0.0016174316 0.0017242432 -0.0017318726 -0.00037574768 -0.00090789795 -0.000101566315 5.3942204e-06 -0.0014953613
0.00019168854 0.0017852783 0.0016937256 0.0014266968 0.0013046265 0.0020446777 0.00089645386 0.001953125
-0.0011367798 -0.002319336 -0.0008735657 -0.0005683899 0.0011901855 -0.0016174316 -0.0015487671 0.00021743774
-0.0003414154 -0.0024261475 -0.00091934204 -0.0019378662 -0.0014572144 -0.0013504028 -0.00040245056 0.0005683899
-0.001953125 -0.0020446777 -0.0013122559 -0.0005912781 -0.0006828308 -0.0008087158 0.00014972687 -0.00042915344
-0.0019836426 -0.002090454 -0.0017166138 -0.0019989014 -0.002090454 -0.0015563965 -0.0017623901 -0.0019683838
0.0011825562 0.0010604858 -0.0015335083 -0.0005340576 -0.0013504028 0.0008163452 -0.0013427734 0.00030136108
8.1539154e-05 0.0023345947 0.00088882446 0.0019989014 0.002090454 0.002029419 -0.0011749268 0.0023651123
-0.001625061 -0.0020141602 -0.000579834 -0.0005340576 -9.441376e-05 -0.0017623901 -0.000831604 -0.0007247925
0.0008125305 -0.0010223389 0.0020446777 0.0013656616 0.0019989014 6.246567e-05 0.0018081665 -0.00044441223
-0.0014190674 -0.00045776367 -0.00063705444 -0.0018997192 -0.001953125 -0.0019378662 -0.0013885498 -0.0003414154
0.0008430481 0.0016479492 -6.67572e-05 -0.00017642975 0.0013580322 0.0014343262 0.001083374 0.0018692017
0.0013122559 0.00091934204 0.001953125 0.001663208 0.001335144 0.0008506775 0.0015640259 0.0017700195
0.00032424927 0.001953125 0.0018386841 0.0018463135 0.0021514893 0.001953125 0.00060272217 0.002029419
-0.0011520386 -0.0010223389 -0.0001821518 -0.00045204163 -0.00061416626 -0.0005607605 0.00010347366 0.00017356873

base_model.model.transformer.h.10.attn.c_attn.lora_A.weight bf16 [8, 768]
00000000: 72bc f8bc 903c 503c de3b e9bb 12bd a8bc
00000010: 38bc a93c 83bb 00bc adbb 85bb 7dbb b6bc
00000020: 06bd b43c eabc 80bb 883b 00bc da3c d4bc
00000030: 0cbd 9fbb c43c 9a3c 6f3c 2e3c 643c fc3b
00000040: 003d 95bc d63b 0b3d ddbc 6bbc 99bc 063d
00000050: 0abd a8bc 05bd acbb 1dbb a43c c53c 3bbc
00000060: 913c b73c 90bc ecbc df3c 643c f23c b6bc
00000070: bdbc 06bc 5dbc e23c f7bb b1bc 85bc 0e3d
00000080: 693c 11bd e73b fcbc 90bc d5bc b6bc a13c
00000090: e93b a8bc 0e3d 00bc 8a3b 843c 823c 9fbc
000000a0: 9bbb 4bbc ff3b c13c 62bc ddbc 9b3c bb3b
000000b0: e03c a13c 0b3d 193c a4bc cdbc 803b 653c
000000c0: 053d bd3c 0abd 63bc a03c d93c a63c 163b
000000d0: 1dbb b0bc f9bc 52bc fa3c 9dbb b0bc fd3b
000000e0: b93b 94bc 873c 56bc a6bc 7f3b 083d b53b
000000f0: ed3c febc 05bd b03b f63b d8bc d2bc cdbc
00000100: 933c 5abc 0bbd 0f3b 10bd 7bba 0f3d 5abc
00000110: 20bc 053d bcbc 29bc c13c 813c 133d b03b
00000120: b8bc b43c 033d e4bb abbc 95bc 06bd 85bb
00000130: 94bc dd3c c83c e9bc e23c ed3c f63c e73b
00000140: 353c 9eba 38bc 003c 8abc cbbc 513c dc3c
00000150: 523c aabb 7c3b b43c 10bd cd3c 003c 0fbc
00000160: ff3b 0f3d 563c f73c 813b a43c 1bbc bdbc
00000170: b4bb 1b3c 1b3c ad3b 003c 8e3b 363c 1d3c
00000180: 083d 14bd 113d 653c 493c 9f3c 6cbc 0f3c
00000190: 943c 1a3c 713b f4bc 7a3c 0bbd b8bc eebc
000001a0: 803b febc adbb 803b fe3c b13c 253c 4d3a
000001b0: abbb e93c 46bc c2bc 9abc eabc efbb 003c
000001c0: 0ebd a5bc 8d3c f83c 3e3c debc e93c ef3c
000001d0: e6bc 00bc 6c3c 00bc 87bc 0fbd a7bc e6bc
000001e0: 61bc d1bc 5cbc 00bc ac3b 2bbc 873c c03c
000001f0: e8bc aabc a83c afbc 01bd 7a3c d9bc 91bb
-0.014770508 -0.030273438 0.017578125 0.0126953125 0.0067749023 -0.0071105957 -0.03564453 -0.020507812
-0.011230469 0.020629883 -0.0039978027 -0.0078125 -0.005279541 -0.004058838 -0.0038604736 -0.022216797
-0.032714844 0.021972656 -0.028564453 -0.00390625 0.0041503906 -0.0078125 0.026611328 -0.025878906
-0.034179688 -0.004852295 0.023925781 0.018798828 0.014587402 0.010620117 0.013916016 0.0076904297
0.03125 -0.018188477 0.0065307617 0.033935547 -0.026977539 -0.014343262 -0.018676758 0.032714844
-0.033691406 -0.020507812 -0.032470703 -0.0052490234 -0.0023956299 0.020019531 0.024047852 -0.011413574
0.017700195 0.022338867 -0.017578125 -0.028808594 0.02722168 0.013916016 0.029541016 -0.022216797
-0.023071289 -0.008178711 -0.0134887695 0.02758789 -0.007537842 -0.021606445 -0.016235352 0.03466797
0.014221191 -0.03540039 0.0070495605 -0.030761719 -0.017578125 -0.026000977 -0.022216797 0.01965332
0.0071105957 -0.020507812 0.03466797 -0.0078125 0.004211426 0.016113281 0.01586914 -0.01940918
-0.0047302246 -0.012390137 0.0077819824 0.02355957 -0.013793945 -0.026977539 0.018920898 0.005706787
0.02734375 0.01965332 0.033935547 0.009338379 -0.020019531 -0.025024414 0.00390625 0.013977051
0.032470703 0.023071289 -0.033691406 -0.0138549805 0.01953125 0.026489258 0.020263672 0.0022888184
-0.0023956299 -0.021484375 -0.030395508 -0.012817383 0.030517578 -0.0047912598 -0.021484375 0.0077209473
0.005645752 -0.018066406 0.016479492 -0.013061523 -0.020263672 0.0038909912 0.033203125 0.0055236816
0.028930664 -0.03100586 -0.032470703 0.0053710938 0.007507324 -0.026367188 -0.025634766 -0.025024414
0.017944336 -0.013305664 -0.033935547 0.0021820068 -0.03515625 -0.000957489 0.03491211 -0.013305664
-0.009765625 0.032470703 -0.022949219 -0.010314941 0.02355957 0.01574707 0.035888672 0.0053710938
-0.022460938 0.021972656 0.031982422 -0.006958008 -0.020874023 -0.018188477 -0.032714844 -0.004058838
-0.018066406 0.026977539 0.024414062 -0.028442383 0.02758789 0.028930664 0.030029297 0.0070495605
0.011047363 -0.0012054443 -0.011230469 0.0078125 -0.016845703 -0.024780273 0.012756348 0.026855469
0.012817383 -0.0051879883 0.0038452148 0.021972656 -0.03515625 0.025024414 0.0078125 -0.008728027
0.0077819824 0.03491211 0.013061523 0.030151367 0.0039367676 0.020019531 -0.009460449 -0.023071289
-0.005493164 0.009460449 0.009460449 0.005279541 0.0078125 0.004333496 0.011108398 0.0095825195
0.033203125 -0.036132812 0.03540039 0.013977051 0.012268066 0.01940918 -0.014404297 0.008728027
0.018066406 0.009399414 0.0036773682 -0.029785156 0.015258789 -0.033935547 -0.022460938 -0.029052734
0.00390625 -0.03100586 -0.005279541 0.00390625 0.03100586 0.021606445 0.010070801 0.00078201294
-0.005218506 0.028442383 -0.012084961 -0.02368164 -0.018798828 -0.028564453 -0.007293701 0.0078125
-0.03466797 -0.020141602 0.017211914 0.030273438 0.01159668 -0.02709961 0.028442383 0.029174805
-0.028076172 -0.0078125 0.014404297 -0.0078125 -0.016479492 -0.03491211 -0.020385742 -0.028076172
-0.01373291 -0.025512695 -0.013427734 -0.0078125 0.0052490234 -0.010437012 0.016479492 0.0234375
-0.028320312 -0.020751953 0.020507812 -0.021362305 -0.03149414 0.015258789 -0.026489258 -0.004425049

base_model.model.transformer.h.10.attn.c_attn.lora_B.weight bf16 [2304, 8]
00000000: 183b 32bb 083b 4b3b 153b 2cbb 663b 0abb
00000010: 073b 1fbb 103b 063b 333b 01bb 033b 05bb
00000020: 30bb 413b 00bb 60bb 46bb 4a3b 28bb 073b
00000030: 03bb 313b 68bb 34bb 2bbb 1d3b 28bb 243b
00000040: a33a 013b d7ba 64ba d4ba b43a 82ba 003b
00000050: 3cbb 703b 7fbb 80bb 48bb 813b 80bb 803b
00000060: 28bb 413b 67bb 3bbb 41bb 0a3b 52bb 333b
00000070: 923a f2ba 953a fc3a be3a 36bb 2a3b e2ba
00000080: 403b 57bb 313b 5d3b 313b 50bb 643b 0cbb
00000090: 6b3b 83bb 803b 823b 7f3b 80bb 833b 80bb
000000a0: 7cbb 3d3b 0cbb 7cbb 5bbb 7d3b 80bb 533b
000000b0: 2c3b 59bb 723b 6b3b 4a3b 45bb 5e3b 75bb
000000c0: 0e3b 0ebb 1f3b 2b3b 1c3b 0dbb 493b 31bb
000000d0: 07bb 023b 11bb 27bb 00bb 233b 31bb 2f3b
000000e0: 3fbb 603b 80bb 80bb 52bb 803b 80bb 803b
000000f0: 553b 80bb 803b 803b 803b 80bb 803b 82bb
00000100: 063b 40bb 5d3b 683b 203b 54bb 1c3b 26bb
00000110: 5dbb 773b 80bb 80bb 4bbb 673b 81bb 803b
00000120: 3b3b 60bb 7d3b 773b 4a3b 5fbb 633b 51bb
00000130: 543a 0a3b 3fbb e6ba 01bb e13a e1ba fe3a
00000140: 633b 83bb 803b 813b 6b3b 80bb 803b 7cbb
00000150: 5c3b cfba 1e3b 6d3b 4e3b 06bb 5c3b 51bb
00000160: 083b 833a 02bb a43a 0e3b c83a 753a b23a
00000170: 303b 5fbb 1a3b 643b 353b 1bbb 803b 0fbb
00000180: 59bb 17ba da3a 39bb 3f3a 003b 28bb fb3a
00000190: 273b 2fbb 643b 613b 243b 17bb 643b 74bb
000001a0: 133b f6ba fd3a 003b e03a 04bb f03a 0abb
000001b0: 80bb 803b 84bb 84bb 6abb 803b 81bb 803b
000001c0: 0cb9 9f39 98ba d9b9 bfba e1ba 24ba f039
000001d0: 8c39 b7ba a3ba 97b9 77ba 9439 adb9 973a
000001e0: 803b 82bb 803b 823b 803b 80bb 823b 83bb
000001f0: 43bb 443b 7fbb 7ebb 3fbb 563b 80bb 803b
0.002319336 -0.0027160645 0.0020751953 0.0030975342 0.0022735596 -0.0026245117 0.0035095215 -0.002105713
0.0020599365 -0.0024261475 0.0021972656 0.0020446777 0.0027313232 -0.0019683838 0.0019989014 -0.002029419
-0.0026855469 0.0029449463 -0.001953125 -0.0034179688 -0.0030212402 0.0030822754 -0.0025634766 0.0020599365
-0.0019989014 0.0027008057 -0.003540039 -0.002746582 -0.002609253 0.0023956299 -0.0025634766 0.0025024414
0.0012435913 0.0019683838 -0.0016403198 -0.000869751 -0.0016174316 0.001373291 -0.0009918213 0.001953125
-0.0028686523 0.0036621094 -0.0038909912 -0.00390625 -0.0030517578 0.0039367676 -0.00390625 0.00390625
-0.0025634766 0.0029449463 -0.0035247803 -0.0028533936 -0.0029449463 0.002105713 -0.0032043457 0.0027313232
0.0011138916 -0.0018463135 0.0011367798 0.0019226074 0.001449585 -0.0027770996 0.0025939941 -0.0017242432
0.0029296875 -0.0032806396 0.0027008057 0.0033721924 0.0027008057 -0.0031738281 0.003479004 -0.0021362305
0.0035858154 -0.0039978027 0.00390625 0.003967285 0.0038909912 -0.00390625 0.0039978027 -0.00390625
-0.0038452148 0.0028839111 -0.0021362305 -0.0038452148 -0.0033416748 0.0038604736 -0.00390625 0.0032196045
0.0026245117 -0.0033111572 0.003692627 0.0035858154 0.0030822754 -0.0030059814 0.0033874512 -0.0037384033
0.002166748 -0.002166748 0.0024261475 0.002609253 0.002380371 -0.0021514893 0.0030670166 -0.0027008057
-0.0020599365 0.0019836426 -0.0022125244 -0.0025482178 -0.001953125 0.0024871826 -0.0027008057 0.002670288
-0.0029144287 0.0034179688 -0.00390625 -0.00390625 -0.0032043457 0.00390625 -0.00390625 0.00390625
0.003250122 -0.00390625 0.00390625 0.00390625 0.00390625 -0.00390625 0.00390625 -0.003967285
0.0020446777 -0.0029296875 0.0033721924 0.003540039 0.0024414062 -0.0032348633 0.002380371 -0.002532959
-0.0033721924 0.003768921 -0.00390625 -0.00390625 -0.0030975342 0.0035247803 -0.0039367676 0.00390625
0.0028533936 -0.0034179688 0.0038604736 0.003768921 0.0030822754 -0.00340271 0.0034637451 -0.003189087
0.0008087158 0.002105713 -0.0029144287 -0.0017547607 -0.0019683838 0.0017166138 -0.0017166138 0.0019378662
0.0034637451 -0.0039978027 0.00390625 0.0039367676 0.0035858154 -0.00390625 0.00390625 -0.0038452148
0.0033569336 -0.0015792847 0.0024108887 0.003616333 0.0031433105 -0.0020446777 0.0033569336 -0.003189087
0.0020751953 0.0009994507 -0.0019836426 0.0012512207 0.002166748 0.0015258789 0.00093460083 0.0013580322
0.0026855469 -0.00340271 0.0023498535 0.003479004 0.0027618408 -0.0023651123 0.00390625 -0.0021820068
-0.0033111572 -0.0005760193 0.001663208 -0.002822876 0.0007286072 0.001953125 -0.0025634766 0.001914978
0.0025482178 -0.002670288 0.003479004 0.0034332275 0.0025024414 -0.0023040771 0.003479004 -0.0037231445
0.002243042 -0.001876831 0.0019302368 0.001953125 0.0017089844 -0.0020141602 0.0018310547 -0.002105713
-0.00390625 0.00390625 -0.0040283203 -0.0040283203 -0.0035705566 0.00390625 -0.0039367676 0.00390625
-0.0001335144 0.00030326843 -0.001159668 -0.00041389465 -0.0014572144 -0.0017166138 -0.00062561035 0.00045776367
0.0002670288 -0.0013961792 -0.0012435913 -0.00028800964 -0.0009422302 0.0002822876 -0.0003299713 0.0011520386
0.00390625 -0.003967285 0.00390625 0.003967285 0.00390625 -0.00390625 0.003967285 -0.0039978027
-0.0029754639 0.0029907227 -0.0038909912 -0.0038757324 -0.0029144287 0.0032653809 -0.00390625 0.00390625

base_model.model.transformer.h.11.attn.c_attn.lora_A.weight bf16 [8, 768]
00000000: 123d 0f3c 0d3c 79bc 67bc d5bc 80bb 003c
00000010: 8ebc 003c 993c 24bc e33b a5bc ddbb a63c
00000020: c0bc a4bc 87bb 09bd 983c 003c 873b 06bc
00000030: 04bd 003c debc f53c 91bb a9bc 7cbc 603c
00000040: 083d 02bd 87bb cc3c da3c b63c 15ba e1bc
00000050: 15bb c5bc 06bd eabc 9bbc e33c cebc a4bb
00000060: b63c 10bd 913c a6bc 00bc f33a 58bc 683c
00000070: 8f3b 063d 24bc e53c d93c 7d3c 72bc d73c
00000080: 643c bcbc 043d 123c c23c af3c 9f3c 9a3b
00000090: c33b a13c 40bc 0a3d d2bb e1bc a4bb f93c
000000a0: 12bd 913b aebc df3c 753c 8c3c 003c 09bc
000000b0: da3c e23c 81bb 003c 0d3d e33b f6bc 803b
000000c0: ffbc c53c f23c 05bc 8abb 0ebd e1bc af3c
000000d0: c6bc 90bc 77bc bdbb 8c3c 073d f5bc 813c
000000e0: 6abc acbb 833c a1bc e9bc 17bc 013c a3bc
000000f0: 123c 04bd dc3b 9e3c 473c d6bc 3dbc b3bc
00000100: 9bbc 6cbc 00bc 203c 00bc 833c 2f3c 143c
00000110: 9b3c b33c 2e3c f83c bfbc 2cbc 693c a3bc
00000120: 003c 36bc df3c a43b 27bc f13b 10bd d83c
00000130: 543c f0bc f23c 133d c03c 23bc 8ebc 12bd
00000140: a4bc e13c 13bd a53c 12bd 993c 80bb e23c
00000150: ff3b 103d 8e3b 6ebc b83c 9abb cfbc 3abc
00000160: 93bb d6bc c8bc 713c c13c 6a3c bb3c 94bc
00000170: 243c 00bc 49bb a0bc edbc cc3c 80bb 2cbc
00000180: edbc debc 103d 0ebd ac3c fa3c 803b 22bc
00000190: 103c 123c 803c bebc 83bc d4bc b3bb 04bc
000001a0: 8bbb 953c c8bc 043d dabc 943c 0fbd b3bb
000001b0: 123d fc3c a53c 90bb a03c 493c cbbc 8f3c
000001c0: 843c a33c 0dbb 3a3c ac3c ec3c 05bd a13c
000001d0: f0bc febc 553c 88bc 86bb 813b 4ebc bf3c
000001e0: 4c3c a9bc 903c 7bbc bbbb fe3c 92bc ca3c
000001f0: 00bc 0dbd f1bc 22bc bf3c 8ebb dcbb 80bb
0.03564453 0.008728027 0.008605957 -0.015197754 -0.014099121 -0.026000977 -0.00390625 0.0078125
-0.017333984 0.0078125 0.018676758 -0.010009766 0.0069274902 -0.020141602 -0.0067443848 0.020263672
-0.0234375 -0.020019531 -0.004119873 -0.033447266 0.018554688 0.0078125 0.004119873 -0.008178711
-0.032226562 0.0078125 -0.02709961 0.029907227 -0.004425049 -0.020629883 -0.015380859 0.013671875
0.033203125 -0.03173828 -0.004119873 0.024902344 0.026611328 0.022216797 -0.0005683899 -0.02746582
-0.0022735596 -0.024047852 -0.032714844 -0.028564453 -0.018920898 0.027709961 -0.025146484 -0.005004883
0.022216797 -0.03515625 0.017700195 -0.020263672 -0.0078125 0.0018539429 -0.013183594 0.014160156
0.0043640137 0.032714844 -0.010009766 0.027954102 0.026489258 0.0154418945 -0.014770508 0.026245117
0.013916016 -0.022949219 0.032226562 0.008911133 0.02368164 0.021362305 0.01940918 0.004699707
0.0059509277 0.01965332 -0.01171875 0.033691406 -0.0064086914 -0.02746582 -0.005004883 0.030395508
-0.03564453 0.004425049 -0.021240234 0.02722168 0.014953613 0.017089844 0.0078125 -0.008361816
0.026611328 0.02758789 -0.0039367676 0.0078125 0.034423828 0.0069274902 -0.030029297 0.00390625
-0.03112793 0.024047852 0.029541016 -0.008117676 -0.004211426 -0.03466797 -0.02746582 0.021362305
-0.024169922 -0.017578125 -0.015075684 -0.0057678223 0.017089844 0.032958984 -0.029907227 0.01574707
-0.014282227 -0.0052490234 0.015991211 -0.01965332 -0.028442383 -0.009216309 0.007873535 -0.019897461
0.008911133 -0.032226562 0.006713867 0.01928711 0.012145996 -0.026123047 -0.0115356445 -0.021850586
-0.018920898 -0.014404297 -0.0078125 0.009765625 -0.0078125 0.015991211 0.010681152 0.009033203
0.018920898 0.021850586 0.010620117 0.030273438 -0.02331543 -0.010498047 0.014221191 -0.019897461
0.0078125 -0.011108398 0.02722168 0.005004883 -0.010192871 0.0073547363 -0.03515625 0.026367188
0.012939453 -0.029296875 0.029541016 0.035888672 0.0234375 -0.0099487305 -0.017333984 -0.03564453
-0.020019531 0.02746582 -0.035888672 0.020141602 -0.03564453 0.018676758 -0.00390625 0.02758789
0.0077819824 0.03515625 0.004333496 -0.014526367 0.022460938 -0.004699707 -0.025268555 -0.011352539
-0.004486084 -0.026123047 -0.024414062 0.014709473 0.02355957 0.014282227 0.022827148 -0.018066406
0.010009766 -0.0078125 -0.0030670166 -0.01953125 -0.028930664 0.024902344 -0.00390625 -0.010498047
-0.028930664 -0.02709961 0.03515625 -0.03466797 0.020996094 0.030517578 0.00390625 -0.009887695
0.0087890625 0.008911133 0.015625 -0.02319336 -0.015991211 -0.025878906 -0.0054626465 -0.008056641
-0.0042419434 0.018188477 -0.024414062 0.032226562 -0.026611328 0.018066406 -0.03491211 -0.0054626465
0.03564453 0.030761719 0.020141602 -0.0043945312 0.01953125 0.012268066 -0.024780273 0.017456055
0.016113281 0.019897461 -0.0021514893 0.011352539 0.020996094 0.028808594 -0.032470703 0.01965332
-0.029296875 -0.03100586 0.013000488 -0.016601562 -0.0040893555 0.0039367676 -0.012573242 0.02331543
0.012451172 -0.020629883 0.017578125 -0.015319824 -0.005706787 0.03100586 -0.017822266 0.024658203
-0.0078125 -0.034423828 -0.029418945 -0.009887695 0.02331543 -0.004333496 -0.006713867 -0.00390625

base_model.model.transformer.h.11.attn.c_attn.lora_B.weight bf16 [2304, 8]
00000000: 45ba 3fbb 563b 463b d9b9 7fbb 44bb 703b
00000010: 07bb 39bb 333b 553b e4b9 55bb 50bb 503b
00000020: 09bb 12bb 053b 03ba c13a a4ba 37bb fe3a
00000030: 343b 16bb 45bb 13bb 0abb 103b 133b 5cbb
00000040: 0a3b d53a 40bb 16bb 14bb 293b 403b 2dbb
00000050: aeba 803b 32bb 80bb 5a3b 803b 263b 78bb
00000060: 86bb d43a 8d3b 363b 803b 80bb 83bb 823b
00000070: e6ba 01bb 0c3b 043b c8b9 26bb 28bb 263b
00000080: 66b9 43bb 553b 4b3b 0e3a 80bb 43bb 613b
00000090: 19bb 5c3b e73a 30bb 163b 303b 01bb 5a3a
000000a0: 673a d23a 8d3a 7e3a bc39 2f3a 6bb9 a03a
000000b0: 803b 793b 81bb 6dbb 1dbb 813b 803b 83bb
000000c0: 803b 80bb 7ebb 403b 80bb c7ba 803b 1fbb
000000d0: 083b 0ebb 2c3b 593b b5ba 49bb 94ba 223b
000000e0: 883b 16bb 8fbb 31bb 80bb 7a3b 853b 81bb
000000f0: beba 803b e9ba 22bb 003b 493b 6239 0ebb
00000100: 213b 3cbb 40bb 82ba 1fbb 94b8 393b 05bb
00000110: bdba 17ba 60ba f1ba cdb8 bd3a 41b9 12ba
00000120: 953a 25bb 06bb 2138 19bb ddba cb3a 8b39
00000130: 67bb 023b 4a3b e33a 573b f8ba 78bb 663b
00000140: 823b 5e3b 8dbb 80bb 2cbb 813b 873b 7dbb
00000150: 333b 80bb 04bb 1f3b 3dbb 18bb 1b3b c2ba
00000160: 80bb e53a 6f3b f73a 3e3b 02bb 42bb 6b3b
00000170: 8abb 043b 893b 523b 803b 80bb 84bb 863b
00000180: 77bb 803b 133b 53bb 803b 163b 27bb ba3a
00000190: 14bb 093b 443b 6b3a 3d3b feba 3ebb 143b
000001a0: d7ba 093b 64bb 04bb 82ba 0f3b ff3a 26bb
000001b0: 7fbb 213b 833b 103b 803b 12bb 83bb 803b
000001c0: 80bb 5f3b 4e3b 05bb 713b a13a 80bb 163b
000001d0: 3a3b 59ba 64bb 10bb 0fbb 0c3b 583b 3fbb
000001e0: 803b 18bb 80bb 01bb 62bb 2b3b 823b 84bb
000001f0: 80bb 20bb 873b 7a3b 803b 78bb 86bb 833b
-0.00075149536 -0.0029144287 0.0032653809 0.0030212402 -0.00041389465 -0.0038909912 -0.0029907227 0.0036621094
-0.0020599365 -0.002822876 0.0027313232 0.003250122 -0.0004348755 -0.003250122 -0.0031738281 0.0031738281
-0.002090454 -0.0022277832 0.002029419 -0.00049972534 0.0014724731 -0.0012512207 -0.0027923584 0.0019378662
0.002746582 -0.0022888184 -0.0030059814 -0.002243042 -0.002105713 0.0021972656 0.002243042 -0.0033569336
0.002105713 0.001625061 -0.0029296875 -0.0022888184 -0.0022583008 0.0025787354 0.0029296875 -0.0026397705
-0.0013275146 0.00390625 -0.0027160645 -0.00390625 0.003326416 0.00390625 0.002532959 -0.0037841797
-0.0040893555 0.0016174316 0.0043029785 0.0027770996 0.00390625 -0.00390625 -0.0039978027 0.003967285
-0.0017547607 -0.0019683838 0.0021362305 0.0020141602 -0.00038146973 -0.002532959 -0.0025634766 0.002532959
-0.0002193451 -0.0029754639 0.003250122 0.0030975342 0.000541687 -0.00390625 -0.0029754639 0.0034332275
-0.0023345947 0.0033569336 0.0017623901 -0.0026855469 0.0022888184 0.0026855469 -0.0019683838 0.000831604
0.00088119507 0.0016021729 0.0010757446 0.0009689331 0.00035858154 0.000667572 -0.00022411346 0.0012207031
0.00390625 0.0037994385 -0.0039367676 -0.003616333 -0.0023956299 0.0039367676 0.00390625 -0.0039978027
0.00390625 -0.00390625 -0.0038757324 0.0029296875 -0.00390625 -0.0015182495 0.00390625 -0.0024261475
0.0020751953 -0.002166748 0.0026245117 0.0033111572 -0.0013809204 -0.0030670166 -0.0011291504 0.0024719238
0.0041503906 -0.0022888184 -0.0043640137 -0.0027008057 -0.00390625 0.0038146973 0.004058838 -0.0039367676
-0.001449585 0.00390625 -0.0017776489 -0.0024719238 0.001953125 0.0030670166 0.0002155304 -0.002166748
0.002456665 -0.0028686523 -0.0029296875 -0.0009918213 -0.0024261475 -7.05719e-05 0.002822876 -0.002029419
-0.0014419556 -0.0005760193 -0.0008544922 -0.0018386841 -9.775162e-05 0.0014419556 -0.00018405914 -0.0005569458
0.0011367798 -0.0025177002 -0.0020446777 3.838539e-05 -0.0023345947 -0.0016860962 0.0015487671 0.00026512146
-0.0035247803 0.0019836426 0.0030822754 0.0017318726 0.0032806396 -0.0018920898 -0.0037841797 0.0035095215
0.003967285 0.0033874512 -0.0043029785 -0.00390625 -0.0026245117 0.0039367676 0.004119873 -0.0038604736
0.0027313232 -0.00390625 -0.0020141602 0.0024261475 -0.0028839111 -0.002319336 0.0023651123 -0.0014801025
-0.00390625 0.0017471313 0.0036468506 0.0018844604 0.00289917 -0.0019836426 -0.002960205 0.0035858154
-0.004211426 0.0020141602 0.004180908 0.0032043457 0.00390625 -0.00390625 -0.0040283203 0.0040893555
-0.003768921 0.00390625 0.002243042 -0.0032196045 0.00390625 0.0022888184 -0.0025482178 0.0014190674
-0.0022583008 0.002090454 0.0029907227 0.00089645386 0.0028839111 -0.0019378662 -0.00289917 0.0022583008
-0.0016403198 0.002090454 -0.003479004 -0.0020141602 -0.0009918213 0.0021820068 0.0019454956 -0.002532959
-0.0038909912 0.002456665 0.0039978027 0.0021972656 0.00390625 -0.0022277832 -0.0039978027 0.00390625
-0.00390625 0.00340271 0.0031433105 -0.002029419 0.0036773682 0.0012283325 -0.00390625 0.0022888184
0.0028381348 -0.0008277893 -0.003479004 -0.0021972656 -0.0021820068 0.0021362305 0.0032958984 -0.0029144287
0.00390625 -0.002319336 -0.00390625 -0.0019683838 -0.0034484863 0.002609253 0.003967285 -0.0040283203
-0.00390625 -0.0024414062 0.004119873 0.0038146973 0.00390625 -0.0037841797 -0.0040893555 0.0039978027

base_model.model.transformer.h.2.attn.c_attn.lora_A.weight bf16 [8, 768]
00000000: c7bc 8dbc 843c c1bc 063d c03b 82bc 86bc
00000010: 423c ee3b c1bc 903c 53bc b13c 4ebc 8d3c
00000020: cbbc de3c 553c 7bbb 843c 673c af3c 26bb
00000030: c03c a13c 67bc c6bc 043d 39bc 073d b7bc
00000040: 5f3c a93b 083d 803b 033d 5f3c f7ba df3c
00000050: 80bc ba3c 873c 07bd 82ba dbbb 97bb 01bd
00000060: eebc 77bc ca3c d13c febc 013d c73a b63c
00000070: 90bc 033b 88bc bb3b 01bc fa3c c9bc 1cbc
00000080: 003c 593c dd3c b3bc b03c 8fba acbc e63c
00000090: 01bc 723c 0a3d 733b fabc 4c3c fbba 93bc
000000a0: da3c 5f3c 81bc 60bc e4bc c63c ed3c afbb
000000b0: 5c3c 40bc a6bc d0bc cebc 643c 0ebd 073d
000000c0: 80bb 08bd 13bd 05bd f7bc c0bc 963c abbc
000000d0: b2bc 00bc 753c 0a3d be3c 12bd edbb f6bb
000000e0: bc3c 9d3c 47bc 853c b5bc 7fbb f6bc 02bd
000000f0: 973c 0b3d 103b ccbc 973b 843c 03bc 083d
00000100: 2cbc f6bc 0bbc 59bc 9c3b f3bc 1a3c d33c
00000110: 0abd 00bc aabc 87bc 85bc f2bc 5a3c b3bb
00000120: 8cbc cebb 8a3c eb3c 213c 813b 743c a9bc
00000130: 2ebc 953b b03c c43c e9bc 9fbc 9d3c fe3a
00000140: 06bd 8bbc cb3c 0bbd 14bc aabc 24bc 0bbd
00000150: dc3c dc3b 0b3d 03bd e0bc 12bd f4bc c7bc
00000160: 24bc 233c a03c bd3c 9abc eb3c 88bb 06bd
00000170: 06bc 3a3c ad3c 363c 7ebb ccbc 9a3b 0c3d
00000180: c0bc 65bc b7bc 01bd fe3c bebc b43b 323b
00000190: 2cbb d2bc 2abb 78bc 06bc f73c 91bc 19bc
000001a0: 29bb 063d 12bd e73b 063d d63c f83a cfbc
000001b0: 123d 52bc a63c 1a3c 02bd ab3c 41bc 81bb
000001c0: 8c3b 073d de3c f43c d13c 003c 05bd edbc
000001d0: 883b 0ebd 49ba 823b d83c efbc 11bd acbc
000001e0: 013d 6a3c 86bc 083d bbbc af3c f3bb a9bc
000001f0: 56bc 22bc 69bc fb3c c43c e0bc 00bc 80bb
-0.024291992 -0.017211914 0.016113281 -0.02355957 0.032714844 0.005859375 -0.01586914 -0.016357422
0.01184082 0.0072631836 -0.02355957 0.017578125 -0.012878418 0.021606445 -0.012573242 0.017211914
-0.024780273 0.02709961 0.013000488 -0.003829956 0.016113281 0.014099121 0.021362305 -0.002532959
0.0234375 0.01965332 -0.014099121 -0.024169922 0.032226562 -0.011291504 0.032958984 -0.022338867
0.01361084 0.0051574707 0.033203125 0.00390625 0.031982422 0.01361084 -0.0018844604 0.02722168
-0.015625 0.022705078 0.016479492 -0.032958984 -0.0009918213 -0.0066833496 -0.0046081543 -0.03149414
-0.029052734 -0.015075684 0.024658203 0.025512695 -0.03100586 0.03149414 0.0015182495 0.022216797
-0.017578125 0.0019989014 -0.016601562 0.005706787 -0.007873535 0.030517578 -0.024536133 -0.009521484
0.0078125 0.013244629 0.026977539 -0.021850586 0.021484375 -0.0010910034 -0.020996094 0.028076172
-0.007873535 0.014770508 0.033691406 0.0037078857 -0.030517578 0.012451172 -0.001914978 -0.017944336
0.026611328 0.01361084 -0.01574707 -0.013671875 -0.027832031 0.024169922 0.028930664 -0.005340576
0.013427734 -0.01171875 -0.020263672 -0.025390625 -0.025146484 0.013916016 -0.03466797 0.032958984
-0.00390625 -0.033203125 -0.035888672 -0.032470703 -0.030151367 -0.0234375 0.018310547 -0.020874023
-0.021728516 -0.0078125 0.014953613 0.033691406 0.02319336 -0.03564453 -0.007232666 -0.007507324
0.022949219 0.019165039 -0.012145996 0.016235352 -0.022094727 -0.0038909912 -0.030029297 -0.03173828
0.018432617 0.033935547 0.0021972656 -0.024902344 0.0046081543 0.016113281 -0.0079956055 0.033203125
-0.010498047 -0.030029297 -0.008483887 -0.013244629 0.004760742 -0.029663086 0.009399414 0.025756836
-0.033691406 -0.0078125 -0.020751953 -0.016479492 -0.016235352 -0.029541016 0.013305664 -0.0054626465
-0.017089844 -0.006286621 0.016845703 0.028686523 0.00982666 0.0039367676 0.014892578 -0.020629883
-0.010620117 0.004547119 0.021484375 0.023925781 -0.028442383 -0.01940918 0.019165039 0.0019378662
-0.032714844 -0.016967773 0.024780273 -0.033935547 -0.009033203 -0.020751953 -0.010009766 -0.033935547
0.026855469 0.006713867 0.033935547 -0.031982422 -0.02734375 -0.03564453 -0.029785156 -0.024291992
-0.010009766 0.0099487305 0.01953125 0.023071289 -0.018798828 0.028686523 -0.0041503906 -0.032714844
-0.008178711 0.011352539 0.021118164 0.011108398 -0.0038757324 -0.024902344 0.004699707 0.034179688
-0.0234375 -0.013977051 -0.022338867 -0.03149414 0.03100586 -0.02319336 0.005493164 0.0027160645
-0.0026245117 -0.025634766 -0.0025939941 -0.015136719 -0.008178711 0.030151367 -0.017700195 -0.009338379
-0.0025787354 0.032714844 -0.03564453 0.0070495605 0.032714844 0.026123047 0.0018920898 -0.025268555
0.03564453 -0.012817383 0.020263672 0.009399414 -0.03173828 0.020874023 -0.011779785 -0.0039367676
0.004272461 0.032958984 0.02709961 0.029785156 0.025512695 0.0078125 -0.032470703 -0.028930664
0.0041503906 -0.03466797 -0.00076675415 0.003967285 0.026367188 -0.029174805 -0.03540039 -0.020996094
0.03149414 0.014282227 -0.016357422 0.033203125 -0.022827148 0.021362305 -0.0074157715 -0.020629883
-0.013061523 -0.009887695 -0.014221191 0.030639648 0.023925781 -0.02734375 -0.0078125 -0.00390625
