examples/research_projects/stack_llama_2/scripts/results/checkpoint_15/pytorch_model.bin (torch, 17916 bytes, 1 tensors)

v_head.summary.weight f4 [1, 4096]
000000 78 ce 4c bc b3 22 c1 bb 83 3c 91 bb 00 ad af b9
       -0.012500398 -0.005894029 -0.0044322624 -0.00033507496
000010 a0 cc 46 3c bb a4 09 bb 32 a4 9a ba 1e 2f db 3b
       0.012133747 -0.0021002728 -0.0011798202 0.0066889664
000020 72 ab 2a 3c a7 1c 04 3c 86 3d 26 3c 69 06 75 bc
       0.010416852 0.008063472 0.010146504 -0.014955142
000030 78 13 51 3b 9d aa b4 bb 0d 02 c8 bb b4 42 08 ba
       0.0031902473 -0.0055135028 -0.00610376 -0.0005197928
000040 15 15 c8 bb 85 e0 29 3c b9 c1 c1 3b b9 c2 c7 3b
       -0.006106029 0.010368471 0.005912986 0.006096211
000050 84 7f a4 3b b9 09 9b ba 67 6d 39 3c dd 19 77 3c
       0.005020084 -0.0011828459 0.011317587 0.01508185
000060 75 c3 57 bb 94 87 b9 3b 54 d5 0f 36 5c b4 45 3c
       -0.0032922898 0.005661914 2.1432834e-06 0.012066927
000070 f5 83 57 3c df 95 75 3b 33 30 f0 3b 6c 83 b3 3b
       0.01315402 0.0037473363 0.0073299645 0.005478313
000080 71 9c 25 3c 17 81 d4 bb 7c f2 8a bb 11 9f e0 bb
       0.010108099 -0.0064851153 -0.004240332 -0.0068548997
000090 fd 57 86 bc a9 ce 10 3b c3 8b d0 bb c3 f7 4b bb
       -0.016399378 0.0022095835 -0.006364317 -0.003112302
0000a0 29 fc 50 bc 18 72 e8 bb a3 13 89 3b 0d 27 2a bc
       -0.012755432 -0.007093679 0.004183249 -0.010385287
0000b0 82 3a 05 3c da 6a 02 bc f5 72 2d 3c bd ee 35 3c
       0.008131625 -0.007960046 0.01058649 0.011104283
0000c0 f8 3d 5f 3c 19 36 3b bc 74 66 eb bb 41 22 70 bc
       0.013625614 -0.011426472 -0.007183844 -0.014656604
0000d0 13 56 72 bc fa 28 79 3c 85 b8 51 bc c4 c2 2e 3b
       -0.0147910295 0.0152075235 -0.012800341 0.0026666382
0000e0 fa 16 55 bc 79 43 60 3c c4 27 b2 bb d8 4e d5 bb
       -0.013005966 0.013687962 -0.0054368693 -0.006509643
0000f0 32 24 86 bc d8 ef 50 b8 50 e7 c8 bb 11 7c 67 3c
       -0.016374681 -4.9814436e-05 -0.00613109 0.014128701
000100 06 a2 13 bc 03 a7 5c 3c 94 06 29 3b fc 0f cd bb
       -0.009010797 0.013467553 0.0025791274 -0.006258009
000110 50 4a 8c ba 70 95 46 bc a9 93 25 bc e4 6b da 3b
       -0.0010703299 -0.01212059 -0.010106006 0.0066656936
000120 3a 45 7e 3c 0f 24 19 bc bb c9 40 bc a6 bf 34 bc
       0.015519435 -0.009346976 -0.011766846 -0.011032021
000130 66 86 35 bc 38 c7 4f bc 3b 9b b0 3b 6e c6 52 3b
       -0.011079406 -0.012681775 0.0053895987 0.003216173
000140 91 a5 d9 3b e7 12 a8 bb 2f 84 0e 3c 16 1f db bb
       0.0066420515 -0.0051292065 0.008698507 -0.0066870553
000150 88 9a 8f bb 56 69 66 3c 37 0b a6 bb 3d fe b9 bb
       -0.004382435 0.0140632 -0.005067255 -0.0056760595
000160 e6 be da bb da 13 2e bc 91 90 75 3c 63 66 04 3c
       -0.006675589 -0.01062485 0.014988081 0.0080810515
000170 42 98 e3 3b dd 31 f3 3b ad 9a 2d bb 1e 7f 66 3c
       0.006945641 0.0074217157 -0.00264899 0.014068393
000180 3c e0 e4 bb b9 d5 15 3c a0 91 28 3b b3 dd 52 bc
       -0.0069847386 0.009145194 0.0025721565 -0.01287024
000190 73 9e 8f bb e3 c2 dc bb d4 c4 a0 3a 42 1d 5d bc
       -0.0043829023 -0.0067370995 0.0012265691 -0.013495745
0001a0 99 45 15 ba 4e 6a ed 3a 9f 15 8c b8 bc ac 54 b8
       -0.000569427 0.0018113346 -6.6797475e-05 -5.070561e-05
0001b0 58 5a a9 3a 35 87 70 bc 0f b3 51 3c 64 43 bd b9
       0.0012920601 -0.014680673 0.012799039 -0.000360991
0001c0 e6 c5 0a 3c ef ed e5 bb 18 37 e6 bb be 70 63 bc
       0.008470034 -0.0070168893 -0.0070256107 -0.01388186
0001d0 0e d8 28 3b 52 d9 2e 3c 33 9b 2d ba 36 57 cd 3b
       0.0025763544 0.01067193 -0.0006622553 0.0062665
0001e0 74 9f 3d 3c 1d 1d 41 bc 73 cf 2c 3b be 34 b4 3b
       0.011573661 -0.011786726 0.0026368767 0.0054994514
0001f0 45 03 45 ba 82 41 d8 3b 85 59 4f bc 64 0a 05 3c
       -0.0007515441 0.006599606 -0.01265562 0.008120153
000200 29 fb b3 3b ac 18 ca bb 58 6e d1 b9 98 19 45 bb
       0.005492587 -0.006167492 -0.000399458 -0.003007507
000210 02 2c 21 bc 9e c8 59 bc c4 2b b4 3a 18 b9 07 3c
       -0.009837152 -0.01329246 0.0013745953 0.008283876
000220 3a ea 4a 3c 15 4b 6a bc 7e a7 12 bc d1 fa 4c bc
       0.0123849455 -0.0143001275 -0.008951066 -0.012510971
000230 cd 5c c3 3b f2 07 42 3c 98 bd 67 3c 76 f4 fb 39
       0.0059619904 0.011842715 0.014144324 0.00048056588
000240 57 93 05 3c 57 6b ce bb 8f c9 24 bb 2a 2f 1e bc
       0.008152804 -0.006299417 -0.0025144552 -0.0096547995
000250 77 d8 9b 3a c4 81 27 3c f9 de 2f bc 90 c8 0c 3b
       0.0011890073 0.01022381 -0.010734313 0.002148185
000260 9c 1d 8c 3b e2 01 36 bc c1 58 25 3b ca 38 68 3c
       0.0042759907 -0.011108847 0.0025229903 0.014173696
000270 01 0f df 3b 30 60 46 3c fd ff 4e bc 7c 41 3f 3c
       0.0068072085 0.012107894 -0.012634275 0.011673328
000280 22 38 b6 bb a3 83 cd ba 67 bc 85 3b 9a c2 7b 3c
       -0.005560891 -0.001567949 0.004081297 0.015366221
000290 a4 fb ff 3b 17 97 12 3b e6 51 b2 3b a2 21 2c 3b
       0.0078119803 0.0022367889 0.005441892 0.0026265164
0002a0 8c 85 57 bb c3 cb 64 3c 17 b8 6c 3c b4 77 4f 3c
       -0.0032885997 0.013964596 0.014448187 0.012662817
0002b0 0a 23 a0 3b 58 11 eb 3b f4 34 25 3c 52 91 c5 bb
       0.0048869895 0.0071736984 0.010083426 -0.0060292864
0002c0 0e 32 09 bc 54 d6 e0 3a 46 32 6c bc ab b1 9b 3b
       -0.00837375 0.0017153719 -0.014416283 0.0047514043
0002d0 78 1a 66 bc c7 3e 1c bb 7a c1 a6 3a ab 35 a0 3b
       -0.014044397 -0.002384113 0.0012722455 0.00488921
0002e0 05 77 bf b9 09 f6 35 3c 60 65 9d 3b 03 15 48 bc
       -0.00036519035 0.011106023 0.0048033446 -0.012212041
0002f0 24 7e 43 bc f4 16 b6 b9 c6 a0 41 bc f4 15 39 3c
       -0.01193193 -0.00034730847 -0.0118181165 0.011296738
000300 c9 ca 4c 3c 31 03 19 3b 37 42 ae 3b 2c 03 12 bc
       0.01249952 0.002334785 0.005317952 -0.008911889
000310 b5 5b 74 3c f7 6d 38 3c 55 e0 a8 3b 12 7d 41 bb
       0.014914443 0.011256686 0.0051536956 -0.002952401
000320 59 23 10 bc 83 21 35 bc 2b bc 48 3c 32 80 7e bc
       -0.00879749 -0.011055353 0.012251894 -0.015533494
000330 b3 e9 d0 3b 7b bc 77 3b db 3c 15 3c 3b ea 13 bb
       0.0063755154 0.0037801552 0.009108747 -0.0022570032
000340 c9 0d 11 3c a2 8c 4d bc 57 1a 64 3c 7f b2 7a bc
       0.008853384 -0.0125457365 0.0139222955 -0.015301346
000350 42 78 45 bc a7 1a 2c bc 3e 24 52 3c 35 cc 11 bc
       -0.0120525975 -0.010504401 0.012826024 -0.008898784
000360 7e af d1 3b d1 96 e4 ba 05 4d 3c 3c 4f 37 ea bb
       0.006399094 -0.0017439966 0.011492972 -0.0071477066
000370 5b 15 80 bc 3c 86 3d ba ff b0 68 3c 69 9b 4c 3c
       -0.015635183 -0.00072297803 0.014202355 0.012488225
000380 e7 99 8f 3b b5 c8 3e bc 5a 7c ab 3b 3d d9 f3 3b
       0.0043823603 -0.011644532 0.0052333297 0.0074416683
000390 e6 a6 30 3b 6d ed b1 bb 6a a9 d9 3b 3e ec 43 3c
       0.0026954948 -0.0054299147 0.00664251 0.01195818
0003a0 7f 09 3a 3b 5d f9 84 bb 3c d3 5b bc 45 ff 2d bc
       0.0028387008 -0.0040580467 -0.013417061 -0.010619943
0003b0 22 2f 78 39 19 2d 44 3c e8 33 1e 3b cd 45 9e 3b
       0.00023668681 0.011973643 0.0024139825 0.0048300982
0003c0 36 7f 8f 3b 24 4b 25 bb 10 c0 72 3c 79 85 54 3b
       0.0043791784 -0.002522179 0.014816299 0.0032428189
0003d0 95 33 dc 3a f4 4e 47 3b da ff 21 ba 78 43 bc 3a
       0.0016800041 0.003041205 -0.00061797875 0.0014363369
0003e0 8e a2 23 bc 75 a0 0e 3c 7d 69 ec bb 2a 2e 89 bb
       -0.0099874865 0.008705248 -0.0072147236 -0.0041864114
0003f0 39 40 1f 3c 59 08 c9 bb b6 df 01 3a 2b d8 51 3c
       0.009719902 -0.0061350283 0.0004954295 0.012807886
