examples/research_projects/stack_llama/scripts/gpt2_peft_stack-exchange-paired_rmts__100000_2e-05/checkpoint-14000/adapter_model.safetensors (safetensors, 594496 bytes, 25 tensors)

base_model.model.score.weight bf16 [1, 768]
000000 f0 3c b9 3b 9e 3c 01 3d 22 3c f9 bc b0 bb 3c 3c
       0.029296875 0.005645752 0.01928711 0.03149414 0.009887695 -0.030395508 -0.0053710938 0.011474609
000010 ce 3b 3a bc 32 3c 38 bc 45 3c 43 3d 09 3d 89 bc
       0.006286621 -0.011352539 0.010864258 -0.011230469 0.012023926 0.047607422 0.033447266 -0.016723633
000020 25 bc 27 bc 0f bc e0 3c 5c bc 80 bb 93 3c db bc
       -0.010070801 -0.010192871 -0.008728027 0.02734375 -0.013427734 -0.00390625 0.017944336 -0.026733398
000030 7b 3c bc 3c 3c bc 9e 3c 27 3d 38 3c 3b bb 65 bc
       0.015319824 0.022949219 -0.011474609 0.01928711 0.040771484 0.011230469 -0.0028533936 -0.013977051
000040 1a bc e4 bc e3 3c 49 bc 72 3d 56 3c de bc f3 bc
       -0.009399414 -0.027832031 0.027709961 -0.012268066 0.05908203 0.013061523 -0.02709961 -0.029663086
000050 a2 3c c3 3c 25 bd 03 bd 9e bc 38 3c 60 bc 76 bc
       0.01977539 0.023803711 -0.040283203 -0.031982422 -0.01928711 0.011230469 -0.013671875 -0.015014648
000060 97 3c f1 3b 23 3c e8 bc 13 3b 03 3d cb 3b 20 bc
       0.018432617 0.0073547363 0.0099487305 -0.028320312 0.002243042 0.031982422 0.0061950684 -0.009765625
000070 90 3c e7 bc 42 3b 91 bc 05 3b 80 3b ba bc 8f 3b
       0.017578125 -0.028198242 0.002960205 -0.017700195 0.002029419 0.00390625 -0.022705078 0.0043640137
000080 9a 3c 03 3c 29 3c b1 3c 0b bc e9 bc 3e bc 4d 3c
       0.018798828 0.0079956055 0.010314941 0.021606445 -0.008483887 -0.028442383 -0.01159668 0.012512207
000090 d1 3c ae bb cd 3a 1d 3c b5 3c 54 ba 00 3c aa 3c
       0.025512695 -0.0053100586 0.0015640259 0.0095825195 0.022094727 -0.0008087158 0.0078125 0.020751953
0000a0 ac 3c 05 bc b5 bc 0d bb d0 bb 98 bc 95 bc 69 bc
       0.020996094 -0.008117676 -0.022094727 -0.0021514893 -0.0063476562 -0.018554688 -0.018188477 -0.014221191
0000b0 c8 3c c6 3b bb 3b 7e bb 64 bc 20 3d be 3c e3 3a
       0.024414062 0.0060424805 0.005706787 -0.0038757324 -0.013916016 0.0390625 0.02319336 0.0017318726
0000c0 36 3b a0 3c 04 bb 27 3c ba bc e9 3c 92 bc 25 3c
       0.0027770996 0.01953125 -0.0020141602 0.010192871 -0.022705078 0.028442383 -0.017822266 0.010070801
0000d0 d0 3c 1c 3b 5f bc bc 3c 60 3b 07 bc 3d 3a 0b bd
       0.025390625 0.002380371 -0.01361084 0.022949219 0.0034179688 -0.008239746 0.0007209778 -0.033935547
0000e0 8a 3c 3e 3c 29 bd 87 bc 52 bc 24 3c 75 3c 8b bb
       0.016845703 0.01159668 -0.041259766 -0.016479492 -0.012817383 0.010009766 0.014953613 -0.0042419434
0000f0 2e 3c ed bc 5a bc 99 3b b6 3c c8 3c 1f 3d 03 3d
       0.010620117 -0.028930664 -0.013305664 0.0046691895 0.022216797 0.024414062 0.03881836 0.031982422
000100 1f bc 95 3c b8 bc ef 3b b7 bc 9c bc 0c bb 36 3c
       -0.00970459 0.018188477 -0.022460938 0.007293701 -0.022338867 -0.019042969 -0.0021362305 0.011108398
000110 e4 bc b5 3c c8 bc 92 3c d5 3c 60 bb 4f 3b 98 3c
       -0.027832031 0.022094727 -0.024414062 0.017822266 0.026000977 -0.0034179688 0.0031585693 0.018554688
000120 0b bd 2d 3c d1 bb d9 bc f3 3c 89 bb 80 3b c9 bc
       -0.033935547 0.010559082 -0.006378174 -0.026489258 0.029663086 -0.004180908 0.00390625 -0.024536133
000130 47 3c 99 3c 2e bd 5b bb 9a 3c bf bc 80 3b 8c 3b
       0.012145996 0.018676758 -0.04248047 -0.0033416748 0.018798828 -0.02331543 0.00390625 0.004272461
000140 71 3c 59 bc 3b 3c 5e 3c 95 bc 03 3d 1a 3c 94 3b
       0.014709473 -0.013244629 0.011413574 0.013549805 -0.018188477 0.031982422 0.009399414 0.0045166016
000150 55 bc ee bb d6 bc 1a 3d 65 bc 3c 3c 73 3c f5 3c
       -0.013000488 -0.0072631836 -0.026123047 0.037597656 -0.013977051 0.011474609 0.014831543 0.029907227
000160 2d 3c 82 bb 82 3b 9a bb 47 bc 45 3c b1 3b af 3a
       0.010559082 -0.003967285 0.003967285 -0.004699707 -0.012145996 0.012023926 0.0054016113 0.001335144
000170 02 3d 28 3c 85 3b 90 bc 55 b9 86 3c 80 3b 7f bb
       0.03173828 0.010253906 0.004058838 -0.017578125 -0.00020313263 0.016357422 0.00390625 -0.0038909912
000180 43 bc b3 3c 02 3d b5 bc 02 3d 71 bc 1b 3c 07 bc
       -0.0119018555 0.021850586 0.03173828 -0.022094727 0.03173828 -0.014709473 0.009460449 -0.008239746
000190 43 3b 7d 3b 2d 3b c5 3c f3 bc 08 3c 6d 3b 75 3b
       0.0029754639 0.0038604736 0.0026397705 0.024047852 -0.029663086 0.008300781 0.003616333 0.0037384033
0001a0 1f 3b 13 bb d6 3b 72 3b 7b 3c 9e bc 0a 3d 82 3b
       0.0024261475 -0.002243042 0.0065307617 0.003692627 0.015319824 -0.01928711 0.033691406 0.003967285
0001b0 36 bc 85 3c 83 bb 9d 3c c0 3b 9d 3c 3a 3b 57 bd
       -0.011108398 0.016235352 -0.0039978027 0.019165039 0.005859375 0.019165039 0.0028381348 -0.052490234
0001c0 07 bc be 3c 44 bd 60 bc 00 bd a8 bc 8d 3c d7 3b
       -0.008239746 0.02319336 -0.047851562 -0.013671875 -0.03125 -0.020507812 0.017211914 0.0065612793
0001d0 38 bd 1d 3c 05 bd 43 bc 91 bc 1e 3c 47 3c 7e bc
       -0.044921875 0.0095825195 -0.032470703 -0.0119018555 -0.017700195 0.009643555 0.012145996 -0.01550293
0001e0 bf bc 90 3c b5 3c b3 3c 05 bd 92 ba 5f 3c 71 3c
       -0.02331543 0.017578125 0.022094727 0.021850586 -0.032470703 -0.0011138916 0.01361084 0.014709473
0001f0 bc bc 6d bc 85 bb 80 bb ae 3b 90 3c ca bc 67 3c
       -0.022949219 -0.014465332 -0.004058838 -0.00390625 0.0053100586 0.017578125 -0.024658203 0.014099121

base_model.model.transformer.h.0.attn.c_attn.lora_A.weight bf16 [8, 768]
000000 d6 bc e5 3c e7 bc 80 bb 0a 3d 90 3c ab bb 83 3c
       -0.026123047 0.027954102 -0.028198242 -0.00390625 0.033691406 0.017578125 -0.005218506 0.015991211
000010 10 3c 36 bc 1a bc 33 bc 08 bd c0 bc 8b 3b 9d 3c
       0.0087890625 -0.011108398 -0.009399414 -0.010925293 -0.033203125 -0.0234375 0.0042419434 0.019165039
000020 ed bc d5 3c 04 3d a5 bc 7f 3c c6 3c 94 bc 92 3c
       -0.028930664 0.026000977 0.032226562 -0.020141602 0.015563965 0.024169922 -0.018066406 0.017822266
000030 06 3d df 3c 0a bd 80 3b 8f bb 87 3c 8f 3b b2 bc
       0.032714844 0.02722168 -0.033691406 0.00390625 -0.0043640137 0.016479492 0.0043640137 -0.021728516
000040 08 bd 1a bc 80 3b c4 bc 60 3c 3b bc 39 bc 9a bc
       -0.033203125 -0.009399414 0.00390625 -0.023925781 0.013671875 -0.011413574 -0.011291504 -0.018798828
000050 c5 bc bf 3c e3 3c 92 3b 99 bc 30 ba f3 bb 86 3c
       -0.024047852 0.02331543 0.027709961 0.0044555664 -0.018676758 -0.0006713867 -0.0074157715 0.016357422
000060 04 bc a0 bc bc 3c 2f bc db 3c 8e 3b ac 3c 27 3b
       -0.008056641 -0.01953125 0.022949219 -0.010681152 0.026733398 0.004333496 0.020996094 0.0025482178
000070 07 bc 80 bb 87 bb 80 3b 82 bb 86 3c 15 3b 73 bb
       -0.008239746 -0.00390625 -0.004119873 0.00390625 -0.003967285 0.016357422 0.0022735596 -0.0037078857
000080 95 3b a5 3b 09 3d 20 3c 02 3d 73 3c cc 3c cc bc
       0.004547119 0.0050354004 0.033447266 0.009765625 0.03173828 0.014831543 0.024902344 -0.024902344
000090 d1 3c a0 bc 6e 3b 02 3d 6f 3b 9d 3c 8a bb cc bc
       0.025512695 -0.01953125 0.0036315918 0.03173828 0.0036468506 0.019165039 -0.004211426 -0.024902344
0000a0 e7 3c a5 bc 10 3d a2 bb 78 bc f6 bc af 3c f0 bc
       0.028198242 -0.020141602 0.03515625 -0.0049438477 -0.015136719 -0.030029297 0.021362305 -0.029296875
0000b0 a4 bb 0d 3b 6b 3c 79 bc 12 3c d7 bc 70 3c 28 bc
       -0.005004883 0.0021514893 0.014343262 -0.015197754 0.008911133 -0.026245117 0.0146484375 -0.010253906
0000c0 a6 3c 04 3d 04 3d d2 bc 03 bd 52 3c bf bc bb bb
       0.020263672 0.032226562 0.032226562 -0.025634766 -0.031982422 0.012817383 -0.02331543 -0.005706787
0000d0 87 3c a2 3c e5 bb bb 3c 84 bc cd bb a3 3c d1 3b
       0.016479492 0.01977539 -0.0069885254 0.022827148 -0.016113281 -0.0062561035 0.019897461 0.006378174
0000e0 04 3d 9e 3c db 3c 20 3c 80 3b 03 bc e8 3c 80 bb
       0.032226562 0.01928711 0.026733398 0.009765625 0.00390625 -0.0079956055 0.028320312 -0.00390625
0000f0 84 3b bd bc 24 3b 69 3b 1b 3c 97 3c 6b 3c 0d bd
       0.0040283203 -0.023071289 0.0025024414 0.0035552979 0.009460449 0.018432617 0.014343262 -0.034423828
000100 f4 bc ca 3c 0e bd 9a 3c af 3a 53 3c dc bc 42 3c
       -0.029785156 0.024658203 -0.03466797 0.018798828 0.001335144 0.012878418 -0.026855469 0.01184082
000110 94 bc 12 3d 6a bc e7 bb 05 bb 1c 3c 7c bc 04 3d
       -0.018066406 0.03564453 -0.014282227 -0.0070495605 -0.002029419 0.009521484 -0.015380859 0.032226562
000120 a8 bc 80 3b 3a 3c 10 bd f1 bc b6 3c 11 3d 92 3c
       -0.020507812 0.00390625 0.011352539 -0.03515625 -0.029418945 0.022216797 0.03540039 0.017822266
000130 a5 bc 09 3c 0e bd 81 3b d3 bc 32 bc b6 3c 05 3d
       -0.020141602 0.008361816 -0.03466797 0.0039367676 -0.025756836 -0.010864258 0.022216797 0.032470703
000140 4b bc c8 3c 07 bd 90 3b 71 3c af bc ad 3c e6 3c
       -0.012390137 0.024414062 -0.032958984 0.0043945312 0.014709473 -0.021362305 0.021118164 0.028076172
000150 cc 3b a7 3c f3 3c 09 3c 91 3c 9a bb 82 bb 3b 3c
       0.006225586 0.020385742 0.029663086 0.008361816 0.017700195 -0.004699707 -0.003967285 0.011413574
000160 0c 3d f2 bc e2 3c 15 3c a9 bc 7c 3c 80 bb 36 bc
       0.034179688 -0.029541016 0.02758789 0.009094238 -0.020629883 0.015380859 -0.00390625 -0.011108398
000170 07 3d fd 3b e9 bc fb 3c 7f bc b9 3c b0 3c e8 bb
       0.032958984 0.0077209473 -0.028442383 0.030639648 -0.015563965 0.022583008 0.021484375 -0.007080078
000180 08 3d 82 3b cf 3c aa 3c b0 bc d3 3c 14 bc b4 bb
       0.033203125 0.003967285 0.025268555 0.020751953 -0.021484375 0.025756836 -0.009033203 -0.005493164
000190 a8 3c 27 3c 11 3d c7 3c 82 3b 10 3d 4c bc dc bc
       0.020507812 0.010192871 0.03540039 0.024291992 0.003967285 0.03515625 -0.012451172 -0.026855469
0001a0 66 bc ad bc 5a 3b 63 bc ea bc 85 3b 88 bc 39 bb
       -0.014038086 -0.021118164 0.003326416 -0.0138549805 -0.028564453 0.004058838 -0.016601562 -0.002822876
0001b0 4a bc 91 bc 11 3d b2 3b 97 bb e8 bb f4 3c e2 bc
       -0.012329102 -0.017700195 0.03540039 0.005432129 -0.0046081543 -0.007080078 0.029785156 -0.02758789
0001c0 d9 3c 13 3d 4e bc 9e bc 81 3c 03 3d 82 bb f9 3c
       0.026489258 0.035888672 -0.012573242 -0.01928711 0.01574707 0.031982422 -0.003967285 0.030395508
0001d0 14 bc 11 bd 93 3c 0d 3d 19 bc fb bb 03 3c 05 3d
       -0.009033203 -0.03540039 0.017944336 0.034423828 -0.009338379 -0.007659912 0.0079956055 0.032470703
0001e0 04 3d ad bc d7 3c 88 bc 26 bc f1 3b d9 3c a8 bc
       0.032226562 -0.021118164 0.026245117 -0.016601562 -0.010131836 0.0073547363 0.026489258 -0.020507812
0001f0 95 3b bb bc 02 bd 94 bc 28 bc c7 bc de bc 00 bc
       0.004547119 -0.022827148 -0.03173828 -0.018066406 -0.010253906 -0.024291992 -0.02709961 -0.0078125

base_model.model.transformer.h.0.attn.c_attn.lora_B.weight bf16 [2304, 8]
000000 ea ba c5 ba 43 3a 93 b9 b5 ba bf ba c8 3a e0 3a
       -0.0017852783 -0.0015029907 0.00074386597 -0.00028038025 -0.0013809204 -0.0014572144 0.0015258789 0.0017089844
000010 d5 ba c3 b9 2c 3a 09 3b 73 b9 e0 ba b7 ba 52 3a
       -0.001625061 -0.00037193298 0.00065612793 0.002090454 -0.00023174286 -0.0017089844 -0.0013961792 0.0008010864
000020 d4 3a 16 3b d8 3a ab 3a 06 3b c6 3a d7 ba af ba
       0.0016174316 0.0022888184 0.0016479492 0.0013046265 0.0020446777 0.0015106201 -0.0016403198 -0.001335144
000030 04 3b aa 3a 69 ba ff 3a 06 3b 30 3a da ba a4 ba
       0.0020141602 0.0012969971 -0.00088882446 0.0019454956 0.0020446777 0.0006713867 -0.001663208 -0.0012512207
000040 b3 ba 79 b9 6c 3a c7 ba 8f 39 82 3a 92 3a cd b9
       -0.0013656616 -0.0002374649 0.00090026855 -0.0015182495 0.00027275085 0.0009918213 0.0011138916 -0.00039100647
000050 8f b9 f1 3a 83 3a 61 3a 64 ba 85 ba 8f ba 61 ba
       -0.00027275085 0.0018386841 0.0009994507 0.0008583069 -0.000869751 -0.0010147095 -0.0010910034 -0.0008583069
000060 12 3a d6 3a 3d 3a 92 3a 55 ba 5c ba 0e 39 cd ba
       0.0005569458 0.0016326904 0.0007209778 0.0011138916 -0.0008125305 -0.0008392334 0.00013542175 -0.0015640259
000070 52 ba d1 39 6e b8 45 3a 41 b9 c5 ba be 39 14 ba
       -0.0008010864 0.00039863586 -5.6743622e-05 0.00075149536 -0.00018405914 -0.0015029907 0.00036239624 -0.0005645752
000080 eb ba cb ba 26 3a 44 39 a7 38 c6 b8 f1 38 8d ba
       -0.0017929077 -0.0015487671 0.00063323975 0.00018692017 7.9631805e-05 -9.441376e-05 0.000114917755 -0.0010757446
000090 5a 3a 38 ba 34 3a fd ba 8e ba 0b ba f1 b9 3e 3a
       0.000831604 -0.0007019043 0.0006866455 -0.0019302368 -0.001083374 -0.0005302429 -0.00045967102 0.0007247925
0000a0 26 39 f2 ba fd ba 05 3b d8 3a 80 b9 f5 ba f7 ba
       0.00015830994 -0.0018463135 -0.0019302368 0.002029419 0.0016479492 -0.00024414062 -0.0018692017 -0.0018844604
0000b0 eb b9 13 3a 93 3a 8c 3a e0 ba 8f ba 2c 3a 3c 3a
       -0.00044822693 0.0005607605 0.001121521 0.0010681152 -0.0017089844 -0.0010910034 0.00065612793 0.0007171631
0000c0 97 3a 24 ba e3 b9 a1 3a 05 3b 62 38 9a ba 82 ba
       0.0011520386 -0.00062561035 -0.00043296814 0.0012283325 0.002029419 5.38826e-05 -0.0011749268 -0.0009918213
0000d0 ae 3a de 3a d8 b9 02 38 a3 3a a0 3a 8f b9 7a 38
       0.0013275146 0.0016937256 -0.0004119873 3.0994415e-05 0.0012435913 0.0012207031 -0.00027275085 5.9604645e-05
0000e0 e0 ba 02 bb 01 bb b3 3a 3c ba 2b 3a 9f 3a 1f ba
       -0.0017089844 -0.0019836426 -0.0019683838 0.0013656616 -0.0007171631 0.00065231323 0.0012130737 -0.00060653687
0000f0 ed 39 e5 3a 0c 3b 41 b9 eb ba 6e ba e4 39 0f 3a
       0.00045204163 0.0017471313 0.0021362305 -0.00018405914 -0.0017929077 -0.00090789795 0.0004348755 0.0005455017
000100 9a ba f1 b8 47 39 92 b9 8f 3a 80 3a 84 ba 59 ba
       -0.0011749268 -0.000114917755 0.00018978119 -0.0002784729 0.0010910034 0.0009765625 -0.0010070801 -0.0008277893
000110 96 ba 12 bb 84 ba 00 bb 1f b7 8e b5 c9 3a c0 3a
       -0.0011444092 -0.0022277832 -0.0010070801 -0.001953125 -9.4771385e-06 -1.0579824e-06 0.0015335083 0.0014648438
000120 41 b9 89 3a e8 3a d7 ba ef ba f0 ba a1 3a 02 3b
       -0.00018405914 0.001045227 0.0017700195 -0.0016403198 -0.0018234253 -0.0018310547 0.0012283325 0.0019836426
000130 8d 3a ee 3a 01 3b fb ba d9 ba d8 ba 8d 3a c2 b8
       0.0010757446 0.0018157959 0.0019683838 -0.001914978 -0.0016555786 -0.0016479492 0.0010757446 -9.250641e-05
000140 f4 ba 0a bb 80 ba b5 ba 5c ba 5d b9 03 3b 88 3a
       -0.0018615723 -0.002105713 -0.0009765625 -0.0013809204 -0.0008392334 -0.00021076202 0.0019989014 0.0010375977
000150 9e ba 9d ba 83 3a bc ba ef ba ab ba f2 3a 72 38
       -0.0012054443 -0.0011978149 0.0009994507 -0.0014343262 -0.0018234253 -0.0013046265 0.0018463135 5.7697296e-05
000160 60 ba 12 bb 80 3a bf 3a b5 ba 32 ba 03 3b 22 3a
       -0.0008544922 -0.0022277832 0.0009765625 0.0014572144 -0.0013809204 -0.0006790161 0.0019989014 0.00061798096
000170 f0 b9 fe 39 c7 3a d1 b9 cd 38 62 ba d4 ba b9 ba
       -0.00045776367 0.00048446655 0.0015182495 -0.00039863586 9.775162e-05 -0.0008621216 -0.0016174316 -0.001411438
000180 fd 3a 0a 3b f1 ba da ba c5 3a ea 3a 44 ba 25 3a
       0.0019302368 0.002105713 -0.0018386841 -0.001663208 0.0015029907 0.0017852783 -0.00074768066 0.00062942505
000190 06 3a f0 ba 1e bb 09 ba ac 3a a0 ba 13 3a 77 3a
       0.00051116943 -0.0018310547 -0.0024108887 -0.0005226135 0.0013122559 -0.0012207031 0.0005607605 0.0009422302
0001a0 da 39 81 3a f8 3a 12 ba 22 ba 67 ba 08 39 f0 b9
       0.000415802 0.0009841919 0.0018920898 -0.0005569458 -0.00061798096 -0.00088119507 0.0001296997 -0.00045776367
0001b0 6a b9 66 ba fa 3a 04 ba fd ba a7 ba eb 39 8b ba
       -0.00022315979 -0.0008773804 0.0019073486 -0.00050354004 -0.0019302368 -0.0012741089 0.00044822693 -0.0010604858
0001c0 00 3b a0 3a 6b 3a a9 ba ca ba 8e ba fb 3a 0a 3b
       0.001953125 0.0012207031 0.00089645386 -0.0012893677 -0.0015411377 -0.001083374 0.001914978 0.002105713
0001d0 4d ba af ba b8 ba f1 3a b9 3a af ba 3a 39 d2 3a
       -0.00078201294 -0.001335144 -0.0014038086 0.0018386841 0.001411438 -0.001335144 0.00017738342 0.0016021729
0001e0 a5 38 b9 ba b7 ba 9b ba d6 3a f9 3a 61 3a 24 3a
       7.867813e-05 -0.001411438 -0.0013961792 -0.0011825562 0.0016326904 0.0018997192 0.0008583069 0.00062561035
0001f0 9c 3a 26 ba a1 3a cc 3a 09 ba bd b9 3a ba d0 b9
       0.0011901855 -0.00063323975 0.0012283325 0.0015563965 -0.0005226135 -0.0003604889 -0.0007095337 -0.00039672852

base_model.model.transformer.h.1.attn.c_attn.lora_A.weight bf16 [8, 768]
000000 be 3c a9 3c d7 bc 05 3c 0a bd b1 3c a0 bc 2d bc
       0.02319336 0.020629883 -0.026245117 0.008117676 -0.033691406 0.021606445 -0.01953125 -0.010559082
000010 ee bc 04 3d 12 3d 16 3c 7d bb 85 bb a8 3c b3 3c
       -0.029052734 0.032226562 0.03564453 0.009155273 -0.0038604736 -0.004058838 0.020507812 0.021850586
000020 2e bc 97 3b 00 bc cd 3c 36 3c ad bc a2 bc 84 3c
       -0.010620117 0.0046081543 -0.0078125 0.025024414 0.011108398 -0.021118164 -0.01977539 0.016113281
000030 5a 3c 30 bc f8 bb 25 bc 9e bc 1d 3c d2 3c 71 bc
       0.013305664 -0.0107421875 -0.0075683594 -0.010070801 -0.01928711 0.0095825195 0.025634766 -0.014709473
000040 39 3c aa bc 6c 3c a1 3b 16 3c 05 bc 0b 3d ca bc
       0.011291504 -0.020751953 0.014404297 0.00491333 0.009155273 -0.008117676 0.033935547 -0.024658203
000050 06 3c 09 bd ed 3c 34 3c a1 bb 13 3d a6 bc f2 3c
       0.008178711 -0.033447266 0.028930664 0.010986328 -0.00491333 0.035888672 -0.020263672 0.029541016
000060 bb 3b 85 3c 6d 3c 83 bc d2 3b b4 bc 87 bc b3 3c
       0.005706787 0.016235352 0.014465332 -0.015991211 0.0064086914 -0.021972656 -0.016479492 0.021850586
000070 8d 3c 13 bd 6b 3c d0 3c 37 3b 09 bc a8 3b 67 3b
       0.017211914 -0.035888672 0.014343262 0.025390625 0.0027923584 -0.008361816 0.005126953 0.0035247803
000080 4a bc 79 3c d0 3c fe 3c c5 bc 0b bc 11 3d 82 3c
       -0.012329102 0.015197754 0.025390625 0.03100586 -0.024047852 -0.008483887 0.03540039 0.01586914
000090 af bc 3a bb 93 3c 79 bc 02 bd 64 3c c2 bc 9c bc
       -0.021362305 -0.0028381348 0.017944336 -0.015197754 -0.03173828 0.013916016 -0.02368164 -0.019042969
0000a0 81 3c 9f bb 00 bc eb 3b b2 bc a6 bc 9a bb f6 3c
       0.01574707 -0.004852295 -0.0078125 0.007171631 -0.021728516 -0.020263672 -0.004699707 0.030029297
0000b0 c3 3c 22 3c f2 ba 00 bc 85 3b b7 3b cd 3b 0d bd
       0.023803711 0.009887695 -0.0018463135 -0.0078125 0.004058838 0.005584717 0.0062561035 -0.034423828
0000c0 a3 3c 63 bb 98 3c 0e 3d fe 3c 8e 3c 7f bb ef bc
       0.019897461 -0.0034637451 0.018554688 0.03466797 0.03100586 0.017333984 -0.0038909912 -0.029174805
0000d0 12 3d 00 3c a3 3c 36 3c c5 3c ca bc c5 bc 6b bb
       0.03564453 0.0078125 0.019897461 0.011108398 0.024047852 -0.024658203 -0.024047852 -0.0035858154
0000e0 0d bd 0d 39 fa bc 49 bc f8 bc 2b bc c3 3c b1 bb
       -0.034423828 0.00013446808 -0.030517578 -0.012268066 -0.030273438 -0.010437012 0.023803711 -0.0054016113
0000f0 1a 3c 95 bb f6 bb f7 bc cf bc ce bc 8c 3c 77 3b
       0.009399414 -0.004547119 -0.007507324 -0.030151367 -0.025268555 -0.025146484 0.017089844 0.003768921
000100 0d 3d 8a 3b c6 bc aa 3c a2 bc ed bc 7a bc 00 3d
       0.034423828 0.004211426 -0.024169922 0.020751953 -0.01977539 -0.028930664 -0.015258789 0.03125
000110 46 3c 11 3d f7 bc 40 3c 05 bd 9f 3c d6 3c 5b bc
       0.012084961 0.03540039 -0.030151367 0.01171875 -0.032470703 0.01940918 0.026123047 -0.013366699
000120 bb 3c 7d 3c 3a 3c b4 bc 7e 3c 5f bc 5d 3c 6b bc
       0.022827148 0.0154418945 0.011352539 -0.021972656 0.01550293 -0.01361084 0.0134887695 -0.014343262
000130 bd 3c 59 3c c1 bc 10 3d 89 3b b9 3b 14 bd 8c 3c
       0.023071289 0.013244629 -0.02355957 0.03515625 0.004180908 0.005645752 -0.036132812 0.017089844
000140 de 3c be bc a7 bc fb bb 90 bc 3b bc e1 3b 04 3d
       0.02709961 -0.02319336 -0.020385742 -0.007659912 -0.017578125 -0.011413574 0.006866455 0.032226562
000150 d3 bb 02 bd 37 3c be 3c 07 bd 87 3c 04 3d af bb
       -0.006439209 -0.03173828 0.011169434 0.02319336 -0.032958984 0.016479492 0.032226562 -0.005340576
000160 b4 bc fb 3a 09 bd 42 bc 5b bc b4 bc 09 bd ed bc
       -0.021972656 0.001914978 -0.033447266 -0.01184082 -0.013366699 -0.021972656 -0.033447266 -0.028930664
000170 d0 3b 25 3b bd 3b c1 3c 8f bc 73 bc 67 3c 9e ba
       0.0063476562 0.0025177002 0.0057678223 0.02355957 -0.017456055 -0.014831543 0.014099121 -0.0012054443
000180 0a 3d f0 bc 78 bb 7c 3c cc 3b 34 3c 46 3c 06 bd
       0.033691406 -0.029296875 -0.0037841797 0.015380859 0.006225586 0.010986328 0.012084961 -0.032714844
000190 07 3d c0 3c c1 bc cc 3c 4a 3c 4a bc 00 3c 68 3b
       0.032958984 0.0234375 -0.02355957 0.024902344 0.012329102 -0.012329102 0.0078125 0.003540039
0001a0 8a bb 44 3c d2 3c ff 3c ad ba 3a 3c 9e 3c 9e 3c
       -0.004211426 0.011962891 0.025634766 0.03112793 -0.0013198853 0.011352539 0.01928711 0.01928711
0001b0 b8 bc 97 3b 0f 3d 01 3d 94 3c 17 3c b2 3c 09 3d
       -0.022460938 0.0046081543 0.03491211 0.03149414 0.018066406 0.009216309 0.021728516 0.033447266
0001c0 5b 3b e9 3c fd 3c 81 bc 80 bb 70 3c 33 bc da 3c
       0.0033416748 0.028442383 0.030883789 -0.01574707 -0.00390625 0.0146484375 -0.010925293 0.026611328
0001d0 e5 bc b0 bc 10 3d c2 bc e8 3c 04 3d 76 3c 0b 3c
       -0.027954102 -0.021484375 0.03515625 -0.02368164 0.028320312 0.032226562 0.015014648 0.008483887
0001e0 e6 bb 7f bb 80 3b 0a bc e9 3a 34 3c 86 3c e5 3c
       -0.007019043 -0.0038909912 0.00390625 -0.008422852 0.0017776489 0.010986328 0.016357422 0.027954102
0001f0 75 3c e3 3c 09 3c 11 3c c0 3c 8d 3b c6 bc a3 bc
       0.014953613 0.027709961 0.008361816 0.008850098 0.0234375 0.0043029785 -0.024169922 -0.019897461

base_model.model.transformer.h.1.attn.c_attn.lora_B.weight bf16 [2304, 8]
000000 b2 ba a7 ba 4e ba 6d b9 85 ba a9 ba 9c ba 9b ba
       -0.0013580322 -0.0012741089 -0.00078582764 -0.00022602081 -0.0010147095 -0.0012893677 -0.0011901855 -0.0011825562
000010 93 3a ef 3a 89 3a aa b8 9b 3a 8b ba 5b 3a fe 3a
       0.001121521 0.0018234253 0.001045227 -8.106232e-05 0.0011825562 -0.0010604858 0.0008354187 0.0019378662
000020 81 ba 03 bb 6d 3a af ba d4 b9 fd ba 82 3a 92 ba
       -0.0009841919 -0.0019989014 0.00090408325 -0.001335144 -0.0004043579 -0.0019302368 0.0009918213 -0.0011138916
000030 d8 b9 e0 b9 42 3a be 39 e3 3a c9 b9 a7 b8 fd 3a
       -0.0004119873 -0.0004272461 0.00074005127 0.00036239624 0.0017318726 -0.00038337708 -7.9631805e-05 0.0019302368
000040 39 b9 99 3a b4 ba 9d 38 d0 b7 a8 ba d8 ba 8c 3a
       -0.00017642975 0.0011672974 -0.001373291 7.4863434e-05 -2.4795532e-05 -0.0012817383 -0.0016479492 0.0010681152
000050 58 b9 5b b9 0d 3b d0 39 f4 38 9f 3a 80 3a 62 3a
       -0.00020599365 -0.00020885468 0.0021514893 0.00039672852 0.00011634827 0.0012130737 0.0009765625 0.0008621216
000060 6d ba 93 ba b7 ba 40 ba ed ba 0b bb 8e ba 2e 3a
       -0.00090408325 -0.001121521 -0.0013961792 -0.0007324219 -0.0018081665 -0.0021209717 -0.001083374 0.0006637573
000070 d7 39 f7 ba a4 b9 05 bb 10 ba 7e ba 16 ba dd ba
       0.00041007996 -0.0018844604 -0.00031280518 -0.002029419 -0.0005493164 -0.0009689331 -0.0005722046 -0.0016860962
000080 95 3a 21 3a 29 3a a3 39 dc ba 8e 3a 09 b9 07 bb
       0.0011367798 0.00061416626 0.00064468384 0.00031089783 -0.0016784668 0.001083374 -0.00013065338 -0.0020599365
000090 eb 3a 12 3b a5 3a 0b 3b c8 3a 0a 3b 0a 3a 03 3b
       0.0017929077 0.0022277832 0.0012588501 0.0021209717 0.0015258789 0.002105713 0.0005264282 0.0019989014
0000a0 68 ba c1 b9 00 3b 18 3a ec 3a b1 39 dc 3a 03 3b
       -0.00088500977 -0.0003681183 0.001953125 0.000579834 0.0018005371 0.0003376007 0.0016784668 0.0019989014
0000b0 03 3b c3 3a 1a 38 9d 3a 7b 39 f4 3a 31 ba 94 ba
       0.0019989014 0.0014877319 3.671646e-05 0.0011978149 0.00023937225 0.0018615723 -0.0006752014 -0.0011291504
0000c0 ca 3a 80 3a 0b bb d8 39 e5 ba 73 3a 58 b9 c8 ba
       0.0015411377 0.0009765625 -0.0021209717 0.0004119873 -0.0017471313 0.00092697144 -0.00020599365 -0.0015258789
0000d0 3b ba 69 ba 26 ba 90 ba 37 3a c6 ba bb 3a 22 b9
       -0.0007133484 -0.00088882446 -0.00063323975 -0.0010986328 0.0006980896 -0.0015106201 0.0014266968 -0.00015449524
0000e0 4d 39 c6 ba 7c ba 43 ba cc 39 ac ba af ba 8b 3a
       0.00019550323 -0.0015106201 -0.0009613037 -0.00074386597 0.00038909912 -0.0013122559 -0.001335144 0.0010604858
0000f0 27 ba 22 ba 87 ba 1c ba 85 ba 91 ba 96 b9 56 ba
       -0.00063705444 -0.00061798096 -0.0010299683 -0.0005950928 -0.0010147095 -0.0011062622 -0.0002861023 -0.0008163452
000100 26 3a 8b ba 99 ba ab 3a 07 3b 40 b9 69 39 ad ba
       0.00063323975 -0.0010604858 -0.0011672974 0.0013046265 0.0020599365 -0.00018310547 0.00022220612 -0.0013198853
000110 f7 3a b8 3a da ba 28 ba 8a ba f7 38 27 39 00 bb
       0.0018844604 0.0014038086 -0.001663208 -0.00064086914 -0.0010528564 0.00011777878 0.00015926361 -0.001953125
000120 dd b9 e9 3a e1 3a b5 3a c9 3a 05 3b bf 39 02 3b
       -0.00042152405 0.0017776489 0.0017166138 0.0013809204 0.0015335083 0.002029419 0.0003643036 0.0019836426
000130 cb b9 13 bb 89 ba 35 ba 8b 3a b7 ba b2 ba 95 3a
       -0.00038719177 -0.002243042 -0.001045227 -0.0006904602 0.0010604858 -0.0013961792 -0.0013580322 0.0011367798
000140 13 ba 1c bb 4f ba 00 bb 8a ba 8c ba 6c ba ad 3a
       -0.0005607605 -0.002380371 -0.00078964233 -0.001953125 -0.0010528564 -0.0010681152 -0.00090026855 0.0013198853
000150 e1 ba 09 bb df ba 80 ba 60 ba a5 ba 56 39 8e ba
       -0.0017166138 -0.002090454 -0.001701355 -0.0009765625 -0.0008544922 -0.0012588501 0.0002040863 -0.001083374
000160 02 bb 09 bb d4 ba 03 bb 0c bb de ba cd ba 02 bb
       -0.0019836426 -0.002090454 -0.0016174316 -0.0019989014 -0.0021362305 -0.0016937256 -0.0015640259 -0.0019836426
000170 6a 3a 1a 3a df ba 1c ba c4 ba 88 3a b8 ba 04 38
       0.00089263916 0.0005874634 -0.001701355 -0.0005950928 -0.0014953613 0.0010375977 -0.0014038086 3.1471252e-05
000180 6d 3a 25 3b 42 3a 06 3b 0d 3b 0a 3b 48 ba 1c 3b
       0.00090408325 0.0025177002 0.00074005127 0.0020446777 0.0021514893 0.002105713 -0.00076293945 0.002380371
000190 f6 ba 0d bb 6d ba 33 ba 63 b9 00 bb 8f ba 93 b9
       -0.001876831 -0.0021514893 -0.00090408325 -0.0006828308 -0.00021648407 -0.001953125 -0.0010910034 -0.00028038025
0001a0 17 3a 93 ba 06 3b b0 3a f9 3a 93 39 06 3b 61 ba
       0.0005760193 -0.001121521 0.0020446777 0.0013427734 0.0018997192 0.00028038025 0.0020446777 -0.0008583069
0001b0 c2 ba be 39 42 ba df ba f9 ba fc ba b6 ba ba 39
       -0.0014801025 0.00036239624 -0.00074005127 -0.001701355 -0.0018997192 -0.0019226074 -0.0013885498 0.00035476685
0001c0 a5 3a f5 3a 23 ba b1 b8 af 3a a8 3a 8e 3a 00 3b
       0.0012588501 0.0018692017 -0.00062179565 -8.440018e-05 0.001335144 0.0012817383 0.001083374 0.001953125
0001d0 b4 3a 81 3a fc 3a f8 3a ef 3a 4c 3a f9 3a 02 3b
       0.001373291 0.0009841919 0.0019226074 0.0018920898 0.0018234253 0.00077819824 0.0018997192 0.0019836426
0001e0 9a 38 fa 3a 00 3b 00 3b 18 3b 01 3b ea b8 09 3b
       7.343292e-05 0.0019073486 0.001953125 0.001953125 0.002319336 0.0019683838 -0.000111579895 0.002090454
0001f0 88 ba 91 ba 06 ba 15 ba 01 b9 83 ba 71 b9 95 b8
       -0.0010375977 -0.0011062622 -0.00051116943 -0.0005683899 -0.00012302399 -0.0009994507 -0.00022983551 -7.104874e-05

base_model.model.transformer.h.10.attn.c_attn.lora_A.weight bf16 [8, 768]
000000 72 bc f8 bc 90 3c 50 3c de 3b e9 bb 12 bd a8 bc
       -0.014770508 -0.030273438 0.017578125 0.0126953125 0.0067749023 -0.0071105957 -0.03564453 -0.020507812
000010 38 bc a9 3c 83 bb 00 bc ad bb 85 bb 7f bb b6 bc
       -0.011230469 0.020629883 -0.0039978027 -0.0078125 -0.005279541 -0.004058838 -0.0038909912 -0.022216797
000020 06 bd b4 3c ea bc 80 bb 88 3b 00 bc da 3c d4 bc
       -0.032714844 0.021972656 -0.028564453 -0.00390625 0.0041503906 -0.0078125 0.026611328 -0.025878906
000030 0c bd 9f bb c4 3c 9a 3c 6f 3c 2e 3c 64 3c fc 3b
       -0.034179688 -0.004852295 0.023925781 0.018798828 0.014587402 0.010620117 0.013916016 0.0076904297
000040 00 3d 95 bc d6 3b 0b 3d dd bc 6b bc 99 bc 06 3d
       0.03125 -0.018188477 0.0065307617 0.033935547 -0.026977539 -0.014343262 -0.018676758 0.032714844
000050 0a bd a8 bc 05 bd ac bb 23 bb a4 3c c5 3c 3b bc
       -0.033691406 -0.020507812 -0.032470703 -0.0052490234 -0.0024871826 0.020019531 0.024047852 -0.011413574
000060 91 3c b7 3c 90 bc ec bc df 3c 64 3c f2 3c b6 bc
       0.017700195 0.022338867 -0.017578125 -0.028808594 0.02722168 0.013916016 0.029541016 -0.022216797
000070 bd bc 06 bc 5d bc e2 3c f7 bb b1 bc 85 bc 0e 3d
       -0.023071289 -0.008178711 -0.0134887695 0.02758789 -0.007537842 -0.021606445 -0.016235352 0.03466797
000080 69 3c 11 bd e7 3b fc bc 90 bc d5 bc b6 bc a1 3c
       0.014221191 -0.03540039 0.0070495605 -0.030761719 -0.017578125 -0.026000977 -0.022216797 0.01965332
000090 e9 3b a8 bc 0e 3d 00 bc 8a 3b 84 3c 82 3c 9f bc
       0.0071105957 -0.020507812 0.03466797 -0.0078125 0.004211426 0.016113281 0.01586914 -0.01940918
0000a0 9b bb 4b bc ff 3b c1 3c 62 bc dd bc 9b 3c bb 3b
       -0.0047302246 -0.012390137 0.0077819824 0.02355957 -0.013793945 -0.026977539 0.018920898 0.005706787
0000b0 e0 3c a1 3c 0b 3d 19 3c a4 bc cd bc 80 3b 65 3c
       0.02734375 0.01965332 0.033935547 0.009338379 -0.020019531 -0.025024414 0.00390625 0.013977051
0000c0 05 3d bd 3c 0a bd 63 bc a0 3c d9 3c a6 3c 1a 3b
       0.032470703 0.023071289 -0.033691406 -0.0138549805 0.01953125 0.026489258 0.020263672 0.0023498535
0000d0 21 bb b0 bc f9 bc 52 bc fa 3c 9d bb b0 bc fd 3b
       -0.002456665 -0.021484375 -0.030395508 -0.012817383 0.030517578 -0.0047912598 -0.021484375 0.0077209473
0000e0 b9 3b 94 bc 87 3c 56 bc a6 bc 80 3b 08 3d b5 3b
       0.005645752 -0.018066406 0.016479492 -0.013061523 -0.020263672 0.00390625 0.033203125 0.0055236816
0000f0 ed 3c fe bc 05 bd b0 3b f6 3b d8 bc d2 bc cd bc
       0.028930664 -0.03100586 -0.032470703 0.0053710938 0.007507324 -0.026367188 -0.025634766 -0.025024414
000100 93 3c 5a bc 0b bd 23 3b 10 bd e5 ba 0f 3d 5a bc
       0.017944336 -0.013305664 -0.033935547 0.0024871826 -0.03515625 -0.0017471313 0.03491211 -0.013305664
000110 20 bc 05 3d bc bc 29 bc c1 3c 81 3c 13 3d b0 3b
       -0.009765625 0.032470703 -0.022949219 -0.010314941 0.02355957 0.01574707 0.035888672 0.0053710938
000120 b8 bc b4 3c 03 3d e4 bb ab bc 95 bc 06 bd 85 bb
       -0.022460938 0.021972656 0.031982422 -0.006958008 -0.020874023 -0.018188477 -0.032714844 -0.004058838
000130 94 bc dd 3c c8 3c e9 bc e2 3c ed 3c f6 3c e7 3b
       -0.018066406 0.026977539 0.024414062 -0.028442383 0.02758789 0.028930664 0.030029297 0.0070495605
000140 35 3c 79 ba 38 bc 00 3c 8a bc cb bc 51 3c dc 3c
       0.011047363 -0.0009498596 -0.011230469 0.0078125 -0.016845703 -0.024780273 0.012756348 0.026855469
000150 52 3c aa bb 80 3b b4 3c 10 bd cd 3c 00 3c 0f bc
       0.012817383 -0.0051879883 0.00390625 0.021972656 -0.03515625 0.025024414 0.0078125 -0.008728027
000160 ff 3b 0f 3d 56 3c f7 3c 81 3b a4 3c 1b bc bd bc
       0.0077819824 0.03491211 0.013061523 0.030151367 0.0039367676 0.020019531 -0.009460449 -0.023071289
000170 b4 bb 1b 3c 1b 3c ad 3b 00 3c 8e 3b 36 3c 1d 3c
       -0.005493164 0.009460449 0.009460449 0.005279541 0.0078125 0.004333496 0.011108398 0.0095825195
000180 08 3d 14 bd 11 3d 65 3c 49 3c 9f 3c 6c bc 0f 3c
       0.033203125 -0.036132812 0.03540039 0.013977051 0.012268066 0.01940918 -0.014404297 0.008728027
000190 94 3c 1a 3c 70 3b f4 bc 7a 3c 0b bd b8 bc ee bc
       0.018066406 0.009399414 0.0036621094 -0.029785156 0.015258789 -0.033935547 -0.022460938 -0.029052734
0001a0 80 3b fe bc ad bb 80 3b fe 3c b1 3c 25 3c a4 3a
       0.00390625 -0.03100586 -0.005279541 0.00390625 0.03100586 0.021606445 0.010070801 0.0012512207
0001b0 ab bb e9 3c 46 bc c2 bc 9a bc ea bc ef bb 00 3c
       -0.005218506 0.028442383 -0.012084961 -0.02368164 -0.018798828 -0.028564453 -0.007293701 0.0078125
0001c0 0e bd a5 bc 8d 3c f8 3c 3e 3c de bc e9 3c ef 3c
       -0.03466797 -0.020141602 0.017211914 0.030273438 0.01159668 -0.02709961 0.028442383 0.029174805
0001d0 e6 bc 00 bc 6c 3c 00 bc 87 bc 0f bd a7 bc e6 bc
       -0.028076172 -0.0078125 0.014404297 -0.0078125 -0.016479492 -0.03491211 -0.020385742 -0.028076172
0001e0 61 bc d1 bc 5c bc 00 bc ac 3b 2b bc 87 3c c0 3c
       -0.01373291 -0.025512695 -0.013427734 -0.0078125 0.0052490234 -0.010437012 0.016479492 0.0234375
0001f0 e8 bc aa bc a8 3c af bc 01 bd 7a 3c d9 bc 91 bb
       -0.028320312 -0.020751953 0.020507812 -0.021362305 -0.03149414 0.015258789 -0.026489258 -0.004425049

base_model.model.transformer.h.10.attn.c_attn.lora_B.weight bf16 [2304, 8]
000000 21 3b 33 bb 08 3b 4b 3b 10 3b 2c bb 63 3b 0a bb
       0.002456665 -0.0027313232 0.0020751953 0.0030975342 0.0021972656 -0.0026245117 0.0034637451 -0.002105713
000010 0c 3b 22 bb 13 3b 09 3b 37 3b f8 ba 06 3b 05 bb
       0.0021362305 -0.0024719238 0.002243042 0.002090454 0.0027923584 -0.0018920898 0.0020446777 -0.002029419
000020 30 bb 42 3b f4 ba 63 bb 45 bb 4e 3b 27 bb 06 3b
       -0.0026855469 0.002960205 -0.0018615723 -0.0034637451 -0.0030059814 0.0031433105 -0.0025482178 0.0020446777
000030 0d bb 30 3b 65 bb 2f bb 2c bb 1c 3b 26 bb 2a 3b
       -0.0021514893 0.0026855469 -0.0034942627 -0.002670288 -0.0026245117 0.002380371 -0.002532959 0.0025939941
000040 94 3a 00 3b fe ba 7c ba d0 ba fb 3a 99 ba e6 3a
       0.0011291504 0.001953125 -0.0019378662 -0.0009613037 -0.0015869141 0.001914978 -0.0011672974 0.0017547607
000050 48 bb 73 3b 80 bb 80 bb 41 bb 81 3b 80 bb 7f 3b
       -0.0030517578 0.0037078857 -0.00390625 -0.00390625 -0.0029449463 0.0039367676 -0.00390625 0.0038909912
000060 2c bb 48 3b 67 bb 3e bb 3e bb 0a 3b 52 bb 33 3b
       -0.0026245117 0.0030517578 -0.0035247803 -0.00289917 -0.00289917 0.002105713 -0.0032043457 0.0027313232
000070 96 3a cf ba 74 3a cc 3a 79 3a 35 bb 26 3b e9 ba
       0.0011444092 -0.0015792847 0.00093078613 0.0015563965 0.0009498596 -0.0027618408 0.002532959 -0.0017776489
000080 48 3b 56 bb 34 3b 5d 3b 30 3b 55 bb 5e 3b 0a bb
       0.0030517578 -0.0032653809 0.002746582 0.0033721924 0.0026855469 -0.003250122 0.0033874512 -0.002105713
000090 7b 3b 83 bb 80 3b 82 3b 7e 3b 80 bb 83 3b 80 bb
       0.003829956 -0.0039978027 0.00390625 0.003967285 0.0038757324 -0.00390625 0.0039978027 -0.00390625
0000a0 80 bb 3d 3b 0a bb 7d bb 56 bb 7a 3b 80 bb 4f 3b
       -0.00390625 0.0028839111 -0.002105713 -0.0038604736 -0.0032653809 0.0038146973 -0.00390625 0.0031585693
0000b0 3b 3b 5b bb 74 3b 6b 3b 4a 3b 47 bb 5e 3b 7b bb
       0.0028533936 -0.0033416748 0.0037231445 0.0035858154 0.0030822754 -0.003036499 0.0033874512 -0.003829956
0000c0 12 3b 13 bb 26 3b 2c 3b 1d 3b 0d bb 4a 3b 2f bb
       0.0022277832 -0.002243042 0.002532959 0.0026245117 0.0023956299 -0.0021514893 0.0030822754 -0.002670288
0000d0 07 bb 04 3b 12 bb 25 bb f7 ba 23 3b 31 bb 2c 3b
       -0.0020599365 0.0020141602 -0.0022277832 -0.0025177002 -0.0018844604 0.0024871826 -0.0027008057 0.0026245117
0000e0 49 bb 62 3b 80 bb 7f bb 50 bb 80 3b 80 bb 80 3b
       -0.0030670166 0.0034484863 -0.00390625 -0.0038909912 -0.0031738281 0.00390625 -0.00390625 0.00390625
0000f0 60 3b 80 bb 80 3b 80 3b 80 3b 80 bb 80 3b 82 bb
       0.0034179688 -0.00390625 0.00390625 0.00390625 0.00390625 -0.00390625 0.00390625 -0.003967285
000100 09 3b 42 bb 5e 3b 6d 3b 20 3b 55 bb 1d 3b 28 bb
       0.002090454 -0.002960205 0.0033874512 0.003616333 0.0024414062 -0.003250122 0.0023956299 -0.0025634766
000110 6b bb 75 3b 80 bb 80 bb 4c bb 6a 3b 81 bb 80 3b
       -0.0035858154 0.0037384033 -0.00390625 -0.00390625 -0.003112793 0.0035705566 -0.0039367676 0.00390625
000120 3b 3b 61 bb 80 3b 80 3b 46 3b 60 bb 62 3b 5d bb
       0.0028533936 -0.0034332275 0.00390625 0.00390625 0.0030212402 -0.0034179688 0.0034484863 -0.0033721924
000130 22 3a 08 3b 3e bb 00 bb 01 bb f5 3a 00 bb 00 3b
       0.00061798096 0.0020751953 -0.00289917 -0.001953125 -0.0019683838 0.0018692017 -0.001953125 0.001953125
000140 70 3b 83 bb 80 3b 81 3b 6e 3b 80 bb 80 3b 80 bb
       0.0036621094 -0.0039978027 0.00390625 0.0039367676 0.0036315918 -0.00390625 0.00390625 -0.00390625
000150 67 3b dd ba 26 3b 6e 3b 4f 3b 09 bb 63 3b 57 bb
       0.0035247803 -0.0016860962 0.002532959 0.0036315918 0.0031585693 -0.002090454 0.0034637451 -0.0032806396
000160 11 3b aa 3a 03 bb e7 3a 0c 3b e0 3a 83 3a b1 3a
       0.0022125244 0.0012969971 -0.0019989014 0.0017623901 0.0021362305 0.0017089844 0.0009994507 0.0013504028
000170 3c 3b 5f bb 19 3b 68 3b 36 3b 1f bb 80 3b 0d bb
       0.0028686523 -0.00340271 0.0023345947 0.003540039 0.0027770996 -0.0024261475 0.00390625 -0.0021514893
000180 5a bb ac ba ee 3a 3b bb c0 3a ef 3a 29 bb 00 3b
       -0.003326416 -0.0013122559 0.0018157959 -0.0028533936 0.0014648438 0.0018234253 -0.0025787354 0.001953125
000190 2f 3b 2e bb 63 3b 60 3b 27 3b 1a bb 69 3b 7d bb
       0.002670288 -0.0026550293 0.0034637451 0.0034179688 0.0025482178 -0.0023498535 0.0035552979 -0.0038604736
0001a0 0a 3b 00 bb 00 3b 01 3b 02 3b 00 bb f7 3a 0c bb
       0.002105713 -0.001953125 0.001953125 0.0019683838 0.0019836426 -0.001953125 0.0018844604 -0.0021362305
0001b0 82 bb 80 3b 84 bb 84 bb 6a bb 80 3b 81 bb 7b 3b
       -0.003967285 0.00390625 -0.0040283203 -0.0040283203 -0.0035705566 0.00390625 -0.0039367676 0.003829956
0001c0 3b ba 1e 3a 67 ba 78 ba cf ba 99 ba 88 ba b8 39
       -0.0007133484 0.00060272217 -0.00088119507 -0.0009460449 -0.0015792847 -0.0011672974 -0.0010375977 0.00035095215
0001d0 94 37 b0 ba aa ba 5c ba b3 ba ff 37 17 38 8a 3a
       1.7642975e-05 -0.0013427734 -0.0012969971 -0.0008392334 -0.0013656616 3.0398369e-05 3.6001205e-05 0.0010528564
0001e0 82 3b 82 bb 80 3b 82 3b 7c 3b 80 bb 82 3b 83 bb
       0.003967285 -0.003967285 0.00390625 0.003967285 0.0038452148 -0.00390625 0.003967285 -0.0039978027
0001f0 53 bb 44 3b 7c bb 80 bb 3d bb 51 3b 7d bb 7d 3b
       -0.0032196045 0.0029907227 -0.0038452148 -0.00390625 -0.0028839111 0.003189087 -0.0038604736 0.0038604736

base_model.model.transformer.h.11.attn.c_attn.lora_A.weight bf16 [8, 768]
000000 12 3d 0f 3c 0d 3c 79 bc 67 bc d5 bc 80 bb 00 3c
       0.03564453 0.008728027 0.008605957 -0.015197754 -0.014099121 -0.026000977 -0.00390625 0.0078125
000010 8e bc 00 3c 99 3c 24 bc e3 3b a5 bc dd bb a6 3c
       -0.017333984 0.0078125 0.018676758 -0.010009766 0.0069274902 -0.020141602 -0.0067443848 0.020263672
000020 c0 bc a4 bc 87 bb 09 bd 98 3c 00 3c 87 3b 06 bc
       -0.0234375 -0.020019531 -0.004119873 -0.033447266 0.018554688 0.0078125 0.004119873 -0.008178711
000030 04 bd 00 3c de bc f5 3c 91 bb a9 bc 7c bc 60 3c
       -0.032226562 0.0078125 -0.02709961 0.029907227 -0.004425049 -0.020629883 -0.015380859 0.013671875
000040 08 3d 02 bd 87 bb cc 3c da 3c b6 3c bd b9 e1 bc
       0.033203125 -0.03173828 -0.004119873 0.024902344 0.026611328 0.022216797 -0.0003604889 -0.02746582
000050 17 bb c5 bc 06 bd ea bc 9b bc e3 3c ce bc a4 bb
       -0.0023040771 -0.024047852 -0.032714844 -0.028564453 -0.018920898 0.027709961 -0.025146484 -0.005004883
000060 b6 3c 10 bd 91 3c a6 bc 00 bc 01 3b 58 bc 68 3c
       0.022216797 -0.03515625 0.017700195 -0.020263672 -0.0078125 0.0019683838 -0.013183594 0.014160156
000070 8f 3b 06 3d 24 bc e5 3c d9 3c 7d 3c 72 bc d7 3c
       0.0043640137 0.032714844 -0.010009766 0.027954102 0.026489258 0.0154418945 -0.014770508 0.026245117
000080 64 3c bc bc 04 3d 12 3c c2 3c af 3c 9f 3c 9a 3b
       0.013916016 -0.022949219 0.032226562 0.008911133 0.02368164 0.021362305 0.01940918 0.004699707
000090 c3 3b a1 3c 40 bc 0a 3d d2 bb e1 bc a4 bb f9 3c
       0.0059509277 0.01965332 -0.01171875 0.033691406 -0.0064086914 -0.02746582 -0.005004883 0.030395508
0000a0 12 bd 91 3b ae bc df 3c 75 3c 8c 3c 00 3c 09 bc
       -0.03564453 0.004425049 -0.021240234 0.02722168 0.014953613 0.017089844 0.0078125 -0.008361816
0000b0 da 3c e2 3c 81 bb 00 3c 0d 3d e3 3b f6 bc 80 3b
       0.026611328 0.02758789 -0.0039367676 0.0078125 0.034423828 0.0069274902 -0.030029297 0.00390625
0000c0 ff bc c5 3c f2 3c 05 bc 8a bb 0e bd e1 bc af 3c
       -0.03112793 0.024047852 0.029541016 -0.008117676 -0.004211426 -0.03466797 -0.02746582 0.021362305
0000d0 c6 bc 90 bc 77 bc bd bb 8c 3c 07 3d f5 bc 81 3c
       -0.024169922 -0.017578125 -0.015075684 -0.0057678223 0.017089844 0.032958984 -0.029907227 0.01574707
0000e0 6a bc ac bb 83 3c a1 bc e9 bc 17 bc 01 3c a3 bc
       -0.014282227 -0.0052490234 0.015991211 -0.01965332 -0.028442383 -0.009216309 0.007873535 -0.019897461
0000f0 12 3c 04 bd dc 3b 9e 3c 47 3c d6 bc 3d bc b3 bc
       0.008911133 -0.032226562 0.006713867 0.01928711 0.012145996 -0.026123047 -0.0115356445 -0.021850586
000100 9b bc 6c bc 00 bc 20 3c 00 bc 83 3c 2f 3c 14 3c
       -0.018920898 -0.014404297 -0.0078125 0.009765625 -0.0078125 0.015991211 0.010681152 0.009033203
000110 9b 3c b3 3c 2e 3c f8 3c bf bc 2c bc 69 3c a3 bc
       0.018920898 0.021850586 0.010620117 0.030273438 -0.02331543 -0.010498047 0.014221191 -0.019897461
000120 00 3c 36 bc df 3c a4 3b 27 bc f1 3b 10 bd d8 3c
       0.0078125 -0.011108398 0.02722168 0.005004883 -0.010192871 0.0073547363 -0.03515625 0.026367188
000130 54 3c f0 bc f2 3c 13 3d c0 3c 23 bc 8e bc 12 bd
       0.012939453 -0.029296875 0.029541016 0.035888672 0.0234375 -0.0099487305 -0.017333984 -0.03564453
000140 a4 bc e1 3c 13 bd a5 3c 12 bd 99 3c 80 bb e2 3c
       -0.020019531 0.02746582 -0.035888672 0.020141602 -0.03564453 0.018676758 -0.00390625 0.02758789
000150 ff 3b 10 3d 8e 3b 6e bc b8 3c 9a bb cf bc 3a bc
       0.0077819824 0.03515625 0.004333496 -0.014526367 0.022460938 -0.004699707 -0.025268555 -0.011352539
000160 93 bb d6 bc c8 bc 71 3c c1 3c 6a 3c bb 3c 94 bc
       -0.004486084 -0.026123047 -0.024414062 0.014709473 0.02355957 0.014282227 0.022827148 -0.018066406
000170 24 3c 00 bc 4e bb a0 bc ed bc cc 3c 7f bb 2c bc
       0.010009766 -0.0078125 -0.0031433105 -0.01953125 -0.028930664 0.024902344 -0.0038909912 -0.010498047
000180 ed bc de bc 10 3d 0e bd ac 3c fa 3c 80 3b 22 bc
       -0.028930664 -0.02709961 0.03515625 -0.03466797 0.020996094 0.030517578 0.00390625 -0.009887695
000190 10 3c 12 3c 80 3c be bc 83 bc d4 bc b3 bb 04 bc
       0.0087890625 0.008911133 0.015625 -0.02319336 -0.015991211 -0.025878906 -0.0054626465 -0.008056641
0001a0 8b bb 95 3c c8 bc 04 3d da bc 94 3c 0f bd b3 bb
       -0.0042419434 0.018188477 -0.024414062 0.032226562 -0.026611328 0.018066406 -0.03491211 -0.0054626465
0001b0 12 3d fc 3c a5 3c 90 bb a0 3c 49 3c cb bc 8f 3c
       0.03564453 0.030761719 0.020141602 -0.0043945312 0.01953125 0.012268066 -0.024780273 0.017456055
0001c0 84 3c a3 3c 0d bb 3a 3c ac 3c ec 3c 05 bd a1 3c
       0.016113281 0.019897461 -0.0021514893 0.011352539 0.020996094 0.028808594 -0.032470703 0.01965332
0001d0 f0 bc fe bc 55 3c 88 bc 86 bb 81 3b 4e bc bf 3c
       -0.029296875 -0.03100586 0.013000488 -0.016601562 -0.0040893555 0.0039367676 -0.012573242 0.02331543
0001e0 4c 3c a9 bc 90 3c 7b bc bb bb fe 3c 92 bc ca 3c
       0.012451172 -0.020629883 0.017578125 -0.015319824 -0.005706787 0.03100586 -0.017822266 0.024658203
0001f0 00 bc 0d bd f1 bc 22 bc bf 3c 8e bb dc bb 80 bb
       -0.0078125 -0.034423828 -0.029418945 -0.009887695 0.02331543 -0.004333496 -0.006713867 -0.00390625

base_model.model.transformer.h.11.attn.c_attn.lora_B.weight bf16 [2304, 8]
000000 5b ba 40 bb 56 3b 45 3b 75 38 7f bb 44 bb 71 3b
       -0.0008354187 -0.0029296875 0.0032653809 0.0030059814 5.8412552e-05 -0.0038909912 -0.0029907227 0.0036773682
000010 07 bb 3e bb 37 3b 5a 3b 03 3a 56 bb 52 bb 50 3b
       -0.0020599365 -0.00289917 0.0027923584 0.003326416 0.00049972534 -0.0032653809 -0.0032043457 0.0031738281
000020 00 bb 15 bb 05 3b 6a b8 f6 3a b3 ba 36 bb 00 3b
       -0.001953125 -0.0022735596 0.002029419 -5.5789948e-05 0.001876831 -0.0013656616 -0.0027770996 0.001953125
000030 34 3b 18 bb 43 bb 14 bb 07 bb 10 3b 16 3b 5c bb
       0.002746582 -0.002319336 -0.0029754639 -0.0022583008 -0.0020599365 0.0021972656 0.0022888184 -0.0033569336
000040 02 3b ce 3a 37 bb 12 bb 1a bb 19 3b 36 3b 25 bb
       0.0019836426 0.0015716553 -0.0027923584 -0.0022277832 -0.0023498535 0.0023345947 0.0027770996 -0.0025177002
000050 3a ba 80 3b 31 bb 80 bb 5b 3b 80 3b 23 3b 7a bb
       -0.0007095337 0.00390625 -0.0027008057 -0.00390625 0.0033416748 0.00390625 0.0024871826 -0.0038146973
000060 86 bb e6 3a 8d 3b 37 3b 80 3b 80 bb 83 bb 82 3b
       -0.0040893555 0.0017547607 0.0043029785 0.0027923584 0.00390625 -0.00390625 -0.0039978027 0.003967285
000070 02 bb f2 ba 0c 3b 03 3b a3 b9 24 bb 20 bb 26 3b
       -0.0019836426 -0.0018463135 0.0021362305 0.0019989014 -0.00031089783 -0.0025024414 -0.0024414062 0.002532959
000080 77 37 45 bb 56 3b 4d 3b 98 3a 80 bb 45 bb 59 3b
       1.4722347e-05 -0.0030059814 0.0032653809 0.0031280518 0.001159668 -0.00390625 -0.0030059814 0.0033111572
000090 1a bb 5b 3b 00 3b 32 bb 18 3b 2f 3b 05 bb 90 3a
       -0.0023498535 0.0033416748 0.001953125 -0.0027160645 0.002319336 0.002670288 -0.002029419 0.0010986328
0000a0 4a 3a d5 3a ce 3a 9a 3a 84 3a 20 39 87 ba db 3a
       0.00077056885 0.001625061 0.0015716553 0.0011749268 0.0010070801 0.00015258789 -0.0010299683 0.0016708374
0000b0 80 3b 79 3b 81 bb 6d bb 1f bb 81 3b 80 3b 83 bb
       0.00390625 0.0037994385 -0.0039367676 -0.003616333 -0.0024261475 0.0039367676 0.00390625 -0.0039978027
0000c0 80 3b 80 bb 7f bb 3c 3b 80 bb ab ba 80 3b 27 bb
       0.00390625 -0.00390625 -0.0038909912 0.0028686523 -0.00390625 -0.0013046265 0.00390625 -0.0025482178
0000d0 09 3b 10 bb 2d 3b 59 3b 2b ba 4a bb e5 ba 21 3b
       0.002090454 -0.0021972656 0.0026397705 0.0033111572 -0.00065231323 -0.0030822754 -0.0017471313 0.002456665
0000e0 88 3b 16 bb 8f bb 33 bb 80 bb 7d 3b 85 3b 81 bb
       0.0041503906 -0.0022888184 -0.0043640137 -0.0027313232 -0.00390625 0.0038604736 0.004058838 -0.0039367676
0000f0 cf ba 80 3b a2 ba 25 bb 00 3b 4b 3b 15 ba 0e bb
       -0.0015792847 0.00390625 -0.0012359619 -0.0025177002 0.001953125 0.0030975342 -0.0005683899 -0.002166748
000100 24 3b 3d bb 40 bb f0 ba 28 bb c2 39 3f 3b 05 bb
       0.0025024414 -0.0028839111 -0.0029296875 -0.0018310547 -0.0025634766 0.00037002563 0.0029144287 -0.002029419
000110 e0 ba 1d ba b2 ba fa ba 41 ba d7 3a 8b 3a 85 ba
       -0.0017089844 -0.00059890747 -0.0013580322 -0.0019073486 -0.0007362366 0.0016403198 0.0010604858 -0.0010147095
000120 d9 3a 22 bb 09 bb da 35 1a bb 98 ba 00 3b 1d ba
       0.0016555786 -0.0024719238 -0.002090454 1.6242266e-06 -0.0023498535 -0.001159668 0.001953125 -0.00059890747
000130 68 bb 05 3b 4a 3b 04 3b 54 3b 01 bb 76 bb 6e 3b
       -0.003540039 0.002029419 0.0030822754 0.0020141602 0.0032348633 -0.0019683838 -0.003753662 0.0036315918
000140 82 3b 64 3b 8d bb 80 bb 31 bb 81 3b 87 3b 80 bb
       0.003967285 0.003479004 -0.0043029785 -0.00390625 -0.0027008057 0.0039367676 0.004119873 -0.00390625
000150 37 3b 7e bb 0c bb 20 3b 3d bb 16 bb 1f 3b eb ba
       0.0027923584 -0.0038757324 -0.0021362305 0.0024414062 -0.0028839111 -0.0022888184 0.0024261475 -0.0017929077
000160 80 bb cd 3a 6f 3b f4 3a 3c 3b 01 bb 42 bb 6d 3b
       -0.00390625 0.0015640259 0.0036468506 0.0018615723 0.0028686523 -0.0019683838 -0.002960205 0.003616333
000170 8a bb 04 3b 89 3b 59 3b 80 3b 80 bb 84 bb 86 3b
       -0.004211426 0.0020141602 0.004180908 0.0033111572 0.00390625 -0.00390625 -0.0040283203 0.0040893555
000180 77 bb 80 3b 13 3b 52 bb 80 3b 1a 3b 27 bb c5 3a
       -0.003768921 0.00390625 0.002243042 -0.0032043457 0.00390625 0.0023498535 -0.0025482178 0.0015029907
000190 14 bb 0c 3b 46 3b b9 3a 42 3b 07 bb 40 bb 16 3b
       -0.0022583008 0.0021362305 0.0030212402 0.001411438 0.002960205 -0.0020599365 -0.0029296875 0.0022888184
0001a0 f2 ba 0d 3b 65 bb 0d bb 55 ba 0f 3b 00 3b 26 bb
       -0.0018463135 0.0021514893 -0.0034942627 -0.0021514893 -0.0008125305 0.0021820068 0.001953125 -0.002532959
0001b0 80 bb 20 3b 83 3b 1a 3b 80 3b 20 bb 83 bb 7e 3b
       -0.00390625 0.0024414062 0.0039978027 0.0023498535 0.00390625 -0.0024414062 -0.0039978027 0.0038757324
0001c0 7e bb 5f 3b 51 3b 05 bb 76 3b 77 3a 80 bb 16 3b
       -0.0038757324 0.00340271 0.003189087 -0.002029419 0.003753662 0.0009422302 -0.00390625 0.0022888184
0001d0 3a 3b 94 b9 64 bb 13 bb 11 bb 0c 3b 57 3b 3f bb
       0.0028381348 -0.0002822876 -0.003479004 -0.002243042 -0.0022125244 0.0021362305 0.0032806396 -0.0029144287
0001e0 7b 3b 1b bb 80 bb 03 bb 65 bb 2f 3b 82 3b 84 bb
       0.003829956 -0.0023651123 -0.00390625 -0.0019989014 -0.0034942627 0.002670288 0.003967285 -0.0040283203
0001f0 7c bb 22 bb 87 3b 80 3b 7f 3b 7d bb 86 bb 83 3b
       -0.0038452148 -0.0024719238 0.004119873 0.00390625 0.0038909912 -0.0038604736 -0.0040893555 0.0039978027
